modelos/heat_10x4-20000.pt (torch, 16126 bytes, 27 tensors)

linears.0.weight f4 [10, 2]
0	0x3f1c5daf	0.6108045
1	0xbe636169	-0.22205128
2	0x3f08ffd3	0.53515357
3	0x3f8fd8ac	1.1237998
4	0x3d5e2cb5	0.054241855
5	0xbfcd4b49	-1.60386
6	0x3df67370	0.12033737
7	0x3f6e3546	0.9305004
8	0xbc4cb6aa	-0.012494722
9	0xbf89edc9	-1.0775691
10	0x3dc0bcb7	0.094109945
11	0x3eebe4ea	0.46073085
12	0x3e7c4768	0.24636614
13	0xbea4732c	-0.3211912
14	0x3f269f2b	0.6508662
15	0xbf126adc	-0.57194304
16	0xbd97f185	-0.07419113
17	0xbf962a52	-1.1731665
18	0xbf0cc380	-0.5498581
19	0x3eb3d643	0.35124406

linears.0.bias f4 [10]
0	0xbe050410	-0.12989831
1	0xbeb30ad5	-0.34969202
2	0xbd2f7e9a	-0.042845346
3	0x3e53cf71	0.20684601
4	0xbed5e50e	-0.41776317
5	0xbddf49ad	-0.109027244
6	0xbe4fafc3	-0.20281892
7	0x3c2a0b2c	0.01037864
8	0xbea383f0	-0.31936598
9	0x3cd374e2	0.02581257

linears.1.weight f4 [10, 10]
0	0x3de79c1e	0.11309074
1	0xbefe1756	-0.4962718
2	0xbf051f6c	-0.5200107
3	0xbf02b3a5	-0.51055366
4	0x3f66b9bc	0.9012716
5	0x3eb7316b	0.3577989
6	0x3e91d3c8	0.2848189
7	0x3f062bb3	0.5241043
8	0x3e7fd164	0.2498222
9	0xbeff1726	-0.49822348
10	0xbd39e24f	-0.04538184
11	0xbebbbe03	-0.36668405
12	0xbe517ad9	-0.20457019
13	0x3e240965	0.16019209
14	0xbecace5e	-0.3961057
15	0x3df0e8d7	0.11763161
16	0xbef9e5f6	-0.4880826
17	0xbefacad5	-0.48982874
18	0xbe7ae403	-0.24501042
19	0x3e0015f7	0.12508379
20	0xbe82fac5	-0.25581947
21	0xbe9c0f55	-0.30480447
22	0x3e06b282	0.13154033
23	0x3e13c2f0	0.14429832
24	0x3f0908c1	0.5352898
25	0xbe4c9e99	-0.19982375
26	0xbed38d9c	-0.41318977
27	0x3e8935ba	0.26798803
28	0x3ef856f7	0.4850385
29	0x3ec96128	0.39331937
30	0xbe413f55	-0.18871816
31	0xbef708ce	-0.48248905
32	0x3f090448	0.5352216
33	0xbf9178cf	-1.1364993
34	0x3f865d08	1.0497141
35	0x3e3392be	0.17536446
36	0xbe1e4845	-0.15457256
37	0x3ecfdcd8	0.40598178
38	0x3f9b289b	1.2121767
39	0x3f0207c9	0.5079313
40	0xbd960e15	-0.07326905
41	0xbee5d558	-0.4488933
42	0x3e3e1e3b	0.1856622
43	0xbcfd084e	-0.030887749
44	0x3f31a1df	0.6938762
45	0x3f58dd59	0.8471275
46	0x3f019e04	0.5063174
47	0xbe22fc22	-0.15916494
48	0x3e05fa03	0.13083653
49	0xbec2549b	-0.37955174
50	0x3e597fde	0.21240184
51	0xbf1d080b	-0.613404
52	0x3f46f6c9	0.77720314
53	0xbec97c57	-0.39352676
54	0x3f9a5644	1.2057576
55	0xbedf269b	-0.4358414
56	0xbf0de13f	-0.55421823
57	0x3f0364c6	0.51325643
58	0x3edc4d85	0.43027893
59	0xbe56a2db	-0.20960562
60	0xbbe8ab18	-0.007100474
61	0x3f1570fc	0.58375525
62	0xbf29fb0f	-0.6639871
63	0x3ec0a592	0.3762632
64	0xbf892621	-1.0714761
65	0xbf131db6	-0.5746721
66	0x3edbd3a0	0.42934895
67	0xbeeec312	-0.46633202
68	0xbf3acb1b	-0.72966164
69	0x3ea607ce	0.3242783
70	0x3ee36438	0.44412398
71	0x3e51ac3c	0.20475858
72	0x3f183717	0.5945906
73	0xbe89e1e1	-0.26930144
74	0x3e7628f9	0.24039067
75	0xbee4d18d	-0.44691125
76	0x3ed09aa1	0.40742972
77	0x3fa68b5f	1.3011283
78	0x3e29b07c	0.1657123
79	0xbf81d699	-1.0143615
80	0x3f2584fc	0.64656043
81	0x3f6313c1	0.8870202
82	0xbe1a6617	-0.15078007
83	0xbc0b33eb	-0.008496265
84	0xbdb0c255	-0.08630816
85	0x3d7534c9	0.059864793
86	0x3e7cd926	0.2469221
87	0x3f34dff2	0.70654213
88	0xbe1880d8	-0.148929
89	0xbf0fd9d5	-0.5619176
90	0xbe454968	-0.19266284
91	0xbf3f4fd5	-0.7473119
92	0xbf6b23cf	-0.91851515
93	0xbd4a0903	-0.049325
94	0xbf62a9c6	-0.88540304
95	0x3e95c747	0.292536
96	0xbf61d8ca	-0.8822142
97	0xbf078ee0	-0.52952385
98	0xbf8ab86a	-1.0837529
99	0x3f10a828	0.56506586

linears.1.bias f4 [10]
0	0xbeb2fd64	-0.34958947
1	0x3d1a9208	0.037736923
2	0x3d86e72c	0.06587061
3	0xbe358182	-0.17725185
4	0xbb5cdace	-0.0033699754
5	0x3da86fcc	0.082244486
6	0x3dfd13c4	0.123572856
7	0x3d351d1e	0.04421722
8	0xbe3bdc8b	-0.18345849
9	0x3f09ef20	0.538805

linears.2.weight f4 [10, 10]
0	0xbf75f5ad	-0.96077996
1	0xbebb732c	-0.36611307
2	0xbea678da	-0.32514077
3	0x3c7cf87c	0.015440103
4	0x3e034604	0.12819678
5	0xbe68eb1d	-0.22745939
6	0x3df60258	0.12012166
7	0xbec7c993	-0.39020976
8	0x3ef56510	0.47928667
9	0x3cc86bf2	0.024465535
10	0x3e61e361	0.22059394
11	0xbe2029fe	-0.15641019
12	0x3d806fab	0.06271299
13	0xbb998c10	-0.004685886
14	0x3dc44236	0.09582941
15	0xbe98347c	-0.29727542
16	0x3d32e113	0.04367168
17	0x3f0853a4	0.53252625
18	0x3e980625	0.29692188
19	0xbd6cf379	-0.05784938
20	0xbe48a0f4	-0.19592649
21	0xbf653f7d	-0.8955
22	0xbfab02ad	-1.3360192
23	0x3f0087d5	0.50207263
24	0x3e3552b2	0.17707327
25	0xbf601e64	-0.8754637
26	0x3f04a454	0.51813245
27	0xbec475dd	-0.38371173
28	0xbee5e8be	-0.4490413
29	0xbf8c47f8	-1.0959463
30	0x3ee8728b	0.4539989
31	0x3e2ea894	0.17056495
32	0x3d9b6529	0.07587654
33	0x3e8b246a	0.2717622
34	0xbe20cc06	-0.15702829
35	0x3e69f47a	0.22847167
36	0xbea0749f	-0.31338975
37	0x3de7ff3c	0.11327979
38	0x3e21dcec	0.15806931
39	0x3f22164d	0.6331528
40	0xbe8208eb	-0.2539743
41	0x3f158529	0.5840631
42	0xbef3ef14	-0.4764334
43	0xbf0ddfd1	-0.5541964
44	0xbdf2bd4a	-0.1185251
45	0xbece81ec	-0.40333498
46	0x3f40178a	0.7503592
47	0xbecebf8f	-0.40380523
48	0xbe840f4d	-0.25792924
49	0xbe561177	-0.209051
50	0xbf3cbf54	-0.73729444
51	0xbe1d08f9	-0.15335454
52	0x3dad1d64	0.084528714
53	0xbf42931c	-0.7600572
54	0xbf323a55	-0.6962026
55	0xbea315eb	-0.3185266
56	0x3f589c6f	0.846137
57	0x3f13390a	0.5750891
58	0x3ef7933d	0.4835452
59	0xbf42484c	-0.75891566
60	0x3fa99f6b	1.3251776
61	0xbf5dc751	-0.8663226
62	0x3d2fab8d	0.042888213
63	0xbe42f5fc	-0.19039148
64	0x3e235c10	0.15953088
65	0x3e87a0d5	0.26489893
66	0xbe31b72d	-0.17355032
67	0x3e7c1be8	0.2462002
68	0x3f00887d	0.50208265
69	0xbf31e5ed	-0.69491464
70	0x3f43ee43	0.76535434
71	0x3ec1d036	0.37854165
72	0x3eae9c73	0.34103736
73	0xbef6de0f	-0.48216292
74	0x3dc08f04	0.09402278
75	0x3e90fd00	0.28318024
76	0xbf659eb7	-0.89695305
77	0x3f2933b9	0.6609455
78	0xbe58c526	-0.21168956
79	0x3d92e5bf	0.07172727
80	0xbf3d7aa3	-0.74015254
81	0x3ebe18fb	0.37128434
82	0x3df990a9	0.12185795
83	0xbddf8dfc	-0.10915753
84	0x3f169e86	0.5883564
85	0x3ed2da82	0.41182333
86	0xbf0c0da4	-0.54708314
87	0xbe5fd80e	-0.21859762
88	0xba7cf645	-0.0009649734
89	0x3f4c59ab	0.7982432
90	0xbf385bfc	-0.72015357
91	0x3dfe6d32	0.12423171
92	0xbec0606b	-0.3757356
93	0xbe9c0b98	-0.30477595
94	0xbebd682b	-0.36993536
95	0xbdc6cf05	-0.097074546
96	0x3ea9606e	0.33081383
97	0x3d0eb0ec	0.034836695
98	0xbe250ec8	-0.1611892
99	0x3e9f9e17	0.311753

linears.2.bias f4 [10]
0	0x3d547608	0.051870376
1	0xbd222824	-0.039589062
2	0xbebb6b1f	-0.36605164
3	0xbcac8445	-0.021059165
4	0x3d01c113	0.03167827
5	0x3c9ed0bb	0.01938664
6	0xbd478f31	-0.048720542
7	0xbd9cf6c6	-0.07664256
8	0x3d4a0676	0.049322568
9	0x3d166b8f	0.03672367

linears.3.weight f4 [10, 10]
0	0xbebd1bbd	-0.36935225
1	0x3e3b9814	0.18319732
2	0x3ed77a56	0.42085522
3	0xbcd2faf0	-0.025754422
4	0xbe563b1e	-0.20920989
5	0x3eddf198	0.43348384
6	0xbf1fd02c	-0.6242702
7	0x3d1e3b69	0.038630877
8	0xbde735c9	-0.112895556
9	0xbdcf966d	-0.10136113
10	0xbf04d213	-0.5188305
11	0x3e883b68	0.26607823
12	0xbe06ecec	-0.13176316
13	0x3c7584bc	0.01498526
14	0xbf54d37b	-0.83135194
15	0x3ed83eb7	0.42235348
16	0xbe78a732	-0.2428253
17	0x3fa0e982	1.2571261
18	0x3ec9f639	0.39445665
19	0xbef4094a	-0.47663337
20	0xbd2f5869	-0.042808924
21	0x3ec1b346	0.37832087
22	0x3e835b1b	0.25655445
23	0xbe2b8653	-0.1675046
24	0x3da51c5c	0.0806205
25	0x3f6a28a0	0.9146824
26	0xbe1c9fb5	-0.15295298
27	0x3ed376cc	0.41301572
28	0x3ef88c31	0.48544458
29	0x3e4039ed	0.18772097
30	0xbefca84f	-0.4934716
31	0x3e8293b2	0.25503308
32	0x3e6f12ee	0.23347065
33	0xbd9abd1f	-0.07555603
34	0xbeb7f288	-0.35927224
35	0x3e93b339	0.28847674
36	0xbe980351	-0.2969003
37	0xbd6a5d04	-0.057217613
38	0xbdc1b72c	-0.094587654
39	0x3e596705	0.21230705
40	0xbe3b26fc	-0.1827659
41	0x3ec5f6bc	0.38664806
42	0xbbbfb012	-0.0058498466
43	0x3cfbb72e	0.030726995
44	0xbcd55ddc	-0.026045732
45	0x3ecc6b6e	0.39925712
46	0xbef58f5e	-0.47960943
47	0xbea72fda	-0.32653695
48	0xbf025bee	-0.50921524
49	0xbde9298a	-0.11384876
50	0xbba24e4c	-0.0049531814
51	0xbbd0efc1	-0.006376237
52	0xbf2ab3bb	-0.66680497
53	0xbe5c8031	-0.21533276
54	0xbe250fbd	-0.16119285
55	0xbf2e5468	-0.68097544
56	0x3ec2090d	0.3789753
57	0xbe2de8ea	-0.16983381
58	0xbe36261a	-0.17787972
59	0x3ecc81b6	0.39942712
60	0xbe8f95b8	-0.28043914
61	0x3e9234eb	0.28555998
62	0x3dfdf38a	0.12399967
63	0x3ec8692f	0.3914275
64	0x3da2b513	0.079446934
65	0x3f20daa5	0.62833625
66	0xbea8f217	-0.329972
67	0x3f2ea12c	0.6821468
68	0x3ef138ba	0.4711359
69	0xbf909654	-1.1295877
70	0xbebde06b	-0.3708528
71	0xbee0884f	-0.43853995
72	0xbf4da4c9	-0.8032957
73	0xbe1ee3bc	-0.15516561
74	0xbe220580	-0.1582241
75	0x3ecdd808	0.4020388
76	0x3e5671e9	0.20941891
77	0x3e6d6479	0.23182859
78	0x3f1e6258	0.6186881
79	0xbe91e74c	-0.28496778
80	0x3e96b08f	0.2943158
81	0xbe5a0d83	-0.21294217
82	0x3cc8c6b1	0.024508806
83	0x3f15c129	0.58497864
84	0x3d3b7b17	0.045771684
85	0x3eb1e082	0.34741598
86	0xbe4af3b9	-0.19819535
87	0xbeee8b43	-0.46590623
88	0xbe95ae63	-0.2923461
89	0x3f1ada9e	0.60489833
90	0xbe169f9a	-0.1470932
91	0xbd020688	-0.03174451
92	0x3cf5e0f9	0.030014502
93	0x3ddc4ed5	0.107572235
94	0x3e15cff1	0.14630105
95	0xbeb453cf	-0.3522019
96	0x3fd10724	1.6330304
97	0x3f877a2b	1.0584158
98	0x3dbb1143	0.09134152
99	0x3c908a0a	0.017643947

linears.3.bias f4 [10]
0	0xbcec0354	-0.02881018
1	0xbd6cae06	-0.05778315
2	0xbcac25f4	-0.021014191
3	0xbd257a73	-0.04039998
4	0xbd788cc9	-0.06068114
5	0x3db1392b	0.08653482
6	0xbd185beb	-0.037197035
7	0xbda643b9	-0.08118386
8	0x3d2bb4c6	0.041920446
9	0x3e3a31f1	0.18183114

linears.4.weight f4 [1, 10]
0	0x3f5150bf	0.81763834
1	0x3f6401e4	0.89065385
2	0x3fb211b9	1.3911659
3	0x3ef141da	0.47120553
4	0x3ea074d8	0.31339145
5	0xbf06ad65	-0.5260833
6	0x3f500c4e	0.81268775
7	0x3f712894	0.9420254
8	0xbdd49ea9	-0.103818245
9	0xbf05e0c1	-0.5229607

exp_avg f4 [10, 2]
0	0x3a316139	0.00067665015
1	0x37bc6543	2.24585e-05
2	0x3b4c37d2	0.0031161201
3	0xb9f2d793	-0.00046318452
4	0xb91b0d85	-0.00014786988
5	0x398959f8	0.00026197708
6	0x39245ce7	0.00015674868
7	0xb8f10ce1	-0.000114941744
8	0xb9781755	-0.00023659815
9	0x39c09abf	0.0003673639
10	0xbaa42587	-0.0012523391
11	0x38b7c289	8.762355e-05
12	0x3b5983b6	0.0033190078
13	0xb9476ea1	-0.00019019331
14	0x3a33bcd9	0.00068564486
15	0x39968aa0	0.00028713513
16	0x39a1ddd6	0.00030873594
17	0x392a3ceb	0.00016235157
18	0xba6327fb	-0.00086653203
19	0xb98c38bf	-0.0002674516

exp_avg_sq f4 [10, 2]
0	0x38406606	4.5871384e-05
1	0x344a4eaa	1.8841334e-07
2	0x3a9010b0	0.0010991301
3	0x37b876b7	2.198979e-05
4	0x37b78ff6	2.1882337e-05
5	0x36ef84c5	7.1382115e-06
6	0x37aa749a	2.0319876e-05
7	0x35bd01bb	1.4082101e-06
8	0x392d62f3	0.00016535427
9	0x37704df3	1.4323264e-05
10	0x393e64ce	0.00018157365
11	0x35a195f6	1.2039079e-06
12	0x3a985779	0.0011622749
13	0x369adb04	4.6150544e-06
14	0x386d6521	5.6599387e-05
15	0x372009b2	9.5390005e-06
16	0x385cfad0	5.2685675e-05
17	0x363dca71	2.828103e-06
18	0x38b83fbf	8.785677e-05
19	0x36ff2e99	7.605017e-06

exp_avg f4 [10]
0	0xb99b1d22	-0.0002958561
1	0x3aeb26e9	0.0017940673
2	0xb89bdd7c	-7.4322306e-05
3	0xba45bcdb	-0.0007543095
4	0x3a1ee89f	0.0006061885
5	0x3a7b9a90	0.0009597922
6	0x3b513f39	0.0031928553
7	0xbacc0bf6	-0.001556753
8	0x3a71aa85	0.000921883
9	0x3a233509	0.00062258594

exp_avg_sq f4 [10]
0	0x37325eb8	1.063168e-05
1	0x39beb163	0.00036371787
2	0x3607b38b	2.0221075e-06
3	0x3864cb25	5.454863e-05
4	0x3840d782	4.5977074e-05
5	0x38c74ffe	9.503959e-05
6	0x3a8c4bea	0.0010703776
7	0x398a5721	0.00026386327
8	0x38b15df3	8.457517e-05
9	0x385476b1	5.065528e-05

exp_avg f4 [10, 10]
0	0x399e521e	0.0003019729
1	0x39a06fea	0.0003060096
2	0xb89d2199	-7.4926014e-05
3	0x39441825	0.00018701011
4	0xb941397e	-0.00018427332
5	0x3863931c	5.4258024e-05
6	0x38b0ed48	8.436531e-05
7	0x399e02e5	0.00030138265
8	0xb95221de	-0.00020039777
9	0xb992af5e	-0.0002797795
10	0xba548477	-0.0008106897
11	0xb842e557	-4.6466794e-05
12	0xb9c56e62	-0.0003765701
13	0xb9bf78a7	-0.00036520252
14	0x3a0975da	0.00052436965
15	0x390e78e6	0.00013587213
16	0xb9169fd3	-0.00014364654
17	0xba91a885	-0.0011112845
18	0x39e43df8	0.0004353372
19	0x3a6c9361	0.0009024647
20	0xb949d197	-0.00019246932
21	0x39d7cf7c	0.00041162584
22	0xb9737c79	-0.00023220656
23	0xb98700f7	-0.00025749925
24	0x3a02ddf7	0.0004992182
25	0x394dd5e9	0.00019630011
26	0x38fa9e0a	0.00011950366
27	0xb9f731d2	-0.0004714863
28	0x39c2a9d9	0.0003712911
29	0x39b0d092	0.00033724733
30	0xb91d3eb1	-0.00014996041
31	0xb9d03104	-0.0003970937
32	0x35deb7b6	1.6593756e-06
33	0x393afdc0	0.00017832872
34	0xb9c69ebf	-0.00037883778
35	0xb906cf19	-0.00012856386
36	0xb956fcee	-0.00020502854
37	0x3537321a	6.824572e-07
38	0xb994a501	-0.00028351697
39	0x38226b3e	3.8723687e-05
40	0xb9c6b13c	-0.00037897553
41	0xb9ca8219	-0.00038625373
42	0xb998275f	-0.00029021033
43	0x39a07567	0.0003060505
44	0xba10e8a6	-0.00055278314
45	0xb8acd741	-8.241693e-05
46	0xb9bb30f1	-0.00035703884
47	0xb98fb836	-0.00027412333
48	0xb9ef6edd	-0.00045668232
49	0x39894b29	0.00026186675
50	0xb951e746	-0.0002001795
51	0x36b16378	5.2865907e-06
52	0xb942569b	-0.00018533545
53	0x37e4e31b	2.7285472e-05
54	0xb81d424d	-3.7493464e-05
55	0x3815eda9	3.5745707e-05
56	0xb8b1e7d1	-8.483197e-05
57	0xb9884433	-0.00025990754
58	0xb83efb50	-4.5533583e-05
59	0x3958f267	0.00020689667
60	0x3a3f2e1a	0.00072929414
61	0x38e9fa06	0.00011156876
62	0x39a426b8	0.00031309365
63	0x398ee86c	0.00027257518
64	0xb9bf3d6f	-0.0003647613
65	0xb8b92f4b	-8.8302964e-05
66	0x3923f3a0	0.00015635649
67	0x3a7f15ba	0.00097307155
68	0xb9a254f4	-0.00030962343
69	0xba4e4bec	-0.00078695896
70	0x390e76b9	0.00013586403
71	0x3a52deab	0.00080440444
72	0xb9ba8152	-0.00035573036
73	0xb8c1930b	-9.230346e-05
74	0x39ca93b8	0.000386385
75	0x39987e41	0.00029085766
76	0x396a6df9	0.00022356947
77	0xb92829ab	-0.00016037251
78	0x3961e9db	0.0002154479
79	0x3861c10c	5.382397e-05
80	0x399b7126	0.00029648206
81	0x38fc916b	0.000120433826
82	0x392b73aa	0.00016350919
83	0x36773e87	3.6842264e-06
84	0x37e95e84	2.7819777e-05
85	0xb6ced57f	-6.1641326e-06
86	0x39070900	0.00012877956
87	0x39b1df38	0.00033926382
88	0x37b833db	2.1958656e-05
89	0xb9956f1f	-0.00028502286
90	0xba3267bb	-0.0006805618
91	0xb9876cb3	-0.00025830194
92	0xb8fd4d7e	-0.00012078414
93	0xb9c1efd8	-0.00036990526
94	0x39f2e4ec	0.00046328397
95	0x37fbddf0	3.002488e-05
96	0xb900a81c	-0.00012269657
97	0xba621a08	-0.0008625095
98	0x39deb874	0.00042480568
99	0x3a3c79cb	0.00071897794

exp_avg_sq f4 [10, 10]
0	0x377a6f78	1.49271145e-05
1	0x3744fb32	1.1740996e-05
2	0x35231256	6.0748914e-07
3	0x36921034	4.3530254e-06
4	0x368d0d59	4.2036813e-06
5	0x34b58e36	3.381735e-07
6	0x359fffdc	1.1920888e-06
7	0x378ba1fa	1.6645517e-05
8	0x36a4dda0	4.9133814e-06
9	0x3760afc8	1.3392368e-05
10	0x3890f891	6.912754e-05
11	0x34a4a6e2	3.0668804e-07
12	0x37825520	1.5536847e-05
13	0x3780db72	1.5360976e-05
14	0x38031074	3.1248157e-05
15	0x35fe905d	1.896649e-06
16	0x3616888a	2.2431218e-06
17	0x39077dc7	0.00012921459
18	0x37ba31d9	2.219614e-05
19	0x38b2e4a1	8.530287e-05
20	0x36940a61	4.411952e-06
21	0x378d1cbe	1.6821894e-05
22	0x36c0f399	5.7504044e-06
23	0x3703e88f	7.862355e-06
24	0x37e84ccd	2.7692318e-05
25	0x36837ba8	3.9184997e-06
26	0x35d2075d	1.5648362e-06
27	0x37caab87	2.416015e-05
28	0x37850af2	1.5859932e-05
29	0x375222b6	1.2525057e-05
30	0x3627c275	2.4998128e-06
31	0x378ee442	1.703401e-05
32	0x316fe998	3.491186e-09
33	0x367229bb	3.60851e-06
34	0x37863d95	1.6002721e-05
35	0x35f22a67	1.8042746e-06
36	0x369dcdb9	4.702914e-06
37	0x31f9dca8	7.2719395e-09
38	0x3717a58e	9.038848e-06
39	0x34479368	1.8586945e-07
40	0x379db05e	1.8797986e-05
41	0x37a9efc0	2.0258012e-05
42	0x3711df41	8.694654e-06
43	0x37244db3	9.7932525e-06
44	0x3803b36e	3.139994e-05
45	0x3585aa72	9.958878e-07
46	0x37670410	1.3769619e-05
47	0x373e4090	1.1339915e-05
48	0x37b3da33	2.144007e-05
49	0x372660b4	9.9168865e-06
50	0x36eb2774	7.0081387e-06
51	0x35b677af	1.3594889e-06
52	0x3675dbbc	3.6635747e-06
53	0x3584037f	9.835784e-07
54	0x35a2e91f	1.2137788e-06
55	0x342a9a29	1.5888567e-07
56	0x355fe7f9	8.341154e-07
57	0x3737f65b	1.0965009e-05
58	0x35af377d	1.3054665e-06
59	0x36f36fef	7.254995e-06
60	0x38786f2b	5.923134e-05
61	0x36556b75	3.1802022e-06
62	0x3735e332	1.0841339e-05
63	0x371425b4	8.830266e-06
64	0x377d6c1b	1.5105145e-05
65	0x356e39b1	8.874586e-07
66	0x362fe16c	2.6208245e-06
67	0x38d8e94b	0.00010343137
68	0x373e68bb	1.1349267e-05
69	0x388ece7d	6.809549e-05
70	0x3608dada	2.0392968e-06
71	0x388f32b7	6.828218e-05
72	0x375de05b	1.3224863e-05
73	0x3583ebc2	9.828875e-07
74	0x378828ec	1.623152e-05
75	0x3717ddf1	9.051976e-06
76	0x36b6fcae	5.4534385e-06
77	0x364221a4	2.8927834e-06
78	0x36ad5ec7	5.1668353e-06
79	0x34e4002c	4.2468434e-07
80	0x3719814c	9.149615e-06
81	0x360695a1	2.0054651e-06
82	0x36333992	2.670659e-06
83	0x33af5480	8.164443e-08
84	0x3410dc7e	1.349126e-07
85	0x32f1a2d6	2.8130142e-08
86	0x35e57caf	1.7098117e-06
87	0x37453fd4	1.1756976e-05
88	0x3405da47	1.2465999e-07
89	0x370be9c8	8.339477e-06
90	0x3851dacc	5.0033254e-05
91	0x36f44ca7	7.28069e-06
92	0x36096ac7	2.0476743e-06
93	0x37737a08	1.4512341e-05
94	0x37bcf838	2.2526932e-05
95	0x33c33d8c	9.0915904e-08
96	0x35ed4157	1.7676892e-06
97	0x38a634de	7.925344e-05
98	0x37a0d1f6	1.9171257e-05
99	0x38687a70	5.542714e-05

exp_avg f4 [10]
0	0x39a39962	0.00031204062
1	0xbaead2a6	-0.0017915561
2	0xbad5f75f	-0.0016324333
3	0x3a872267	0.0010309935
4	0x3a908856	0.0011026959
5	0xb913ef2d	-0.00014108112
6	0x3aa9e8ef	0.0012963096
7	0xbacea910	-0.0015766937
8	0x38ee2c9c	0.000113570335
9	0xbaa7041e	-0.0012742316

exp_avg_sq f4 [10]
0	0x37884b56	1.6247544e-05
1	0x39b3d7fa	0.00034302456
2	0x39951073	0.0002843175
3	0x38f48a01	0.00011660532
4	0x3903317e	0.00012511571
5	0x36f0fe08	7.1821305e-06
6	0x393fd34b	0.00018293892
7	0x398aed63	0.00026498278
8	0x35954454	1.1121251e-06
9	0x39330a0b	0.00017074512

exp_avg f4 [10, 10]
0	0xba089ea2	-0.00052116264
1	0x388d62d1	6.74181e-05
2	0x37bc76cf	2.2466671e-05
3	0xba5d68f2	-0.0008446119
4	0xb9570896	-0.00020507196
5	0x39b3b7a2	0.00034278358
6	0x39915c61	0.00027725383
7	0x3a261568	0.0006335587
8	0xb9598783	-0.00020745215
9	0x3a1d32c8	0.00059966417
10	0x388359c2	6.2632855e-05
11	0x39032e28	0.00012510328
12	0xb8f8c915	-0.00011863016
13	0x39477b95	0.00019024157
14	0xb8466a90	-4.7306123e-05
15	0xb9cbe38b	-0.0003888871
16	0x38aeb069	8.3298255e-05
17	0xba026519	-0.0004974171
18	0x38d5b8aa	0.00010191028
19	0xb890bb77	-6.901373e-05
20	0x381d1d8c	3.7459235e-05
21	0x38cebcf5	9.8580414e-05
22	0x3803c07b	3.1412095e-05
23	0x39086ab5	0.00013009722
24	0x379a3c06	1.8386181e-05
25	0xb81f84fd	-3.803241e-05
26	0xb8400944	-4.5784996e-05
27	0xb990a01e	-0.00027585117
28	0xb86fb433	-5.7149864e-05
29	0x37938179	1.7584056e-05
30	0x38826482	6.217604e-05
31	0xb728aed9	-1.005429e-05
32	0x388859ee	6.501736e-05
33	0x38e6ac08	0.00010999298
34	0x384d4388	4.8938702e-05
35	0x37db609d	2.6151823e-05
36	0xb8813e87	-6.162846e-05
37	0xb8efa484	-0.000114270515
38	0xb8ff294d	-0.000121670404
39	0xb8c9772c	-9.6066244e-05
40	0xb9b849c8	-0.00035150186
41	0xb6ddaeb8	-6.606653e-06
42	0xb9698844	-0.00022271374
43	0xba2deb11	-0.0006634454
44	0xb96a4684	-0.00022342248
45	0xb89c9c42	-7.467765e-05
46	0x39b7bc8b	0.00035044955
47	0x3a15d689	0.0005715867
48	0x39b19385	0.0003386998
49	0x39d708c4	0.00041014527
50	0x3ab870a0	0.0014071651
51	0xba8b490c	-0.0010626628
52	0xb959d051	-0.00020772337
53	0x3ac1b28f	0.0014777946
54	0x3a30591f	0.0006727147
55	0x39b2e94f	0.00034124634
56	0xba8a7f6c	-0.0010566539
57	0x3a653ad8	0.0008744425
58	0x3acab34a	0.0015464809
59	0xbaf8abeb	-0.0018972134
60	0xba4e8617	-0.00078782573
61	0xb992cebd	-0.00028001322
62	0xba54db16	-0.00081198046
63	0xbae190f5	-0.0017209338
64	0xba1aa800	-0.0005899668
65	0xb9c1169a	-0.00036828668
66	0x3a7c6bd4	0.0009629105
67	0x3ae15d45	0.0017193934
68	0x3ab199ea	0.0013549898
69	0x3a334b33	0.00068395137
70	0x3a5c09d5	0.0008393799
71	0xb89c4207	-7.450958e-05
72	0x39777b85	0.0002360177
73	0x3abe605b	0.0014524566
74	0x39de4bdb	0.00042399656
75	0xb96d9205	-0.00022656478
76	0xba20d6e2	-0.00061355357
77	0xba9cd014	-0.0011963868
78	0xb9873001	-0.00025784972
79	0xba88b6dc	-0.0010430473
80	0xba0f8f2e	-0.00054763525
81	0x3a279c52	0.0006393838
82	0xb9d5c29f	-0.0004077153
83	0xb9ecd21b	-0.00045169969
84	0xba01ffc6	-0.00049590727
85	0xba9309bb	-0.001121811
86	0x3a4f6304	0.0007911178
87	0xba66f8eb	-0.00088108954
88	0x393b0c13	0.00017838208
89	0x3a61e873	0.00086177065
90	0xb98fe064	-0.0002744227
91	0xb7f735dd	-2.9469777e-05
92	0xb916eff2	-0.00014394501
93	0xba0b5b54	-0.0005316038
94	0xb924f47e	-0.00015731339
95	0x37f3190e	2.8979524e-05
96	0x397c2033	0.00024044588
97	0x3a06a40d	0.000513614
98	0x397426b2	0.00023284068
99	0x39a30c1f	0.00031098814

exp_avg_sq f4 [10, 10]
0	0x37fd8486	3.0221661e-05
1	0x3576ea65	9.198323e-07
2	0x345643ea	1.995501e-07
3	0x38a0ab87	7.661344e-05
4	0x36af9ac0	5.2334217e-06
5	0x3765347a	1.3661682e-05
6	0x372197d7	9.631701e-06
7	0x383e0470	4.5303663e-05
8	0x36732223	3.6229692e-06
9	0x3835d3fe	4.3351196e-05
10	0x34e7a307	4.314572e-07
11	0x35e40753	1.6989455e-06
12	0x35e32528	1.6923632e-06
13	0x366da223	3.5410128e-06
14	0x34b372ff	3.342502e-07
15	0x37883e45	1.624146e-05
16	0x3580bf06	9.592338e-07
17	0x37eee1a4	2.8476883e-05
18	0x360ddfed	2.114098e-06
19	0x356dceac	8.859013e-07
20	0x33ef1011	1.1132227e-07
21	0x35b00a2b	1.3115981e-06
22	0x3480921c	2.3948166e-07
23	0x35fb2bdd	1.8713723e-06
24	0x32f636a6	2.866302e-08
25	0x34866099	2.502973e-07
26	0x346062ea	2.089761e-07
27	0x371a149b	9.183913e-06
28	0x3537748d	6.8342416e-07
29	0x33bec2e6	8.883016e-08
30	0x350355b7	4.8926034e-07
31	0x32da2ddc	2.5399395e-08
32	0x350d98cf	5.274896e-07
33	0x35c8de58	1.4965872e-06
34	0x34a1ac99	3.0114168e-07
35	0x341c4e2c	1.4557071e-07
36	0x350c3706	5.2234134e-07
37	0x35b39877	1.3380912e-06
38	0x35ef2c8b	1.7819851e-06
39	0x3590f6f4	1.0800709e-06
40	0x376081d1	1.3381666e-05
41	0x34206545	1.4938003e-07
42	0x36b443de	5.372319e-06
43	0x384544ea	4.703264e-05
44	0x36b63070	5.4296615e-06
45	0x35553455	7.9424836e-07
46	0x375e5c65	1.3253743e-05
47	0x3810faa6	3.456571e-05
48	0x374f29e8	1.23479185e-05
49	0x37983ec2	1.8149036e-05
50	0x395dc2fc	0.0002114884
51	0x3900771c	0.00012251403
52	0x36becf98	5.6866083e-06
53	0x39739927	0.0002323134
54	0x384d6397	4.896856e-05
55	0x374f250f	1.234679e-05
56	0x38f9c62f	0.0001191016
57	0x38c09411	9.182853e-05
58	0x39864cd1	0.00025615704
59	0x39cb24bc	0.00038746546
60	0x38881426	6.488738e-05
61	0x37247e1b	9.804523e-06
62	0x38940aa8	7.059175e-05
63	0x39a176a5	0.0003079671
64	0x3817ffbc	3.6239377e-05
65	0x377b48fc	1.4977759e-05
66	0x38c9bcc6	9.619589e-05
67	0x39a2fedf	0.00031088942
68	0x394f8a5e	0.00019792604
69	0x38512fec	4.9874114e-05
70	0x38b07cd2	8.4155836e-05
71	0x35ec0af9	1.7586564e-06
72	0x3708184b	8.111888e-06
73	0x397d39b2	0.00024149453
74	0x37c63afd	2.3630908e-05
75	0x370a58fe	8.246161e-06
76	0x385330d1	5.0351784e-05
77	0x39232963	0.00015560309
78	0x373559f6	1.0809386e-05
79	0x390b5d85	0.00013290912
80	0x3826b0b2	3.9742044e-05
81	0x383ce89d	4.503933e-05
82	0x37bcb335	2.2494796e-05
83	0x3825d8c2	3.9540937e-05
84	0x380148ad	3.082368e-05
85	0x3915154f	0.00014217685
86	0x38a561dc	7.886041e-05
87	0x38fd2e58	0.00012072612
88	0x37b966d4	2.2101602e-05
89	0x38cd780c	9.797522e-05
90	0x37095edb	8.187922e-06
91	0x343ea46c	1.7754945e-07
92	0x3613ebad	2.2041888e-06
93	0x37fb2f56	2.9943574e-05
94	0x3636fb2b	2.7266312e-06
95	0x3443f542	1.8250014e-07
96	0x36d40b8b	6.319436e-06
97	0x37e5a786	2.7376936e-05
98	0x36bb4f76	5.5822848e-06
99	0x3733fcd4	1.0728098e-05

exp_avg f4 [10]
0	0x3aaa1484	0.0012976085
1	0xb9dd0388	-0.00042155036
2	0xb94594c2	-0.000188428
3	0xb9012c7d	-0.00012318972
4	0x3a52f3b6	0.000804718
5	0xbb0caeab	-0.0021466415
6	0x3b00637a	0.0019590543
7	0xbb029b25	-0.00199289
8	0x395aeb45	0.00020877745
9	0x3a33bc59	0.0006856374

exp_avg_sq f4 [10]
0	0x393d9811	0.00018081094
1	0x3796a7e6	1.7959577e-05
2	0x367dbe3d	3.781067e-06
3	0x35f540c6	1.8272774e-06
4	0x38901646	6.870604e-05
5	0x3a009f81	0.00049065804
6	0x39cf5908	0.0003954845
7	0x39e8c8f3	0.00044400207
8	0x37d7d25e	2.5727957e-05
9	0x384f60bc	4.9442737e-05

exp_avg f4 [10, 10]
0	0x3a26902b	0.000635388
1	0xb96d0877	-0.00022605235
2	0x394cbc25	0.00019525045
3	0xb9649f42	-0.00021803103
4	0x3a1428eb	0.0005651849
5	0x39f95974	0.0004755963
6	0xba63c5f7	-0.0008688862
7	0xba7f4e09	-0.0009739106
8	0x39885405	0.0002600254
9	0x398aea41	0.00026495944
10	0xb9c2dce4	-0.0003716714
11	0xb94c2f69	-0.00019472618
12	0x3a41a0bb	0.00073863164
13	0x3852a965	5.0225663e-05
14	0xba099b09	-0.00052492373
15	0xba447dd2	-0.00074955553
16	0x39f9c728	0.00047641364
17	0x38c3bf50	9.333959e-05
18	0xb99b6255	-0.00029637167
19	0xba3ba763	-0.00071584265
20	0x39682dd5	0.00022142318
21	0x39580ca0	0.00020604068
22	0x3a086191	0.0005202527
23	0xb7edb8b6	-2.8338614e-05
24	0xb8a06b50	-7.649383e-05
25	0x391594cb	0.00014265177
26	0xb914372b	-0.00014134932
27	0xb9a976ac	-0.0003232261
28	0xb9558624	-0.00020363234
29	0xb98dfd48	-0.00027082325
30	0x39be8f77	0.00036346514
31	0xb9200a19	-0.00015262551
32	0x38da0c7d	0.00010397376
33	0xb90644f1	-0.00012804919
34	0x39ae7a60	0.00033279043
35	0x398adf3b	0.0002648773
36	0xba055c22	-0.0005087276
37	0xba1427b7	-0.000565167
38	0x392dea7c	0.00016585918
39	0x39272f02	0.00015943873
40	0x39266898	0.00015869958
41	0xb79c5279	-1.8635053e-05
42	0x3930f80c	0.00016877073
43	0xb8812eab	-6.159892e-05
44	0x38ba536c	8.88471e-05
45	0x38cc82f7	9.751872e-05
46	0xb920cbf9	-0.00015334775
47	0xb984c8b4	-0.00025326537
48	0xb7717015	-1.43908155e-05
49	0xb6d68ebb	-6.394313e-06
50	0xb9b22ba1	-0.00033983312
51	0x38f21426	0.00011543212
52	0xb9243c86	-0.00015662806
53	0x38ecbd2c	0.00011288593
54	0xb993ed0f	-0.00028214647
55	0xb97539a0	-0.00023386488
56	0x39f8fb5c	0.00047489523
57	0x3a10e064	0.0005526601
58	0xb8fe6ebc	-0.0001213229
59	0xb8bd6721	-9.0314315e-05
60	0x394213d4	0.00018508668
61	0xb94f304b	-0.00019759049
62	0x39dfd70b	0.00042694094
63	0xb90bc9b0	-0.00013331207
64	0x38c67a2e	9.4641335e-05
65	0xb8bfcc0d	-9.145597e-05
66	0xb952e83a	-0.00020113672
67	0xba06ecd0	-0.0005146982
68	0xb84341b6	-4.655282e-05
69	0xb91d8463	-0.00015022005
70	0x3a8bcd80	0.0010666102
71	0xb9470236	-0.00018978943
72	0xb94b8057	-0.00019407399
73	0xb9b87312	-0.0003518095
74	0x3a942fd0	0.0011305753
75	0x3a8467fc	0.001010179
76	0xbabafd43	-0.0014266152
77	0xbab68b0b	-0.0013926936
78	0x39f7f205	0.0004729183
79	0x3a5e7b52	0.0008487004
80	0x377ec241	1.5184808e-05
81	0x373a7c50	1.1115408e-05
82	0xb83a443a	-4.4409397e-05
83	0xb6863a82	-4.0003224e-06
84	0x37de2f39	2.6486452e-05
85	0x3817ae91	3.6163783e-05
86	0xb7529596	-1.2551804e-05
87	0x36721265	3.6071517e-06
88	0x3740cbf0	1.1491575e-05
89	0x382ebc75	4.1660347e-05
90	0x396e20d6	0.00022709681
91	0x39365503	0.00017388542
92	0xb971e6cc	-0.0002306953
93	0xb8a8c899	-8.0482285e-05
94	0x397bf6c7	0.00024029157
95	0x39be1345	0.0003625398
96	0xb8e2e11d	-0.000108184504
97	0xb8e02a30	-0.000106890104
98	0xb7637e2d	-1.3559632e-05
99	0x39a58a74	0.00031574408

exp_avg_sq f4 [10, 10]
0	0x3836536a	4.3469867e-05
1	0x37469f9f	1.1838884e-05
2	0x3751cea1	1.250548e-05
3	0x36c90497	5.990801e-06
4	0x38173016	3.604599e-05
5	0x37cce8d7	2.442712e-05
6	0x38b504d0	8.631649e-05
7	0x38d1d8dc	0.0001000629
8	0x36f33ed1	7.249277e-06
9	0x37398e5d	1.1060006e-05
10	0x3776070c	1.4664383e-05
11	0x3686a8b1	4.0131495e-06
12	0x38747f3c	5.829263e-05
13	0x34a1cda8	3.0138222e-07
14	0x37fad839	2.9903009e-05
15	0x3879d480	5.9564132e-05
16	0x37d765b0	2.567735e-05
17	0x359b4aae	1.1570135e-06
18	0x371ae482	9.232319e-06
19	0x386745a9	5.5139568e-05
20	0x36e466a1	6.806877e-06
21	0x366d3e58	3.535204e-06
22	0x381c17a2	3.7215308e-05
23	0x348eaed1	2.6576757e-07
24	0x3691b77d	4.3426976e-06
25	0x36469103	2.9588707e-06
26	0x375bed98	1.3108736e-05
27	0x376fdfe7	1.4297641e-05
28	0x36d1e763	6.2556223e-06
29	0x3733ffe8	1.0728814e-05
30	0x376dd441	1.417572e-05
31	0x369e8b6e	4.7249987e-06
32	0x36886c8f	4.0657537e-06
33	0x3604cf4d	1.9790198e-06
34	0x37518501	1.2488338e-05
35	0x37017eea	7.718549e-06
36	0x37f905e0	2.9685849e-05
37	0x380bb812	3.331161e-05
38	0x36473b10	2.968769e-06
39	0x3689778c	4.0968353e-06
40	0x36317789	2.6444634e-06
41	0x34919d66	2.7122877e-07
42	0x36682d5b	3.4597094e-06
43	0x35074217	5.038759e-07
44	0x3557d383	8.040153e-07
45	0x3592be19	1.0933173e-06
46	0x36279a63	2.4974804e-06
47	0x36de8136	6.6311577e-06
48	0x3306ec7e	3.1414395e-08
49	0x328d66c1	1.6461287e-08
50	0x37561887	1.2761105e-05
51	0x3671a2df	3.6006602e-06
52	0x36e1486c	6.7139536e-06
53	0x35d95806	1.6193378e-06
54	0x37243392	9.787169e-06
55	0x36cf28a3	6.1738115e-06
56	0x37e70f09	2.7544347e-05
57	0x38075786	3.226802e-05
58	0x35e8c3bc	1.7342313e-06
59	0x3641280a	2.8782547e-06
60	0x36a72df0	4.9823357e-06
61	0x36f048b8	7.161023e-06
62	0x37c933cb	2.3985185e-05
63	0x35e81565	1.7291574e-06
64	0x3677ea76	3.6942342e-06
65	0x367f661e	3.80574e-06
66	0x3725705a	9.860925e-06
67	0x37db2bbd	2.6127202e-05
68	0x34a48175	3.0641573e-07
69	0x36dcd0e4	6.580829e-06
70	0x38feaa7f	0.00012143421
71	0x379524e3	1.777936e-05
72	0x374f1948	1.2344048e-05
73	0x3775181f	1.4608754e-05
74	0x3911e848	0.00013914809
75	0x38e9e5c6	0.000111531044
76	0x396c5c81	0.00022541174
77	0x3955c49a	0.00020386503
78	0x37cbe8ab	2.430783e-05
79	0x38ae0840	8.298503e-05
80	0x32ce2e02	2.4002478e-08
81	0x3260187d	1.3044084e-08
82	0x3471c853	2.2517752e-07
83	0x30ed0b93	1.7247309e-09
84	0x33a96bcc	7.889284e-08
85	0x34118e95	1.3556048e-07
86	0x332e28c6	4.0549615e-08
87	0x3181bc6c	3.775815e-09
88	0x32a56571	1.9254658e-08
89	0x34490041	1.8719676e-07
90	0x36b34385	5.342476e-06
91	0x36597448	3.2403204e-06
92	0x36b48e91	5.381015e-06
93	0x3541659e	7.2045975e-07
94	0x36c4aee2	5.861614e-06
95	0x376476d0	1.3617522e-05
96	0x35a8e829	1.2584543e-06
97	0x35993266	1.1414056e-06
98	0x340a3f1f	1.2875215e-07
99	0x372b0251	1.0192934e-05

exp_avg f4 [10]
0	0x38269d2d	3.9723865e-05
1	0xba69e0ea	-0.00089217594
2	0xb9f70f12	-0.0004712274
3	0x3801e120	3.096566e-05
4	0xb8b23c06	-8.498882e-05
5	0x3872f0e3	5.792164e-05
6	0xb9b22fec	-0.0003398651
7	0x3a309d82	0.00067373377
8	0x386aba6e	5.5963574e-05
9	0x39cc6bdf	0.00038990282

exp_avg_sq f4 [10]
0	0x368c6fc0	4.1853345e-06
1	0x38b351fa	8.5506545e-05
2	0x37d8ca76	2.5843485e-05
3	0x35e982cf	1.7397923e-06
4	0x35476290	7.4276704e-07
5	0x363074ac	2.6293956e-06
6	0x37919b4b	1.735766e-05
7	0x386aa36e	5.5942153e-05
8	0x34b3b423	3.3472415e-07
9	0x37831261	1.5624975e-05

exp_avg f4 [1, 10]
0	0x39e44d50	0.0004354515
1	0xba2689e4	-0.0006352945
2	0x3992f727	0.00028031433
3	0xb802dcec	-3.1200165e-05
4	0x3a20932a	0.0006125445
5	0xba3f0f29	-0.0007288331
6	0xba05332b	-0.0005081172
7	0xba1951cf	-0.0005848677
8	0x39a76358	0.0003192674
9	0xb9de472c	-0.00042396167

exp_avg_sq f4 [1, 10]
0	0x37a41fdf	1.9565165e-05
1	0x38477a39	4.7559126e-05
2	0x372f5ae0	1.0451971e-05
3	0x349624d9	2.7966487e-07
4	0x382f3ba0	4.177878e-05
5	0x386d0e77	5.6518675e-05
6	0x37e2ffce	2.7060418e-05
7	0x381b9e2c	3.710219e-05
8	0x378a9504	1.6520273e-05
9	0x38037541	3.1342035e-05
