modelos/heat_40x5-20000.pt (torch, 94950 bytes, 33 tensors)

linears.0.weight f4 [40, 2]
000000 59 ff 4a 3c d3 0a 15 3f 3b d7 c7 bd d0 ac 46 3e
       0.012389981 0.5821964 -0.09757849 0.1940186
000010 35 3c 6a 3d de 9c 81 3c bc 7f a8 3e 8d 7a 9f 3e
       0.057186324 0.01582187 0.32909954 0.31148186
000020 e9 08 a6 3e 67 88 2f 3e 00 36 13 bd 10 19 f0 3e
       0.32428673 0.17141877 -0.03594017 0.4689412
000030 ac 22 1e 3e fb 29 b2 3e ce d1 83 be 5b 35 8d be
       0.15442914 0.34797654 -0.25746006 -0.2757977
000040 6b ee 18 3e 78 95 47 3e 47 d5 69 bd 02 fa cc 3e
       0.14934699 0.19490612 -0.057088163 0.4003449
000050 11 9b 6a bd 2a aa 68 be 43 49 84 be d6 2e 0d bf
       -0.05727679 -0.22721162 -0.25837144 -0.5514959
000060 26 ff bf 3e 05 49 83 3e 97 cb a8 3e 1f 7b 5b 3d
       0.3749935 0.25641647 0.32967827 0.053584214
000070 73 35 a0 be ee 03 db 3c 83 f9 2b be 48 88 f6 3d
       -0.3129078 0.026735272 -0.167944 0.12037712
000080 75 20 82 3d c6 f7 14 bf a0 e6 eb 3e cc c7 73 3e
       0.06353847 -0.5819057 0.4607439 0.23806685
000090 71 fd c4 3e 8c 1d f5 bd d3 46 af 3e 78 af 7e be
       0.3847461 -0.11968526 0.34233722 -0.24871624
0000a0 76 8a 4d be 54 32 aa be 0c 29 48 3e d1 d1 1d 3b
       -0.2007235 -0.33241522 0.19546908 0.002408136
0000b0 f6 d4 c9 3e 93 81 7f 3d 18 62 09 be 6d c2 34 be
       0.3942029 0.06237943 -0.13416326 -0.17652293
0000c0 36 9c bd bd 87 f4 b6 bd be 7d c0 3d 23 a2 21 bd
       -0.092583105 -0.08933359 0.093989834 -0.039461266
0000d0 f7 8e ad bd f1 6a 9f be b3 61 85 3d 3a 3b d0 3e
       -0.08474534 -0.31136277 0.06512775 0.40670186
0000e0 24 2a 94 3e c9 f7 d1 3d 7c 86 f2 bd 7c 47 56 3e
       0.289384 0.102523394 -0.11842057 0.20925707
0000f0 92 4b 55 be d8 fb d8 3e 4d 2a 0f be c7 23 00 be
       -0.20829609 0.42379642 -0.1398098 -0.12513648
000100 62 be 78 be 0c 1b dc 3d 5d 85 91 3d 6f 59 f5 bd
       -0.24291375 0.10747346 0.07105515 -0.11979949
000110 39 5e 0d bf 7d d4 87 3e 97 cd 98 3d 8f 6a b3 3e
       -0.552219 0.26529303 0.07461088 0.35042235
000120 82 25 69 3c 54 2c 1d bf 1b 94 58 bd f8 9b a8 3e
       0.014230134 -0.61395764 -0.05287562 0.32931495
000130 a1 e4 b5 be f5 3f b4 3d 7c bc c3 3e 90 ea 7b be
       -0.35525993 0.08801261 0.3822974 -0.24601197

linears.0.bias f4 [40]
000000 ac 38 9f 3d 86 cf b2 bb 36 32 6c bb 24 55 fa 3c
       0.07774481 -0.0054568676 -0.003604067 0.030558176
000010 b0 e9 cf bb de 57 83 3d c4 02 86 3d ea ec f8 3c
       -0.0063449964 0.06413244 0.06543496 0.030386407
000020 b0 38 e2 bc 89 df be 3c 2d 1d f9 bb ca 3e d9 3c
       -0.027614921 0.02329995 -0.007602355 0.026519198
000030 81 3b 12 3d 0d 41 22 3c c3 24 ec 3c 6f 96 81 3d
       0.03570128 0.009903205 0.028826123 0.06327521
000040 72 ef 35 bc e2 da 4b bd 8a 3c 2f bd 57 79 fa bd
       -0.0111044515 -0.04976929 -0.042782344 -0.12230175
000050 22 c6 53 bd a0 a8 24 bc c2 2d dc bc 82 88 10 3d
       -0.051702626 -0.010049969 -0.026877288 0.035286434
000060 03 37 ff 3c 35 6c 2e bd 35 42 bb 3a a2 98 f0 3c
       0.031154161 -0.042583663 0.0014286699 0.029369656
000070 ce b4 af bc dc 2c ee 3c 11 97 d6 3d 4d 5d a6 3c
       -0.02144852 0.029074125 0.104780324 0.020308161
000080 9c 47 44 3d d4 61 17 bd 1c 0f 6e 3d 93 0b 22 3d
       0.047919855 -0.03695853 0.05811988 0.03956182
000090 50 66 ab bd ba da 26 3c 60 fe 3d 3d 24 29 db bd
       -0.08369124 0.010183984 0.04638517 -0.10701206

linears.1.weight f4 [40, 40]
000000 a2 e2 9c be c5 56 38 3e e9 2c 89 bd 7d 0a 00 be
       -0.30641657 0.1800185 -0.06698019 -0.12504001
000010 4e 32 ba 3c 5f ef 72 be 4c bd 84 be 12 13 57 3e
       0.022729065 -0.23724125 -0.25925672 0.21003368
000020 e1 3f 51 be ed fc f1 bc a4 33 02 3e 80 5e 09 3e
       -0.20434524 -0.02953955 0.12715012 0.13414955
000030 ca 28 80 bc 3c 45 27 be 78 4d b2 3e 40 1f bf bd
       -0.01564445 -0.16335005 0.3482473 -0.09332132
000040 f8 27 06 be fc 66 5c bb db 5e 1a be 2d 10 44 3e
       -0.13101184 -0.003363072 -0.15075247 0.19146796
000050 7d f9 06 3e d1 13 92 bd 82 39 a1 3d 21 79 94 3e
       0.1318111 -0.07132686 0.07872297 0.28998664
000060 17 ae 72 3d 05 45 f6 bd 37 f4 54 3e f5 bb 79 bd
       0.059248056 -0.12024883 0.20796286 -0.060970265
000070 2f f4 91 3d 51 c0 56 3d d4 97 6f 3e e7 87 38 3b
       0.071266524 0.0524295 0.23397762 0.0028157176
000080 4c ef 85 bc 85 34 a7 bc dd 79 9e bd 83 57 81 be
       -0.016349457 -0.020410785 -0.07738087 -0.2526208
000090 9d 36 c8 3c 2f 13 18 3d 08 97 04 bd 2c 94 ab 3d
       0.024440104 0.03712767 -0.032370597 0.08377871
0000a0 8b 35 4e be 86 fb ec 3c db 9f 11 be 84 e0 0b be
       -0.20137613 0.02892853 -0.14221136 -0.13659865
0000b0 a9 1e cd bd 68 0e cb 3d 80 3e 97 be b6 b4 65 3d
       -0.100156136 0.09914857 -0.2953987 0.056080543
0000c0 1c 18 d4 3d dd 21 aa 3d ad ed a9 3e e5 ba 7f 3e
       0.10356161 0.0830724 0.33189145 0.24973638
0000d0 65 33 9a 3e 06 c3 8e bd 8e 24 e9 bb 47 86 8b 3e
       0.30117336 -0.069707915 -0.0071149534 0.27250883
0000e0 ef f8 8f 3e d3 90 5c be ca b4 3a be dd 2d 39 3e
       0.2811961 -0.21539621 -0.18233028 0.18083902
0000f0 08 a1 62 3e 0c 28 d2 3d 15 11 39 bd 18 07 83 3c
       0.22131741 0.102615446 -0.045182306 0.015994594
000100 e1 a1 40 3e f0 d9 ec 3d 9f 17 f2 3c 0a bc 1f be
       0.18811752 0.11565006 0.029552279 -0.15599075
000110 bc 98 81 bd c2 4f 00 bd 54 96 fe 3d e0 e9 5a 3e
       -0.0632796 -0.031326063 0.124310166 0.21378279
000120 a3 f9 f2 3d 77 ac 92 bb a3 d4 13 be 9b 44 c6 3d
       0.11864021 -0.004476126 -0.14436583 0.09681054
000130 54 9f 15 be b4 f6 97 be 1e 10 3b 3e fb 12 4a bd
       -0.1461156 -0.29680407 0.18267867 -0.049334507
000140 bf 90 65 bd 2a ab 88 3e 01 8c b8 3d 92 43 e3 bd
       -0.056046244 0.26693088 0.090110786 -0.110968724
000150 06 5e a4 3d 1e b3 1c be 16 fd 15 be ce 11 1f be
       0.08025746 -0.15302703 -0.14647326 -0.15534136
000160 f6 a8 1b 3e 82 4c 2f 3d 96 74 10 be 69 af 12 3e
       0.15201172 0.042797573 -0.14106974 0.14324726
000170 5a 45 1e bd 1e e0 40 3e 71 c4 bf 3d c6 53 e4 3d
       -0.038640358 0.18835494 0.0936364 0.11148791
000180 09 0b 89 3c 57 d2 19 3e d6 eb 21 be 22 d0 45 3d
       0.016728895 0.15021645 -0.1581262 0.048294194
000190 18 0f ec 3e 61 b1 37 3e 9d 74 50 3e 8f ab c9 bb
       0.46105266 0.17938758 0.20356984 -0.0061544846
0001a0 a9 6a 9e 3d 07 42 7e 3d 58 d2 16 3e b9 c1 d6 3d
       0.077351876 0.062074687 0.14728677 0.104861684
0001b0 2f a5 d9 3c 4e 33 52 3e 88 fe 97 bd 38 09 0b be
       0.026568023 0.20527384 -0.07421595 -0.13577735
0001c0 8b 58 48 3e c8 00 84 3e da 78 b4 be 30 74 91 bd
       0.19565026 0.25781846 -0.35248452 -0.07102239
0001d0 1a b7 88 bd 4f aa 53 be 5f 98 6b 3d 64 f6 a2 3e
       -0.06675549 -0.20670436 0.05751836 0.31828606
0001e0 d1 fb 1f 3e fe 8a 10 bd 69 52 fb bd df 94 2d 3d
       0.15623404 -0.035288803 -0.12271578 0.042378303
0001f0 27 ad 2f 3e b0 18 6a bd 11 d8 4b be 34 8a a5 be
       0.17155896 -0.05715245 -0.19906642 -0.32332003
000200 b6 38 5d be 9a b4 87 bd 38 4d 3c be 4d d7 93 bd
       -0.21603665 -0.06626244 -0.18388832 -0.072188
000210 5d 4b 09 3e 3a 8b 16 3c a6 66 f4 bd df 9e 49 3d
       0.13407655 0.009188468 -0.11933641 0.049223777
000220 62 52 61 3d 0a bd 18 be ce 7c 14 bd 13 96 1a 3e
       0.055010207 -0.14915863 -0.036251836 0.15096311
000230 df fa 51 be 87 20 d4 3d 29 ba 23 3e 55 c0 af bd
       -0.20505856 0.103577666 0.15988983 -0.08581606
000240 73 02 9a bc 79 c2 da 3d d2 a3 97 3c 37 c3 d4 bd
       -0.018799996 0.10681624 0.018510733 -0.10388797
000250 ec 87 9f 3d ee 76 a7 3d 8d 64 8f 3d 91 73 df 3c
       0.07789597 0.08176981 0.070016004 0.027276786
000260 17 5c 2f be b5 c6 07 be 64 5a 1a 3e b6 9a 1a bd
       -0.17124973 -0.13259394 0.15073544 -0.0377452
000270 4d a0 a0 3e aa 3a 8d be ec 12 79 be c4 d0 a4 bd
       0.313723 -0.2758382 -0.24323624 -0.080476314
000280 d8 89 57 3e 2e ad eb bd e2 d0 b1 b9 d4 92 f7 3d
       0.21048677 -0.11507641 -0.000339157 0.12088552
000290 49 49 58 bd a7 f6 ea 3c a7 a0 c1 3e ed 86 af 3c
       -0.052804265 0.028682066 0.3781788 0.021426642
0002a0 3c 13 c1 bd 50 d1 a3 3e 1c be c6 bd 78 77 a4 bc
       -0.09427497 0.3199563 -0.09704229 -0.020076498
0002b0 0a 9b 3c 3e c3 11 28 be ca 9a ba 3d a1 9a 3c bd
       0.18418518 -0.16413026 0.09111555 -0.046045903
0002c0 15 73 60 be c7 63 0c be a0 42 d0 bd 1f d0 c4 bd
       -0.219189 -0.13709937 -0.10168958 -0.096100084
0002d0 d5 30 2a bd 9b 4e db bc 05 4e 4c bd 90 c2 60 bb
       -0.041550476 -0.02677088 -0.049879093 -0.0034295656
0002e0 bf 4a db bd cb 70 a1 bb db a3 2f be fa a0 f2 3c
       -0.10707616 -0.004926776 -0.1715235 0.029617775
0002f0 bd 16 66 bd cc 3e 93 bd 26 ff ae 3e 0c 67 95 3d
       -0.05617403 -0.07189712 0.34179038 0.07295045
000300 70 b9 bc 3d 1a 31 a3 bd b8 13 12 3e 84 af c7 3e
       0.09215057 -0.0796835 0.14265335 0.39001095
000310 3c da dc 3d c7 37 a9 3e 16 e5 af ba 6d 77 96 be
       0.107838124 0.33050367 -0.0013419713 -0.2938799
000320 ba 69 19 3d 31 28 92 3e 09 1b 64 be 17 cc 6a be
       0.037454344 0.2854629 -0.22275938 -0.22929417
000330 4f 4b 39 bd 01 bc 4a be 18 c2 21 3d aa 04 ac 3e
       -0.045237835 -0.1979828 0.039491743 0.33597308
000340 38 7c c1 3d ec 30 8d bd de 2a da bc 4d 6f 4e be
       0.09447521 -0.06894097 -0.026631769 -0.20159645
000350 ed 25 01 3d f2 49 63 be 1f 25 06 be bb 50 8f be
       0.03153031 -0.22196177 -0.13100098 -0.2799128
000360 4d 49 6f 3e 82 aa ed 3d 88 6c 61 3c 14 c3 ef 3e
       0.23367806 0.116047874 0.013758786 0.4682852
000370 51 49 30 3e 72 c1 b1 bd 80 2d ef 3c 8c bd 35 bd
       0.17215468 -0.08679475 0.0291965 -0.04437022
000380 b7 91 2c 3e b7 e9 0b 3e 35 a1 be 3c 12 ba 2e 3d
       0.16852461 0.13663374 0.023270229 0.04265792
000390 83 82 97 bd 22 7a 8c bd e3 2f ba be 81 57 9b bd
       -0.0739794 -0.068592325 -0.3636466 -0.075850494
0003a0 1f f1 ea 3c 6b 34 86 be 6c 17 b4 be b1 03 4d 3b
       0.028679429 -0.26211867 -0.3517412 0.0031282718
0003b0 81 d8 55 bb 77 eb a5 bd 99 1e 17 be 19 60 ae 3e
       -0.0032630267 -0.08101552 -0.14757766 0.34057692
0003c0 1a 74 60 3e fc f9 8f bd 73 19 1c be 77 46 94 3d
       0.21919289 -0.070301026 -0.15244083 0.072400026
0003d0 e9 f1 74 be fa cd 4a 3e 43 9f a5 be 14 f5 61 3d
       -0.23920406 0.19805136 -0.3234807 0.055165365
0003e0 c0 52 75 3e 40 d8 0c 3e dc a8 5b 3e 8e e6 29 bf
       0.23957348 0.13754368 0.21451133 -0.66367424
0003f0 a3 06 3c 3d b1 7f 2d 3c 3a 3f e9 3d 7f 2b be 3d
       0.045904767 0.010589526 0.11389013 0.0928564

linears.1.bias f4 [40]
000000 9c 71 ef 3b 8e a9 c5 3c 7a 8e 84 bd a4 ee 8f bb
       0.0073072445 0.024128702 -0.06472488 -0.004392462
000010 4b 6f 76 3d 2e 38 dd bd 92 86 e8 bc 92 40 0b bd
       0.06016473 -0.10801731 -0.02838448 -0.033997126
000020 f2 66 46 b9 b8 a9 60 3d d9 e7 cd bd e0 3c e7 3c
       -0.00018921102 0.054849356 -0.10053987 0.02822727
000030 27 07 0f bd fc 07 45 bc b7 ec e0 bc 6b 06 8a 3b
       -0.03491893 -0.012025829 -0.027456624 0.004212191
000040 ca f2 79 3c 7d 20 57 3c 6d 02 31 3c 76 b2 89 bc
       0.015255639 0.013130304 0.010803801 -0.01680873
000050 8f 74 36 3b bb 3c a8 bc 65 3f e5 bd c2 50 8e 3b
       0.002784047 -0.020536771 -0.11193732 0.004343123
000060 9b 98 4d bd 2b d8 b3 bc bd 74 04 3b 3c 30 48 3d
       -0.050194364 -0.021953663 0.0020211183 0.048874125
000070 02 47 eb bb 96 30 f5 3b 7d e2 f7 3c 6c cd 19 bd
       -0.0071800957 0.0074825985 0.030259365 -0.03754942
000080 f0 e9 f4 bc 5b f1 c0 3c 2f 4f 51 bd a4 36 03 bd
       -0.029896706 0.023552587 -0.051100906 -0.03203453
000090 16 84 e2 bc 07 f7 d7 3b 86 4c 14 3d b8 bc 91 bc
       -0.027650874 0.0065907273 0.03620579 -0.017790183

linears.2.weight f4 [40, 40]
000000 8b 75 3f be 69 e1 83 3d 2d 08 89 be db 22 53 be
       -0.18697183 0.06439478 -0.2676405 -0.20618765
000010 71 a4 96 bd 4a 48 09 bf 0d 1b fd bc 78 f7 ea bd
       -0.073555835 -0.5362593 -0.030896688 -0.11472982
000020 fe 73 40 be a9 43 d0 bc 02 a5 1f be b8 dd a6 bd
       -0.18794248 -0.025422888 -0.15590289 -0.08147758
000030 db 97 eb bd a5 f5 a6 be 37 5b 95 3d 2f cf 6f 3b
       -0.115035735 -0.32609287 0.072927885 0.0036591997
000040 fd 46 75 bd 85 47 34 3c b0 fa ac 3b 96 e1 d7 bd
       -0.059882153 0.01100338 0.0052789077 -0.10541074
000050 cc 43 0b be 91 cb 31 bc 4d cd 57 3e e5 06 97 3e
       -0.13600081 -0.010851757 0.2107441 0.29497448
000060 b2 f2 ac be 2c 2a 97 bd bf 31 68 3e d7 b1 38 3e
       -0.33778912 -0.073810905 0.22675227 0.1803659
000070 8f cc c3 3e 6b bc 0b bd 09 91 4e bc de a0 92 be
       0.38242003 -0.034115236 -0.012607821 -0.28638357
000080 a8 90 d2 bd 57 8b e5 3c d3 70 ff 3d a2 2b e8 bd
       -0.10281497 0.028020544 0.124726914 -0.11336447
000090 11 99 8a be f1 10 e2 bd 82 d4 fc 3e f9 b6 63 3d
       -0.27069905 -0.110383876 0.4938088 0.05559442
0000a0 5e 13 8d be 09 36 27 bc 87 89 ea bd 45 59 33 3d
       -0.27553838 -0.010205754 -0.114520125 0.043786306
0000b0 8f f9 a7 3d dd 26 82 be d4 87 37 3e a9 4b 25 be
       0.082018964 -0.25420275 0.17922908 -0.16142143
0000c0 19 5d 90 3d ba 76 b2 3d ff 09 df bc 87 5d 54 be
       0.07049007 0.087140515 -0.027226446 -0.20738803
0000d0 6e 0c 18 be f9 f5 35 be f3 03 85 be db 7e d2 bd
       -0.14848492 -0.17769612 -0.25979576 -0.10278102
0000e0 6a e8 1c 3d 36 8e c8 3d 83 df f4 bc 1d 29 fc 3d
       0.038307585 0.097927496 -0.029891735 0.12312529
0000f0 04 c7 a3 3c 15 ba e9 3d c6 2c 97 be 89 a2 e2 3d
       0.019992359 0.114124455 -0.29526347 0.11066157
000100 f1 a5 2a be 58 24 7c 3e e9 4d 5f bd cb 08 87 bd
       -0.16664864 0.24623239 -0.05451766 -0.06593474
000110 23 88 c7 bd 8e 15 9f 3d 88 49 8e 3d ea a4 0a bf
       -0.09742763 0.07767783 0.06947619 -0.5415789
000120 20 e7 44 be e7 49 23 3d 89 27 9b 3e 2d bb 43 be
       -0.19228792 0.0398654 0.303036 -0.1911437
000130 30 7b 8c bd 92 8f e8 bd a1 bc 0c 3e 18 1a e5 3d
       -0.06859434 -0.11355509 0.13743831 0.111866176
000140 4e f0 38 bd ef 05 ea bd cf 43 32 bb 2e 2f 00 3e
       -0.045151047 -0.11426913 -0.0027201062 0.12517998
000150 6d 8c 2e bd 59 5d 9f bd 28 b1 04 be f7 d2 fb 3c
       -0.04261439 -0.077814765 -0.12958205 0.030740244
000160 f9 c1 f3 bd ef 53 50 3e fe 32 32 bd 79 ff 2f 3e
       -0.11902232 0.20344518 -0.04350566 0.17187299
000170 ba 12 85 be 82 1c 06 3c a8 05 6d be 6e 9f 85 3d
       -0.2599085 0.008185508 -0.23146689 0.065245494
000180 22 a7 91 3e 48 1d 37 3e d3 cc c1 bd a8 53 9e 3e
       0.28447825 0.17882264 -0.09462895 0.309232
000190 b4 dc 25 3d b6 e9 0f 3e 2f 22 90 be e9 31 51 bd
       0.040493682 0.14053997 -0.2815108 -0.05107299
0001a0 f7 06 cb be da 49 5c bc a1 fe 9f bc b1 b9 86 3e
       -0.3965375 -0.013445342 -0.019530596 0.26313546
0001b0 d3 27 50 be 9d 49 72 3c 82 9d 51 3d 9b 7b 44 be
       -0.20327692 0.014788059 0.0511756 -0.19187777
0001c0 12 b7 0a be fb 4b 9d 3e b2 60 07 3d 04 80 5f 3d
       -0.13546398 0.3072203 0.0330512 0.054565445
0001d0 99 63 0a bd 4f d5 d1 bb 8e 0e b3 3d 80 36 b6 bc
       -0.03378639 -0.006403602 0.087430105 -0.022242785
0001e0 de f6 27 3e cc 13 a9 3e 04 97 da 3b 7a 19 41 bc
       0.16402766 0.33022916 0.0066708345 -0.011785859
0001f0 75 fc de 3d 80 a3 97 3e dd 24 b5 bd 76 bc 1d be
       0.10887996 0.29616928 -0.08844922 -0.15403923
000200 51 b6 37 3e b3 d2 99 be 65 7c 89 bd 49 52 f5 bd
       0.17940642 -0.30043563 -0.067131795 -0.11978585
000210 87 83 fb 3c 54 66 31 be 77 e1 46 be 42 00 d9 3c
       0.030702366 -0.17324191 -0.19421946 0.02648938
000220 a3 cc 93 3e 51 a6 a8 bd b1 5a 50 3e bc dc e6 bd
       0.28867063 -0.08234847 0.20347096 -0.112725705
000230 b7 fc 95 bd 8c 2b 10 3e 1a c4 0f 3e 25 6f 11 3e
       -0.07323592 0.14079112 0.1403965 0.14202555
000240 f3 87 83 be 15 85 d6 bd 69 17 56 be 8a 78 dc bd
       -0.2568966 -0.10474602 -0.20907368 -0.107651785
000250 e0 1a e2 3d 47 75 aa 3e d4 3c b0 be 22 7a 33 be
       0.11040282 0.332926 -0.34421408 -0.17527059
000260 1c 6a a3 bb 58 78 42 bb f8 33 46 3e 66 d0 68 be
       -0.0049870145 -0.0029673781 0.19355762 -0.22735748
000270 6a e4 28 bc 1b a1 59 3e d9 21 8d bd 85 75 2e be
       -0.010308364 0.21252863 -0.068912216 -0.17037018
000280 93 e4 98 3d df eb 9e 3c 17 f0 e0 bd 10 11 a8 bc
       0.07465472 0.019399581 -0.109832935 -0.020515949
000290 c8 da 17 bd 9c 3b 71 bd df 20 3b be ca 3e 51 3d
       -0.03707388 -0.05889474 -0.18274258 0.05108527
0002a0 26 a0 53 3d 40 48 16 3e e2 cb db 3c f1 9f 21 3e
       0.0516664 0.14675999 0.026830617 0.15783669
0002b0 fb 77 98 3c 03 39 0e 3e 16 c9 a8 bd 87 c0 9d 3d
       0.018611899 0.13888936 -0.08241479 0.07702737
0002c0 bd 73 05 3e 8d 96 51 3d 76 f0 db bd 61 26 51 be
       0.13032432 0.051168967 -0.10739224 -0.20424797
0002d0 c8 c3 97 bd 13 fc 8c be bd aa 25 3d 1e 35 3f be
       -0.07410389 -0.27536067 0.04044603 -0.18672606
0002e0 cc 78 55 be f7 a4 2c 3e 00 1e 73 bd 65 66 c0 3d
       -0.20846862 0.16859804 -0.059354782 0.0939453
0002f0 87 3e 8b be 4b 07 37 3e b7 61 91 3c 56 95 1b be
       -0.27196142 0.17873876 0.01774679 -0.15193686
000300 92 05 ce 3c c5 8b 8c 3d b2 e0 29 bd 22 f1 d9 3e
       0.02514914 0.068625964 -0.04147405 0.42566782
000310 7f c1 3a 3e 7e a6 98 3d 77 3f df be f8 d8 e4 bc
       0.18237875 0.07453631 -0.43603107 -0.02793549
000320 36 9a 11 3e 5c 9e a7 ba 40 4c 0d 3c 42 ec 5a 3e
       0.14218983 -0.0012788284 0.008624136 0.21379188
000330 4e 0e 65 3e 49 53 2e be 6f 1e a3 be 06 d9 9e bd
       0.22368738 -0.17023958 -0.31859156 -0.07756238
000340 e8 6f af 3d d6 4f 61 3d 6c c5 8d bd 62 02 50 3c
       0.08566266 0.055007778 -0.06922421 0.012695881
000350 52 ee a7 3e f8 92 b8 bc dd bd 31 3b da 64 f1 3b
       0.3279901 -0.022531018 0.0027121224 0.007366759
000360 4b b5 e4 bc 6b 1a da bd 60 05 f0 3c 95 99 ac bc
       -0.027918478 -0.1064957 0.029299438 -0.021069327
000370 d9 cb 30 be 5a 26 d5 bd 15 57 09 3e 03 f2 1e 3e
       -0.17265262 -0.104077056 0.13412125 0.15522008
000380 db c0 b4 be 7c 14 70 3e 70 8d c6 3d 85 05 37 3d
       -0.35303387 0.23445314 0.09694946 0.044683
000390 98 f6 0d bf 52 5d 36 bd dc a4 c3 3c 30 af f1 bd
       -0.554544 -0.04452259 0.023882322 -0.118009925
0003a0 14 d0 54 3e fe 21 75 3e 6f f9 86 be dc f7 1e 3e
       0.207825 0.23938748 -0.26362178 0.15524238
0003b0 aa d2 ea bd 0a 59 64 3d ab ce fc 3d 8f bc 3b bd
       -0.11465962 0.055748977 0.12344106 -0.04583412
0003c0 e7 b4 b3 3d 73 7b 28 be 4f 6a c7 3c 71 5d 04 be
       0.08774739 -0.16453342 0.024342684 -0.1292627
0003d0 3e c7 36 be 63 54 b2 be 0e cc 6d 3e 9d 0c ac bb
       -0.17849442 -0.34830007 0.23222372 -0.005250527
0003e0 b1 07 d6 3d f7 9f fa 3c d0 34 97 3e 81 ac 32 3d
       0.10450686 0.030593855 0.2953248 0.043621544
0003f0 8d d2 6e be c8 49 8f 3e 28 a6 81 3c a4 20 3a 3e
       -0.23322506 0.27985978 0.0158263 0.18176514

linears.2.bias f4 [40]
000000 c7 f0 0e 3b 7b af 5a 3d 19 9d a2 3c 8a 48 0c bc
       0.0021810995 0.053390007 0.0198503 -0.008562217
000010 0b d8 aa bc a0 f4 f4 3c 43 e3 0b 3c 0f 33 5a 3c
       -0.02085497 0.029901803 0.00853807 0.013317837
000020 10 d9 ce 3c 94 11 9b bb 0e 00 f9 3d ee 25 81 bc
       0.025249988 -0.00473232 0.121582136 -0.015765157
000030 41 58 ee bc 6d b5 1b 3d e7 f7 90 bc a3 52 47 bb
       -0.029094817 0.038014818 -0.017696334 -0.0030414246
000040 83 dc 19 3d f7 7f de bc 2e fc 97 3d 71 03 06 3e
       0.037563812 -0.027160628 0.07421146 0.1308725
000050 eb e7 8f bc 53 46 9b 3c d2 2a 33 3d b1 2c 2b 3d
       -0.017566642 0.018954432 0.04374201 0.041790668
000060 4e 61 d0 3d 78 cf 6f 3c ae 29 38 3d 14 4f aa bc
       0.101748094 0.014636867 0.044961624 -0.02078966
000070 af 4f 11 3c b2 db 99 bb d0 03 c0 ba 67 c2 9a bc
       0.008869096 -0.004695379 -0.0014649574 -0.018891526
000080 e2 9c 5b 3b 5e d1 de bc b2 16 a6 3c af ea cc 3c
       0.0033510257 -0.027199443 0.020274494 0.02501425
000090 e3 12 0d bd b0 ce cd ba 10 45 27 3c ae 70 3a 3d
       -0.03444184 -0.0015701856 0.010209337 0.045517616

linears.3.weight f4 [40, 40]
000000 2f b2 8b 3d af 27 f5 3d d8 24 0a be 8e f3 49 be
       0.06821095 0.1197046 -0.13490617 -0.19721815
000010 04 2c 2d 3e 93 46 4c 3e fb 9e 3c 3e da e9 10 be
       0.16911322 0.19948797 0.18420021 -0.14151707
000020 c7 18 85 3e fc 8c 14 3e 95 4b 2b 3c 89 7a 11 be
       0.25995466 0.14506906 0.010455032 -0.142069
000030 dd 28 51 3e 3e d0 e1 bd 46 c9 8a 3d aa 06 35 3e
       0.20425744 -0.11026047 0.06776671 0.17678323
000040 89 2d 7a 3e 97 53 25 be c6 23 8f 3d af 74 e9 3e
       0.24431433 -0.16145168 0.06989245 0.45596835
000050 92 58 af 3d 36 d9 e4 3c 33 e7 59 3e 0f 0e 21 be
       0.08561815 0.027935605 0.21279602 -0.15728019
000060 a6 8e 25 3c df 38 a8 3d 65 f5 bb 3e 1f fd 98 3e
       0.010104811 0.08213972 0.3671066 0.29880616
000070 9d 92 0b 3e 52 23 b1 3c df 61 3e 3e 58 16 17 be
       0.13630147 0.021623287 0.18592022 -0.14754617
000080 fa d7 fe 3d 32 f9 87 3e a2 3c 0d 3b 78 bc e2 3d
       0.12443538 0.26557308 0.0021551033 0.11071104
000090 a3 9e 9a be c7 e5 5e be fa 7f 1a be 66 e1 24 3e
       -0.30199155 -0.2176734 -0.15087882 0.16101608
0000a0 ea fa 49 3d 65 b0 89 be 1b d5 28 3d 71 aa ca 3c
       0.049311556 -0.2689239 0.04121886 0.024739476
0000b0 58 0a 0d 3e 38 39 d1 bc 36 86 7b 3e b0 fe 8e 3d
       0.13773477 -0.02553998 0.24562916 0.069821715
0000c0 60 54 6a 3c 84 de 26 be 67 a9 8d bd 45 2a 0a 3e
       0.014302343 -0.1629582 -0.069170766 0.13492687
0000d0 5b 59 66 3e a4 40 d5 3d 77 15 23 3e 4f 2a 10 bd
       0.22495024 0.1041272 0.15926157 -0.0351966
0000e0 95 fc 9f 3e be 53 68 3d ab 31 7b 3d 78 10 96 3e
       0.31247392 0.056720488 0.061326664 0.2930944
0000f0 e3 03 d2 3d e0 16 9c be f4 d8 30 be 75 30 9b 3d
       0.102546476 -0.30486202 -0.17270261 0.07577602
000100 1f 15 25 3e 9c bd b5 3d 94 33 fc 3d 3c bf 37 be
       0.16121338 0.08874056 0.12314525 -0.17944044
000110 84 c1 32 3e 44 24 44 bc 75 92 51 3d 0e 13 70 3a
       0.17456633 -0.011971537 0.051165063 0.0009158113
000120 69 01 b6 be 1d 63 29 be ff 90 9c bd 57 7e a4 3c
       -0.3554795 -0.16541715 -0.07644843 0.020079775
000130 13 36 bb bd a3 55 73 3e a9 0b b0 3e 21 f6 e4 3c
       -0.09141173 0.23763137 0.34383896 0.027949395
000140 d1 de 92 3b ab 47 34 3e 5e 40 6d 3d 2d b9 d1 3c
       0.004482128 0.17605464 0.057922713 0.025600994
000150 7f 2e 72 3e 06 3e a9 3d 8f 6c ad bd a5 6a 95 bc
       0.2365055 0.08263783 -0.084679715 -0.018239329
000160 e3 12 b8 3d 22 a6 89 be 57 bf 0d be 20 1c 61 3c
       0.08987977 -0.26884562 -0.13842522 0.013739616
000170 2a b1 80 bb 92 ec b2 3d 87 c1 47 bd 4b d0 10 be
       -0.0039273696 0.087365285 -0.048768546 -0.14141957
000180 ff 90 40 be d1 ab 0c 3d 42 ad a1 3e 09 6c 0a 3d
       -0.18805312 0.034343544 0.31577498 0.033794437
000190 24 6b 95 3d e6 9b 22 3e 08 c7 54 bc fc 34 2c be
       0.07295826 0.15879783 -0.012986906 -0.16817087
0001a0 ce 9b a6 bd 60 15 1b be 9b 0d 8f 3c cc 01 aa be
       -0.08135186 -0.15144873 0.017462542 -0.33204496
0001b0 b0 28 c0 3c ac 01 03 3e ae d0 ea 3c 7e a9 b3 bd
       0.023456901 0.12793607 0.02866396 -0.087725624
0001c0 0a 6a 3a be 92 ed dc bd 7f e3 06 be d9 4d cf bd
       -0.18204513 -0.107875004 -0.1317272 -0.1012227
0001d0 f4 31 0f bd 26 fd 77 be 9d c7 91 be e1 83 0e 3e
       -0.03495975 -0.24217662 -0.28472605 0.13917495
0001e0 eb 7b 13 3d 3a 86 00 be 1f c7 2d 3d cc 8a 72 3e
       0.03600685 -0.12551203 0.042426225 0.2368576
0001f0 81 b3 9c 3e 3a 8c 7d be f0 51 b6 bd 79 92 63 be
       0.306057 -0.24760523 -0.08902347 -0.22223844
000200 e2 e3 19 be 15 d6 93 3d 67 58 b5 bd db 06 a7 3c
       -0.15028337 0.07218567 -0.08854752 0.020389011
000210 13 e5 d6 3d 01 96 07 be dc 68 a2 3d 6d 83 2b 3e
       0.10492911 -0.13240816 0.079301566 0.16749354
000220 00 04 9c 3d b5 5f 03 3e 59 73 37 be f7 70 42 3e
       0.076179504 0.12829478 -0.17915095 0.18988405
000230 73 e1 3e bc 2e 7f da 3d cc be 92 be 68 54 ef be
       -0.011650431 0.10668789 -0.2866119 -0.46744084
000240 5e b0 a2 3e 5c 7a ae 3c af a3 6c 3e 1f d5 8c 3e
       0.31775182 0.02129858 0.23109315 0.27506348
000250 be dd eb bd 7f a1 9a bd ee a3 33 3e dd 8e bd bd
       -0.11516903 -0.07550334 0.17543003 -0.09255765
000260 4d 33 f0 3d 55 5e 17 3e 62 2c 18 3e ee 8a 92 be
       0.11728535 0.14782079 0.1486068 -0.2862162
000270 e4 4f 72 3c b0 a3 07 3d 22 f8 ca 3a fb 5a a9 bd
       0.014789555 0.03311509 0.0015485326 -0.08269306
000280 d8 9f 72 3e 60 d9 77 bd 05 05 80 3e 9f b7 0b 3e
       0.23693788 -0.06051004 0.2500383 0.13644265
000290 b0 4e 42 be 9b 47 66 3e 3d 30 90 bd 0a 23 60 3e
       -0.1897533 0.22488253 -0.07040451 0.21888366
0002a0 e7 1e 1f 3e 2d 3c a5 bd bd 5b 04 3e 05 c3 24 be
       0.15539132 -0.08068118 0.1292562 -0.16090019
0002b0 f0 fa 84 bd 21 7f 39 be 1a a2 c2 bc ef 2d 90 3c
       -0.06493175 -0.18114902 -0.023758937 0.017600028
0002c0 64 15 21 be eb 44 a6 3d 4d 08 dd bd 43 bc 08 be
       -0.15730816 0.08118614 -0.10792599 -0.13353066
0002d0 8e 71 9a 3d 6a c0 a3 3d 23 62 36 3e 9f 09 14 3e
       0.0754119 0.079956844 0.17810874 0.14456795
0002e0 4d 18 98 bd 0a 08 84 3e 81 5a 34 3c 30 99 49 3e
       -0.0742651 0.25787383 0.011007906 0.19687343
0002f0 77 a2 09 be 7f 9a ba 3d 93 45 20 3e a7 fd e2 3d
       -0.13440882 0.09111499 0.1565154 0.110835366
000300 23 be 21 bd 2c 20 45 be 77 0c 88 be d5 78 1b bd
       -0.03948797 -0.19250554 -0.2657201 -0.03795703
000310 90 90 e6 3d 3f 6a 29 3e 50 1c bf bd d7 c3 89 bd
       0.11258042 0.16544436 -0.09331572 -0.067268066
000320 1b 7b 3f 3e 5c e9 5c bd 61 00 41 bd ca 94 bb bd
       0.18699305 -0.053933486 -0.047119502 -0.09159239
000330 d9 7e a4 3e ea 86 6b 3d 2d 61 99 be 25 92 c7 bd
       0.32128027 0.05750171 -0.29956952 -0.09744672
000340 fa ee bd bc ea 66 4e be 38 29 bf bd 3b c9 02 be
       -0.023185242 -0.20156446 -0.09334034 -0.12772076
000350 53 ad 0e be c4 97 e6 bb a6 77 fb bd 28 a5 13 bd
       -0.13933305 -0.007037135 -0.122786805 -0.036046177
000360 45 6d 5d bc c7 ad b2 3d 33 c8 ac bc 3a 36 65 3d
       -0.013514821 0.08724552 -0.021091556 0.055959918
000370 65 2d eb 3d e7 e2 d4 bc 43 92 40 3b d4 aa e6 bd
       0.11483268 -0.025987102 0.0029384054 -0.11263052
000380 b7 37 1e 3e 1a b6 02 3e 69 0a b1 3e d2 93 12 be
       0.15450941 0.12764779 0.34578255 -0.14314201
000390 88 5b 44 be 46 0d 54 3e 3a 03 2e be 85 e3 d3 bc
       -0.19175541 0.20708188 -0.16993418 -0.025865326
0003a0 82 a6 8b 3e f6 6d 91 3e a1 14 dc 3e b0 2d 21 3c
       0.27275473 0.28404206 0.4298449 0.009837553
0003b0 62 52 cc be ce 35 6a 3d b4 d5 3e 3e d6 be 13 3d
       -0.39906603 0.05718022 0.18636209 0.036070667
0003c0 3f 53 7d bd b7 14 73 be 45 fd 81 be 17 3b ea 3b
       -0.061846968 -0.23738371 -0.25388542 0.0071481573
0003d0 82 62 46 bd be 6f 09 be 98 fb 0f 3d ca 32 33 3d
       -0.048433788 -0.13421533 0.035152048 0.043749608
0003e0 56 e2 cf 3c 92 d2 29 3e d4 16 54 3d 79 d5 d3 bd
       0.02537648 0.16584232 0.051779583 -0.10343451
0003f0 6f ce f3 bd a7 fc 77 3d 5f 23 1a 3e 15 3a d6 3e
       -0.119046085 0.060543682 0.15052556 0.41841188

linears.3.bias f4 [40]
000000 02 aa ac 3d e0 2c e8 3b 27 df bf 3c 8b b8 39 be
       0.08430864 0.0070854276 0.023421837 -0.18136804
000010 7a c8 f2 3a 29 82 a3 3b d5 04 cc bc 33 04 7f 3b
       0.0018522881 0.0049898815 -0.024904648 0.0038912415
000020 d3 9c e5 3c 77 95 66 bc 2f 47 50 3c 70 da a6 3b
       0.028028881 -0.014073721 0.012712284 0.0050919577
000030 28 97 98 bc 10 25 f8 3b 10 22 0d 3e 48 8b cb 3c
       -0.018626764 0.0075727776 0.13782525 0.024846688
000040 0c 75 8e 3d 59 3f 08 3b 0a d8 1d 3b 64 e7 1a 3c
       0.06955919 0.0020789711 0.0024085068 0.009454582
000050 74 3a 52 bc 4a 7e af bb 35 e2 d9 3c af 94 80 ba
       -0.012831319 -0.005355631 0.026597122 -0.0009809936
000060 58 72 b7 3c c4 48 15 3d 06 c6 4d 3d d5 53 a6 bb
       0.02239339 0.036446348 0.050237678 -0.0050759115
000070 06 4b 61 3c a5 03 90 bc 14 58 dd 3b 3d e9 a6 3c
       0.013750797 -0.017579863 0.0067548845 0.020374889
000080 06 7f 29 bb 7f 3a 6f 3c 13 61 31 bb eb 59 5b bb
       -0.0025863065 0.014601349 -0.0027065917 -0.0033470343
000090 d1 b8 01 3d 17 0d 4f 3c d9 84 91 3a 73 31 18 bb
       0.031670395 0.012637398 0.0011102214 -0.0023222833

linears.4.weight f4 [40, 40]
000000 5f 53 c9 3d 44 b0 01 3e ff 32 21 bd 1a 38 0a 3e
       0.09830355 0.12664896 -0.039355274 0.13497964
000010 25 f5 60 bd 59 e7 dc 3d d2 30 0e 3e b0 a1 f6 bd
       -0.054921288 0.107863136 0.13885811 -0.12042558
000020 cb d5 e9 3c db 40 a4 bc 08 3f 0b 3e ea 6c c9 3d
       0.028544327 -0.020050457 0.13598263 0.09835227
000030 37 35 41 bd 64 7c b6 3d f4 6f b0 3d 9e 09 19 be
       -0.04716989 0.089104444 0.08615103 -0.14945075
000040 12 b6 1c 3d ab d4 92 bd 51 5e 44 3e e4 fe fd bd
       0.038259573 -0.071694694 0.19176604 -0.12402132
000050 6e c5 4e 3d 8d 2b dc 3d 44 4d 52 be f1 de 9e 3e
       0.050481252 0.10750494 -0.20537287 0.31029466
000060 b4 c6 b5 bd d6 a7 b4 3d b4 14 8e be 17 c3 1b 3e
       -0.0887579 0.08821075 -0.2775017 0.1521114
000070 f0 ee 8b 3d c4 8c e6 3d c2 e3 48 3d 33 42 18 bd
       0.06832683 0.11257318 0.04904533 -0.037172507
000080 c1 84 ee bd 5b 9c 19 3c 5c 44 fc b8 8f cc 65 3c
       -0.116464145 0.009375657 -0.00012029029 0.014025821
000090 43 ea a2 be 72 32 4c be ba be 9a 3e 40 74 86 3e
       -0.31819353 -0.19941118 0.30223638 0.26260567
0000a0 3e de 44 3e 7c ee 26 3e 07 33 24 be 88 c9 20 3e
       0.19225404 0.16301912 -0.1603509 0.15701878
0000b0 a3 a2 56 3e 14 47 00 be 63 d0 17 3e db 18 53 3b
       0.20960478 -0.12527114 0.14825587 0.003221086
0000c0 09 72 aa be 91 f2 dc bd 2d c8 93 be 9a ca db 3e
       -0.33290127 -0.10788453 -0.2886366 0.4292801
0000d0 3e 81 67 be c0 f6 97 3d 98 97 9e bc 2a 92 f9 be
       -0.22607896 0.07420111 -0.019359395 -0.48744327
0000e0 8a 9d d6 3d 77 e7 65 3d 14 d5 31 be 49 43 ed 3d
       0.10479267 0.056128945 -0.17366439 0.11585099
0000f0 a4 00 e7 3c df d9 58 3e 75 91 36 3e de 3f 81 3e
       0.028198548 0.21176861 0.17828925 0.2524404
000100 a7 65 dd be eb cc 99 3a 6e 5b 72 be 0b b6 a2 3d
       -0.43241617 0.0011734044 -0.2366769 0.07944878
000110 30 f1 38 be 07 c1 39 3e 1d 5f 99 3e 1e 5b 71 bd
       -0.18060756 0.1814004 0.29955378 -0.058924787
000120 26 f1 b7 bd a0 71 6d 3e ce e4 46 bd d2 88 a2 3e
       -0.08981542 0.23187876 -0.04855805 0.3174501
000130 74 4b 3b be 29 05 28 be 89 0c 6e bc 73 c0 45 3e
       -0.18290502 -0.16408218 -0.014529356 0.19311695
000140 75 58 a2 3e 39 75 61 3e c6 f4 55 be 67 01 8d bc
       0.31708112 0.22017373 -0.20894155 -0.017212583
000150 54 e9 74 3e 36 85 d4 bd 66 0a 02 3d a3 ae 06 be
       0.23917133 -0.103769705 0.031748198 -0.13152556
000160 37 27 84 3d 58 55 51 bd e6 a5 01 be e7 c2 69 3e
       0.06452792 -0.05110678 -0.12660941 0.22828256
000170 2c 6a 85 3c 51 d8 af 3e b7 ed 68 3b 3f d8 53 be
       0.016285978 0.34344724 0.003554208 -0.2068796
000180 36 5a d2 bd ec dd d2 be 0b ea c0 bc 97 3a 78 3d
       -0.102711126 -0.41184938 -0.0235491 0.06060275
000190 49 b2 07 be 5a 4e 6e be 74 2c a3 3d 02 aa 94 3d
       -0.13251604 -0.23272076 0.07967463 0.07258989
0001a0 3a 1d 3e 3e 54 37 47 3e 43 3c 47 be 86 3d c1 3e
       0.18565837 0.194547 -0.19456582 0.3774225
0001b0 60 04 80 3e 38 7b 58 be f3 31 d5 3d 2c d3 49 bd
       0.25003338 -0.21140754 0.10409918 -0.049273655
0001c0 85 13 8e 3d 4e d2 86 3e 57 34 37 3d 40 05 70 be
       0.06937317 0.26332325 0.04472765 -0.23439503
0001d0 40 96 b8 3e 24 fd 9d 3c c2 ee 82 3d 81 80 a4 bd
       0.36052132 0.019285746 0.06393196 -0.08032323
0001e0 28 0c 94 3d 22 5b 70 be ed 1a 89 be 07 ba 36 3e
       0.07228881 -0.23472264 -0.26778355 0.17844401
0001f0 6e 0b 29 be 9a c0 41 bc 37 7a 29 3d cf 4d d6 bc
       -0.16508266 -0.011825705 0.04137632 -0.026160149
000200 00 c9 2e be 40 7f 19 3d f1 59 07 be 40 9b 95 3c
       -0.17068863 0.03747487 -0.13217904 0.018262506
000210 56 8c cf bc e7 2a b4 be 3e 4c e2 bd 8f 08 bf 3c
       -0.025335472 -0.35188982 -0.11049698 0.02331951
000220 4b a6 8e bd 7c 13 38 bd 59 ca 8e ba 16 03 6d be
       -0.069653116 -0.044940457 -0.0010894045 -0.23145708
000230 73 ad 98 be be ea 2d bd 9c 2a 4b bd 6d e9 e5 bd
       -0.2981983 -0.042460196 -0.049601182 -0.11226163
000240 5e f9 00 3f bc 80 83 3b 63 c0 e8 bb 71 3b e7 3c
       0.50380504 0.004013149 -0.0071030124 0.028226586
000250 f9 ae e7 3d 65 ed 80 be aa 75 c6 b9 c2 65 3c bc
       0.1131267 -0.25181118 -0.0003785317 -0.01149887
000260 96 9f 50 3d 72 48 05 3e a1 6d 5d be c5 b5 4b be
       0.050933443 0.13015917 -0.21623851 -0.19893558
000270 6d dd d1 bd 7a 83 b4 bd 44 ec 25 3d 08 4d 88 3b
       -0.10247312 -0.0881414 0.040508524 0.0041595735
000280 f8 b1 93 bd 70 d4 59 3e fa c2 9f be 86 08 22 3e
       -0.07211679 0.21272445 -0.31203443 0.15823564
000290 9f 5c 57 bd 1d e7 42 bc 48 62 67 3e 18 46 e8 bd
       -0.052578565 -0.011895922 0.22596085 -0.11341494
0002a0 72 7b b4 3d db fc b5 3e 5a a4 01 bd 65 2b 81 3e
       0.08812608 0.35544476 -0.03165088 0.2522842
0002b0 6f ea 81 3e 3c 7e 96 be 4a 0e 93 bd 5b 45 ad 3c
       0.2537417 -0.29393184 -0.0718046 0.021151235
0002c0 c8 ee 69 be 84 e7 58 be 84 25 83 be c4 29 19 bb
       -0.22844994 -0.21182066 -0.2561456 -0.0023370842
0002d0 37 cd f3 bd 7f a1 32 3e 01 aa 25 3e ac 20 3f bb
       -0.11904376 0.17444418 0.16178133 -0.002916376
0002e0 7c 19 91 bd be 74 71 3b f0 16 87 bd ec 08 90 3c
       -0.07084939 0.0036843265 -0.06596172 0.01758238
0002f0 a3 33 f5 bc 78 eb 3c 3d 69 72 6a bd 57 0b ca bc
       -0.029931849 0.046122998 -0.057238016 -0.02466361
000300 80 f3 bc 3d a6 50 92 3d 60 40 82 3e db 13 99 be
       0.092261314 0.07144289 0.2543974 -0.2989796
000310 58 c3 e5 bd ad f4 2b 3e 7c 64 5f bd b5 27 19 3d
       -0.112188995 0.16792555 -0.05453919 0.037391383
000320 c3 90 7b 3d e9 24 eb bd ad b9 9c 3d 2d d3 69 3d
       0.061417352 -0.114816494 0.07652602 0.05708616
000330 e6 8a c7 bb 06 d2 9f bd 62 cd 0d 3d ee cf a5 be
       -0.006089556 -0.07803731 0.034619696 -0.323852
000340 43 7e ac 3d b4 67 27 3d b6 f5 8e bc 46 3d 28 be
       0.0842252 0.040870383 -0.017451148 -0.16429624
000350 3c 62 e7 3d 35 f8 92 bc 6e 8b 00 bc 79 0a 17 be
       0.112980336 -0.01794062 -0.007845743 -0.14750089
000360 43 09 10 3e c5 38 c2 3d 92 f1 2a be 62 a3 4a be
       0.14066033 0.09483484 -0.16693714 -0.19788888
000370 f9 81 92 3e 8b 6d 76 bc e0 56 06 bd 13 96 21 bd
       0.28614786 -0.0150407655 -0.032797694 -0.039449763
000380 4e 08 1d be 43 75 29 bd 17 b9 ba bd 51 1a a6 3e
       -0.15335199 -0.041371595 -0.09117334 0.32441953
000390 f9 09 ca 3c 88 84 f9 3d d2 34 36 be 25 bc fe bc
       0.024662958 0.121834815 -0.17793587 -0.031095574
0003a0 58 8b 85 3d 61 1b 0a 3e 99 14 60 bd 3c 0e b7 3d
       0.06520718 0.13487007 -0.054707143 0.08938262
0003b0 ce dd b0 bd d4 2f ca 3c 89 f1 af be 40 59 ed bd
       -0.08636056 0.02468101 -0.34363964 -0.11589289
0003c0 b3 f5 84 bc 0d bd ca 3d e4 1d 81 be 9b 7a 14 be
       -0.01623044 0.0989934 -0.25218117 -0.14499895
0003d0 4c 48 db 3d 78 dd 6f bd c9 d8 1d be 7e 1d a9 bd
       0.10707149 -0.05856082 -0.15414728 -0.08257578
0003e0 e7 7c 89 be ea 7d a2 be ee 8e 0b be d9 55 8f 3e
       -0.26853105 -0.3173669 -0.13628742 0.27995184
0003f0 1f cd 26 bd 9d 58 f3 3d a3 71 52 3e 92 21 2e 3d
       -0.040722962 0.11882136 0.20551161 0.042512484

linears.4.bias f4 [40]
000000 09 37 3d bc e8 d0 0c bc 04 72 0e bb 08 de bd ba
       -0.011548766 -0.008594729 -0.002173544 -0.0014485726
000010 c1 c6 77 bc 63 65 09 bd 41 35 28 bc 52 c4 d6 3c
       -0.01512307 -0.033543956 -0.010266603 0.02621666
000020 23 4f 91 3c 94 c9 b1 3c a3 0a e5 bc 3b c0 a4 3c
       0.01773793 0.021702565 -0.027959174 0.020111194
000030 c9 28 9a bc ef f5 7c bb 53 7b 46 bd 0c ce 20 bc
       -0.018818276 -0.0038598736 -0.048457455 -0.00981475
000040 67 14 44 3c d8 d1 a6 bc 51 15 e6 3c 0d 8c 6f bd
       0.011967755 -0.020363733 0.028086336 -0.058483172
000050 a5 6b 74 be 4f 0e b7 bc 6c bc 41 3d 4e 34 45 bb
       -0.23869188 -0.02234569 0.047298834 -0.003009099
000060 cf aa b1 ba cd 66 9c 3c ff 9b 31 bd 97 82 94 3e
       -0.0013554933 0.019091988 -0.04336166 0.29005882
000070 f3 9b 8f 3d ea 64 61 bc e6 7b c6 bb 93 18 5f bb
       0.07012167 -0.01375697 -0.0060572503 -0.0034041747
000080 28 90 1b bb c0 b8 83 3d b8 7a 69 3b 61 bc 34 bc
       -0.0023737047 0.06431723 0.0035626125 -0.011031241
000090 2c 51 57 bc 7c 8e 54 bb 35 d9 47 bb b8 cd e7 bb
       -0.0131419115 -0.003243356 -0.0030494456 -0.007074084

linears.5.weight f4 [1, 40]
000000 fc ae 89 3e 5c 39 25 3e 06 c4 7a 3b 26 a3 3f be
       0.26891315 0.16135162 0.0038263812 -0.1871458
000010 8b d2 c3 3c cf 4a 09 3d 97 11 e0 3d 5d f8 9d be
       0.023904106 0.03351861 0.10940855 -0.3085355
000020 39 a7 06 be 64 5a 8b be 07 57 7c 3d 91 04 6c be
       -0.13149728 -0.272174 0.061606433 -0.23048617
000030 8b 49 3b 3e 49 e5 e7 be 94 e4 25 be 50 2e 37 bf
       0.18289773 -0.45292118 -0.16200477 -0.7155504
000040 39 9f 74 3e 08 e6 91 3e 2f b3 1a bf ab 55 0b 3c
       0.23888864 0.28495812 -0.6042966 0.008504312
000050 ed ec 86 bd 15 56 9c be 79 27 d3 bd 33 67 cb be
       -0.06588159 -0.30534425 -0.10310263 -0.39727172
000060 e3 91 20 be 60 af fd bd f7 d4 db 3e 39 08 7d b8
       -0.15680651 -0.12386966 0.42935917 -6.032756e-05
000070 99 df f4 bd 64 b7 0b be 49 4f b5 3e 9a 57 d4 3e
       -0.1195671 -0.13644177 0.35412052 0.41473085
000080 c0 f5 be 3d 13 f6 8a 3e 43 45 0e 3e 30 d8 81 3e
       0.09324217 0.27140865 0.13893609 0.2536025
000090 ed eb 59 be b8 1b 87 3e 97 70 a5 3b 53 c6 a0 3e
       -0.21281405 0.26388335 0.005048822 0.3140131

exp_avg f4 [40, 2]
000000 c0 e8 64 ba ba 52 a6 b8 30 91 a3 b9 12 db 08 b7
       -0.0008732192 -7.930906e-05 -0.00031197956 -8.157238e-06
000010 dc 4e 37 b9 d1 06 1d b8 9c 24 08 ba eb 5b a2 b8
       -0.00017481617 -3.7438065e-05 -0.00051934435 -7.741883e-05
000020 af 01 15 38 59 78 89 b8 06 51 94 ba 6c a0 81 b8
       3.5525936e-05 -6.5550856e-05 -0.0011315651 -6.18108e-05
000030 af 58 91 ba f6 62 05 b9 6b 74 4c 39 24 e0 fe 37
       -0.0011089052 -0.00012720734 0.00019498325 3.0383533e-05
000040 9e 21 d5 b9 ad 30 de b7 2b 73 9d ba 63 35 95 b8
       -0.00040651573 -2.6487129e-05 -0.0012012472 -7.114818e-05
000050 d4 16 2f 3a 36 f6 7e 38 07 08 1f 3a bc db 2a 38
       0.0006679122 6.078762e-05 0.0006066565 4.0735802e-05
000060 fc 9e b7 b9 ec 83 ec b8 7c 71 ea b8 44 4c 1c b8
       -0.00035022933 -0.00011277929 -0.000111791276 -3.7264326e-05
000070 c5 4d 07 ba 1c 79 af b6 ac ea b0 b9 36 d5 fd 37
       -0.000516143 -5.2295054e-06 -0.0003374418 3.0259234e-05
000080 f5 57 3c 3a d3 67 2f 38 d3 0a 02 b9 a2 0f 92 b8
       0.00071847375 4.1819945e-05 -0.00012401798 -6.964734e-05
000090 54 87 eb 37 8e cc 9d b8 54 53 1a 3a b5 b5 ef b7
       2.80772e-05 -7.524445e-05 0.00058870506 -2.8575634e-05
0000a0 64 fa 5f 3a 22 12 e6 38 17 8d 9e b8 58 0d 75 b8
       0.0008544086 0.00010970632 -7.560307e-05 -5.842498e-05
0000b0 99 64 a5 b8 60 5e 56 b8 ed c4 a7 39 fe bc 2c 38
       -7.886551e-05 -5.110947e-05 0.00031999443 4.118401e-05
0000c0 c1 b8 66 39 a6 37 50 37 7f b1 0e 39 d9 d9 ca b7
       0.00022003335 1.2410723e-05 0.00013608298 -2.418172e-05
0000d0 2e 3b 73 3a d5 cc c6 38 06 ce 60 ba e9 b6 50 b8
       0.0009278533 9.479529e-05 -0.0008575622 -4.9761413e-05
0000e0 db 28 8a b9 fb d2 13 b8 08 91 fc b9 ad bc 90 37
       -0.0002635185 -3.5244022e-05 -0.00048173242 1.7253997e-05
0000f0 5b 7e 54 ba e9 d4 b1 b7 7b b9 8d 39 c4 71 08 38
       -0.00081059866 -2.1199188e-05 0.0002703181 3.253088e-05
000100 44 0e 16 38 3b 7e 4d 38 8d 45 1d 3a dc b9 40 37
       3.5776073e-05 4.899337e-05 0.00059994386 1.1487366e-05
000110 43 b4 d0 b9 16 a1 a0 38 d4 cb 3f ba 20 89 9f b8
       -0.00039807157 7.659399e-05 -0.00073164445 -7.607252e-05
000120 d1 7a 92 3a 99 0e 5d 38 aa ce 84 ba d4 43 cb b7
       0.0011175518 5.27041e-05 -0.0010132391 -2.423107e-05
000130 8d a0 00 39 85 2d 95 38 af d8 1b 3a 38 d0 66 b7
       0.00012266841 7.113352e-05 0.0005945069 -1.3757548e-05

exp_avg_sq f4 [40, 2]
000000 dc 71 b2 3a 88 fd c1 37 2b ac 12 3a c9 ee 25 37
       0.0013614255 2.3125453e-05 0.0005595113 9.890363e-06
000010 6c 6e bd 38 6f 32 de 36 bd 0d 30 3a 9f dd 20 38
       9.03279e-05 6.621987e-06 0.00067159144 3.8353373e-05
000020 ff a5 30 39 4f 6d 2e 37 92 fc 27 3b 05 d3 fe 37
       0.00016846506 1.0396659e-05 0.0025632721 3.0377423e-05
000030 33 04 06 3b ae 9c 0c 38 db 82 4d 39 ce e8 f3 37
       0.002044928 3.352452e-05 0.00019599071 2.9076265e-05
000040 d0 40 1c 3a 54 0e 91 38 94 89 7d 3b 1c 43 b1 35
       0.00059605855 6.9168076e-05 0.003868674 1.3207059e-06
000050 b6 e6 5d 3a e1 fd 5a 38 f9 ba c4 3a 29 13 23 39
       0.00084648596 5.2211693e-05 0.0015009335 0.00015552029
000060 14 34 90 39 50 be 6f 38 fc d3 5d 39 87 1b fc 37
       0.00027504622 5.7159283e-05 0.00021155173 3.005356e-05
000070 bc cd 5d 3a 78 ee 81 35 ef c9 3a 3a 2b 2e 61 36
       0.0008461138 9.680653e-07 0.00071254274 3.3554486e-06
000080 67 f0 94 3a 26 5f 12 34 64 b3 3d 39 7e 69 a0 36
       0.0011363149 1.3631924e-07 0.00018091273 4.7806525e-06
000090 09 e6 a8 37 11 0a b9 37 e4 da 79 3a b9 e4 c4 37
       2.013428e-05 2.2058406e-05 0.00095312134 2.3471528e-05
0000a0 86 e1 a2 3a 10 9d e9 37 04 2f f7 39 2c c7 b4 37
       0.001242683 2.7848902e-05 0.0004714654 2.1550419e-05
0000b0 b5 9a 66 38 d3 5e 6c 36 f1 26 be 39 2c 0f b9 37
       5.4980355e-05 3.5221935e-06 0.00036268638 2.2060784e-05
0000c0 24 3c 2d 39 d2 a5 03 37 3a 67 41 39 9d 11 b8 35
       0.0001652097 7.8468165e-06 0.00018444369 1.3714194e-06
0000d0 f6 83 b9 3a 98 7d a2 38 7e 2d ab 3a e4 54 73 38
       0.0014153707 7.7481556e-05 0.0013059822 5.8014775e-05
0000e0 10 02 49 39 5a 7f e6 37 36 60 85 3a 3f 97 51 36
       0.00019169622 2.747744e-05 0.0010175768 3.1231464e-06
0000f0 6b 94 16 3b cb a6 e7 35 0c 95 86 39 4d 10 d6 37
       0.0022976648 1.7259384e-06 0.0002566952 2.5518379e-05
000100 25 2c cb 38 96 05 83 36 e2 14 2d 3a 0b 88 00 37
       9.688017e-05 3.9047545e-06 0.0006602538 7.6610695e-06
000110 cf 2b b1 39 fe 08 0d 39 ae 8a 83 3a de 53 b4 37
       0.0003379271 0.00013450158 0.0010035837 2.1496726e-05
000120 48 5d 0a 3b ec 8a 60 38 ae 98 10 3b c3 60 51 38
       0.002111273 5.3535143e-05 0.002206366 4.99196e-05
000130 85 1c c9 38 3f 1d a7 36 1b b9 2b 3a 30 91 2c 38
       9.589739e-05 4.9803925e-06 0.0006550715 4.1143212e-05

exp_avg f4 [40]
000000 f5 fd af 39 bc 05 70 39 4c 6f 95 37 10 d4 81 39
       0.00033567814 0.0002289032 1.781401e-05 0.00024762796
000010 85 a3 13 b8 b0 5e d5 39 7c 72 a6 39 78 99 31 39
       -3.519982e-05 0.00040697074 0.00031747285 0.00016937207
000020 2b b1 84 39 90 ae 00 3a fc 40 8f b9 bc 64 eb b9
       0.00025309002 0.00049088243 -0.00027323503 -0.00044897746
000030 79 09 94 b7 56 ef 91 b9 27 13 76 39 94 5c 4b 38
       -1.7647386e-05 -0.00027834874 0.00023467523 4.848519e-05
000040 13 c6 94 b9 5c d0 29 38 65 0b 88 b9 94 30 ad b9
       -0.00028376337 4.048679e-05 -0.0002594843 -0.00033033325
000050 be 33 1e b9 e9 ea d3 b8 09 ef 00 39 c1 bb b1 b9
       -0.0001508733 -0.000101050195 0.00012296079 -0.00033899958
000060 49 d3 92 b8 b4 c5 1e b9 2b d3 49 b9 65 4d 07 3a
       -7.0011774e-05 -0.00015141704 -0.0001924752 0.0005161374
000070 d3 29 a6 b8 b0 95 a2 39 15 2a cf 37 b6 5e 1c b9
       -7.923287e-05 0.00031010574 2.4695919e-05 -0.00014912602
000080 9b f3 df 38 3f 80 f3 b9 f2 2e 9a 39 e6 33 71 39
       0.00010678844 -0.00046444123 0.00029408146 0.00023002885
000090 99 a6 1f ba 63 ca 9d 39 d9 7d 37 39 63 49 c3 b9
       -0.00060901936 0.00030096163 0.00017499122 -0.00037247976

exp_avg_sq f4 [40]
000000 ab ee ba 37 9c a1 29 39 b3 0b c5 36 c0 48 15 39
       2.2284066e-05 0.000161773 5.8724195e-06 0.00014236849
000010 25 8e dd 38 17 6a 6b 38 ce 1c 78 38 9a 37 0b 3a
       0.00010564578 5.612717e-05 5.9154634e-05 0.00053107145
000020 fc f3 7c 3a 7b 00 79 3a c1 dc 94 39 c6 33 24 3b
       0.00096493936 0.0009498668 0.00028393234 0.0025055273
000030 4a bc 01 3b f1 72 a1 39 65 d0 38 39 6d 21 d0 38
       0.0019796067 0.0003079395 0.0001762524 9.924439e-05
000040 a0 39 c7 39 e2 5d 5b 37 6e a2 ec 39 9c 69 04 38
       0.00037999172 1.3075276e-05 0.00045134447 3.156961e-05
000050 0f 21 32 38 5f a9 7e 39 ce 7a 81 38 7d f1 73 39
       4.2469295e-05 0.00024286423 6.1740735e-05 0.00023264247
000060 15 a7 b3 38 12 71 2f 39 b3 91 bb 39 9a 21 90 39
       8.5665066e-05 0.00016731423 0.00035775974 0.00027490855
000070 52 0d bd 39 54 87 65 39 4c 71 30 3a 3a 80 e0 39
       0.00036058814 0.00021889556 0.000673075 0.00042820146
000080 da 01 10 36 b1 61 33 38 6a 60 bf 3a b1 80 66 38
       2.145875e-06 4.2767908e-05 0.0014600877 5.4956126e-05
000090 19 de 8a 38 5b 40 93 39 28 62 fb 37 9b f7 9d 38
       6.621722e-05 0.00028085973 2.996724e-05 7.5324635e-05
