modelos/heat_20x6-20000.pt (torch, 42958 bytes, 39 tensors)

linears.0.weight f4 [20, 2]
0	0x3e34d03d	0.17657562
1	0xbe1f1994	-0.15537101
2	0xbd906d70	-0.070521235
3	0x3e98f2c3	0.29872712
4	0xbe1969cd	-0.14981766
5	0xbebf545b	-0.37369046
6	0x3f305bb4	0.6888993
7	0xbe80dc68	-0.25168157
8	0x3d9b02ac	0.07568869
9	0x3df54887	0.11976724
10	0x3ef5007d	0.47851935
11	0x3eb37162	0.35047442
12	0x3e879f8f	0.2648892
13	0x3e712eab	0.23552959
14	0xbe245c34	-0.16050798
15	0xbf0c7029	-0.5485864
16	0x3ed57a3f	0.4169483
17	0xbf1d0083	-0.61328906
18	0x3eca07a6	0.3945896
19	0xbe131eaf	-0.14367174
20	0x3eac7850	0.3368554
21	0x3e0632d7	0.13105331
22	0x3ee433b1	0.44570687
23	0xbf3587b8	-0.70910215
24	0xbd39d06b	-0.04536478
25	0x3ed21c59	0.41037253
26	0x3e4cf244	0.20014292
27	0xbeaf37f3	-0.34222373
28	0xbe59eb9b	-0.21281283
29	0x3d596966	0.05307903
30	0xbe086023	-0.13317923
31	0xbcf04731	-0.029330822
32	0xbdad0fbd	-0.084502675
33	0x3e936ef7	0.28795597
34	0xbc7a1b9d	-0.015265373
35	0x3f0abb70	0.54192257
36	0xbe815fd1	-0.25268415
37	0xbe56209e	-0.2091088
38	0x3ee72aee	0.4514994
39	0x3ee79760	0.45232677

linears.0.bias f4 [20]
0	0xbc5aa5bd	-0.013345179
1	0x3d332e9f	0.043745633
2	0xbdbfc545	-0.09363798
3	0xbd526762	-0.051368125
4	0x3c1041be	0.008804737
5	0xbd636d9f	-0.055524465
6	0xbb72e78d	-0.0037064285
7	0xbd1dc332	-0.03851623
8	0xbd024d0a	-0.03181175
9	0xbd12e888	-0.03586629
10	0xbd3227c6	-0.043494962
11	0xbce02370	-0.027360648
12	0xbb9dfb5a	-0.004821223
13	0xbd06a364	-0.032870665
14	0x3c970022	0.01843268
15	0xbc4bc90c	-0.01243807
16	0x3c4990db	0.012302603
17	0x3d594d4d	0.053052235
18	0x3ce4444c	0.027864598
19	0x3d0ba5a1	0.034093503

linears.1.weight f4 [20, 20]
0	0x3de0f356	0.10983913
1	0x3e808ef9	0.2510908
2	0x3ccfe059	0.025375532
3	0x3ec53041	0.38513377
4	0xbe01a7b9	-0.12661637
5	0x3ea4e988	0.3220942
6	0x3e2de386	0.16981325
7	0x3f09af9c	0.53783584
8	0xbe673bbd	-0.22581382
9	0xbe919d41	-0.28440288
10	0x3d98e034	0.07464638
11	0x3b9ca332	0.0047801966
12	0xbe5e3ca3	-0.21702819
13	0xbe7c696f	-0.24649595
14	0xbd645f2c	-0.055754825
15	0x3c44ce20	0.012012035
16	0xbe6adac6	-0.22935018
17	0xbe8dbced	-0.276832
18	0x3e035d87	0.12828647
19	0x3c8b598f	0.017010478
20	0x3e8aedb5	0.2713448
21	0xbe85dbb2	-0.26144177
22	0xbf03328a	-0.5124899
23	0xbeb00ad1	-0.34383252
24	0x3d92ae90	0.071622014
25	0xbe81d062	-0.25354296
26	0x3d461965	0.04836406
27	0xbe9e4e8e	-0.30919307
28	0xbda49798	-0.08036727
29	0xbce1fc85	-0.027586231
30	0x3e00b9ab	0.12570827
31	0xbe70641a	-0.23475686
32	0xbe92694f	-0.2859597
33	0xbe477996	-0.19479975
34	0x3e5fde8c	0.21862239
35	0x3dadfd97	0.08495634
36	0xbe9232d8	-0.28554416
37	0x3eb4e1e7	0.353286
38	0xbe9ffbd6	-0.31246823
39	0x3d6ed441	0.05830789
40	0x3ead80ce	0.33887333
41	0xbb987ccc	-0.004653549
42	0x3e530774	0.20608312
43	0x3e9c5310	0.30532122
44	0x39f160b5	0.00046039154
45	0xbe155a84	-0.1458531
46	0xbeb70f1e	-0.3575372
47	0xbd67f841	-0.056633238
48	0xbeab28b4	-0.33429492
49	0x3eb2bc9b	0.3490952
50	0x3e9b51f1	0.30335954
51	0xbe55a16f	-0.20862363
52	0x3ef2ac5c	0.47397125
53	0x3df53366	0.11972694
54	0xbd172c4d	-0.036907483
55	0x3e300bc2	0.17191985
56	0xbe27a2a4	-0.16370636
57	0xbcf8664e	-0.03032222
58	0x3e7d0e67	0.24712525
59	0xbeb3c2c9	-0.35109547
60	0xbd576adb	-0.05259214
61	0xbdf184df	-0.11792921
62	0x3f040bef	0.5158071
63	0xbe1bc0c4	-0.15210253
64	0x3ca65b4e	0.02030721
65	0xbe5631cf	-0.20917438
66	0xbd8db7e8	-0.06919843
67	0x3e0ae9d3	0.1356576
68	0x3e90118d	0.2813839
69	0xbe30072d	-0.17190237
70	0x3e3f61b5	0.18689616
71	0x3d7e3ff2	0.0620727
72	0xbeda5509	-0.42643002
73	0x3de18552	0.11011757
74	0x3e606fa8	0.21917593
75	0xbe7f4be8	-0.249313
76	0xbeae6652	-0.3406244
77	0xbe02461a	-0.12722054
78	0xbe98682e	-0.29766983
79	0x3dd94876	0.10609524
80	0xbeb1a69b	-0.34697422
81	0x3c6d44bd	0.0144817205
82	0x3df028f5	0.11726562
83	0x3cf6ba3d	0.030118102
84	0xbdc8cbe1	-0.09804512
85	0xbec04e43	-0.3755971
86	0x3ea0f8a6	0.31439704
87	0x3e503a60	0.20334768
88	0x3cf5ca96	0.030003827
89	0x3dc07b5b	0.09398528
90	0x3d557bd2	0.052120037
91	0xbd0a5233	-0.033769798
92	0x3b6e0a6b	0.0036322128
93	0x3e65be96	0.22435984
94	0xbdadf7ad	-0.08494506
95	0x3d9d7734	0.07688752
96	0xbd2bf960	-0.04198587
97	0xbe52f3de	-0.2060084
98	0x3ec440be	0.38330644
99	0xbece47f1	-0.40289262
100	0xbe67f44e	-0.22651789
101	0xbe8ab4bb	-0.2709101
102	0x3e2e22f8	0.17005527
103	0x3ca8fc4e	0.02062812
104	0x3dab891c	0.08375761
105	0xbd023003	-0.03178407
106	0x3eace587	0.33768865
107	0x3dd39113	0.10330405
108	0x3e691afc	0.227642
109	0xbe218a79	-0.1577548
110	0x3e805482	0.25064474
111	0xbdb8347f	-0.08994388
112	0x3df7ec92	0.12105669
113	0x3dd77c5c	0.105217665
114	0xbebc19b3	-0.36738357
115	0xbeaa446e	-0.33255333
116	0x3e838d78	0.2569387
117	0xbde7ad77	-0.11312383
118	0x3dab5ff6	0.083679125
119	0x3dd8fb82	0.10594846
120	0x3e9ef7d7	0.31048462
121	0xbed96990	-0.4246335
122	0x3d830222	0.06396891
123	0x3d88429a	0.06653328
124	0xbd7e2ac9	-0.06205252
125	0xbe1b92d2	-0.15192726
126	0xbebd50d5	-0.36975732
127	0xbbd923f1	-0.006626599
128	0x3e32d78f	0.17465042
129	0x3b9a31e9	0.004705657
130	0x3d765285	0.06013729
131	0xbd0af0b4	-0.03392096
132	0xbe5e9610	-0.21736932
133	0xbdb024d1	-0.08600772
134	0x3ddde87e	0.1083536
135	0x3e8a6e9b	0.2703751
136	0x3d5af80a	0.053459205
137	0x3d111c42	0.03542734
138	0xbf1f1287	-0.62137645
139	0xbeccb612	-0.3998266
140	0xbe2d7e4f	-0.16942714
141	0xbd6e3d6e	-0.058164053
142	0xbe0055f3	-0.12532787
143	0xb990c20c	-0.00027610397
144	0xbc4ad98a	-0.012380967
145	0x3ccb42a7	0.024812056
146	0xbe80890a	-0.25104553
147	0x3e287608	0.16451275
148	0xbd8bcd14	-0.06826225
149	0xbd7c7020	-0.06163037
150	0xbdd9ebd4	-0.10640684
151	0xbe3aeef2	-0.18255213
152	0x3e995255	0.29945627
153	0x3ea8d41a	0.3297432
154	0x3ec389df	0.38191125
155	0xbd863cdb	-0.06554576
156	0xbe194bc6	-0.14970312
157	0xbed998d6	-0.42499417
158	0x3d788053	0.060669255
159	0xbe6bc802	-0.23025516
160	0x3f1808b7	0.593883
161	0xbd3c156e	-0.045918874
162	0x3ecf272e	0.4045958
163	0x3e472b82	0.1945019
164	0xbe9bdd4a	-0.30442268
165	0x3e0c613a	0.13708964
166	0xbdbb9b7a	-0.09160514
167	0x3d495903	0.049157154
168	0x3efa0d2b	0.4883817
169	0xbde835e6	-0.11338405
170	0xbe29a423	-0.1656652
171	0x3e360b15	0.17777665
172	0x3cb601e8	0.022217706
173	0x3e520b8d	0.20512219
174	0xbd2c435d	-0.04205643
175	0x3da2a4bb	0.07941576
176	0xbe6f6afd	-0.23380657
177	0xbe6e7b04	-0.23289114
178	0x3d681eb9	0.056669924
179	0xbea5e159	-0.3239849
180	0x3e5ab15f	0.21356724
181	0x3e588d6a	0.21147695
182	0x3de6a301	0.11261559
183	0xbe9b993c	-0.30390346
184	0x3f0cbcf1	0.549758
185	0x3db3c243	0.08777287
186	0x3ed795e6	0.4210655
187	0x3d98358c	0.07432088
188	0xbe43f11e	-0.19134948
189	0x3e14bd71	0.14525391
190	0x3edebd85	0.43503967
191	0x3eb2bbb5	0.34908834
192	0x3e218937	0.15775
193	0x3da0e6f0	0.07856548
194	0x3e2c0264	0.16797787
195	0xbee2b88f	-0.44281432
196	0xbcf03302	-0.029321197
197	0xbba0bebf	-0.004905551
198	0x3d8d806d	0.06909261
199	0xbe523009	-0.20526136
200	0x3e844052	0.25830323
201	0xbecba0de	-0.3977117
202	0x3dc0536f	0.09390914
203	0xbe428fe4	-0.19000202
204	0xbde92a7b	-0.11385056
205	0x3ef37ac1	0.4755459
206	0x3ddb7e3e	0.10717438
207	0x3efb5dba	0.49094945
208	0x3e2022dd	0.156383
209	0x3e601a7d	0.21885104
210	0x3e45432e	0.19263908
211	0xbccf4db2	-0.025305603
212	0xbe9edb20	-0.31026554
213	0x3e20bd53	0.15697221
214	0x3e3b3d53	0.18285112
215	0xbe59b6d3	-0.21261148
216	0xbe12adc2	-0.14324096
217	0xbe461c0e	-0.1934664
218	0x3e04aeb5	0.1295727
219	0x3d77b400	0.060474396
220	0xbe8eea5d	-0.2791318
221	0x3eaa1f5e	0.33227056
222	0xbc808ebc	-0.015693061
223	0x3e64a988	0.22330296
224	0xbd2b79f2	-0.041864343
225	0xbe27931b	-0.1636471
226	0xbe543500	-0.20723343
227	0x3c287177	0.010280958
228	0xbca65fed	-0.020309413
229	0xbf0ad04e	-0.542241
230	0xbcef845e	-0.029237922
231	0x3e7bf5eb	0.24605529
232	0x3e9475d9	0.2899616
233	0x3ce13db7	0.027495248
234	0xbe5dd70e	-0.21664068
235	0x3e934f40	0.287714
236	0x3e17ec77	0.14836298
237	0x3ec6e886	0.38849276
238	0xbe4d7db7	-0.20067488
239	0xbe2f494c	-0.17117804
240	0x3e99e4dc	0.30057418
241	0x3dfdf48f	0.124001615
242	0xbe4a89d4	-0.1977914
243	0xbe216c53	-0.15763979
244	0x3e0d7848	0.13815415
245	0x3e8a3b24	0.26998246
246	0xbe86e64e	-0.26347584
247	0xbea5625c	-0.32301605
248	0xbe9aee2b	-0.30259833
249	0xbd254b00	-0.04035473
250	0x3dec10d9	0.11526651
251	0xbe423388	-0.1896497
252	0xbe17b550	-0.14815259
253	0x3e54aa13	0.20768003
254	0xbea366e9	-0.31914452
255	0xbf1f40fd	-0.6220854

linears.1.bias f4 [20]
0	0xbd5c5cbc	-0.053799376
1	0x3cb784ec	0.02240225
2	0x3c845bc4	0.016157039
3	0xbc99c326	-0.018769812
4	0x3b05c7ec	0.0020413352
5	0x3a978d71	0.0011562539
6	0xbd4b4dce	-0.049634747
7	0x3e17e114	0.14831954
8	0xbd718bc3	-0.058971178
9	0x3c942978	0.01808618
10	0xbb7a0a0a	-0.0038152956
11	0x3c38e517	0.011285088
12	0x3c2acb7e	0.010424493
13	0x3bb9a57b	0.0056654788
14	0x3cf9f210	0.030510932
15	0x3d8e1151	0.069368966
16	0x3c90c5dc	0.017672472
17	0xbc737a09	-0.014860638
18	0xbd0acaef	-0.03388494
19	0xbd0b8f13	-0.034071993

linears.2.weight f4 [20, 20]
0	0xbe91a152	-0.2844339
1	0xbcfc44a2	-0.030794445
2	0xbe4cdb9e	-0.20005652
3	0xbd53c776	-0.051703893
4	0x3c1d63e3	0.009606334
5	0xbe423091	-0.18963839
6	0xbe347d2c	-0.17625874
7	0x3e7e83fa	0.24855033
8	0xbe962b5a	-0.2932995
9	0x3e7300f0	0.23730826
10	0x3eaee133	0.34156188
11	0x3de6de2d	0.112728454
12	0xbe9e5822	-0.30926615
13	0xbd2d26f2	-0.04227347
14	0x3e71936c	0.23591393
15	0x3e7358e8	0.23764384
16	0x3e20f49e	0.15718314
17	0xbdc4b75b	-0.09605285
18	0xbe9dca8e	-0.308186
19	0x3a43567c	0.0007451547
20	0x3e2f18ec	0.1709935
21	0xbe60f206	-0.21967325
22	0xbe80de16	-0.25169438
23	0x3d85005f	0.064942114
24	0x3eb38ffe	0.35070795
25	0x3dee1f33	0.116270445
26	0x3e10cb0d	0.14139958
27	0xbd670eaa	-0.05641047
28	0x3e9bcfef	0.30432078
29	0x3d81876b	0.06324657
30	0x3e9f80de	0.31153005
31	0xbe42a027	-0.19006406
32	0xbb49528d	-0.003071937
33	0xbe409b7f	-0.18809317
34	0xbdc2d7d6	-0.09513824
35	0xbec017a5	-0.3751804
36	0xbe519dc1	-0.20470335
37	0xbcb44b60	-0.022008598
38	0x3c72fb97	0.0148304915
39	0x3ed8ff9e	0.4238252
40	0xbc44a647	-0.012002534
41	0x3f226eea	0.6345049
42	0x3d342b2d	0.043986488
43	0xbd811517	-0.06302851
44	0xbea9800e	-0.3310551
45	0x3eb90e2e	0.3614363
46	0xbe1d7db8	-0.15379989
47	0xbec94f6b	-0.39318404
48	0xbe03f67c	-0.12886995
49	0x3efdddcb	0.49583277
50	0xbdb64ab0	-0.08900964
51	0x3da50eff	0.08059501
52	0x3e35351e	0.17696044
53	0x3eb7a379	0.35866907
54	0xbda51427	-0.080604844
55	0xbe012dfb	-0.12615196
56	0x3efd351a	0.49454576
57	0xbccf081d	-0.025272423
58	0xbbac5d86	-0.0052601723
59	0xbe3a58bc	-0.18197912
60	0xbdcfe178	-0.101504266
61	0xbe87d265	-0.26527706
62	0x3ab26ba2	0.0013612399
63	0x3ec2b948	0.38031983
64	0xbe1d5b88	-0.15366948
65	0xbe9f0a76	-0.3106267
66	0x3e180a20	0.14847612
67	0x3c2fdfdc	0.010734525
68	0x3edee9e3	0.43537816
69	0x3dcf3e88	0.10119349
70	0x3e9851f3	0.29750022
71	0xbdc56e86	-0.09640221
72	0x3e3cafa1	0.18426372
73	0x3e1d1b1c	0.15342373
74	0x3e8a6ac8	0.27034593
75	0xbea2c674	-0.31792033
76	0xbebd0235	-0.36915746
77	0x3e677787	0.2260419
78	0x3ed83541	0.4222813
79	0x3e6ec539	0.23317422
80	0x3f1f1ecd	0.62156373
81	0xbb1f16e0	-0.002427511
82	0x3cd794f7	0.02631615
83	0x3e92c90d	0.28669015
84	0x3d4ccc09	0.04999927
85	0x3e990a94	0.29890883
86	0x3e2ee303	0.17078786
87	0xbe0ff1da	-0.14057103
88	0x3ebda093	0.3703657
89	0xbe72fa52	-0.23728302
90	0xbdc806ad	-0.09766898
91	0x3efd3638	0.49455428
92	0xbf0beeca	-0.5466124
93	0xbe382648	-0.17983353
94	0xbe8265e1	-0.25468352
95	0xbede4e5c	-0.43419158
96	0xbd4a3040	-0.04936242
97	0xbe98ff5a	-0.29882318
98	0x3e6fe9db	0.23429053
99	0x3e98a9dc	0.29817092
100	0x3e13929c	0.14411396
101	0x3e092eb0	0.13396716
102	0xbe72c894	-0.23709327
103	0xbcea28e5	-0.028583953
104	0x3df12e49	0.11776406
105	0x3f08f6fb	0.5350186
106	0x3db3e4dd	0.087838866
107	0xbe502b9c	-0.20329136
108	0x3e00084c	0.12503165
109	0x3e5ec0cf	0.21753238
110	0x3ed1a04f	0.40942618
111	0xbed7a671	-0.42119172
112	0xbd90ad8c	-0.070643514
113	0x3ed83228	0.42225766
114	0xbf0430ae	-0.5163678
115	0xbe3604c9	-0.17775263
116	0xbdde3a90	-0.10851014
117	0xbdb1ea66	-0.08687286
118	0x3c3f5f26	0.0116804
119	0xbe1d4479	-0.15358151
120	0xbe6c25ab	-0.23061244
121	0x3d45a593	0.048253607
122	0xbeb6d96c	-0.35712755
123	0xbe8ecd41	-0.2789097
124	0x3d9fac2f	0.07796513
125	0xbeb7ae93	-0.35875377
126	0x3ebb536a	0.36587077
127	0x3e010b01	0.12601854
128	0x3ea9a127	0.33130762
129	0xbdbc7b17	-0.09203165
130	0xbef7c3db	-0.48391613
131	0x3e6d8638	0.23195732
132	0xbefe4381	-0.49660876
133	0xbe304040	-0.1721201
134	0xbe98ba4f	-0.29829642
135	0xbdac6a76	-0.08418743
136	0x3d4c4dcb	0.049878877
137	0x3e7ef0e9	0.24896587
138	0x3e54486c	0.20730752
139	0x3e85a143	0.26099595
140	0xbe64102a	-0.22271791
141	0xbc8305d1	-0.015993984
142	0xbdf03a05	-0.11729816
143	0xbc290056	-0.0103150215
144	0x3ea97f73	0.3310505
145	0x3da20f57	0.07913082
146	0x3de4139a	0.11136551
147	0x3df91288	0.12161738
148	0xbc32e04f	-0.010917737
149	0xbd88e457	-0.06684177
150	0xbe0f8a10	-0.1401751
151	0x3e08fa44	0.13376719
152	0x3e652e7a	0.2238101
153	0xbe025c65	-0.12730558
154	0x3e1fa7da	0.15591374
155	0xbe3216aa	-0.17391458
156	0xbc9a8b29	-0.018865185
157	0x3e83e6ed	0.2576212
158	0xbe8b3080	-0.2718544
159	0x3dafe7e0	0.085891485
160	0x3e8bde6a	0.27318126
161	0xbee5e1c9	-0.44898823
162	0x3e160a18	0.14652288
163	0x3ce97ba7	0.028501345
164	0xbcd34fc5	-0.025794873
165	0xbe238cce	-0.15971681
166	0xbe5c1dd6	-0.21495757
167	0xbf240764	-0.6407378
168	0x3e7820eb	0.24231307
169	0x3c0abd7d	0.008468029
170	0x3eb19cd0	0.3468995
171	0x3d227b8a	0.039668597
172	0xbe53b1ac	-0.20673245
173	0xb9134605	-0.00014045097
174	0xbc91bd23	-0.017790383
175	0xbebb1ebe	-0.36546892
176	0x3ec831d1	0.39100507
177	0xbdc6e7b4	-0.097121626
178	0x3e6604ac	0.2246272
179	0x3deda7d6	0.11604278
180	0x3eb03d0c	0.34421575
181	0xbeeda3a3	-0.46413907
182	0x3decd9fb	0.11565014
183	0x3e714f34	0.2356537
184	0x3ecf6276	0.40504807
185	0xbdf4d49b	-0.11954614
186	0x3e0cca3b	0.1374902
187	0xbe264fa4	-0.16241318
188	0x3e599e48	0.21251786
189	0xbb2c5512	-0.0026295823
190	0xbddab50f	-0.106790654
191	0x3ede2cc9	0.43393543
192	0xbdf67e2c	-0.12035784
193	0xbd06e46d	-0.032932688
194	0xbe543bb2	-0.20725897
195	0x3cdcfdfb	0.026976576
196	0xbe0eb163	-0.13934855
197	0xbdd84317	-0.10559671
198	0x3dee754e	0.11643468
199	0x3e9e6731	0.30938104
200	0x3dbf3c8d	0.09337721
201	0xbb812e9e	-0.003942325
202	0x3f31c47c	0.69440436
203	0xbe669b26	-0.22520122
204	0x3d9abd02	0.07555582
205	0x3d214d10	0.039380133
206	0xbd34eec3	-0.044173013
207	0xbe2f357e	-0.1711025
208	0xbe73dc65	-0.23814543
209	0x3df8f76d	0.12156568
210	0x3eb3fd28	0.3515408
211	0xbde63bbd	-0.11241863
212	0x3eba165c	0.36345184
213	0xbd96003b	-0.07324263
214	0x3e6f9126	0.23395213
215	0x3ee712ce	0.45131534
216	0x3e688bb5	0.22709544
217	0xbd479e94	-0.048735216
218	0xbe4b1a9a	-0.19834366
219	0xbe366410	-0.17811608
220	0xbdac9c20	-0.08428216
221	0x3e4f534d	0.2024662
222	0xbe76a906	-0.24087915
223	0xbd85a44d	-0.065254785
224	0xbd65539f	-0.05598795
225	0x3be7253a	0.0070539983
226	0xbd2563c3	-0.040378343
227	0xbd4f60ea	-0.050629534
228	0xbe6203e3	-0.22071795
229	0xbe5a3327	-0.21308576
230	0xbea8e2a2	-0.32985407
231	0xbd2c6fff	-0.042098995
232	0x3d3aec59	0.045635555
233	0x3d2e6831	0.042579833
234	0x3d1b2da5	0.037885327
235	0x3d0fdfc1	0.035125498
236	0xbe7b95a4	-0.24568802
237	0xbec21d3a	-0.37912923
238	0xbeaa7897	-0.33295128
239	0xbc9914f0	-0.018686742
240	0xbddff3b5	-0.10935155
241	0x3e455c53	0.192735
242	0x3e7620c3	0.24035935
243	0x3de3f99d	0.11131594
244	0x3d82032c	0.06348261
245	0x3e17e548	0.14833558
246	0x3dda28fb	0.10652348
247	0x3e3d5d73	0.1849268
248	0xbe85f49d	-0.26163188
249	0xbd579437	-0.052631583
250	0xbdeb6130	-0.114931464
251	0xbde980a2	-0.11401488
252	0xbf0e464a	-0.55576
253	0x3dd5b4c7	0.10434871
254	0x3f1ead44	0.6198313
255	0xbe572a47	-0.21012221

linears.2.bias f4 [20]
0	0xbb70c427	-0.003673801
1	0xbd1e2118	-0.03860578
2	0x3c4c09be	0.012453495
3	0xbbe1a842	-0.006886513
4	0xbcfd963d	-0.030955428
5	0xbc795a24	-0.015219245
6	0xbcef346b	-0.0291998
7	0x3b34d4da	0.002759269
8	0xba39236e	-0.00070624694
9	0xbce27abe	-0.027646419
10	0xbc55e2b8	-0.013054542
11	0x3d2dcf58	0.042434067
12	0x3b200137	0.0024414787
13	0x3be71fab	0.0070533357
14	0xbce0affe	-0.02742767
15	0x3ccc6da5	0.024954626
16	0x3d61c539	0.055119727
17	0x3c010464	0.007874582
18	0x3b72bee9	0.003704006
19	0xbc8540b1	-0.016266199

linears.3.weight f4 [20, 20]
0	0xbedd49ec	-0.4322046
1	0xbe4ad624	-0.1980825
2	0x3e173cc3	0.14769273
3	0x3d78056d	0.06055205
4	0xbe820101	-0.2539139
5	0x3d2dce7f	0.04243326
6	0x3e1f8637	0.15578543
7	0xbc861f0e	-0.01637223
8	0xbe176c7d	-0.14787479
9	0x3a1208da	0.0005570777
10	0xbe37dde3	-0.17955737
11	0xbe059001	-0.13043214
12	0xbeb63ce0	-0.3559332
13	0xbdf1e550	-0.11811316
14	0x3da8550d	0.08219347
15	0xbdf7a3e2	-0.12091805
16	0xbe1421d5	-0.14466031
17	0xbed1bfad	-0.4096655
18	0xbf177d31	-0.591754
19	0xbe86963f	-0.26286504
20	0x3eb33086	0.34997958
21	0xbe1493f7	-0.14509569
22	0xbe6ebbd2	-0.23313835
23	0xbf116b21	-0.5680409
24	0xbe171558	-0.14754236
25	0xbf158a2c	-0.5841396
26	0x3ec60ae4	0.38680184
27	0xbdedd4d8	-0.11612862
28	0xbe5088d7	-0.203647
29	0x3e93280d	0.28741494
30	0x3ec12362	0.37722307
31	0x3d926038	0.071472585
32	0x3e13dee2	0.14440492
33	0x3e043bab	0.12913387
34	0xbf0a9e1a	-0.54147494
35	0xbf3c1b61	-0.73479277
36	0xbe0a5da2	-0.1351228
37	0x3ec350a4	0.3814746
38	0xbefad442	-0.48990065
39	0x3d63400e	0.05548101
40	0xbe1c0a30	-0.15238261
41	0xbf03e536	-0.51521623
42	0xbd12ec60	-0.035869956
43	0xbe8e909f	-0.27844712
44	0xbe146291	-0.14490725
45	0xbd8b855f	-0.06812548
46	0x3d856123	0.06512668
47	0x3dfa9420	0.12235284
48	0xbe70fa5d	-0.23533006
49	0xbdc5f96a	-0.096667126
50	0xbc8f819f	-0.017517863
51	0x3e03d9e5	0.12876089
52	0x3e7f67b9	0.24941911
53	0x3e825aa1	0.2545977
54	0xbef34ac7	-0.47517988
55	0xbea7a34e	-0.3274178
56	0xbd68fe70	-0.056883276
57	0x3dde6807	0.108596854
58	0x3c2c7f8f	0.010528459
59	0xbe11aa9b	-0.14225237
60	0x3e565074	0.20929128
61	0xbf06ef37	-0.5270876
62	0xbd625b96	-0.055263124
63	0xbe95e7ee	-0.2927851
64	0xbe88cd89	-0.2671931
65	0xbea1e252	-0.3161798
66	0xbe63ec0e	-0.22258016
67	0x3e3e54ed	0.18587084
68	0x3cd1c930	0.025608629
69	0x3d854be5	0.06508616
70	0xbe0d4b79	-0.13798322
71	0x3ee99098	0.4561813
72	0x3e9278a1	0.28607658
73	0x3da293c8	0.07938343
74	0x3ecbd064	0.39807427
75	0xbdca9906	-0.09892468
76	0xbe7f7598	-0.24947202
77	0xbd81da75	-0.063404955
78	0xbedda842	-0.43292433
79	0xbef1ff4a	-0.47265083
80	0x39634170	0.00021672784
81	0x3ede9eeb	0.4348062
82	0x3c37170e	0.01117493
83	0x3eea1e6e	0.4572634
84	0x3ed90a3e	0.42390627
85	0xbd0e3bfe	-0.03472518
86	0x3e60af3f	0.21941851
87	0x3e98c376	0.29836625
88	0x3e2b6476	0.16737542
89	0x3e68dd34	0.22740632
90	0xbe81895c	-0.2530011
91	0x3d99e097	0.0751354
92	0x3e740e9b	0.23833697
93	0x3daa6308	0.0831967
94	0xbe619927	-0.22031079
95	0x3eac5e79	0.33665827
96	0xbf0ce2e4	-0.5503371
97	0x3daf206d	0.085511066
98	0x3d13720d	0.03599744
99	0x3eb63bea	0.35592586
100	0x3eb60337	0.35549328
101	0x3e0326c0	0.1280775
102	0x3d830703	0.06397822
103	0xbe9190c2	-0.28430754
104	0x3ee394d9	0.444495
105	0xbe89ddb1	-0.2692695
106	0xbe25992d	-0.16171713
107	0xbebe028a	-0.37111312
108	0x3d250df2	0.040296502
109	0x3e8e3c82	0.2778054
110	0x3d201939	0.039086554
111	0xbe752c81	-0.23942758
112	0x3e4a78a4	0.19772583
113	0x3e784eaf	0.24248765
114	0x3de4470f	0.11146366
115	0x3ea92ad2	0.33040482
116	0xbc616d15	-0.013758917
117	0x3f03c4b6	0.5147203
118	0xbe519f68	-0.20470965
119	0x3efe6eae	0.49693817
120	0x3d87f2d2	0.06638111
121	0xbe54bca2	-0.20775083
122	0x3e5eb5b0	0.21748996
123	0xbef522e7	-0.4787819
124	0x3d01be69	0.03167573
125	0x3f0b611d	0.5444506
126	0x3e06cc57	0.13163887
127	0xbe0be1f4	-0.13660413
128	0x3ecd5a00	0.40107727
129	0xbe07da4a	-0.13266864
130	0x3ea2fb71	0.3183246
131	0x3de02e03	0.10946276
132	0xbe565f6b	-0.20934837
133	0xbe188473	-0.14894275
134	0x3e100870	0.14065719
135	0x3ecdad07	0.40171072
136	0x3ed6a322	0.41921335
137	0xbe03ba7e	-0.1286411
138	0x3f258d27	0.64668506
139	0x3c0f524e	0.00874765
140	0x3dc41173	0.09573641
141	0xbcc6b601	-0.024256708
142	0x3d0c9f19	0.034331415
143	0x3d96c181	0.07361127
144	0xbc76f8bf	-0.015073954
145	0x3f4eeb64	0.8082793
146	0xbe40441f	-0.18775986
147	0xbe542f97	-0.20721279
148	0xbe010f98	-0.12603605
149	0x3cae99a0	0.021313488
150	0x3da9673c	0.082716435
151	0x3dbce180	0.09222698
152	0xbe14e0bc	-0.14538854
153	0xbdb23a74	-0.08702555
154	0xbdcacded	-0.099025585
155	0xbda2d2c9	-0.0795036
156	0xbd6b7812	-0.057487555
157	0xbd9c3d1c	-0.07628843
158	0x3d95a5b2	0.073069945
159	0xbe595c04	-0.21226507
160	0xbe7df005	-0.24798591
161	0x3e52043d	0.2050943
162	0x3f143511	0.5789347
163	0x3dee303d	0.116302945
164	0xbe7ced3e	-0.24699876
165	0x3e2e4e48	0.1702205
166	0xbf179cab	-0.5922343
167	0xbe3daaa1	-0.18522121
168	0xbe552219	-0.20813788
169	0xbe097ffb	-0.13427727
170	0x3dfb3dde	0.122676596
171	0x3daf88a7	0.08570986
172	0xbdbf3f8d	-0.09338293
173	0xbd7e33f3	-0.06206126
174	0x3e59e59d	0.21278997
175	0x3da5efcc	0.08102378
176	0x3e828de0	0.25498867
177	0xbf0cd846	-0.5501751
178	0xbe6c3650	-0.23067594
179	0xbe4d36a0	-0.20040369
180	0x3e4b7519	0.19868888
181	0xbe3a18cc	-0.18173522
182	0x3e761bc6	0.24034032
183	0x3cd639f9	0.02615069
184	0xbe5bdbcf	-0.21470569
185	0xbeee9431	-0.46597436
186	0x3e9d8c4a	0.30771095
187	0xbe2af7fc	-0.16696161
188	0xbd839be9	-0.06426222
189	0xbe3750d2	-0.17901924
190	0x3e96a01a	0.29419023
191	0xbe30c9d8	-0.17264497
192	0x3cd3b879	0.0258448
193	0x3e7f0d2d	0.2490737
194	0xbf08dad5	-0.5345891
195	0x3e8ed47b	0.27896485
196	0x3e8aeb93	0.27132854
197	0xbdc2d233	-0.095127486
198	0x3cf3624d	0.02970996
199	0x3e226136	0.15857396
200	0xbcdc1444	-0.026865132
201	0x3da55b29	0.08074028
202	0x3cf1cd45	0.029516825
203	0xbe9a93b0	-0.30190802
204	0xbe53ed56	-0.20696005
205	0xbdae01e2	-0.08496453
206	0xbe1379ba	-0.14401904
207	0xbcc3373a	-0.023830045
208	0x3e1e5f12	0.15465954
209	0xbe468136	-0.19385228
210	0xbc83ef5b	-0.016105345
211	0x3cbd517f	0.02311015
212	0xbd616338	-0.055026263
213	0x3e8af3c1	0.27139094
214	0x3c059c7b	0.008154984
215	0x3ec18752	0.37798554
216	0xbc3c491a	-0.011492038
217	0x3ebbd264	0.36683953
218	0xbd54e13c	-0.051972613
219	0x3da2de16	0.07952516
220	0xbf49ad34	-0.7877991
221	0x3e075548	0.13216126
222	0xbe49df87	-0.19714175
223	0x3f2b6132	0.66945183
224	0x3f04cf7b	0.5187909
225	0x3f056f28	0.52122736
226	0x3e19726c	0.14985055
227	0xbeafa626	-0.3430645
228	0xbedd953f	-0.43277928
229	0xbe83e0cb	-0.2575744
230	0x3eb257fc	0.34832752
231	0xbf30bb68	-0.6903596
232	0x3e3d8b82	0.1851025
233	0x3e269ed7	0.1627153
234	0x3e8fc5c3	0.28080568
235	0xbddaff77	-0.10693257
236	0x3d424322	0.047427304
237	0xbe0104f4	-0.12599546
238	0x3df62efc	0.1202068
239	0x3d34f259	0.044176433
240	0x3db74397	0.089484386
241	0xbeb00606	-0.34379596
242	0x3ec23ba3	0.37936124
243	0xbf1abd8f	-0.60445493
244	0xbd68ff69	-0.056884203
245	0xbf05e666	-0.52304685
246	0xbd804ce8	-0.06264669
247	0xbed9ffda	-0.42578012
248	0x3ddc9c48	0.10771996
249	0xbeaf8c6f	-0.3428683
250	0x3e8b85a4	0.27250397
251	0xbd62ad95	-0.055341322
252	0x3e63df60	0.2225318
253	0x3e3c8698	0.18410718
254	0xbed3a082	-0.41333395
255	0xbca6564d	-0.020304823

linears.3.bias f4 [20]
0	0x3cb2052d	0.021730984
1	0xbcdfe7de	-0.027332243
2	0x3c13dc41	0.009024681
3	0x3d387754	0.045035675
4	0xbcc42e27	-0.023947788
5	0x3b85ec22	0.004086987
6	0xbdd69053	-0.104767464
7	0xbb451bfa	-0.003007649
8	0x3d1f5239	0.038896773
9	0x3dde0262	0.10840298
10	0x3c07e490	0.00829424
11	0xbc7db888	-0.01548589
12	0x3b792498	0.0038016196
13	0x3cff8e5d	0.031195814
14	0x3d30be3b	0.043150168
15	0x3c0bbb22	0.008528503
16	0x3d39d49d	0.04536878
17	0x3c97cfbc	0.018531673
18	0xbc4914c1	-0.0122730145
19	0xbc8e0a4d	-0.017338896

linears.4.weight f4 [20, 20]
0	0xbe18225f	-0.14856862
1	0x3efd6934	0.49494326
2	0xbe8a534b	-0.27016672
3	0x3d12e9c3	0.035867464
4	0xbd410018	-0.04711923
5	0xbe61c3d8	-0.22047365
6	0xbcaec2cb	-0.021333119
7	0x3e418a97	0.18900524
8	0x3f63057d	0.8868025
9	0x3f05a1f5	0.5220025
10	0x3d3ab54b	0.04558305
11	0x3b849f45	0.0040473067
12	0xbcce0479	-0.025148617
13	0xbe44d8b9	-0.19223298
14	0xbe98390c	-0.29731023
15	0x3dc95b7c	0.098319024
16	0x3e6c7955	0.2309316
17	0xbd235b1c	-0.03988181
18	0x3e81207f	0.25220105
19	0xbf033b05	-0.5126193
20	0x3e78664d	0.24257775
21	0xbf0a88e7	-0.54115146
22	0x3c46a811	0.012125031
23	0x3e0bb88f	0.13644622
24	0xbf2296f0	-0.6351156
25	0xbdd2cafd	-0.10292623
26	0x3c5bdeb8	0.0134197995
27	0x3ec137d9	0.3773792
28	0x3e0ded75	0.13860114
29	0x3c3719d2	0.01117559
30	0xbda68ef5	-0.08132736
31	0x3c11d1aa	0.008900085
32	0xbc652098	-0.013984822
33	0xbddd7eae	-0.10815178
34	0x3eb0dd22	0.3454371
35	0xbe9b9066	-0.30383605
36	0x3d26024c	0.040529534
37	0x3e130d90	0.14360642
38	0x3cbf9140	0.02338469
39	0xbee63d09	-0.4496844
40	0xbd395839	-0.04525015
41	0x3df407ac	0.11915526
42	0x3e7450b8	0.23858917
43	0x3df233a2	0.118262544
44	0x3eef7d56	0.4677531
45	0xbeb2078d	-0.34771386
46	0x3e0509fc	0.1299209
47	0x3dae9edb	0.08526393
48	0x3dad3b9d	0.08458636
49	0x3d122f11	0.035689417
50	0x3df8935a	0.1213748
51	0xbea5daf4	-0.3239361
52	0x3ef56e52	0.4793573
53	0x3df40c92	0.1191646
54	0xbe35bc1d	-0.17747541
55	0x3dca8ecc	0.098905176
56	0xbdcc07b8	-0.0996241
57	0x3e0289c7	0.1274787
58	0xbdcd0a17	-0.1001169
59	0xbe3b4e86	-0.18291673
60	0xbe682345	-0.22669704
61	0xbf095741	-0.53648764
62	0x3ddb4716	0.10706918
63	0x3ec46085	0.3835489
64	0xbea37eae	-0.31932586
65	0xbdac0ab4	-0.08400479
66	0xbdc9234f	-0.09821188
67	0x3eada206	0.33912677
68	0x3f13bde7	0.57711643
69	0x3e315c68	0.17320406
70	0x3e4e546e	0.20149395
71	0x3d510cc7	0.051037576
72	0xbda14839	-0.078751035
73	0x3df71947	0.12065368
74	0xbe62671d	-0.22109647
75	0xbe590844	-0.2119456
76	0x3cded3ee	0.027200665
77	0xbd94d94e	-0.0726801
78	0xbdd6e2b6	-0.104924604
79	0x3de732f3	0.11289015
80	0x3de12224	0.1099284
81	0x3d905bdf	0.07048773
82	0xbe001e40	-0.1251154
83	0x3f002a15	0.5006421
84	0x3c05510c	0.008136999
85	0xbe4b6da0	-0.19866037
86	0x3e3e3823	0.18576102
87	0x3e520a2a	0.2051169
88	0x3e81e658	0.2537105
89	0xbe3b0db7	-0.1826695
90	0xbe9b8c73	-0.30380592
91	0xbd283c22	-0.041072972
92	0x3eb792d3	0.35854205
93	0x3ed55941	0.41669658
94	0x3d717315	0.05894764
95	0xbe03fa0b	-0.12888353
96	0x3e666335	0.22498782
97	0x3e979b1d	0.2961053
98	0xbd7a201f	-0.06106579
99	0xbd8c67d7	-0.068557434
100	0xbe4d32e2	-0.20038942
101	0x3e16168f	0.14657043
102	0xbe8a3485	-0.26993194
103	0xbdcc880f	-0.099868886
104	0x3efdb23e	0.4955005
105	0x3d431e34	0.047636226
106	0xbcec0624	-0.028811522
107	0xbe234e4d	-0.15947838
108	0xbf0fbd7b	-0.561485
109	0x3e94ff5d	0.29101077
110	0xbe00ee8d	-0.12591
111	0x3e1b946c	0.15193337
112	0x3bcd6413	0.0062680333
113	0xbe8bd413	-0.27310237
114	0x3d48fc37	0.049068656
115	0x3dcda8c0	0.10041952
116	0x3d042105	0.032258052
117	0xbc21cf55	-0.009876092
118	0xbebebaaa	-0.37251788
119	0x3f027a8c	0.5096824
120	0xbd959dce	-0.073054895
121	0xbf10fd10	-0.5663614
122	0xbe985274	-0.29750407
123	0xbd5f3d46	-0.054501794
124	0xbdd6b143	-0.10483029
125	0xbe88dbb7	-0.2673013
126	0xbe662ba3	-0.22477584
127	0x3ed86714	0.42266142
128	0xbdf996f0	-0.12186992
129	0x3eb7c2cf	0.35890815
130	0xbed16fd9	-0.40905645
131	0x3e98ee5d	0.29869357
132	0xbefd4066	-0.49463195
133	0x3dbbc03d	0.09167526
134	0x3e1e35be	0.15450189
135	0xbee2521d	-0.44203272
136	0xbd4a04dc	-0.04932104
137	0x3ea9a2f7	0.33132145
138	0xbe69df99	-0.22839202
139	0x3ebf9dd8	0.37425113
140	0xbd93b0cf	-0.07211458
141	0xbe597aec	-0.21238297
142	0x3ec474ac	0.38370264
143	0xbc07c25d	-0.008286086
144	0x3e13fd3d	0.14452071
145	0x3eb20253	0.34767398
146	0xbf20314c	-0.6257522
147	0xbd2b2203	-0.041780483
148	0xbec10172	-0.37696415
149	0xbe838161	-0.25684646
150	0xbdf0e936	-0.117632315
151	0xbc8ae907	-0.01695682
152	0xbf0e649f	-0.55622286
153	0xbe604b9c	-0.21903843
154	0x3d2ebbc8	0.04265955
155	0xbe106209	-0.14099897
156	0xbd3200af	-0.043457683
157	0x3d98c198	0.074588
158	0xbea1ec5c	-0.3162564
159	0x3e3ba887	0.18326007
160	0xbdb9253f	-0.09040307
161	0xbeea1b32	-0.45723873
162	0xbf1b10f9	-0.60572773
163	0x3d606aca	0.054789342
164	0x3c889063	0.016670411
165	0xbe109ac5	-0.1412154
166	0x3d49cc7a	0.04926727
167	0x3daf991b	0.085741244
168	0x3e13c4e9	0.14430584
169	0xbea2ca61	-0.31795028
170	0xbe1b2e5f	-0.15154408
171	0x3e3a887f	0.18216132
172	0xbe71c517	-0.2361034
173	0xbdb2de8d	-0.087338544
174	0xbe1c2da2	-0.15251783
175	0xbdd0246c	-0.10163197
176	0x3d878140	0.06616449
177	0xbe07ea79	-0.13273038
178	0x3dbfa0b6	0.09356825
179	0x3e95a024	0.2922374
180	0xbe5e2f2c	-0.21697682
181	0xbe72d5f6	-0.23714432
182	0xbef325cb	-0.4748977
183	0xbe9620bf	-0.29321858
184	0x3eedaa01	0.46418765
185	0xbe17a8bf	-0.14810465
186	0x3d050a01	0.032480244
187	0x3eb08bdf	0.34481713
188	0xbeab2143	-0.33423814
189	0x3e2acd82	0.16679958
190	0xbcb3e37e	-0.021959063
191	0x3e9b781f	0.30365083
192	0x3e2618f4	0.16220456
193	0x3deefb38	0.1166901
194	0xbe4c1cc0	-0.19932842
195	0xbce114b4	-0.027475692
196	0xbea1e5d6	-0.31620663
197	0xbede26c5	-0.43388954
198	0xbeb392a1	-0.35072806
199	0x3e0fc88f	0.14041351
200	0x3e7f6315	0.2494014
201	0x3e0e717b	0.13910477
202	0xbd9404c0	-0.072274685
203	0xbe5275dd	-0.20552774
204	0x3d820590	0.06348717
205	0x3e8e75ae	0.27824157
206	0xbe5e2d7e	-0.21697041
207	0x3e64fe8c	0.22362727
208	0x3eb5951d	0.35465327
209	0x3b36c956	0.0027891002
210	0x3d6123ba	0.054965712
211	0xbe9f01cf	-0.31056067
212	0x3f3273a8	0.6970773
213	0x3e2e1bd9	0.1700281
214	0x3dbe87ae	0.093032226
215	0x3c3b3a55	0.011427482
216	0xbea99e0f	-0.33128402
217	0x3e3f4b7f	0.18681143
218	0x3dc81730	0.09770048
219	0x3caebcf9	0.021330344
220	0xbee5616a	-0.44800884
221	0xbe653451	-0.22383238
222	0xbe1e6c8e	-0.15471098
223	0xbd3a1b75	-0.04543634
224	0x3e54a882	0.20767406
225	0x3e4460d8	0.19177568
226	0x3e94e869	0.29083565
227	0xbe4073a3	-0.18794112
228	0xbf1b8dd9	-0.6076332
229	0x3daffbb9	0.08592934
230	0xbcde9527	-0.02717073
231	0x3b40ae0f	0.0029400622
232	0xbe43a77a	-0.19106856
233	0xbddb82e4	-0.10718325
234	0xbe43f292	-0.19135502
235	0xbcc5e020	-0.024154723
236	0xbe8754b2	-0.26431805
237	0xbe82c92e	-0.25544113
238	0x3d8d9872	0.06913842
239	0x3ef0a1e0	0.469985
240	0xbe6ac4ec	-0.22926682
241	0xbdcb0dd5	-0.099147476
242	0xbdf28d63	-0.118433736
243	0xbdcdac97	-0.100426845
244	0x3d5ad343	0.05342413
245	0xbd783f82	-0.06060744
246	0xbdb11bc4	-0.08647874
247	0xbd8466d3	-0.06464925
248	0xbe66ec02	-0.22550967
249	0xbef6f59a	-0.48234254
250	0x3dd01302	0.101598755
251	0xbde8635b	-0.113470756
252	0x3e30d640	0.1726923
253	0x3f28772b	0.65806836
254	0x3c96d54c	0.018412255
255	0x3d141801	0.036155704

linears.4.bias f4 [20]
0	0x3c7533d5	0.014965971
1	0x3d7eb054	0.06217988
2	0xbc311fa8	-0.01081077
3	0x3d0de4aa	0.0346419
4	0x3d92936e	0.07157026
5	0xbca3f76c	-0.02001544
6	0xbbaa48b7	-0.0051966566
7	0xbe2c0b3b	-0.16801159
8	0xbc375b6a	-0.011191228
9	0xbd311f60	-0.043242812
10	0xbcfad713	-0.030620134
11	0xbd56d003	-0.05244447
12	0x3ca74648	0.020419255
13	0xba557f27	-0.00081442524
14	0xbb53c88d	-0.0032315583
15	0x3d3094c9	0.043110643
16	0xbe87a9ef	-0.26496837
17	0x3ce482e1	0.02789444
18	0x3c11be79	0.00889551
19	0x3c7ab96c	0.015302997

linears.5.weight f4 [20, 20]
0	0xbe933152	-0.28748566
1	0x3ed034ba	0.40665227
2	0xbdb6ddd4	-0.08929029
3	0xbd93b9bd	-0.07213161
4	0x3de2041f	0.11035942
5	0xbd6738d1	-0.05645067
6	0xbdd3c99f	-0.103411905
7	0x3e4e0c38	0.20121849
8	0xbee15b39	-0.4401491
9	0xbe5502aa	-0.20801798
10	0x3f020858	0.5079398
11	0x3e722e0e	0.23650381
12	0x3e3bc219	0.18335761
13	0xbe7a5c66	-0.2444931
14	0x3eb83bcd	0.35983124
15	0x3e5c5364	0.21516186
16	0xbcad8d94	-0.021185674
17	0x3ec697a2	0.38787562
18	0x3e6be6f0	0.23037314
19	0x3e94a489	0.2903178
20	0x3e003151	0.12518813
21	0x3d38e3e2	0.0451392
22	0xbde41abe	-0.11137913
23	0xbe884a9b	-0.2661942
24	0xbe181db2	-0.14855078
25	0x3d71be4c	0.059019372
26	0x3d9d7210	0.07687771
27	0xbeeebef7	-0.4663007
28	0xbee29799	-0.44256285
29	0x3ea8500a	0.32873565
30	0x3d2fa90b	0.04288582
31	0x3dc5bc38	0.096550405
32	0x3f1b285b	0.6060845
33	0xbe25833d	-0.16163345
34	0x3dcfa65a	0.10139151
35	0x3d8bd7bb	0.06828257
36	0xbe988798	-0.2979095
37	0x3d981927	0.074266724
38	0x3d515aa1	0.05111182
39	0xbe1a0722	-0.15041783
40	0x3db56c8d	0.08858595
41	0xbe01998e	-0.12656233
42	0x3e258569	0.16164173
43	0xbd93502a	-0.071930245
44	0x3e087487	0.13325702
45	0xbe9213ed	-0.28530827
46	0xbd776b55	-0.060405094
47	0xbebb9b3c	-0.36641872
48	0xbe8fd53f	-0.2809238
49	0x3eb39aac	0.35078943
50	0x3e2226f4	0.15835172
51	0x3dedbd58	0.1160838
52	0xbdfe4597	-0.12415617
53	0x3e08b01a	0.13348427
54	0xbe5a63b4	-0.21327096
55	0xbda368b9	-0.07978959
56	0x3d26293a	0.04056666
57	0x3dd88807	0.1057282
58	0x3d86a6f5	0.06574813
59	0x3dac93d7	0.08426636
60	0xbe88f523	-0.26749524
61	0xbe21b847	-0.15792952
62	0xbebd2e91	-0.3694959
63	0xbdba3abc	-0.09093234
64	0xbe04df05	-0.129757
65	0x3e68affe	0.22723386
66	0xbe1bc9f3	-0.15213756
67	0x3de777ce	0.11302148
68	0x3ec0ad4c	0.37632215
69	0xbea43785	-0.32073608
70	0xbe22c50d	-0.15895481
71	0xbdbf9d59	-0.093561836
72	0xbd0bb9bc	-0.034112677
73	0x3f0bd3bf	0.54619974
74	0xbde4bef7	-0.11169236
75	0x3b09bbe5	0.0021016535
76	0xbe17091d	-0.1474957
77	0x3edd7ce8	0.43259358
78	0xbe7b55ce	-0.2454445
79	0x3e2b69d5	0.1673959
80	0x3e8bf1d9	0.27332953
81	0xbe38186d	-0.17978068
82	0xbe541713	-0.20711927
83	0xbd86e52b	-0.06586679
84	0xbe85fd6a	-0.26169902
85	0x3e3230b2	0.17401388
86	0x3e130753	0.14358263
87	0x3e842a02	0.258133
88	0x3e0fe353	0.14051561
89	0x3e259ff9	0.16174306
90	0xbe6e4857	-0.23269783
91	0x3e2eefcd	0.17083664
92	0x3beb7206	0.0071852235
93	0xbe1e30db	-0.15448324
94	0xbe47def0	-0.19518638
95	0x3d2b0e1e	0.04176151
96	0xbe024181	-0.127203
97	0xbea2c632	-0.31791836
98	0xbe976b2a	-0.29573947
99	0xbed79ec6	-0.42113322
100	0x3d1e982c	0.03871934
101	0x3d481a29	0.048853073
102	0x3d19ed78	0.037579983
103	0xba0e90f5	-0.00054384704
104	0xbe3004d9	-0.17189349
105	0x3e8c3456	0.2738368
106	0xbdc240fb	-0.0948505
107	0x3dfcf94f	0.12352239
108	0xbca59cfe	-0.020216461
109	0x3e89f90c	0.2694782
110	0x3e9198ba	0.28436834
111	0x3d0c27b4	0.03421755
112	0xbddc8bdd	-0.10768864
113	0xbc91f391	-0.017816337
114	0x3d059048	0.0326083
115	0xbec217fd	-0.37908927
116	0xbad6de1d	-0.0016393099
117	0x3dcfd9d7	0.101489715
118	0x3ecaa4d0	0.39578867
119	0xbe8ceded	-0.27525273
120	0x3d82d316	0.06387918
121	0x3ebfdf31	0.3747497
122	0x3c702c49	0.014658996
123	0x3e646418	0.22303808
124	0x3e347ddb	0.17626135
125	0x3dacd904	0.0843983
126	0x3f0b9d8e	0.54537284
127	0xbd8738ff	-0.06602668
128	0xbdf882e1	-0.12134338
129	0xbd136a86	-0.03599026
130	0x3ead8a62	0.3389464
131	0x3d641d20	0.05569184
132	0x3ee9362a	0.45549136
133	0x3f0f2768	0.55919504
134	0xbe6539ca	-0.22385326
135	0x3db59a5d	0.08867333
136	0x3e903089	0.2816203
137	0xbebe9e36	-0.3723008
138	0xbe05c722	-0.13064244
139	0xbf24957d	-0.642906
140	0xbf1b00f8	-0.60548353
141	0xbe822d29	-0.2542508
142	0x3ca36d4b	0.019949576
143	0xbd61a23d	-0.055086363
144	0xbeca996e	-0.39570183
145	0x3eb2285b	0.34796414
146	0xbe12a25e	-0.1431975
147	0x3ddf2c68	0.10897142
148	0x3c0bbca1	0.008528859
149	0x3e5939b3	0.21213417
150	0x3da1e5e9	0.0790518
151	0xbdb49a14	-0.088184506
152	0xbc7f2c67	-0.015574551
153	0xbde9be6e	-0.11413275
154	0x3f0d9251	0.55301386
155	0x3c8e93fc	0.017404549
156	0xbd9530f1	-0.072847255
157	0x3e117fb2	0.14208868
158	0xbddc05d6	-0.107433006
159	0x3d2d5f98	0.042327493
160	0xbe551d65	-0.20811994
161	0x3e4749cd	0.19461747
162	0x3be38487	0.0069432887
163	0x3eaa44bd	0.33255568
164	0x3af4e145	0.0018682858
165	0xbee3614d	-0.44410172
166	0x3de6bb05	0.1126614
167	0x3d3294e7	0.043599036
168	0x3e5f36b1	0.21798207
169	0xbe29df3c	-0.16589063
170	0x3dcaadd2	0.09896435
171	0xbe059b2c	-0.13047475
172	0xbf4d19a7	-0.8011727
173	0x3e088303	0.13331227
174	0xbe396ece	-0.18108675
175	0xbc1ec154	-0.009689648
176	0x3ebdbd83	0.37058648
177	0xbe6b0313	-0.22950391
178	0x3e2c416e	0.16821834
179	0xbd62e9bf	-0.0553987
180	0x3d608df7	0.05482289
181	0xbcb4ff49	-0.022094386
182	0x3e05f092	0.13080052
183	0x3d9bf21c	0.07614538
184	0xbe709463	-0.23494105
185	0xbca54bb5	-0.020177701
186	0x3f27505e	0.65357006
187	0xbdd9b098	-0.10629386
188	0x3ee62343	0.44948778
189	0x3eccedae	0.40025085
190	0xbb87bcf0	-0.004142396
191	0x3eaab639	0.3334215
192	0x3e939d2d	0.28830853
193	0xbd94be18	-0.0726282
194	0xbe1612d5	-0.14655621
195	0x3eb52e25	0.35386768
196	0x3e1cee86	0.15325364
197	0xbea51668	-0.32243657
198	0xbe7eb4e4	-0.24873692
199	0xbec45186	-0.38343447
200	0x3e4d3e15	0.20043214
201	0x3d876c2d	0.0661243
202	0x3eff743b	0.49893364
203	0xbe6008d5	-0.21878369
204	0x3e940e36	0.28917092
205	0xbcf1739d	-0.029474074
206	0xbeb51048	-0.35363984
207	0xbefc7338	-0.49306655
208	0xbeb58750	-0.35454798
209	0x3cb34ce5	0.021887252
210	0xbe68006a	-0.22656408
211	0x3eea747d	0.45791999
212	0x3cb2fd0a	0.021849174
213	0xbdcb131b	-0.099157535
214	0x3dfe3132	0.12411727
215	0xbf0335b4	-0.5125382
216	0xbda8b5e4	-0.08237818
217	0xbd07334f	-0.033007916
218	0x3da11237	0.07864802
219	0x3cf6eed5	0.03014318
220	0x3dfda554	0.123850495
221	0x3f19738a	0.59941924
222	0x3cdb52d5	0.026772896
223	0x3ed2b210	0.41151476
224	0x3e941c11	0.28927663
225	0xbdd91302	-0.105993286
226	0x3e4d3c9e	0.20042655
227	0x3defb417	0.11704271
228	0x3e943b22	0.28951365
229	0xbe9242a2	-0.28566462
230	0x3e666299	0.2249855
231	0x3b839d0e	0.004016525
232	0x3e479c97	0.19493328
233	0x3d126a39	0.035745833
234	0x3df38140	0.11889887
235	0xbe41f9c9	-0.18942942
236	0xbe8b06ea	-0.27153713
237	0xbeb9c6ef	-0.36284587
238	0x3e7e3861	0.24826194
239	0xbe12be10	-0.14330316
240	0x3dcf4406	0.10120396
241	0x3de7fae0	0.113271475
242	0xbf1683b4	-0.58794713
243	0xbd607726	-0.05480113
244	0xbd688351	-0.056765858
245	0xbddb0ead	-0.106961586
246	0xbe7c04cb	-0.24611203
247	0xbdb2f0cb	-0.08737334
248	0x3e556b02	0.20841601
249	0xbd67a37b	-0.05655239
250	0x3d2cdf90	0.042205393
251	0xbe0ecdf3	-0.13945751
252	0x3e2563bd	0.16151328
253	0xbe1ffeb2	-0.15624502
254	0x3f13e65e	0.5777339
255	0x3ea6b706	0.3256151

linears.5.bias f4 [20]
0	0xbcbe57eb	-0.023235282
1	0x3daabbbe	0.0833659
2	0xbc4a64a0	-0.012353092
3	0x3c91c259	0.017792867
4	0xbbc9d6df	-0.006159648
5	0xbd319717	-0.04335698
6	0xbc38ae3a	-0.011272008
7	0xbb1f19cf	-0.0024276858
8	0x3ccd6c38	0.025076017
9	0xbc975177	-0.018471463
10	0xba9459bf	-0.001131825
11	0x3c21ce7c	0.00987589
12	0x3df9371d	0.12168715
13	0x3c967141	0.01836455
14	0xbe0b60a2	-0.13611081
15	0x3bc54ebe	0.0060213497
16	0xbe229eef	-0.15880941
17	0x3b997613	0.004683265
18	0xbc181923	-0.009283337
19	0xbcd68acb	-0.026189229

linears.6.weight f4 [1, 20]
0	0x3e10894c	0.14114875
1	0xbe8414df	-0.25797173
2	0x3dd95ad7	0.106130295
3	0xbe5082d7	-0.20362411
4	0xbf01979e	-0.50621974
5	0x3ec190e3	0.37805852
6	0xbe33efe1	-0.17571975
7	0x3e740d74	0.23833257
8	0xbf283976	-0.6571268
9	0xbee84db4	-0.45371783
10	0x3e174b46	0.14774808
11	0xbea12a5e	-0.31477636
12	0xbea74ec5	-0.32677284
13	0xbf0cadc0	-0.5495262
14	0x3e75aad0	0.23990941
15	0xbeb5c242	-0.3549977
16	0xbe2500f7	-0.1611365
17	0xbe065323	-0.13117652
18	0x3dc8f3a7	0.09812098
19	0x3da40d90	0.08010399

exp_avg f4 [20, 2]
0	0xbb1731f0	-0.0023070537
1	0x3a479011	0.0007612715
2	0x3bb3ecb3	0.005490863
3	0xb9899eaa	-0.0002624889
4	0xbbd85f0f	-0.0066031287
5	0xb9a77fd4	-0.00031947962
6	0xbb35e9d5	-0.0027757783
7	0xb9ac7b92	-0.00032898464
8	0x3b90399f	0.0044014
9	0x39be8197	0.00036336176
10	0xba72056f	-0.0009232377
11	0x3a49364c	0.00076756324
12	0x3ad8a0ab	0.0016527375
13	0x3a3477de	0.00068843167
14	0xbbe8672f	-0.0070923786
15	0xb9c5c9b1	-0.0003772504
16	0xbb785483	-0.003789217
17	0xb95fa187	-0.00021327111
18	0x3ab42f5e	0.0013747027
19	0x39b9d54f	0.00035444877
20	0xba0aa782	-0.0005289243
21	0x39a0ab37	0.00030645143
22	0xbb784def	-0.003788825
23	0xb9dfb554	-0.00042668974
24	0x3b2d8f78	0.002648322
25	0xb9345d47	-0.00017200886
26	0xbb687834	-0.0035472037
27	0x37b7f640	2.1929969e-05
28	0x3ace8b66	0.0015758097
29	0xba15c7bf	-0.00057136634
30	0x3aa008d2	0.001220966
31	0xba7ff439	-0.000976387
32	0x3ba56cf0	0.0050483868
33	0xb82ded90	-4.146766e-05
34	0x3bd75ad6	0.006572108
35	0x398285ac	0.00024895126
36	0x39af3e61	0.00033425077
37	0xb9a1ae0a	-0.00030837982
38	0x3ba426a0	0.0050094873
39	0x3a1aad74	0.00059004803

exp_avg_sq f4 [20, 2]
0	0x3bbf2323	0.005833046
1	0x3958bf03	0.00020670523
2	0x3b0440d1	0.0020180235
3	0x3766dd62	1.3760613e-05
4	0x3b10d255	0.0022098024
5	0x38b0dd67	8.4335734e-05
6	0x3aee9700	0.001820296
7	0x39a89923	0.00032157553
8	0x3abd0f21	0.0014424064
9	0x38410070	4.6015193e-05
10	0x3ba46de8	0.0050179847
11	0x394c754c	0.00019498653
12	0x3b5a6377	0.0033323446
13	0x38ac01a9	8.201908e-05
14	0x3b3771bb	0.0027991373
15	0x387154d4	5.753788e-05
16	0x3a971ba1	0.001152862
17	0x3992e0ab	0.0002801468
18	0x3a678246	0.0008831363
19	0x36ec5a89	7.0438878e-06
20	0x3a151df8	0.00056883646
21	0x368120ca	3.8483167e-06
22	0x3b085b82	0.0020806496
23	0x39616324	0.00021494605
24	0x3a0b69d1	0.0005318197
25	0x35eb609d	1.7536983e-06
26	0x3a10320c	0.00055006216
27	0x35a685ce	1.2406906e-06
28	0x3b382f1a	0.0028104247
29	0x37c93f50	2.399055e-05
30	0x3c0b6ee8	0.008510329
31	0x39f05fa3	0.00045847622
32	0x3aa8d5b8	0.0012881076
33	0x37dd44c3	2.6377273e-05
34	0x3af9a38c	0.0019045933
35	0x38dfb812	0.000106677544
36	0x3a822b7f	0.0009931176
37	0x3852ce37	5.0259954e-05
38	0x3b5636e3	0.0032686524
39	0x37979c4b	1.8073382e-05

exp_avg f4 [20]
0	0xbb141feb	-0.0022602032
1	0x3abd6b5f	0.0014451555
2	0xba601f18	-0.0008549555
3	0x3a9d39fa	0.0011995428
4	0x3a2577f2	0.0006312124
5	0xba9f6dba	-0.0012163438
6	0xb7e54cde	-2.7334721e-05
7	0xba6ef8e5	-0.00091160677
8	0x3a685337	0.00088624976
9	0xb791828f	-1.7346143e-05
10	0xb962bdee	-0.00021623794
11	0x399bfdb0	0.00029752916
12	0x39ca193c	0.00038547243
13	0xba2cb744	-0.0006588588
14	0x3a8bb06a	0.0010657434
15	0x3ac6e45b	0.0015174256
16	0x3ad77dcf	0.0016440692
17	0x3a7d91ae	0.0009672892
18	0x3a382d58	0.00070258
19	0x39bfc985	0.00036580503

exp_avg_sq f4 [20]
0	0x3c544094	0.01295485
1	0x3bced730	0.0063122734
2	0x38b50d21	8.633198e-05
3	0x3c09960a	0.0083975885
4	0x37d63606	2.5535945e-05
5	0x3c388d72	0.011264192
6	0x3ac0b89d	0.0014703457
7	0x398ed5d8	0.00027243677
8	0x3b927c1e	0.0044703623
9	0x382aafcf	4.0694893e-05
10	0x378b2378	1.6586608e-05
11	0x3b5a55ed	0.0033315376
12	0x39ea21ae	0.0004465705
13	0x3ad8f5f4	0.0016552792
14	0x3ab8c863	0.0014097806
15	0x3ce1ba71	0.027554723
16	0x3c39d8df	0.01134321
17	0x38202975	3.8185583e-05
18	0x3b6f6fd9	0.0036535172
19	0x3af7f9c9	0.0018919046

exp_avg f4 [20, 20]
0	0xba05f6f3	-0.00051103457
1	0x391c8435	0.0001492657
2	0x3a13d14a	0.00056387915
3	0xbae59b88	-0.0017517665
4	0xb983f9bb	-0.0002517233
5	0xbaaf2751	-0.0013363158
6	0xba523744	-0.00080190995
7	0x3a132433	0.0005612999
8	0xba949094	-0.0011334592
9	0xba91047a	-0.0011063956
10	0xba7cc83b	-0.0009642874
11	0xba9d9f40	-0.001202561
12	0x38ea870e	0.000111831454
13	0xba0f9ad6	-0.00054780894
14	0x3a229ccf	0.0006203176
15	0x39db6f44	0.00041853834
16	0x3969e39a	0.000223054
17	0xb84c057c	-4.8642498e-05
18	0x3a439995	0.0007461545
19	0xbaabc7c4	-0.00131058
20	0x3a1c4820	0.0005961675
21	0xb9256e9b	-0.0001577683
22	0xba312441	-0.00067574164
23	0x3b0e05df	0.002167098
24	0x39a410d4	0.00031293056
25	0x3ade79fe	0.0016973612
26	0x3a82c8c9	0.0009978052
27	0xba3ede9f	-0.0007281098
28	0x3aab6c8c	0.0013078614
29	0x3aaf4ecf	0.0013374927
30	0x3a9da834	0.0012028278
31	0x3ab51618	0.0013815789
32	0xb8937c74	-7.0326874e-05
33	0x3a2380a6	0.00062371267
34	0xba4370fc	-0.00074554957
35	0xba028044	-0.00049782195
36	0xb971a942	-0.00023046604
37	0x38e32f80	0.00010833051
38	0xba765b04	-0.00093977177
39	0x3ad59c07	0.001629711
40	0xb82c3065	-4.1053067e-05
41	0xb8997208	-7.3168485e-05
42	0x3973a3ca	0.00023235302
43	0xb992cf98	-0.0002800196
44	0xb8a24f1a	-7.739496e-05
45	0xb99aa01a	-0.00029492454
46	0xb94aa60a	-0.00019326076
47	0x39822676	0.00024824188
48	0xb8512c5c	-4.9870796e-05
49	0xb91a74d1	-0.00014730102
50	0xb93b3d43	-0.00017856531
51	0xb84d0041	-4.8876045e-05
52	0xb8ae3815	-8.307413e-05
53	0x3718853e	9.090929e-06
54	0x38aef6f3	8.3429644e-05
55	0x38b09acb	8.4211664e-05
56	0xb8307528	-4.207078e-05
57	0xb93570b8	-0.00017303496
58	0x392d4032	0.0001652248
59	0xb9b820b3	-0.00035119578
60	0xb9c7ee6a	-0.0003813387
61	0x38e477d9	0.000108942106
62	0x39d6d6e7	0.00040977375
63	0xbab569c2	-0.0013840722
64	0xb94f5efc	-0.00019776443
65	0xba8f9266	-0.0010953664
66	0xba272cc4	-0.0006377215
67	0x39f06357	0.0004585038
68	0xba5a6cc0	-0.0008332245
69	0xba60cd20	-0.0008575488
70	0xba4b9ee1	-0.000776751
71	0xba66204b	-0.0008778616
72	0x382849c8	4.0123035e-05
73	0xb9d2d284	-0.00040211168
74	0x39fadab5	0.00047846665
75	0x39a4925c	0.00031389564
76	0x391a801d	0.0001473431
77	0xb87b29b8	-5.9881917e-05
78	0x3a1f01dc	0.0006065646
79	0xba875d26	-0.0010327443
80	0xb9175e55	-0.00014435624
81	0xb7884795	-1.6245796e-05
82	0x398053f1	0.00024476604
83	0xba425dc6	-0.0007414486
84	0xb909a713	-0.00013127578
85	0xba3e5790	-0.00072609726
86	0xb9d25388	-0.00040116557
87	0x39c7eeaf	0.0003813407
88	0xb9879286	-0.00025858375
89	0xb9dda7ff	-0.00042277572
90	0xb9f8aaf0	-0.00047429604
91	0xb985e227	-0.00025536233
92	0xb90be9b2	-0.00013343131
93	0xb8dd3f38	-0.000105498766
94	0x3975bebb	0.00023436073
95	0x3920af59	0.00015324111
96	0xb7b4078f	-2.1461192e-05
97	0xb93a98b5	-0.0001779523
98	0x39d0f95f	0.00039858648
99	0xba266929	-0.00063480675
100	0xb92a0ed3	-0.00016217986
101	0x393648dc	0.00017384015
102	0xb8928045	-6.9857146e-05
103	0xb9707e20	-0.00022935169
104	0x3797b546	1.8085015e-05
105	0x361bf9fa	2.3242305e-06
106	0xb6fa9b31	-7.4686473e-06
107	0xb938a857	-0.00017610319
108	0xb9e5656a	-0.00043753843
109	0xb9612d48	-0.0002147454
110	0xb88f8ba6	-6.844783e-05
111	0xb9fba5bb	-0.0004799793
112	0x39796af1	0.00023786329
113	0xb988c26b	-0.00026084794
114	0x39019149	0.00012356522
115	0x3872f77d	5.7927788e-05
116	0x3944fc16	0.00018785926
117	0x398bd3df	0.00026670002
118	0x36c18d1e	5.7682764e-06
119	0x3758c76e	1.2921037e-05
120	0xb946ea2d	-0.00018969989
121	0x37f91d4d	2.9696757e-05
122	0x3986da9e	0.00025721354
123	0xba476a82	-0.00076071185
124	0xb8f152b2	-0.00011507179
125	0xba2180e3	-0.0006160868
126	0xb9bbf122	-0.00035847077
127	0x3997c205	0.0002894552
128	0xb9d4004c	-0.00040436012
129	0xb9ec1125	-0.000450262
130	0xb9dd42df	-0.00042202228
131	0xb9de8e9d	-0.00042449395
132	0xb7192304	-9.127663e-06
133	0xb941225f	-0.00018418719
134	0x39828237	0.0002489255
135	0x3932cf8d	0.00017052722
136	0x3865fd38	5.4833683e-05
137	0xb8a6c3bf	-7.9519574e-05
138	0x39b035e7	0.00033609496
139	0xba1db89c	-0.00060165836
140	0x38aafb30	8.153019e-05
141	0xb8519353	-4.996669e-05
142	0xb8392429	-4.4141114e-05
143	0x393ea6f6	0.0001818201
144	0x3790605f	1.7211014e-05
145	0x38c0859c	9.18016e-05
146	0x38876b2c	6.457264e-05
147	0xb6a58191	-4.9324667e-06
148	0x39523513	0.00020046932
149	0x390fb8a8	0.00013706333
150	0x38b3ecdb	8.579503e-05
151	0x3964b1d6	0.00021810023
152	0xb89a1b7a	-7.34841e-05
153	0x38e0cbdc	0.00010719124
154	0xb8a540a4	-7.8798534e-05
155	0xb8572b46	-5.1300296e-05
156	0xb889c54a	-6.569417e-05
157	0xb86e9634	-5.688351e-05
158	0xb8680207	-5.5315e-05
159	0x38d6844f	0.000102289596
160	0xba574bfd	-0.0008212922
161	0x39828f98	0.00024902518
162	0x3a665964	0.0008787124
163	0xbb3bfbd9	-0.0028684048
164	0xb9d2c5d7	-0.00040201723
165	0xbb0f1b7b	-0.0021836448
166	0xbaa99a57	-0.0012939674
167	0x3a6af008	0.0008962159
168	0xbaef6e67	-0.0018267155
169	0xbaeaee6b	-0.0017923837
170	0xbacd8d75	-0.0015682416
171	0xbafdde5d	-0.0019368638
172	0x3932a2eb	0.00017036095
173	0xba67a9bd	-0.00088372437
174	0x3a832a6f	0.0010007153
175	0x3a2ee0ef	0.0006671091
176	0x39baea0e	0.0003565107
177	0xb88e4025	-6.7830355e-05
178	0x3a9ec516	0.001211318
179	0xbb0ad421	-0.0021183568
180	0x37de257a	2.6481914e-05
181	0x37a43822	1.9576462e-05
182	0xb8880ee9	-6.4877626e-05
183	0x396647da	0.00021961276
184	0x38351eb5	4.318236e-05
185	0x3984a4b4	0.00025299715
186	0x3909cd56	0.00013141832
187	0xb91435df	-0.00014134448
188	0x37d7ba09	2.5716627e-05
189	0x38f22d3b	0.00011547884
190	0x3924b575	0.00015707857
191	0x378a43cd	1.6482454e-05
192	0x38aa97ef	8.1345315e-05
193	0x368686f8	4.0092236e-06
194	0xb884b3c4	-6.3277344e-05
195	0xb81fa22f	-3.80596e-05
196	0x3806df0e	3.2155825e-05
197	0x38b09ad6	8.4211744e-05
198	0xb9104882	-0.00013759921
199	0x3951ad77	0.00019996414
200	0xba5610f8	-0.00081659807
201	0x39c84f61	0.00038206115
202	0x3a211f48	0.0006146324
203	0xbb225d80	-0.0024774969
204	0xb998fe96	-0.0002918138
205	0xbadbc20c	-0.0016766204
206	0xba841880	-0.0010078102
207	0x3a02bc6f	0.0004987185
208	0xbaf9ee71	-0.0019068253
209	0xbad5034a	-0.001625159
210	0xbaa83724	-0.0012833816
211	0xbb05d0bf	-0.0020418612
212	0x39d29e85	0.00040172428
213	0xba7f3719	-0.0009735688
214	0x3a6ec2f0	0.00091080274
215	0x3a18ebdf	0.00058334874
216	0x39fef290	0.00048627378
217	0x397c210a	0.00024044901
218	0x3a75fd35	0.0009383739
219	0xbad4ea59	-0.0016244157
220	0x39a94fbd	0.00032293602
221	0xb967b8a1	-0.00022098656
222	0xb8f2bb36	-0.0001157433
223	0x3a50c191	0.0007963414
224	0x386dfb4c	5.673924e-05
225	0x39cea50a	0.00039414346
226	0x39816818	0.00024682353
227	0x376ec360	1.4231395e-05
228	0x3a53b49e	0.0008075925
229	0x3a1241e3	0.0005579276
230	0x39b8abc2	0.00035223184
231	0x3a65e23e	0.00087693695
232	0xb998dee8	-0.00029157777
233	0x39e463ab	0.00043561807
234	0xb9a3ef28	-0.00031267968
235	0xb9465b8a	-0.00018916852
236	0xb98b54ab	-0.0002657523
237	0xb98910cb	-0.00026143188
238	0xb967ccc5	-0.0002210616
239	0x39d41428	0.0004045081
240	0xb967798a	-0.00022075154
241	0x3937caf2	0.00017527843
242	0x3846b39e	4.737416e-05
243	0xb9f050fd	-0.00045836708
244	0xb74bcbd9	-1.2147205e-05
245	0xb8fa54f7	-0.00011936755
246	0xb8c16487	-9.221682e-05
247	0xb8e18a7d	-0.000107546315
248	0xba194967	-0.00058474246
249	0xb9aff886	-0.00033563765
250	0xb91de898	-0.00015059335
251	0xba28dc13	-0.0006441485
252	0x39901ac5	0.00027485765
253	0xb9a75031	-0.0003191247
254	0x3944280c	0.00018706935
255	0x38f07e51	0.0001146762
