modelos/heat_10x3-20000.pt (torch, 12630 bytes, 21 tensors)

linears.0.weight f4 [10, 2]
000000 29 df 19 3f f9 12 41 bf 63 87 73 3f 07 fb 97 3f
       0.6010614 -0.75419575 0.9512846 1.1873482
000010 cb c8 24 3f d5 7d d4 3d 1e 37 83 be be 6a 37 be
       0.64368886 0.10375563 -0.2562799 -0.17911813
000020 65 07 55 bf 19 d1 41 bf e3 71 ac bf 50 85 8c 3e
       -0.8321441 -0.7570968 -1.3472255 0.2744546
000030 57 b4 63 bb 0b 86 55 3f cd fe 68 3f f7 33 1d 3f
       -0.0034744942 0.8340766 0.91013795 0.6140742
000040 64 bd a2 3f 44 83 94 bf 1b e0 84 bd d9 4f 76 bf
       1.2714047 -1.1602559 -0.06488057 -0.9621559

linears.0.bias f4 [10]
000000 26 b9 12 3c 4f b2 d3 be 5a 4f c2 be c5 02 f9 3d
       0.008955276 -0.41346976 -0.37951165 0.12158731
000010 a5 61 b0 3e a7 f1 bb be 61 83 61 be 2b fa 7c 3e
       0.34449497 -0.36707804 -0.22022773 0.24704807
000020 24 4a e8 be 7e f3 c9 bd
       -0.45369065 -0.098608956

linears.1.weight f4 [10, 10]
000000 5d 77 8c bd c8 2e 99 3b 69 88 ac 3d 30 76 da 3e
       -0.06858704 0.004674766 0.08424456 0.42668295
000010 1f a0 fa 3d 39 a8 18 be e7 ad 86 be fb e8 da bd
       0.12237572 -0.14907922 -0.26304552 -0.10688969
000020 d3 34 a2 3d 4e 84 16 3f 1e 65 4c 3f 84 17 bc be
       0.07920232 0.5879563 0.7984179 -0.3673669
000030 de d9 2e bc 27 3b 34 ba e8 c8 d9 3e c5 f4 13 bf
       -0.010672061 -0.00068752695 0.42536092 -0.57795364
000040 25 4f 32 bf e6 1f 22 bf e5 54 14 3e 9a c5 05 3f
       -0.69652015 -0.63329923 0.1448551 0.5225464
000050 dc 35 3f be d9 14 e6 3e 12 75 e9 be 3f 13 41 3e
       -0.1867289 0.4493778 -0.4559713 0.18854998
000060 fd 62 6e be ac 71 02 bd 37 c0 c7 be ff b7 27 be
       -0.23279949 -0.031846687 -0.39013836 -0.16378783
000070 1c 71 2b bf 8b 56 20 be 7b 01 1c 3d 21 4b 39 bf
       -0.66969466 -0.15658014 0.03808735 -0.7238026
000080 2c b5 3c be 41 84 3d 3e b7 91 2a 3f 09 09 83 bd
       -0.18428487 0.18507482 0.66628593 -0.06398208
000090 04 6b 99 3e 84 2c 75 3e 83 d5 57 3f 1c 3a fc 3e
       0.2996446 0.23942763 0.8431017 0.49263084
0000a0 1d 73 16 3e f8 6b 92 3e c1 fe 04 be d9 c5 16 3f
       0.1469235 0.28598 -0.12987806 0.5889564
0000b0 0b 86 2c be e0 14 e8 bd 61 e2 28 bf 70 6d c2 bb
       -0.16848008 -0.113321066 -0.65970427 -0.005933456
0000c0 e1 f5 a1 be 40 98 bd 3f f8 1c da 3c 71 d1 12 3e
       -0.31632903 1.4812088 0.026625142 0.14337708
0000d0 50 5e 2f bd 88 e6 56 be 01 cd 71 be b5 80 a6 bd
       -0.042814553 -0.20986378 -0.23613359 -0.08130018
0000e0 d5 cf 36 bd 72 20 08 3f a6 bc ff 3e 74 4f 06 bf
       -0.044631798 0.5317451 0.49948615 -0.52464986
0000f0 17 b7 e0 3d 71 8f 0d be dc b8 4e be af 9d 38 3e
       0.109724216 -0.1382425 -0.20187706 0.18028902
000100 d2 57 6c be 6f a4 bf be e6 8b 68 3d c8 f0 97 be
       -0.23080376 -0.3743014 0.056774043 -0.2967589
000110 c1 88 33 bd 05 74 2f 3f fd 18 4a 3e b6 39 c2 be
       -0.04383159 0.68536407 0.19736095 -0.37934655
000120 36 75 07 bf 72 95 8f 3e a3 d7 d5 3e 43 3c 2a be
       -0.52913225 0.28043705 0.4176608 -0.1662455
000130 ac 88 dd bd 51 50 24 bd c3 1d e3 3d 62 4b 46 3e
       -0.10817084 -0.04011566 0.11089661 0.19364694
000140 43 89 03 3e d7 7b 25 3f b8 c6 66 3d b8 9d 85 3d
       0.1284533 0.6464209 0.056341857 0.06524223
000150 d1 97 39 3e 89 50 93 3e 63 4a 46 3e 3a 68 ca 3e
       0.1812432 0.2877238 0.19364314 0.39532644
000160 8a fa 25 bf 76 df 79 bf e1 e9 d4 3e 7d 9e f4 be
       -0.6483542 -0.976066 0.41584685 -0.47777167
000170 40 a0 13 bf 1e d4 1e 3f 90 d0 8b 3f 51 e9 00 bf
       -0.576664 0.62042415 1.0923023 -0.5035601
000180 0c 3c ca 3e 01 03 0f 3e 5d af dd be dd 03 30 bf
       0.39498937 0.1396599 -0.43297854 -0.68755895

linears.1.bias f4 [10]
000000 32 2b dc 3b 01 a9 f8 be f3 c8 af 3d e7 87 9d be
       0.0067190165 -0.4856644 0.0858325 -0.30767748
000010 96 33 bd bc 82 b3 85 3d 92 82 fc 3c 67 d2 8e bb
       -0.023095887 0.06528379 0.03082398 -0.004358578
000020 0f af f3 3e c9 a3 7b 3e
       0.47594497 0.24574198

linears.2.weight f4 [10, 10]
000000 09 43 c7 be ce 88 68 be b6 41 3e be 89 3b 03 3e
       -0.3891833 -0.22708437 -0.18579754 0.1281568
000010 74 63 7f bf b7 ae 1d 3f 96 f2 0c be ec 04 82 3e
       -0.9976113 0.6159472 -0.13764414 0.2539438
000020 d9 aa 93 3e 9c 85 cc 3d 7b ce 2e 3f ae f2 98 3d
       0.28841284 0.099864215 0.68283814 0.074681625
000030 ee 2b bb be 96 d9 e7 be 54 b7 a7 be 7b 13 8b bf
       -0.36556953 -0.45283192 -0.32757056 -1.086532
000040 88 d2 8c 3e db 96 01 3e 18 ba 06 bf 10 76 40 bf
       0.27504373 0.12655203 -0.52627707 -0.7518015
000050 ce c9 4c bf e8 d4 3a bf 64 e9 3a bf b4 dd 7f 3f
       -0.7999543 -0.7298112 -0.73012376 0.9994767
000060 33 61 0d c0 bd 93 dd 3e cd 17 07 bf 59 db ed bd
       -2.2090576 0.43276778 -0.5277069 -0.11614103
000070 a4 81 a1 3d 41 96 a3 3f bb 94 73 3e 3f e1 9b bd
       0.07886055 1.2780229 0.23787205 -0.07611322
000080 34 ce eb 3d d0 e6 ba 3d 2c 9e f6 be 56 fa e5 3e
       0.115139395 0.09126055 -0.4816755 0.44917554
000090 85 33 50 3e 0c 44 8b 3d 74 fa 84 3c 40 29 1a be
       0.20332153 0.06800088 0.016232707 -0.15054798
0000a0 d9 bd 6d 3e 61 8a 7a 3c 7e 0f 26 3e 8d 73 a9 3e
       0.23216952 0.015291781 0.16216847 0.3309597
0000b0 73 69 9c bd 80 e5 62 3e d6 a1 91 bd aa a1 38 3f
       -0.076373 0.2215786 -0.07110946 0.7212168
0000c0 1b 91 b9 bd 6a 9f 0f 3f 22 be b9 3e 7b 62 83 3d
       -0.0906088 0.5610262 0.36277872 0.06415268
0000d0 55 22 9f 3e 4c 3e 9a bf 86 07 97 3c 4b 08 d1 bd
       0.3108088 -1.2050261 0.018436205 -0.1020666
0000e0 9c 9e 1d bf 1f bd a0 be 77 3e 04 3e 01 7c f6 bd
       -0.61570144 -0.31394288 0.12914453 -0.120353706
0000f0 ee 72 51 be 07 05 62 bf 4d c4 03 3f cf f5 fc bf
       -0.20453998 -0.8828892 0.51471406 -1.9762515
000100 e1 ed db 3d d4 e6 15 bf 26 79 ed 3c 2a 60 08 bf
       0.10738731 -0.5855534 0.028988432 -0.53271735
000110 84 90 6b 3f 2b 8d ab 3d 82 44 31 be 8c 35 50 3f
       0.9201739 0.08376535 -0.1731129 0.81331706
000120 ce a4 73 bf 23 2a dc 3f ca 31 d6 be 87 de 9f 3e
       -0.95173347 1.7200359 -0.4183486 0.31224462
000130 66 55 61 3e 1d 11 8b 3e 0b 46 d1 bf 25 b2 a2 3e
       0.22005233 0.27161494 -1.63495 0.31776538
000140 48 e2 7e 3e f7 fe e8 3e 37 88 2f bf df c1 b8 3f
       0.24891007 0.45507023 -0.6856722 1.4434165
000150 3f c2 c6 be a7 51 3f 3f 80 5d 2b 3e 60 99 42 3f
       -0.38820073 0.74733967 0.16734886 0.7601528
000160 9b 7a ff be d0 98 18 3e 16 20 03 c0 9b dd ab bf
       -0.49898228 0.14902043 -2.0488334 -1.3427004
000170 05 60 a8 bf a8 45 fb 3f 75 a8 35 c0 f3 c7 9f 3f
       -1.3154303 1.9630632 -2.8384068 1.2482895
000180 d1 9b ba bf 34 69 a8 bc 98 bb a0 3f 89 99 13 40
       -1.4578801 -0.020557977 1.2557249 2.306246

linears.2.bias f4 [10]
000000 ef 07 86 3d b9 77 15 bd 8b f6 e1 bb 7a 82 08 3c
       0.06544482 -0.03649113 -0.0068958453 0.008331889
000010 34 3e 02 bf 51 4d bd 3d 37 e0 ee 3e 43 14 f9 be
       -0.50876164 0.092432626 0.46655437 -0.4864827
000020 84 5e 43 be 6f 02 00 bf
       -0.19079024 -0.50003713

linears.3.weight f4 [1, 10]
000000 8b 9b 98 3f 21 ea 1c bf 9f ba 1a 3f 0a 06 f0 3d
       1.1922468 -0.6129475 0.6044101 0.11719902
000010 a0 ae 3a 3e c7 ab a0 bf db 4b 63 bf 69 28 10 3f
       0.18230677 -1.2552422 -0.8878762 0.5631166
000020 e8 24 b3 3e 17 9b 5d 3f
       0.34989095 0.86564773

exp_avg f4 [10, 2]
000000 1f 88 14 36 d7 d2 02 37 a3 81 c2 37 41 78 ac 35
       2.2132951e-06 7.797694e-06 2.3186969e-05 1.2849997e-06
000010 aa a8 51 36 51 9d 3a 36 6e b0 6e 37 75 9f 69 36
       3.1241602e-06 2.780773e-06 1.4226984e-05 3.4812522e-06
000020 4d e1 e4 b7 5f 36 d1 b6 aa 0c 59 37 83 bf 9d b6
       -2.7284632e-05 -6.235015e-06 1.29371565e-05 -4.7012595e-06
000030 83 55 32 b8 a1 4c 8a b6 19 bc bb 37 d6 c2 a4 b5
       -4.2518146e-05 -4.1216413e-06 2.2379727e-05 -1.2275657e-06
000040 09 3b df 37 46 d9 4c 36 92 b5 ce 37 8d 07 04 38
       2.6611162e-05 3.0524839e-06 2.4641664e-05 3.1478285e-05

exp_avg_sq f4 [10, 2]
000000 01 44 a4 37 c4 ea a5 36 bd 7a 7b 3b 47 12 65 39
       1.958199e-05 4.9447135e-06 0.0038372718 0.0002184595
000010 1b 1a 15 39 8f 54 a5 37 fb da 2f 3a 23 54 c3 36
       0.00014219472 1.9708908e-05 0.0006708351 5.8212477e-06
000020 84 72 9a 3b 6c c1 36 39 3d 79 20 36 d6 2f 27 35
       0.0047133584 0.00017428928 2.3912428e-06 6.228196e-07
000030 2f 74 17 3c 95 9e 24 39 e8 7b 0b 39 8e 94 27 37
       0.009244009 0.00015699335 0.00013302232 9.988564e-06
000040 75 0d 93 3a a7 79 65 39 89 d6 7d 3c 83 66 d0 38
       0.001121922 0.00021884461 0.015493044 9.937307e-05

exp_avg f4 [10]
000000 13 a0 f8 b6 a0 b1 27 38 01 cb f3 36 78 82 8d 37
       -7.409611e-06 3.998133e-05 7.265597e-06 1.6869264e-05
000010 dd 3d 83 b8 04 90 d6 36 28 13 a5 b8 c0 09 91 b7
       -6.25809e-05 6.3944626e-06 -7.871381e-05 -1.7289887e-05
000020 dc 2f 05 b8 86 3d d5 38
       -3.1754244e-05 0.00010168091

exp_avg_sq f4 [10]
000000 8f 74 58 37 77 c6 6e 3c 25 2d 5c 39 47 02 50 3b
       1.2901742e-05 0.014573685 0.00020997653 0.0031739639
000010 40 1a 44 3c a5 e7 1c 38 45 ea ad 3c b9 bd 4f 3b
       0.011969149 3.7409034e-05 0.021229872 0.0031698777
000020 42 e9 4d 3c db 2a fc 3c
       0.01256782 0.030782154

exp_avg f4 [10, 10]
000000 30 5d 93 37 c4 1e 3c 37 3b f7 44 37 f4 aa ca b6
       1.756716e-05 1.1212836e-05 1.1740073e-05 -6.0399707e-06
000010 59 a9 31 b7 cb 49 00 b7 3b 32 f5 b6 42 53 ea 36
       -1.0589451e-05 -7.646576e-06 -7.3074166e-06 6.983436e-06
000020 bb a7 8e 37 31 e9 d5 b6 fc 57 bb b6 2a 06 d8 35
       1.7005825e-05 -6.3750417e-06 -5.583277e-06 1.6095048e-06
000030 63 5c d3 b5 33 9e e5 34 80 39 31 34 fa 7e 7a 37
       -1.5747613e-06 4.276968e-07 1.6505328e-07 1.4930725e-05
000040 bc e2 4a 36 de 1d 0a b7 35 7b ab b6 ad 2e ab b6
       3.0232322e-06 -8.232395e-06 -5.1105403e-06 -5.101631e-06
000050 51 3a b5 36 d0 2b 62 35 a8 00 a0 b6 df a2 83 35
       5.4010093e-06 8.4255316e-07 -4.768448e-06 9.807662e-07
000060 c3 9f ca 34 c0 14 9b b7 c3 0c c6 b6 3f 2b 44 37
       3.7741674e-07 -1.8487102e-05 -5.9023455e-06 1.1692579e-05
000070 31 d0 70 b6 ed ae b6 b6 93 40 2b b7 1c f1 d6 37
       -3.588397e-06 -5.4443867e-06 -1.0207429e-05 2.5623063e-05
000080 e1 c4 03 37 ee 46 20 b6 1b be 98 b7 a4 98 48 b6
       7.854048e-06 -2.3883144e-06 -1.8208337e-05 -2.989117e-06
000090 12 e3 3e 37 37 70 05 37 d4 04 17 37 1c 1b 63 35
       1.1377751e-05 7.953545e-06 9.0014255e-06 8.460354e-07
0000a0 75 11 f8 35 e4 3a 63 37 3c 19 6a b6 07 17 24 34
       1.848252e-06 1.3543966e-05 -3.4883406e-06 1.5282068e-07
0000b0 ae 9c c9 b6 e5 35 5c b7 05 70 41 b6 87 0b 28 37
       -6.0085067e-06 -1.312557e-05 -2.8824445e-06 1.0016264e-05
0000c0 cc 02 b3 36 16 32 73 b7 60 bc a5 36 6a 07 5d 37
       5.3349413e-06 -1.449559e-05 4.939313e-06 1.3174353e-05
0000d0 7c 88 9d b5 77 1b 16 36 a9 92 9e b6 2f 81 10 b7
       -1.1737134e-06 2.2367728e-06 -4.7258404e-06 -8.613147e-06
0000e0 47 0c 84 b6 e5 af 69 b6 40 9b 67 37 53 70 ca 36
       -3.935336e-06 -3.482209e-06 1.380482e-05 6.0331454e-06
0000f0 c4 9a 9f b6 ee c4 92 36 11 30 f9 b6 43 62 33 36
       -4.7565863e-06 4.3740647e-06 -7.426374e-06 2.6730274e-06
000100 78 d3 8c 34 f6 23 2a 37 58 3b e8 35 d4 78 22 35
       2.6230896e-07 1.0141162e-05 1.7302618e-06 6.052553e-07
000110 2c 92 bf 36 72 f3 06 b7 6f 84 33 b7 da c1 77 b6
       5.70926e-06 -8.043704e-06 -1.0700066e-05 -3.6918705e-06
000120 1c 98 ae b6 f4 9b c3 35 67 ed 52 36 94 a1 af 36
       -5.203312e-06 1.457402e-06 3.1430625e-06 5.2342166e-06
000130 fa ab af 36 7f 00 74 b6 60 50 30 b7 4a d3 48 b6
       5.235427e-06 -3.6359122e-06 -1.0509131e-05 -2.9925309e-06
000140 e4 b7 ce 35 5d 8b 6d b6 8a cd db b5 5e 52 85 35
       1.5401715e-06 -3.5396872e-06 -1.6376591e-06 9.933244e-07
000150 e3 0e 13 36 76 8a 1d b7 12 3d e2 b5 8d 9f 8c 36
       2.1913372e-06 -9.390167e-06 -1.6856086e-06 4.1908993e-06
000160 64 72 61 36 98 68 7c 36 4e 98 e9 36 ba ec 03 b7
       3.3594197e-06 3.7611808e-06 6.9616717e-06 -7.863326e-06
000170 fa c4 05 37 97 9f 16 b5 b8 e3 54 36 07 9a b1 37
       7.97328e-06 -5.611159e-07 3.1723011e-06 2.1171769e-05
000180 1a 62 25 36 5b a9 aa b7 83 de dd 37 02 f9 11 37
       2.4644019e-06 -2.0344442e-05 2.6448868e-05 8.70065e-06

exp_avg_sq f4 [10, 10]
000000 24 2f 08 3a 41 5e 12 38 49 41 6e 37 4d fe a4 36
       0.0005195013 3.4896893e-05 1.4201106e-05 4.9171854e-06
000010 36 22 48 38 db a2 bd 3a 54 35 90 39 6f 69 82 3a
       4.7715577e-05 0.001446809 0.00027505553 0.0009949635
000020 ab 92 b4 39 c2 d9 8e 37 bf 47 3d 38 8c 0a 7e 37
       0.00034441552 1.702912e-05 4.512793e-05 1.5142035e-05
000030 63 7e d4 36 94 a4 e1 35 ff fd 7f 37 dc 1d c2 38
       6.3328057e-06 1.6811705e-06 1.52583225e-05 9.2562026e-05
000040 1c 90 8b 37 25 96 a3 38 42 80 30 38 b5 f1 30 36
       1.6637197e-05 7.800412e-05 4.208112e-05 2.6366736e-06
000050 2b e4 ba 39 a9 c4 b0 36 55 16 33 36 c4 ea 95 35
       0.00035646683 5.268103e-06 2.6686077e-06 1.1169691e-06
000060 d5 8d 48 37 51 35 8f 3a 5f fe 58 39 2e 79 32 3a
       1.1953952e-05 0.0010925924 0.00020694126 0.00068082183
000070 df d9 64 39 e0 c9 c4 36 2d ff f5 3a 09 89 86 38
       0.00021824938 5.8647565e-06 0.0018768065 6.415143e-05
000080 6c 08 6b 38 b6 40 74 36 95 87 e1 37 bc 73 d6 3b
       5.603621e-05 3.63965e-06 2.6885225e-05 0.0065445583
000090 be d5 af 3a da ab 82 3b 5b 68 4d 3a 66 60 2d 38
       0.001341514 0.0039877715 0.00078356796 4.1336192e-05
0000a0 13 1d b9 3a 01 e6 88 38 c6 ca db 37 f4 c5 1c 37
       0.0014123045 6.527827e-05 2.6201258e-05 9.344414e-06
0000b0 fc 62 c7 38 2f a6 86 3b d5 44 4f 3a 53 98 33 3b
       9.507497e-05 0.004109166 0.000790668 0.0027404025
0000c0 9b 13 66 3a 8a 5a 27 38 90 e1 42 38 f9 5b 40 39
       0.0008776725 3.9900224e-05 4.6463276e-05 0.0001834481
0000d0 0e 29 dc 38 8b 8b 5e 37 97 7c e2 38 f5 2d 9d 39
       0.000104980645 1.3264721e-05 0.000107997264 0.00029979614
0000e0 d9 f5 0f 39 4e d2 22 39 6a 41 cc 37 a5 2c 01 36
       0.00013729128 0.00015527869 2.4349156e-05 1.9248484e-06
0000f0 2d 3b cd 38 0c 13 d9 38 a3 fb 95 37 6f 40 db 36
       9.786184e-05 0.00010350914 1.7879362e-05 6.5342097e-06
000100 b6 ad aa 38 f7 5f d6 39 1a d0 84 37 f0 83 a9 39
       8.138588e-05 0.0004088876 1.5832531e-05 0.00032332493
000110 24 9c dd 38 aa a6 e0 37 ef 84 19 38 60 d9 1b 38
       0.00010567185 2.678049e-05 3.6601847e-05 3.7157326e-05
000120 f1 86 cc 36 ea 57 a7 35 05 9d 81 37 91 db 8c 38
       6.095383e-06 1.2468056e-06 1.5451116e-05 6.716618e-05
000130 57 ec 4b 38 7d dd e6 37 34 de 6d 37 5d 95 80 36
       4.861908e-05 2.7521275e-05 1.41780365e-05 3.8320854e-06
000140 b1 0b ad 35 52 7a 30 37 ec 18 af 36 f1 c5 78 35
       1.2892907e-06 1.0518897e-05 5.2183077e-06 9.267524e-07
000150 87 92 fe 36 1b 96 9c 36 eb 03 25 35 11 a3 e9 35
       7.586848e-06 4.666637e-06 6.147299e-07 1.7407311e-06
000160 21 eb bd 36 77 41 d8 34 ad a0 f7 39 9e 9f 36 39
       5.6600115e-06 4.0280767e-07 0.00047231224 0.00017416335
000170 a9 79 d7 38 f0 f7 b3 37 c8 5b 42 39 e4 94 67 3a
       0.0001027466 2.1453918e-05 0.00018535473 0.0008834137
000180 30 d2 eb 38 e7 ce 29 3a 61 af 38 3a 85 d3 8a 36
       0.00011244824 0.0006477669 0.00070451765 4.1373446e-06

exp_avg f4 [10]
000000 ff 48 ef 37 d0 e1 98 36 45 13 fb 37 5f d2 0b b8
       2.8525012e-05 4.556241e-06 2.9930505e-05 -3.3336106e-05
000010 4b 91 38 38 db 12 82 b7 71 dc 9f 37 65 61 3f b6
       4.4004333e-05 -1.5505988e-05 1.9056928e-05 -2.851791e-06
000020 c5 b2 75 b6 fd 63 06 b8
       -3.6611902e-06 -3.204121e-05

exp_avg_sq f4 [10]
000000 47 ea 66 3b 1b cd 81 39 d8 a5 1c 3b 82 36 84 3c
       0.0035234855 0.00024757613 0.0023902562 0.016139273
000010 11 38 21 3c cd 29 d8 3a 26 02 1a 3a 30 69 8a 39
       0.009840027 0.001649195 0.0005874954 0.00026399782
000020 52 3b 04 36 ae f4 94 3a
       1.9704062e-06 0.0011364424

exp_avg f4 [10, 10]
000000 a9 66 b8 36 d5 72 b2 36 51 bf bc 36 20 55 ac b3
       5.4955785e-06 5.3181816e-06 5.6251088e-06 -8.024858e-08
000010 a7 79 e5 36 1d de 6e 31 3c 34 06 36 2d 08 e4 36
       6.838894e-06 3.4759815e-09 1.999796e-06 6.7958813e-06
000020 b8 06 26 b7 42 d0 40 b6 81 55 e4 b5 4e f0 1c 36
       -9.895935e-06 -2.8731451e-06 -1.7012209e-06 2.3385687e-06
000030 86 29 c6 b6 4a ec 50 b6 83 dd 58 b6 6b 9a 05 37
       -5.905694e-06 -3.1131954e-06 -3.2315445e-06 7.963371e-06
000040 75 7d a6 b5 2a 3e a1 b6 c5 34 24 b5 f9 03 a0 36
       -1.2404477e-06 -4.8054108e-06 -6.117155e-07 4.768834e-06
000050 77 94 19 36 bf 50 a3 36 88 9b 82 b6 33 2d 76 34
       2.2885195e-06 4.8671786e-06 -3.892408e-06 2.2926979e-07
000060 78 58 b2 36 9f db 4a 36 b9 02 1b 36 33 97 0d b5
       5.3151125e-06 3.0228182e-06 2.3098385e-06 -5.2746617e-07
000070 eb f8 2b 35 4e fb 87 b7 d6 81 54 35 ac 2c 2e b6
       6.406469e-07 -1.6210277e-05 7.916509e-07 -2.5954023e-06
000080 1f 61 28 34 76 1a de b5 cb a1 7a b5 5e 89 b9 32
       1.5681552e-07 -1.654799e-06 -9.33677e-07 2.1599302e-08
000090 67 64 4e 35 49 a4 58 36 b5 11 d2 35 c0 50 18 36
       7.6887085e-07 3.2282135e-06 1.5651373e-06 2.2696768e-06
0000a0 db 4f 29 b4 31 77 4f b6 30 2c b1 b5 31 8d 8c b5
       -1.5768403e-07 -3.0914782e-06 -1.3200388e-06 -1.0471905e-06
0000b0 80 8b 68 b6 11 a4 0c b6 fa 71 10 b5 75 d7 83 35
       -3.4651894e-06 -2.0957125e-06 -5.381004e-07 9.822967e-07
0000c0 36 27 dc 35 c1 c2 45 b7 b4 12 80 36 95 0e 3f 37
       1.6402689e-06 -1.178746e-05 3.8168746e-06 1.1387882e-05
0000d0 ea 39 be 36 ad a9 39 36 a5 48 0b 37 4a 77 28 36
       5.6691833e-06 2.7665913e-06 8.3019595e-06 2.5103386e-06
0000e0 70 8e d3 36 52 e3 46 b6 58 5e e6 b5 db f1 50 37
       6.304872e-06 -2.9636617e-06 -1.7163793e-06 1.24540775e-05
0000f0 20 0b b8 b3 56 3e 52 b5 9e dd 36 b6 41 ae 2e 35
       -8.570191e-08 -7.8321807e-07 -2.7249112e-06 6.5073624e-07
000100 ce ff f4 b5 9e ee ec 36 77 23 48 35 0c ae dd 35
       -1.8253866e-06 7.061127e-06 7.4557414e-07 1.6516437e-06
000110 8c de 8a 36 69 e6 7d b6 0a eb 8d b4 cb db 29 b5
       4.1386284e-06 -3.7834054e-06 -2.643431e-07 -6.3277247e-07
000120 63 04 d5 35 07 be 43 b5 0b b9 26 34 ac ff 91 b5
       1.5871013e-06 -7.2919687e-07 1.5527273e-07 -1.0877752e-06
000130 bd 79 d1 b4 4c 7c ee b4 2a 57 4e b5 c9 0d c1 36
       -3.901786e-07 -4.4421392e-07 -7.686782e-07 5.753453e-06
000140 29 f7 e4 b5 fa ac e3 b6 98 a4 c6 35 f6 75 ba b6
       -1.7059257e-06 -6.7852643e-06 1.4800053e-06 -5.5569644e-06
000150 6b f9 31 b6 3a 7c 3f 34 7a 69 b4 b5 d7 de 30 b6
       -2.6520236e-06 1.7833455e-07 -1.3441743e-06 -2.6355754e-06
000160 7f 6c cd 36 4c f0 44 36 d8 3c b6 33 99 8f a4 36
       6.1221067e-06 2.9346147e-06 8.486103e-08 4.904298e-06
000170 73 aa 3d 35 39 c4 8b 36 18 9d 47 35 f9 d3 42 b6
       7.0656023e-07 4.165366e-06 7.436188e-07 -2.9031637e-06
000180 44 79 9d 35 2f 4f 40 36 72 fa 03 b7 cd 8b f0 36
       1.1732704e-06 2.865632e-06 -7.86652e-06 7.1688323e-06

exp_avg_sq f4 [10, 10]
000000 41 c9 59 37 ff 51 dd 37 98 f2 26 35 16 85 65 37
       1.2981066e-05 2.6383435e-05 6.219284e-07 1.368045e-05
000010 db b5 e7 37 8e 50 60 36 e8 82 3e 37 97 70 ab 38
       2.7622029e-05 3.342549e-06 1.13553615e-05 8.174887e-05
000020 e2 6a 8e 37 bb 92 97 38 9a 89 51 34 a1 f4 ef 32
       1.697749e-05 7.227572e-05 1.9514701e-07 2.7934506e-08
000030 b5 29 d0 35 13 b6 55 35 c8 4f 13 35 d1 cc fc 36
       1.5509346e-06 7.9613636e-07 5.4877864e-07 7.534029e-06
000040 04 74 a5 34 da 6d 9b 35 f0 21 22 37 57 b0 95 35
       3.0818057e-07 1.1580371e-06 9.663854e-06 1.1152687e-06
000050 14 73 7f 35 79 3b 6b 34 a3 0a 91 36 33 53 98 35
       9.5162363e-07 2.1907717e-07 4.322575e-06 1.1349097e-06
000060 97 1f 3d 36 41 b5 ec 37 af 70 d3 35 46 12 42 36
       2.8181582e-06 2.8217795e-05 1.575352e-06 2.891889e-06
000070 a5 b2 bc 37 1c 1a 5a 36 1c 62 e8 34 1f 48 02 36
       2.2494534e-05 3.249973e-06 4.3284751e-07 1.941349e-06
000080 65 da c9 34 e0 03 bb 35 3d ad 58 35 77 09 43 35
       3.759807e-07 1.3933713e-06 8.0718365e-07 7.2656934e-07
000090 2d 43 6a 34 21 18 a3 35 99 17 f1 34 2e 5d 17 33
       2.1817387e-07 1.2151469e-06 4.4906918e-07 3.5242174e-08
0000a0 46 58 86 35 28 02 9d 36 eb 9e 17 34 82 99 86 36
       1.0009469e-06 4.6792156e-06 1.4120785e-07 4.011382e-06
0000b0 cf 6b f7 35 00 c9 7b 36 85 4c 0b 35 e4 38 94 36
       1.843431e-06 3.7518912e-06 5.1892886e-07 4.4173667e-06
0000c0 94 33 c9 35 12 ef 94 35 3e ed d2 37 07 8e b9 38
       1.4990678e-06 1.1096438e-06 2.5144425e-05 8.847942e-05
0000d0 67 0f 14 37 8c b9 57 38 f0 4b 5d 38 42 fe e4 36
       8.825074e-06 5.14328e-05 5.276123e-05 6.824529e-06
0000e0 67 19 98 37 60 89 dd 38 28 b0 ca 34 77 a3 17 38
       1.813164e-05 0.00010563689 3.7753603e-07 3.6153444e-05
0000f0 7c de 67 35 d2 ff 0a 33 4b a9 4b 35 15 89 e1 35
       8.6377963e-07 3.2363296e-08 7.5869747e-07 1.6803702e-06
000100 c0 af 24 36 03 58 82 38 9e 96 41 36 00 bc 05 37
       2.4540204e-06 6.2152765e-05 2.8846912e-06 7.97119e-06
000110 c1 39 25 38 77 1e 63 38 08 04 1f 34 e3 57 8f 32
       3.9392853e-05 5.414939e-05 1.4809495e-07 1.6687357e-08
000120 28 4c c0 33 d2 83 b3 34 5e 16 df 34 9b f6 43 37
       8.9545495e-08 3.343726e-07 4.155326e-07 1.1680323e-05
000130 ae 1b 0f 35 45 e0 d4 35 be f4 fd 36 dc 17 3f 37
       5.331193e-07 1.5860502e-06 7.5684793e-06 1.1390042e-05
000140 1b 6a 9b 35 e1 3b 61 36 84 56 58 35 8d 6d 99 35
       1.1579281e-06 3.3562467e-06 8.059217e-07 1.1431272e-06
000150 06 35 37 36 56 67 da 35 08 be a0 35 5e a0 94 36
       2.7299989e-06 1.627234e-06 1.1976235e-06 4.429413e-06
000160 93 c9 86 35 83 90 82 36 f9 fd 43 33 2b cf cf 36
       1.0042444e-06 3.8911253e-06 4.5632962e-08 6.1931983e-06
000170 20 47 6f 36 85 d7 6a 37 dd 1d 3f 34 c6 22 a0 38
       3.5655175e-06 1.3997666e-05 1.7799125e-07 7.6358716e-05
000180 4d 3e 05 35 96 4f ee 35 8d 22 70 38 cb a1 05 37
       4.963702e-07 1.7755544e-06 5.7252637e-05 7.965088e-06

exp_avg f4 [10]
000000 4d ec 80 b7 77 15 1b b5 12 d6 3c 37 05 4e 9a 34
       -1.5368825e-05 -5.7773235e-07 1.1255515e-05 2.8741502e-07
000010 87 8b c6 35 22 c1 35 33 76 cd 32 37 c3 24 83 b6
       1.4792757e-06 4.2318e-08 1.0657464e-05 -3.908384e-06
000020 fc be 77 36 33 4a 87 b7
       3.6917036e-06 -1.6127806e-05

exp_avg_sq f4 [10]
000000 03 b1 af 39 39 8d 8f 38 23 6a 43 39 b6 b6 bd 34
       0.00033510485 6.845076e-05 0.00018636188 3.5336933e-07
000010 5b c1 bb 33 7d 9f 7c 39 b6 42 86 39 9a 45 47 38
       8.743037e-08 0.00024092007 0.00025608175 4.751012e-05
000020 57 95 06 38 fc 8d 8c 39
       3.2087173e-05 0.00026808667

exp_avg f4 [1, 10]
000000 a1 92 89 36 57 bf aa b6 36 3e c7 b7 12 6e de 36
       4.099988e-06 -5.0886697e-06 -2.3751618e-05 6.6289294e-06
000010 41 64 b1 36 50 b1 fd 36 54 c6 75 37 e2 84 19 b7
       5.286682e-06 7.5606295e-06 1.4649315e-05 -9.15045e-06
000020 c9 33 6b b7 7b 26 80 b7
       -1.4019149e-05 -1.5276708e-05

exp_avg_sq f4 [1, 10]
000000 c7 d5 c4 38 59 07 97 37 2d 3b 6b 39 f6 44 b6 37
       9.3858274e-05 1.8004024e-05 0.00022433391 2.1728203e-05
000010 ff c0 9d 38 d6 08 3d 39 2d 92 3b 38 6b 6e e1 36
       7.522292e-05 0.00018027736 4.472041e-05 6.718377e-06
000020 99 d1 c0 39 bb 27 3e 38
       0.00036777256 4.5336532e-05
