modelos/heat_40x6-20000.pt (torch, 116878 bytes, 39 tensors)

linears.0.weight f4 [40, 2]
000000 c0 a9 96 3d c1 ec b6 bd 55 85 28 3e 42 9b 1f bf
       0.07356596 -0.08931876 0.16457112 -0.6234628
000010 fe 4f 48 3e d7 53 42 3e 6f e0 47 3e 8d 96 06 3e
       0.19561765 0.18977295 0.19519208 0.13143368
000020 90 32 7b 3c a8 0f bf bc 1e d0 10 bd f3 85 9e be
       0.015331879 -0.023322895 -0.035354726 -0.3096157
000030 4e 2f b0 be 25 2c 2f 3f cb 35 f7 3c d6 5f c4 3c
       -0.3441109 0.68426734 0.030177018 0.02397148
000040 61 bc 5b 3d 00 3a b9 3c 76 90 98 3e b7 80 95 3e
       0.05364645 0.022610664 0.29797715 0.29199764
000050 dd 5b 1a 3e ab 23 71 3c b4 60 29 3e c4 19 9e 3e
       0.15074106 0.014717977 0.16540796 0.30879033
000060 d0 9b 41 be 8d c1 39 3e 71 b7 20 3e 5e 12 86 be
       -0.18907094 0.1814024 0.15694977 -0.26185888
000070 47 11 bd 3e d8 81 16 be 1c 81 88 be 46 b4 40 be
       0.36927244 -0.14697969 -0.26661003 -0.18818769
000080 bc 70 f8 bd 24 92 fe 3e 3c 17 15 3e 6a 4a 60 3e
       -0.121308774 0.4972087 0.14559644 0.21903387
000090 c0 64 35 3d 3f e5 84 bd 8d cf 86 be d7 91 5b b9
       0.044285536 -0.06489038 -0.26330224 -0.00020939797
0000a0 e2 41 94 bd 4a c2 4e be ee 78 5d be 66 5d 01 3d
       -0.07239129 -0.20191303 -0.21628162 0.031583212
0000b0 f5 c8 51 bd cd 8b 9b 3e 7a 14 08 3d 92 f3 cf be
       -0.05121704 0.30380097 0.033222653 -0.40615517
0000c0 2e 15 e5 3e 5d 3a e5 be 1f d0 72 bc 07 fb 92 3e
       0.4474272 -0.4477109 -0.014820128 0.28707144
0000d0 1d a1 f9 3d f5 e0 f7 3e 5a 87 3f 3d ac 13 7d 3e
       0.12188933 0.48413816 0.04675994 0.24714535
0000e0 f9 ca 8a be 07 69 b2 3e 0d f2 38 3d d6 d7 83 be
       -0.2710798 0.34845755 0.045152713 -0.25750607
0000f0 0f 86 73 be 91 eb 39 3e a2 a8 0d be ca 9e 18 be
       -0.23781608 0.18156268 -0.1383386 -0.14904323
000100 16 19 2b be 5b 0d 01 bf 9e 7e 80 be 9a 15 7c bc
       -0.16708788 -0.50411004 -0.250966 -0.01538601
000110 68 f4 3e 3e 48 d2 86 3e 39 24 39 be d2 ba de 3d
       0.18647921 0.26332307 -0.18080224 0.10875477
000120 a5 92 3e 3b 66 1b 1f 3d 4e eb 89 be 06 00 60 3e
       0.0029079106 0.03884449 -0.26937336 0.21875009
000130 ff 45 89 3c e1 56 ff 3e ee aa bb be 83 65 2f 3e
       0.01675701 0.4987097 -0.36653847 0.17128567

linears.0.bias f4 [40]
000000 e8 f3 22 3d dd d6 b5 bd a2 cc 5b 3c 01 44 2c bd
       0.03978339 -0.088788725 0.0134154875 -0.04205704
000010 15 1a 07 3d fe 8c 07 bd 86 09 ca 3d c6 78 ee bc
       0.03298386 -0.033093445 0.09865098 -0.029110324
000020 d3 40 a8 bc 18 5d 2e 3d a5 e7 ee bc fd 1c cb 3c
       -0.020538723 0.04256925 -0.029163191 0.024794096
000030 0c da 11 bc f8 60 8f bd e1 76 6f be 92 4b 17 3d
       -0.008902084 -0.07000917 -0.23385192 0.036937304
000040 cd 23 bb 3d 9c 74 a1 3c 62 6f cf bc 20 d6 d3 bc
       0.09137688 0.019708924 -0.025321666 -0.025858939
000050 a8 67 57 3d 70 b9 0b 3d 4d 26 e0 3d 6f 62 32 bd
       0.05258909 0.034112394 0.10944805 -0.043550905
000060 f1 6d 9f 3d ef 88 af 3b f6 19 50 bc e0 3a 9b bc
       0.077846415 0.0053569 -0.012701502 -0.018948972
000070 0a e2 e1 3d 65 07 b5 bd bd bc 94 bc 2f d5 93 3c
       0.11029442 -0.08839301 -0.018156404 0.01804599
000080 f2 f1 62 bd 09 35 2c 3d bd c9 26 bd 26 b6 22 bd
       -0.05540652 0.042042766 -0.040719736 -0.03972449
000090 c5 74 01 3c a4 09 7f 3d 08 ec 28 3d 97 b3 87 3c
       0.007901375 0.062265053 0.041240722 0.016565127

linears.1.weight f4 [40, 40]
000000 66 db 3c 3e ca f2 29 be 55 37 5e 3e 64 26 3d 3e
       0.18443069 -0.16596523 0.21700795 0.18471676
000010 da f4 2e 3d ea e1 70 be 99 5f 45 3d 5b cc 4e bd
       0.042713977 -0.2352368 0.048186872 -0.050487857
000020 ec d2 19 3e 4a cf 6c 3e 91 36 98 3e 31 1b bb 3e
       0.15021867 0.2312595 0.2972913 0.36544183
000030 99 e7 86 bb 95 d2 54 bc 81 15 20 3e d3 93 7a be
       -0.004116964 -0.01298966 0.15633203 -0.24470453
000040 6e 43 0d 3d 9b 3d 16 be cf 6f 4c 3d ca 0a 29 be
       0.034488134 -0.14671938 0.049911316 -0.16508022
000050 65 4b b8 be 08 f3 1f bd 6a fb 1a 3e 77 0d 97 3d
       -0.3599502 -0.039050132 0.1513497 0.07375615
000060 91 39 0a 3e 41 17 a3 3d 2b 6a 69 3e b6 6d 7a 3e
       0.13498522 0.0796342 0.22794406 0.24455914
000070 9e 11 54 3e cc 8f b5 bc 03 a9 c3 3a 26 6e 05 3e
       0.20709845 -0.022163294 0.0014927689 0.130303
000080 a5 a0 89 3e 25 d6 ed bd c5 14 9d 3d 35 f8 8d be
       0.26880375 -0.116131105 0.07669977 -0.2772843
000090 47 23 c8 3d 5d 10 ff bc 64 67 37 bb aa 5d 09 3e
       0.097723536 -0.031135732 -0.002798521 0.13414636
0000a0 a7 dd 56 be df 16 1c 3e 36 9b da bd 75 cf 52 3e
       -0.20982991 0.152431 -0.106741354 0.20586951
0000b0 3c 14 3b be 0f 1d 85 be 66 9e 4f 3e 9a 73 af bd
       -0.18269438 -0.25998732 0.20275268 -0.08566971
0000c0 26 e1 0f 3d c5 ae c1 3d a3 b7 d3 3e d3 d7 01 bc
       0.035126828 0.09457163 0.4135104 -0.007924992
0000d0 06 e2 5d be d0 4d 07 3e c3 b6 f0 bd c8 99 b8 3c
       -0.21668252 0.13213277 -0.11753609 0.022534266
0000e0 ce 55 92 3d e8 dc 0e 3e 23 df 9f 3d 1a 56 b0 bb
       0.07145272 0.13951457 0.07806232 -0.005381358
0000f0 54 f6 39 be 96 93 7b 3d 07 a2 f9 bc 7c f9 8a be
       -0.18160373 0.061420046 -0.030472768 -0.27143466
000100 c1 e0 ae be 63 25 32 bc eb 4f 2b 3c ff 82 88 3e
       -0.3415585 -0.0108731715 0.010456066 0.26662442
000110 90 b4 12 be 36 95 8e be fe e4 8d 3d b2 90 ab 3d
       -0.14326692 -0.27848214 0.069284424 0.08377208
000120 90 97 8d bd 4b 37 3d 3d 18 ab 06 3c 46 c7 4c 3e
       -0.06913674 0.04619531 0.008219503 0.19997892
000130 71 6c b1 ba 40 2f bd bd 50 e3 54 3e 75 77 80 be
       -0.0013536346 -0.09237528 0.20789838 -0.25091138
000140 e7 4b 93 bd ad 57 26 3e 34 84 83 bd 26 51 96 be
       -0.071922116 0.16244383 -0.064217 -0.29358786
000150 17 61 09 3d 24 e9 25 bd d2 79 8f bd 00 df ca 3c
       0.033539858 -0.040505543 -0.07005657 0.024764538
000160 00 e9 39 be b3 ee e3 3c f2 78 4b 3d 9f f9 22 bd
       -0.18155289 0.027823782 0.04967589 -0.03978884
000170 54 5d 29 be 62 ef 9c bd 87 c0 36 be bd 9b a2 3e
       -0.16539508 -0.07662846 -0.17846881 0.31759444
000180 6d 31 44 be d1 4d 23 3d 95 92 22 3d ef f9 20 3d
       -0.1915948 0.039869133 0.039690573 0.039300855
000190 98 ee 0f 3e 31 a2 49 3e 44 54 81 3d b8 10 51 3d
       0.1405586 0.19690777 0.063149005 0.051041335
0001a0 5a 70 84 3e 23 6f 59 be cc 6a 7b bc 44 d2 a6 bd
       0.25866967 -0.21233802 -0.015345287 -0.08145574
0001b0 d5 b8 09 3f 34 f3 83 3d b4 ef 34 3e 4e f3 07 3e
       0.53797656 0.06442872 0.17669564 0.13276407
0001c0 a9 9f 66 bd 94 5c 3c 3e f7 85 9a bd 49 4c 00 be
       -0.056304608 0.18394691 -0.07545083 -0.125291
0001d0 83 5d 56 bd 9b 97 b6 3d dd 43 94 be 2a 07 e9 3d
       -0.052335273 0.08915635 -0.28958026 0.113783196
0001e0 c6 d4 5b 3d 8e 51 73 bd 37 19 8d be 32 ca 0c 3e
       0.053669713 -0.05940395 -0.275583 0.13749006
0001f0 1e 0e 28 bd cd e0 04 3e 5a 05 1e 3e c6 c7 e4 3d
       -0.04102909 0.1297638 0.15431729 0.11170916
000200 93 d3 29 be c9 d0 7e be df 0d a2 bd ee 05 20 be
       -0.16584615 -0.24884333 -0.07912802 -0.15627262
000210 e0 bc 8a bd aa 8f 90 3e 16 a2 01 3c 35 4d 54 3e
       -0.06774306 0.28234607 0.007912179 0.20732577
000220 fc 29 dc bc 8a f6 e8 bc 60 ec c6 3d d0 54 00 3e
       -0.026875488 -0.028437871 0.09713054 0.12532353
000230 8b 93 8b 3c d9 49 1a 3c 60 d6 82 be 59 a1 fd bd
       0.017038127 0.009417021 -0.2555418 -0.1238429
000240 ee b9 19 3e e1 51 29 be 2f 5e 31 3d 28 a8 85 3e
       0.15012333 -0.1653514 0.04330271 0.26104856
000250 1c 04 a3 be e9 a2 eb 3d 04 1a 03 bd 7e e9 92 3e
       -0.31839073 0.11505682 -0.032007232 0.28693765
000260 e0 52 a0 bd 06 34 0b be 8e f0 2f 3e 07 c8 71 3d
       -0.07828307 -0.13594064 0.17181608 0.05902865
000270 06 ac c5 bd eb 30 83 be a2 69 9f 3d b8 ab 2a 3e
       -0.096519515 -0.2562326 0.0778382 0.16667068
000280 64 24 fc 3c 6b 78 43 bc 3b 70 be be b1 1b 3d be
       0.030779071 -0.011930565 -0.37195 -0.18467595
000290 e5 92 d7 3e 61 97 19 be f6 ff 96 3c 96 78 40 bd
       0.4210426 -0.14999153 0.018432599 -0.04699
0002a0 1b a6 84 be cc 03 42 be 92 83 34 3d 0a 9e db 3c
       -0.25907978 -0.18946761 0.044070788 0.026808757
0002b0 04 b6 74 be e9 5f 33 be 5f a9 08 be 68 fa b1 bc
       -0.23897558 -0.17517056 -0.1334586 -0.021725848
0002c0 19 eb a6 3d e3 a0 29 bd b8 4c 3d 3c c1 89 95 3d
       0.0815031 -0.0414132 0.011553936 0.07301665
0002d0 a3 95 79 3d d0 4f 08 bd 3f 26 97 bc 1c 2d a7 3d
       0.06093372 -0.03327924 -0.018450854 0.08162901
0002e0 c0 9c 24 3e d5 df 68 bd 6d 59 7c be 5e e2 5c 3c
       0.1607542 -0.056854088 -0.24643488 0.0134817045
0002f0 6f 7c 69 3e d1 f5 2b 3e 93 c9 45 3d 81 e0 08 3e
       0.22801374 0.1679299 0.04828794 0.13366891
000300 a8 f0 ac 3e 3f 2d 4d bd 9c 9e 12 be 0f ed 57 bd
       0.33777356 -0.05009198 -0.14318317 -0.05271631
000310 80 43 03 ba fb 15 c5 3d 71 0d 0f be 3c eb 93 be
       -0.00050073117 0.09623333 -0.13969971 -0.28890407
000320 45 4f c0 3d a5 7b 06 be 0b b1 72 bd 39 68 e1 be
       0.093901195 -0.13133104 -0.059250873 -0.44024828
000330 de c6 c0 3e 69 59 30 3e 0e 48 c5 bd 70 e0 9a bd
       0.37651724 0.17221607 -0.09632884 -0.07562339
000340 79 2b 2a be c3 a9 1b be e0 a1 e9 bb c4 7f 9b be
       -0.16618146 -0.15201478 -0.0071298927 -0.30370915
000350 37 66 85 3d f4 23 07 3e 97 1a 33 be 52 a1 bc 3e
       0.065136366 0.13197309 -0.17490612 0.36841828
000360 06 86 90 3c 8a c2 97 3d d0 cc 0d bd c4 44 f4 bd
       0.017642032 0.07410152 -0.034619153 -0.119271785
000370 cd 94 57 be 80 e3 db bb 08 38 cd bd f6 a1 ba 3e
       -0.21052857 -0.0067104697 -0.10020453 0.3645169
000380 aa e2 3c 3e 41 c0 0f bd 86 d6 ac be 46 5b 25 be
       0.1844584 -0.035095457 -0.33757418 -0.161481
000390 ef 7b e0 3d 64 a6 c1 3e b6 b5 01 3e 33 40 0b 3e
       0.109611385 0.37822258 0.12666973 0.13598709
0003a0 fd f0 9e bc 86 e4 0f 3e 92 da 25 be 9b 16 c1 3c
       -0.019402022 0.14052019 -0.16196659 0.02357035
0003b0 14 96 d5 bc 33 15 25 3e 0f 29 59 3e e9 ec 0c be
       -0.02607254 0.16121368 0.21207069 -0.13762249
0003c0 8b 95 32 be 05 88 27 be 1e eb 9b 3e ec bb 5d 3e
       -0.17439859 -0.16360481 0.30452818 0.21653718
0003d0 45 f4 87 bd 88 07 64 be 49 62 d9 3d e1 b5 bc 3a
       -0.066383876 -0.22268498 0.106144495 0.0014397466
0003e0 a4 48 a2 3c f9 fa 9c bc ab b5 c9 3d e2 2c 46 3e
       0.019810028 -0.019162642 0.098491035 0.19353059
0003f0 c3 03 ef bd b9 5d 33 be e9 41 2e 3e c0 54 27 be
       -0.11670639 -0.17516221 0.1701733 -0.16340923

linears.1.bias f4 [40]
000000 68 e5 d4 bc 54 b7 99 3b 26 53 99 3b b1 e4 c0 bc
       -0.025988296 0.004691044 0.0046791015 -0.023546549
000010 2c 4d 03 bc 72 d1 a4 3c ba fc 8b bb c7 9d e9 3c
       -0.008014005 0.020119403 -0.0042720707 0.028517617
000020 42 7b 0a 3d 77 cc 99 bc c3 ae 13 bc e7 27 31 bd
       0.033808954 -0.018774254 -0.009013834 -0.043250944
000030 0c 7c 89 3c f7 70 ae bc 7f 3a 21 3d c5 c2 ea bc
       0.016782783 -0.0212941 0.039362427 -0.028657326
000040 f5 07 2e 3d 60 37 82 3c 66 51 82 3d 1c 2d c1 bd
       0.042488057 0.015895545 0.06363182 -0.09432432
000050 e0 d5 e0 3c e9 ab 26 3d 1e 5f 98 3c c4 ea 72 bc
       0.027445734 0.04069129 0.018600043 -0.01482648
000060 e4 ce 43 bd 4c e9 dd bc dd b6 db 3c 01 11 44 bd
       -0.04780473 -0.027088784 0.026820594 -0.04786778
000070 6e 5b 3a bc 8d 19 c9 bc 8f 04 89 bd e5 78 b6 bc
       -0.011374338 -0.024548316 -0.066903226 -0.022274444
000080 d4 09 7a 3c 5f 05 d4 bc b0 f0 23 3d 06 d4 71 3c
       0.015261132 -0.025881467 0.04002446 0.014760023
000090 42 bb bd bd d5 26 02 3d 0b d0 0a 3d d6 e4 8b bd
       -0.09264232 0.031775314 0.03388981 -0.06830756

linears.2.weight f4 [40, 40]
000000 75 ea a9 3e 08 37 bc bd 51 8d e5 bd c7 86 98 bd
       0.3318669 -0.09190184 -0.112085946 -0.07447582
000010 92 8c 8f 3e 73 6b 8c be 8d ee c0 3e d5 a1 56 bd
       0.28036934 -0.27425727 0.37682 -0.05240043
000020 69 1e 43 3e 62 4f 29 3e f4 c4 fb bd 9b 97 20 be
       0.1905457 0.16534188 -0.12293425 -0.15682833
000030 62 a2 90 bc b9 d2 1c 3d b5 f6 2b 3e 8e 14 72 be
       -0.017655555 0.0382869 0.1679333 -0.23640653
000040 da b8 85 bd b8 e2 82 3d 8b 77 25 bc 11 e0 28 be
       -0.06529398 0.063908994 -0.010099302 -0.16491725
000050 43 50 04 be 26 f4 8c 3e 36 9e c1 3b ee 77 67 be
       -0.12921242 0.2753002 0.005908753 -0.22604343
000060 54 1d e6 3d 5d 84 fe 3d f0 3f 6a be c8 bb d0 3d
       0.11236063 0.1242759 -0.22875953 0.101920664
000070 19 90 cf be 5a e7 1d 3e 53 07 38 bc 51 38 1f be
       -0.40539625 0.15420285 -0.011232215 -0.15548827
000080 9c 93 98 bd d7 4d 4b be 9d 81 11 bc 01 a6 3a 3e
       -0.07450029 -0.19853912 -0.008881 0.18227388
000090 61 82 85 bd 9f 27 11 be 28 ff b2 3c e5 29 05 3e
       -0.065190084 -0.1417527 0.021850184 0.13004263
0000a0 3f 97 a1 3d 78 75 9c 3d 20 58 ce 3d e0 46 dc bd
       0.07890176 0.07639593 0.10075402 -0.10755706
0000b0 e6 e1 90 bd 94 d3 68 3d 51 68 4f 3e 25 ea 87 bd
       -0.07074337 0.0568424 0.20254637 -0.066364564
0000c0 81 7e e1 bd 19 bc 07 be 1b 7a b8 be 0a 69 64 3e
       -0.11010457 -0.13255347 -0.3603066 0.22305694
0000d0 56 04 76 3d 06 fa b3 3d f7 87 47 bb bf 50 9f bd
       0.06006273 0.087879226 -0.0030446032 -0.07779073
0000e0 d8 28 3e 3b 94 3f 85 3e a5 df 22 3e 81 61 1b be
       0.0029016044 0.2602507 0.15905626 -0.15173914
0000f0 05 d7 92 bd f7 d1 c9 bd 1e 10 a4 3d d6 ac 94 3d
       -0.07169918 -0.09854501 0.080108866 0.07259528
000100 5b b1 b0 3d 8d 84 e7 bd 4c 6e 65 3d 76 23 9d 3e
       0.08627578 -0.11304579 0.05601339 0.30691117
000110 86 8a c9 bd ad 96 5d 3c 03 4c a3 bd 5c 86 81 3d
       -0.098408744 0.013524693 -0.079734825 0.06324455
000120 0e a3 a1 3d 3b c5 f1 bd cd 1f d8 bc ea 16 ba bd
       0.07892428 -0.11805197 -0.026382351 -0.09086402
000130 28 65 6c be 2b 15 69 bd 65 02 80 3d f2 6b ce bc
       -0.23085463 -0.056904953 0.06250457 -0.025197957
000140 30 82 cc 3d 2e fb 06 bc 49 53 73 be 18 a6 91 be
       0.09985769 -0.008238597 -0.2376224 -0.28447032
000150 41 f1 ae bd 88 6b 4d be d8 61 f0 bc 5d b6 20 3d
       -0.08542109 -0.20060551 -0.02934353 0.039236415
000160 a1 c0 63 be bd bd fd bd b0 d0 92 bc 3f 85 a7 3d
       -0.22241451 -0.12389705 -0.017921776 0.081797116
000170 58 78 1d 3e ee 9e 12 3e 3d 2b 77 3e 0b 81 80 3e
       0.15377939 0.1431844 0.24137588 0.25098452
000180 24 d8 c5 bc 9c 68 83 3e e8 95 4c 3e d8 24 cd 3d
       -0.024150915 0.25665748 0.1997906 0.10016793
000190 0f aa 72 3d 8e d2 2d be 48 53 82 be 7e b0 ba 3c
       0.05924421 -0.16974851 -0.25454164 0.022789236
0001a0 0e 27 93 3d d6 d7 4a be 7b 6b 30 be d1 a6 e2 bd
       0.071851835 -0.19808897 -0.172285 -0.11066974
0001b0 da e1 de 3d 1a 68 3d be 11 1d fa 3d 7f 0e 93 be
       0.108829215 -0.18496743 0.12212575 -0.28721997
0001c0 e7 80 11 be ae a9 a8 be e5 04 b9 bc ef 62 1c 3e
       -0.14209329 -0.32941955 -0.022585342 0.15272115
0001d0 16 6c 03 be 86 88 75 be 7f 66 8d 3e b2 79 3a 3e
       -0.128342 -0.23977861 0.2761726 0.18210486
0001e0 f0 ba 97 be e4 52 0a 3a 3f 06 58 3e 71 6f 46 3b
       -0.2963481 0.0005276634 0.21096133 0.0030278827
0001f0 09 b7 34 3e 5d 71 ae 3d 72 52 ff bc af d3 ba bb
       0.17647947 0.08517716 -0.031167243 -0.005701504
000200 d7 a6 04 be 6c 3b f9 37 a9 3e ca 3c 2a bb 4e be
       -0.1295427 2.9710784e-05 0.024688082 -0.20188585
000210 f6 70 57 bd 93 3c 27 be 82 9f 0c be 9d 32 64 3e
       -0.052597962 -0.16331701 -0.13732722 0.22284932
000220 2b 96 0c be 8e 27 3b 3e af ae 0d be 6f 3e 2f be
       -0.1372916 0.18276808 -0.13836168 -0.1711366
000230 02 02 3e 3e 3f bd 15 3d ff c7 7a be f2 ba 94 3e
       0.18555453 0.036557432 -0.24490355 0.29048878
000240 73 25 8d 3e 2a 3a 35 3e 54 bf ed bd 51 68 a3 bd
       0.27567634 0.17697969 -0.116087586 -0.07978881
000250 a8 4d 9f 3c a2 ad 10 3d 57 7a 10 3e a5 ef 6b 3e
       0.01944621 0.03532184 0.14109169 0.23040636
000260 a9 d9 7c 3e ca d5 13 3e 69 65 26 3c 9e ee 1f be
       0.24692406 0.14437023 0.010156014 -0.15618369
000270 7a 0f 70 3e 3f 8e 84 3e 9b 63 8a be 91 44 eb 3c
       0.23443404 0.25889775 -0.27029118 0.028719218
000280 94 14 4b 3e 48 84 7e be f0 c2 b0 3e 13 e9 27 3e
       0.19832069 -0.24855149 0.34523726 0.16397505
000290 06 dd cc 3e 06 2e ce 3c 56 34 e5 3b ec 56 31 be
       0.40012378 0.02516843 0.0069947643 -0.17318314
0002a0 7b 59 6b 3c 94 18 ad 3e c9 14 aa bd 2b 4f af 3d
       0.0143645955 0.33807814 -0.08304746 0.08560022
0002b0 67 fa 81 bd 3c ab dc bd 08 5c 39 bd c3 f7 4c 3e
       -0.063465886 -0.10774848 -0.045253783 0.20016389
0002c0 6a 87 d3 3d b3 1f f0 bc 43 72 8f be 40 91 f3 3d
       0.103285626 -0.02931199 -0.28016862 0.118929386
0002d0 d5 1c 52 be 1f fd 80 3e f1 32 a2 3e 74 07 36 be
       -0.20518811 0.25193116 0.3167949 -0.1777628
0002e0 cc 45 11 be 40 a0 39 bd e6 54 24 3e 93 d5 cd bc
       -0.14186782 -0.045318842 0.16048011 -0.025126254
0002f0 f0 1e 21 3e e8 44 ea 3e 67 14 2d 3e 0f e1 31 3e
       0.15734458 0.45755696 0.16902314 0.1737101
000300 f1 c2 c6 3d 3c ca af be 93 64 5e 3e 43 1c 32 be
       0.09705151 -0.3433398 0.21718054 -0.17393593
000310 46 e6 86 3e c4 0d fa bd a5 00 0d 3e 7a 91 1b 3e
       0.2634756 -0.12209657 0.13769777 0.15192214
000320 11 26 35 3e bb 72 42 be a3 2c 8c 3d a0 e3 0a bc
       0.17690302 -0.18989079 0.06844451 -0.008477122
000330 3c 40 d2 3d 12 fd cc 3d a4 0f 4c be 38 89 0a be
       0.10266158 0.10009207 -0.19927841 -0.13528907
000340 11 af a8 3d b2 00 61 3e 09 f0 c0 3c 69 c0 71 3d
       0.08236516 0.21972921 0.023551958 0.059021387
000350 ff 22 11 3d 2d e4 0d be 27 59 8b 3e e4 9c 13 3d
       0.035433766 -0.13856573 0.27216455 0.036038294
000360 a4 c5 14 be 0a 7f ed 3e a4 7a af bd 77 3c 87 be
       -0.14528519 0.46385986 -0.08568314 -0.2641332
000370 ba c7 82 3e ae 23 b7 bd cc 82 d6 3c a3 98 5b 3c
       0.25543004 -0.08942352 0.026185416 0.013403091
000380 cd 5d 2f be 44 8a b9 bd 87 6b 9e 3e c7 f0 40 3d
       -0.17125626 -0.09059575 0.30941412 0.047104623
000390 49 93 2c 3c 17 b7 14 bd a4 9d 4a 3c 21 d0 8c 3c
       0.010533162 -0.03630742 0.012366686 0.017189087
0003a0 4b 53 48 bc 3e 22 82 3e 40 84 f9 3d ea 76 46 3c
       -0.01222689 0.2541675 0.12183428 0.012113312
0003b0 cc 34 4a 3c 63 2a 25 be 32 75 3c be 7c e7 28 be
       0.012341689 -0.1612945 -0.18404081 -0.16494554
0003c0 e1 3a a5 3e cd 82 dc bc f3 b2 e6 bb 3f 99 7e be
       0.32271484 -0.02691784 -0.0070403754 -0.24863146
0003d0 8c 9e 41 be f0 ca 85 be 97 19 a3 be 36 8e bc bd
       -0.18908137 -0.26131392 -0.3185546 -0.09206812
0003e0 e4 b2 0b be 9d fc 8e bd 76 55 03 be 48 58 ce 3d
       -0.1364246 -0.06981776 -0.1282557 0.10075432
0003f0 6b 1b c2 be 0b 08 9e bd da 45 19 3e df eb 45 be
       -0.37911543 -0.07716378 0.14968053 -0.19328259

linears.2.bias f4 [40]
000000 d0 58 20 bc 2b 45 d9 bb c0 2d 89 3d 3e 86 58 bd
       -0.0097868 -0.00663056 0.06698179 -0.0528624
000010 f7 00 01 bd d8 7b a7 3c 34 c7 06 3c 8f f9 be ba
       -0.03149506 0.020444795 0.008226205 -0.0014570224
000020 34 3b 5c 3c fc 08 e5 3c 89 3c f1 3c 0f 78 15 bc
       0.0134418495 0.027958386 0.02944781 -0.0091228625
000030 9f e2 10 3d c6 85 b7 3d 69 3c d3 bc 5d d7 d5 3c
       0.035372373 0.08961062 -0.025785642 0.02610367
000040 00 9c a2 3c d3 5e 5f bd 97 f9 e1 3c c3 f1 59 bd
       0.019849777 -0.05453379 0.027584834 -0.053209078
000050 ff 78 fb bc 00 c5 c1 bc 89 4a 1f ba ea 21 02 3d
       -0.030697344 -0.023653507 -0.0006076475 0.031770624
000060 72 d4 95 bc 05 80 87 bd bf 86 51 bc 1e 7c 9f bc
       -0.018289778 -0.06616215 -0.012788474 -0.019468363
000070 7f b9 57 3d 18 fd da bc 79 29 86 bb ba 47 fc bc
       0.052667137 -0.026732013 -0.0040942994 -0.03079592
000080 8b c6 97 3c 3a f8 d8 bb 7b be 2d bc 42 bf a2 3c
       0.01852729 -0.006621388 -0.010604496 0.01986659
000090 4b ae 6c 3d dd a1 14 bd 0e c3 e0 bb 46 70 d5 3c
       0.057783406 -0.036287177 -0.00685919 0.026054513

linears.3.weight f4 [40, 40]
000000 62 a1 4b 3e 1b 0b f5 3c f4 b0 7a 3e 54 f1 98 3e
       0.19885781 0.029912522 0.24481565 0.2987162
000010 db 19 69 be 1f f3 d2 3d 22 f5 98 3d 2f 04 6a bd
       -0.2276377 0.10300278 0.074686304 -0.057132896
000020 c9 63 05 bb 9a 3a 4c 3e ad 0d 2a be 22 a5 1d be
       -0.0020353666 0.1994423 -0.1660678 -0.15395024
000030 a8 19 d9 3c 2b d3 8f 3d c6 ed 93 3e 61 21 2b be
       0.026501492 0.07022699 0.28892344 -0.16711952
000040 dd 74 bc bc 3d 27 c1 be 5e 20 84 3d 19 8a 48 3e
       -0.023004944 -0.3772525 0.06451486 0.1958393
000050 e6 0f a8 3e c6 4f 35 be 43 76 6e 3e 7b 9e 9b be
       0.3282463 -0.17706212 0.23287301 -0.30394349
000060 cf 6f 97 bd 3c c7 aa bd 3f 51 cd 3e 41 83 a3 3e
       -0.07394373 -0.08338782 0.40101048 0.31936076
000070 3c f4 4c be 05 3c e5 3d 18 10 d1 3d 34 34 26 bd
       -0.20015043 0.111930884 0.10208148 -0.04057713
000080 e7 5b 66 3e 3e c6 cf bc f4 3d 94 3d bf 21 c6 bd
       0.22495995 -0.025363084 0.07238379 -0.09674405
000090 ce 22 3f be 9e 35 15 bd 24 e3 34 be ae bb f7 bd
       -0.1866562 -0.036428086 -0.17664772 -0.12096344
0000a0 96 c9 23 3e f5 fe 6e 3d 99 84 b3 3d 6f f6 cd bd
       0.15994868 0.058348615 0.08765525 -0.10056769
0000b0 27 9c 8b 3d 2e 5f 8f 3c 66 5f 22 3e 77 1f 8e bd
       0.06816893 0.01750144 0.15856704 -0.06939595
0000c0 85 58 ac be af e4 76 be ca a9 91 be c6 ed d2 bc
       -0.33661285 -0.24110673 -0.2844985 -0.025748145
0000d0 18 df bd bd 97 8e f1 3d f2 f1 94 be 1e f1 07 be
       -0.092710674 0.11794775 -0.2909084 -0.13275573
0000e0 a7 e7 b4 bc c7 7d ac 3d 27 26 53 be 22 b2 2c 3c
       -0.022083117 0.084224276 -0.20620023 0.010540517
0000f0 9b 9c 8d bd 9d 13 34 bd 10 dc 5d 3c ea 4e 94 3d
       -0.06914636 -0.043964017 0.0135412365 0.07241614
000100 f3 68 05 3e 82 f6 54 be 13 7f a8 bd 32 75 08 be
       0.13028316 -0.2079716 -0.082273625 -0.13325956
000110 b3 ae b0 bd 91 8d 1b bd f3 2c 4c 3e 7a 28 8b 3e
       -0.08627071 -0.037976805 0.19939022 0.2717932
000120 c4 89 31 3e 75 09 89 be 13 b5 b2 be aa ea d5 bd
       0.1733771 -0.26765028 -0.34903774 -0.10445149
000130 33 7b 28 be 4c c4 26 bd d3 11 fe bd 72 a5 4c 3e
       -0.16453247 -0.040714547 -0.124057434 0.19984987
000140 1b f7 58 3e 74 8d 23 3e 26 83 85 bb b7 ce 86 3d
       0.21188013 0.15971929 -0.004074472 0.065823965
000150 a5 5d 93 3e 06 4d 42 be 5a 6a 1b bd dc 68 51 3d
       0.28782383 -0.18974695 -0.03794322 0.051125392
000160 63 ed 61 3d c6 9b 5d bc 00 8d a3 3e bb 16 4d 3e
       0.05515803 -0.013525909 0.31943512 0.20028202
000170 a1 bc 27 bd d7 7f a4 bd 16 fb b2 bd a4 2b 8b 3e
       -0.040951375 -0.08032196 -0.08739297 0.27181733
000180 b1 71 a4 3e 13 70 1a 3e e1 75 70 bd 81 ae 32 be
       0.3211799 0.15081815 -0.058706168 -0.1744938
000190 47 95 a6 be 89 b3 3a bd 22 13 55 bd 31 e8 d7 3c
       -0.32535765 -0.045581374 -0.0520202 0.026355835
0001a0 c0 0e 33 be fe dc 91 3a 2b c6 a7 3d 3f ea c6 bd
       -0.17486095 0.0011128483 0.081920944 -0.09712648
0001b0 85 38 a0 bd 89 a0 a0 be 4a 37 49 3e e9 fc 92 3d
       -0.0782328 -0.3137248 0.19649997 0.07177145
0001c0 32 63 e7 3d 76 57 be 3d 52 2f 68 3d cd b3 0b 3c
       0.11298217 0.092940256 0.056685753 0.008526755
0001d0 39 00 cc be fe 63 c3 bd b5 d8 2e bd cf 67 a5 be
       -0.3984392 -0.09540556 -0.042687137 -0.32305762
0001e0 e1 ac 4a 3e c8 b3 c4 bd d4 1d 42 be 3f 3f 49 bd
       0.1979251 -0.09604603 -0.18956691 -0.04913258
0001f0 46 ba dd bd de 2b 8e 3e 9f ef 08 be a8 55 6d bd
       -0.108265445 0.27767843 -0.13372658 -0.057943016
000200 2e 32 47 be a5 04 99 3d 06 04 c6 3c b7 a1 18 3e
       -0.19452736 0.07471589 0.02417184 0.1490544
000210 88 25 bd ba 10 16 c3 3c 29 d7 1b 3e 74 19 4b bd
       -0.0014430741 0.023814231 0.15218796 -0.04958482
000220 51 99 2a be e9 66 3d be 43 3e 06 3e 67 12 88 3e
       -0.16660048 -0.18496288 0.13109688 0.2657654
000230 76 87 06 be 6a 3d b2 bc 62 f5 67 3e a2 67 12 bd
       -0.13137612 -0.0217578 0.226522 -0.035743363
000240 d8 97 05 be 87 01 32 3e e7 82 37 3d 5d 7b 8f 3e
       -0.13046205 0.17383395 0.044802573 0.28023806
000250 c7 6b 5f bd c8 f7 f2 3d 8e 39 a6 3c cc 31 20 3e
       -0.054546144 0.11863667 0.020291116 0.15643996
000260 ae 19 b7 bb a0 86 05 be e6 cd 24 be 0a 84 89 3d
       -0.005587778 -0.13039637 -0.16094169 0.067146376
000270 98 58 1e 3e 9c ec 8f 3e 5a f8 fe bd 63 75 0f be
       0.15463483 0.28110206 -0.12449713 -0.14009623
000280 bd f0 81 3e 1e 2e c6 3b 3b 52 97 3e 70 40 8f 3d
       0.2537898 0.006047978 0.29554924 0.06994712
000290 80 55 79 bc 9a 04 76 bd cd 0d 28 3e c5 26 b1 bd
       -0.015218139 -0.060062982 0.16411515 -0.08649973
0002a0 ce 9b b4 3d 54 72 71 3e 0e cc 80 be f4 b2 b0 bc
       0.0881878 0.23578769 -0.2515568 -0.021569706
0002b0 46 bc 07 3e 18 31 03 3e 17 25 c8 bd bc 16 ff 3d
       0.13255414 0.12811697 -0.09772699 0.12455508
0002c0 bd bb e1 3b 41 76 39 3e ec c2 a1 bc 8f 8a 30 3e
       0.006888835 0.18111517 -0.019746266 0.17240356
0002d0 e6 be 1d 3e d1 77 d6 3b f4 1d 3c 3e 02 d5 4e be
       0.15404853 0.006545045 0.18370801 -0.20198444
0002e0 20 27 42 3e 03 ca 15 be e1 1a 8f bc 9a 25 2c 3e
       0.18960238 -0.14627843 -0.017468872 0.16811219
0002f0 a3 52 cb 3e 36 d0 17 3e 0b af 6c 3d ce 1c 4f 3d
       0.39711484 0.1482552 0.05778412 0.05056458
000300 7c 0c 23 be c2 19 3f 3e 4f ba 9e bc 2d 7c 50 be
       -0.15922731 0.1866217 -0.019375948 -0.2035987
000310 9b 7b 3a 3e 47 36 69 bd ad 90 c4 bd ba bc 4c 3e
       0.18211214 -0.05693653 -0.09597907 0.19993868
000320 df 5c 5c bd f8 2e f8 bc 5e 62 39 bd 19 20 61 3e
       -0.053799506 -0.030295834 -0.045259826 0.219849
000330 dd 16 c0 3e 6b c7 3c 3e 9d ed fe 3c e9 2c 3d 3e
       0.37517443 0.18435447 0.031119162 0.18474163
000340 f1 08 06 3e a9 ff fc 3d c5 cb af 3e 58 6f 27 3e
       0.13089348 0.12353451 0.3433515 0.16351068
000350 47 8d da 3c 0d 28 df 3c 22 04 a1 3d 1a a4 95 3d
       0.026678694 0.027240777 0.078621164 0.073066905
000360 00 4c 9d bd 89 6b b1 bd b8 b0 a9 3c 04 00 0b 3e
       -0.076805115 -0.08663089 0.020714149 0.13574225
000370 43 6e 39 bd e6 ee 25 bd 81 3a d8 3d 8d 5f 36 bd
       -0.04527117 -0.040511034 0.10558034 -0.044524718
000380 d4 17 96 3e a7 39 93 3d 5c be 10 3e 1e 4e 40 3d
       0.29315054 0.07188731 0.14135116 0.0469495
000390 7e dd 9e be 37 88 5a be 9a 17 00 bd 6d 2c 9c 3d
       -0.3102836 -0.21341024 -0.03127251 0.07625661
0003a0 87 f6 47 3e c2 35 12 be 26 f7 44 bb c3 c6 8e bd
       0.19527636 -0.1427832 -0.0030054539 -0.069715045
0003b0 3c 45 90 3e fc ab e1 3a 32 ab 53 3e 2a 94 66 be
       0.28177822 0.0017217393 0.20670775 -0.22517458
0003c0 6b ab 39 bd 88 eb a4 be 04 2b d7 3d 9c d8 51 3e
       -0.045329493 -0.32210946 0.105062515 0.20492786
0003d0 7f 37 27 3e b4 1c a7 3d b1 e4 38 bd 94 d0 f4 3d
       0.16329764 0.081597716 -0.045139972 0.119538456
0003e0 f2 c9 7b 3c bb 17 c1 3c 73 e5 63 3e 80 fd d0 bc
       0.015367972 0.023570886 0.22255497 -0.025511503
0003f0 2d 89 02 bf cd 41 36 bd 98 12 0c 3e 5b 32 fe bd
       -0.50990564 -0.044496346 0.13678968 -0.12411948

linears.3.bias f4 [40]
000000 01 d6 e3 3a 26 df 1a 3d d1 88 a1 3a 12 60 47 bc
       0.0017382504 0.037810467 0.00123241 -0.012168901
000010 52 1c 96 bc d9 52 c8 bc 86 5b 52 bc 11 7e 02 bd
       -0.018324051 -0.024453567 -0.012839204 -0.031858508
000020 a8 a3 05 3d 88 8c 86 bb f9 53 bb bc f9 cd 8a bc
       0.032626778 -0.004106108 -0.02286719 -0.016943919
000030 f2 a2 f5 3a e0 bb 24 bd 21 74 73 bb 68 34 0b 3c
       0.0018740578 -0.040218234 -0.0037148076 0.008496381
000040 9d c8 d7 bc f8 7e 0e bc d9 8b ba bd 53 b4 5f bc
       -0.026340777 -0.008697264 -0.09108705 -0.0136538325
000050 9a 4e 1e bb af 13 6e 3d 1f 28 8a bd 71 f0 7e 3a
       -0.0024155737 0.05812424 -0.06745934 0.00097251596
000060 84 04 1a be bd ea 84 bd 9e 34 44 bd 4d 6b ae 3d
       -0.15040785 -0.06490085 -0.047901742 0.0851656
000070 40 68 ef bb 02 15 0f 3d 77 e3 90 3c 76 9f ee bb
       -0.0073061287 0.034932144 0.017686589 -0.007282193
000080 56 6a 7d 3d 8b e8 81 bc 74 40 70 3c fe e9 37 b8
       0.061868988 -0.015857955 0.014663804 -4.3848522e-05
000090 00 e6 00 3c 1a c3 29 bc ad 0a a6 3c c0 34 06 bd
       0.007867336 -0.010361457 0.020268762 -0.03276515

linears.4.weight f4 [40, 40]
000000 03 ec 50 be 26 96 bd 3d 65 22 b2 3d c2 c9 49 3d
       -0.20402531 0.09257154 0.086979665 0.049264677
000010 14 b4 75 3d 25 82 c8 3c 35 44 0a be f6 2f 9d bd
       0.05998619 0.02447612 -0.13502581 -0.076751634
000020 b3 47 e7 3d 36 d8 d0 3d 19 05 0a 3e c6 38 a3 be
       0.112929724 0.10197489 0.13478507 -0.31879252
000030 b3 b4 3d bd f4 65 c3 3c eb 7d c4 bd 15 40 ab 3d
       -0.046314906 0.023852326 -0.095943294 0.08361832
000040 6f a9 63 3d 0a 98 86 3d e2 ee 90 3d 9b 1e b4 3d
       0.055581506 0.06571968 0.07076813 0.087949
000050 57 b8 62 3d 0d 2e 85 be 4b b6 ba be 37 3a 38 3a
       0.05535158 -0.26011696 -0.36467203 0.00070277177
000060 f9 b6 af 3d d0 12 e8 3d ac e5 f1 3d 58 be 2f be
       0.08579821 0.11331713 0.118113846 -0.17162454
000070 61 20 a3 bd 92 b2 07 be 07 67 07 3e e5 2c 8f be
       -0.0796516 -0.13251713 0.13222896 -0.2796394
000080 70 86 9c bd 92 3e da bd 1b 9b 18 be 51 cc ab bc
       -0.076428294 -0.106564656 -0.14902918 -0.02097145
000090 0f ce 50 bd 69 7d bd 3c 3c 83 a6 3a c9 dd b6 bd
       -0.050977763 0.02313109 0.0012703906 -0.08929021
0000a0 66 59 71 3e c0 0b 64 3d 6d 70 c6 3d a5 cf 9d bd
       0.23569259 0.05567527 0.09689412 -0.07705621
0000b0 b3 d7 80 bc fe e4 b5 be 61 1e 0e bd fb 95 3c 3d
       -0.015727853 -0.3552627 -0.03469694 0.04604147
0000c0 29 0f c9 3e 99 64 cd bd 90 04 1a 3e 21 8a 8d bd
       0.3926938 -0.10028953 0.15040803 -0.069111116
0000d0 0f f6 39 3e e9 9d 56 3d 9c a3 cc be 37 e4 7b be
       0.1816027 0.05239669 -0.39968574 -0.24598776
0000e0 2f b1 d7 bb 1a 5f ab 3d c7 48 b0 3c 38 d3 84 39
       -0.006582401 0.083677486 0.021519078 0.00025334372
0000f0 ad b0 bb be 4d 9d 9d bd de 1e 95 3d c6 2a a4 3e
       -0.3665823 -0.07696018 0.07281278 0.32063884
000100 dd 2f 22 be 82 13 e1 bc b1 8b d7 bd ed a8 a4 3d
       -0.15838571 -0.027475122 -0.10524691 0.080400325
000110 c7 13 24 3e 25 72 da 3d 55 8e dd 3d d4 b8 94 3d
       0.1602317 0.106663026 0.10818163 0.07261816
000120 85 bb d7 3d 3b 0f 74 be 64 bb 38 bd f2 62 85 be
       0.105338134 -0.23833935 -0.045100585 -0.26052052
000130 c3 f4 02 be 7a 34 0c 3e 02 5f f6 3e fb 24 ab bd
       -0.12788682 0.13691893 0.4811936 -0.08356663
000140 80 6a 0c 3e 83 0c 42 3e 46 b1 51 3d d6 c6 e9 3d
       0.13712502 0.18950085 0.05119445 0.11414878
000150 cd a7 8a 3e 68 4b 7d be e2 3e a9 3d f5 49 25 3e
       0.27081147 -0.24735796 0.08263947 0.16141494
000160 c6 72 31 3d a8 cf aa bd 84 cb 3f 3e 78 25 cc 3c
       0.043322347 -0.083403885 0.18729979 0.02492021
000170 4c 93 49 bb 5a ba 61 3e 4d d7 95 be a9 7e 85 3d
       -0.0030757962 0.22043744 -0.29265824 0.06518299
000180 19 ee a4 3e bb 63 8c 3e 28 45 7c 3e dc 75 a3 3e
       0.32212904 0.27419838 0.24635756 0.31925857
000190 af 79 79 3d e8 1a 0f be bb f5 4f 3e 72 08 4e 3e
       0.060907062 -0.13975108 0.20308582 0.20120409
0001a0 df d6 e4 3d 07 a9 7a 3c 8a 2f d2 3e 5d 59 8f bc
       0.11173796 0.015299088 0.41051894 -0.017498666
0001b0 62 b3 99 3e 99 4b c2 3c 35 b7 80 bb c1 99 a8 3e
       0.3001967 0.023717688 -0.00392809 0.32929805
0001c0 5c 5c d8 3d 65 f9 2c 3e dd c1 8c 3c fe 22 db be
       0.10564491 0.16892011 0.017182285 -0.42800134
0001d0 94 57 f5 3e bb 89 c6 bd 50 f7 10 3e cf e4 d3 bc
       0.4791838 -0.09694239 0.14156842 -0.02586594
0001e0 21 df 7e 3c 4c 40 58 be 65 3c 0c 3d 88 b3 6e 3e
       0.015556128 -0.21118277 0.034237284 0.23310673
0001f0 e9 94 eb bc 99 c1 c4 bd 0d b4 60 bd 45 c8 b4 3e
       -0.02875753 -0.09607238 -0.05485921 0.35309044
000200 8d a5 ea bc 06 a0 9b 3d 20 e9 87 3e 97 d6 9b 3d
       -0.028643394 0.075988814 0.26545048 0.07609289
000210 fc c7 73 be 0d 16 a9 be aa 8e 84 3e 08 7f 18 3e
       -0.23806757 -0.33024636 0.25890094 0.14892209
000220 6e 34 9a 3c 66 7c 7f 3e 48 b9 0d 3e 28 ab 94 bc
       0.018823829 0.24949798 0.1384021 -0.01814802
000230 d5 0e a8 3d 8e 49 1a 3d b3 c1 51 3e 78 f1 57 b9
       0.08205954 0.037667803 0.20484047 -0.00020593952
000240 59 0a fc bd 2b 9e 2a 3e 17 29 da bd 1a 1b fc 3b
       -0.12306661 0.16661899 -0.106523685 0.0076936604
000250 80 c5 8b 3e 85 ca 4e be a5 4a 1d be 57 0c 24 be
       0.27299118 -0.20194443 -0.15360506 -0.16020332
000260 87 aa c6 bd 19 75 a3 3d 04 f4 9e bd b6 ef 34 bc
       -0.09700494 0.07981319 -0.07761386 -0.01104348
000270 3b 22 83 3c 5b 96 c4 3d ed f3 33 3e ea cd f4 3d
       0.016007533 0.095989905 0.17573519 0.119533375
000280 6b 55 b4 bc 1d 26 00 3e 74 0d 87 3e 34 f4 67 3c
       -0.022013387 0.12514539 0.2637745 0.014157344
000290 08 05 20 3e 5b cd 4a be c6 b4 96 3d 51 ae b0 be
       0.1562692 -0.198049 0.073586985 -0.34507993
0002a0 c2 0a 2b bc 75 5b 4d 3e 4a a5 a2 3b 70 5a 06 be
       -0.010439577 0.2005442 0.0049635516 -0.13120437
0002b0 0b 01 1e 3e b7 53 6a be 52 2e 2c 3e 7b e5 5d 3e
       0.15430085 -0.22883497 0.16814545 0.21669571
0002c0 ff 44 25 3e 97 a9 11 3e 25 52 b1 bd 30 2b f6 3d
       0.16139601 0.1422485 -0.08658246 0.12019956
0002d0 48 98 0c be 30 99 fe 3d ba bb f8 bc 69 b8 0d 3e
       -0.13729966 0.12431562 -0.030362953 0.13839878
0002e0 72 40 98 3d d7 40 0e be b2 11 9a be e8 aa ef bd
       0.07434167 -0.13891922 -0.30091625 -0.1170252
0002f0 d4 73 37 bd 8a 1d f3 3d c4 b2 02 3e 81 68 00 bc
       -0.044788197 0.118708685 0.12763506 -0.007837416
000300 ea ab 58 3d fb 64 de bd 8a be 64 bc b0 ac 1a be
       0.052898325 -0.10859104 -0.013961444 -0.15104938
000310 66 54 32 bd f7 81 c4 3d 84 d1 0b 3e d3 19 49 3c
       -0.04353752 0.09595101 0.13654143 0.012274223
000320 d4 71 14 3e b9 39 13 be ef 48 bd bd 24 06 d2 3d
       0.14496547 -0.14377488 -0.092424266 0.102550775
000330 6e b7 2b 3e 8e 0c 51 3d c9 72 24 be b1 e5 63 3d
       0.16769192 0.051037364 -0.16059412 0.055638973
000340 e0 d9 1d bc 2f c6 5b be b9 97 04 bd c6 c2 45 3e
       -0.009634465 -0.2146232 -0.032371257 0.19312581
000350 cf d5 99 bd 3e 32 45 bd ac 40 d9 3e 42 b7 bc be
       -0.07511484 -0.048143618 0.42432153 -0.36858565
000360 be 6c 01 bc 87 38 6c 3d 09 cd 5d be a2 ae 46 bd
       -0.007899461 0.057671096 -0.21660246 -0.048506387
000370 8f 91 ac bd 2d bc c9 3d 83 4e c7 3d 55 4b 25 be
       -0.084262006 0.09850345 0.09731772 -0.16142018
000380 11 4a 20 be 40 bc 89 3e 84 cb 9b be fb 5d 22 3d
       -0.15653254 0.26901436 -0.30428708 0.039640408
000390 7f c4 3e 3e 98 00 25 be 1c 25 d5 be c3 34 24 3f
       0.18629645 -0.16113508 -0.41629875 0.6414301
0003a0 07 64 0b 3e 76 a9 4f be 8d d7 ab bd 53 da 84 3e
       0.13612376 -0.20279488 -0.083907224 0.25947818
0003b0 69 c9 c9 3e b8 05 6b 3c 6e ca c6 bd 9f 39 99 be
       0.39411476 0.014344625 -0.09706579 -0.29926774
0003c0 1a 12 c9 bc ed 5e 55 be f5 0e 49 3e 18 42 19 be
       -0.024544764 -0.20836993 0.19634612 -0.14966619
0003d0 b2 d6 32 be 9d df 58 3e 6d 95 56 3e c1 8b 03 be
       -0.17464712 0.21179052 0.20955439 -0.1284628
0003e0 8c 57 59 3d 06 bd 24 3e 8e 59 39 3e 19 72 51 be
       0.053062007 0.16087732 0.18100569 -0.20453681
0003f0 18 6d a3 3e d6 d4 35 3d 9b 4c 9c bc 51 d9 7b 3e
       0.3191917 0.04439243 -0.019079497 0.24594618

linears.4.bias f4 [40]
000000 8d 07 b7 3b 06 9a d5 3c 3d 4b a3 bd 26 c0 16 bd
       0.005585617 0.02607442 -0.07973335 -0.03680434
000010 49 dc 30 3d d1 a3 9d bc c5 7b 51 bb c0 aa 61 3a
       0.04317883 -0.019243153 -0.0031964642 0.00086085126
000020 47 53 a4 3b 14 ff 06 3d ae 7a 25 3c 24 10 4e 3d
       0.0050148102 0.032958105 0.01010005 0.05030836
000030 56 02 9a 3c 95 0c ae ba 56 14 b6 bc d7 46 dc ba
       0.018799942 -0.0013278896 -0.022226494 -0.001680578
000040 87 ff 9c 3c 11 5c 01 bd 5e f9 cd bb 35 0f 7f 3c
       0.019164814 -0.031581942 -0.0062858304 0.0155675905
000050 72 a9 e9 bb 53 92 60 bd 8d 8a 81 bb 67 95 d0 bc
       -0.007130795 -0.054827046 -0.003953284 -0.025461866
000060 b9 7f 8f 3c a7 06 cb bc e0 e4 25 39 f0 81 cf ba
       0.017516958 -0.024783446 0.00015820889 -0.0015831571
000070 bd b7 aa 3c 8c 06 fb 3b 6e ec 58 bc c4 f9 8a 3c
       0.020839566 0.0076606926 -0.013239963 0.0169648
000080 dc 76 88 3c f7 7a df 3c fa f5 eb bc ae 84 07 bd
       0.016658239 0.027280314 -0.028803814 -0.033085518
000090 fe 70 ea bb b2 7b 24 bd 55 bd 3a 3d 38 42 a2 bc
       -0.007154583 -0.040157028 0.045590717 -0.019806966

linears.5.weight f4 [40, 40]
000000 02 3d 6f 3e 3c 88 a0 bd e5 ed d7 3c 8e 4f 25 bd
       0.23363116 -0.07838485 0.026358554 -0.040359072
000010 3f dd 7b 3d ad 81 d8 3d fb df 3d be 23 4b 39 3e
       0.061490294 0.10571609 -0.18542473 0.18095069
000020 0a 71 91 be ca 55 1f be f7 f4 67 bd 80 2c 48 be
       -0.28406554 -0.1556007 -0.0566301 -0.19548225
000030 56 45 57 3c 9e 61 fa bd b7 b1 dd bd 57 b8 39 3d
       0.01313909 -0.1222565 -0.10824912 0.045341816
000040 bd 2c 0e be c8 12 98 be 35 7d aa bd 5a 73 3d be
       -0.13884254 -0.2970183 -0.083246626 -0.18501034
000050 9e 98 e0 3d e2 b2 30 3e d2 71 00 3d be 10 5f be
       0.109666094 0.17255738 0.031358548 -0.2178373
000060 86 ed 97 3e 5a 1a 66 3e 74 39 33 be 88 76 57 be
       0.29673404 0.2247099 -0.17502385 -0.2104131
000070 0b 7e 50 3e a8 6e 6f be 40 48 d5 3d ad 5e 21 bd
       0.20360582 -0.23382056 0.10414171 -0.03939693
000080 5d 62 50 be 6d f6 f3 3d 86 fb a0 bd a5 c4 10 bc
       -0.20350023 0.11912236 -0.07860474 -0.008835946
000090 c7 e8 08 be 86 40 99 bb 7e 9e 80 3e 50 55 ff 3d
       -0.13370048 -0.0046768812 0.2512092 0.12467444
0000a0 f7 1b 50 be 9f 8c d6 3c 62 2f 84 3e 4e 25 a6 bd
       -0.20323168 0.0261901 0.258174 -0.08112584
0000b0 d6 3c 51 be 29 82 62 3e de a1 b9 be 51 d2 1e 3d
       -0.20433363 0.22119965 -0.36256307 0.038774792
0000c0 43 b4 73 3e 2a 26 3b 3d 3a b3 be bd a1 ce 6f 3d
       0.23799233 0.045690693 -0.093115285 0.058546666
0000d0 15 25 70 3e 85 38 13 bd 3d 4d 3d be 64 68 c3 3e
       0.23451646 -0.035942573 -0.18486495 0.3816558
0000e0 d8 8f 0d be ff ec 06 be 4f 5f 7c be 32 dc 55 be
       -0.13824403 -0.13176344 -0.24645732 -0.20884779
0000f0 4f cc 37 bd 70 04 2f 3e af 18 03 3c 39 2a 2c be
       -0.04487258 0.17091537 0.0080014905 -0.16812982
000100 a9 57 66 bd 48 13 de bd 37 4f 78 3d ae ef e2 be
       -0.056235943 -0.10843521 0.06062242 -0.44323486
000110 81 1b 29 3e 2a b3 9c 3e 3c d7 03 3e f1 e6 8f be
       0.16514398 0.3060544 0.12875074 -0.28105882
000120 17 14 17 3e 56 c7 f4 bd 79 33 39 bd 1f 52 8b 3d
       0.14753757 -0.11952083 -0.045215104 0.06802773
000130 20 e3 95 bd fc 90 a3 be 28 9a 86 bb bd 64 1b 3e
       -0.07318711 -0.31946552 -0.0041077323 0.15175147
000140 02 17 95 be cb 46 02 be f8 c4 fe 3d ac 08 65 3a
       -0.29119116 -0.12722318 0.124399126 0.0008736949
000150 51 54 a3 3d aa 77 c7 bc d7 bd 42 bd 58 e0 00 3e
       0.079750665 -0.024349052 -0.047544327 0.1258558
000160 9c db a4 3e fe 4a 23 3e 86 f0 96 3d 07 d7 bc 3d
       0.321988 0.15946576 0.07370095 0.09220701
000170 ed e1 17 3e e2 da 57 3e c4 b6 88 3e 12 1b bf 3d
       0.14832278 0.21079591 0.2670194 0.09331335
000180 a6 dc 0b 3e d9 db 19 3e 21 9e 46 be 13 cf 17 3e
       0.1365839 0.15025271 -0.19396259 0.14825086
000190 6c 6c 2f bc 5c e5 89 bd 42 fd e1 3d 37 1e 7d 3d
       -0.010707002 -0.067332 0.11034633 0.061796393
0001a0 7d 86 6e 3e 50 99 06 3e e5 ca dd bc 8a 14 16 3e
       0.2329349 0.13144422 -0.027074287 0.14656273
0001b0 54 bf d8 bd ba 05 e3 3d b4 e0 33 be a6 0c c4 bd
       -0.10583368 0.11085077 -0.17566186 -0.09572725
0001c0 7d 78 3d be 07 99 7c 3d 73 19 65 bd 39 da cd bd
       -0.18502994 0.061669376 -0.055932473 -0.10051388
0001d0 13 4c 2c bd 2e 22 98 bd 44 1a 5d 3e 67 f4 25 be
       -0.042064738 -0.07428394 0.21592051 -0.16206513
0001e0 61 34 1c 3b 27 97 05 bc f5 e9 da bd e7 12 15 3e
       0.0023834931 -0.008153713 -0.10689155 0.14557992
0001f0 75 16 3f 3d 4e 74 20 be 5b ca fc 3d 20 6d c9 3d
       0.046652276 -0.15669367 0.12343284 0.09835267
000200 31 dc 60 3b 8f d4 8c 3c b2 41 2b be c5 fa 8c be
       0.0034310932 0.0171912 -0.1672428 -0.27535072
000210 0e ed 20 3e 9e c8 a6 3d 46 57 a4 be cf 02 2d 3e
       0.15715429 0.081437334 -0.32097834 0.16895603
000220 82 98 aa bb df bd 45 3e f3 b4 81 3d c5 9d 7f bd
       -0.0052061686 0.19310711 0.063333414 -0.06240632
000230 f5 9a 54 3d a2 4b 4b 3e 04 90 ba be d4 dd 92 3e
       0.05190559 0.1985307 -0.36438 0.28684866
000240 d3 39 13 be c7 2f cb 3c 03 33 91 be a8 62 4c be
       -0.14377527 0.024803055 -0.2835923 -0.1995951
000250 9a 7e df 3d 65 b5 b6 bd 96 a5 8d be fd 1c 1c 3e
       0.10912819 -0.08921317 -0.27665395 0.15245433
000260 e7 0c 43 3d 62 95 96 3e c2 57 8b be 2b c6 1c bb
       0.047619727 0.29410845 -0.2721539 -0.0023921828
000270 72 f9 6c be 18 b7 a9 bd 3e 9c 11 be b5 e2 f1 3d
       -0.23142031 -0.082868755 -0.14219758 0.11810819
000280 52 69 e7 bd 54 05 ad 3d 64 3d 96 bc 9d ba 47 3d
       -0.11299385 0.08448282 -0.01833982 0.048761953
000290 fd 81 68 3e 49 3a ae 3d 30 b0 a1 be 96 59 83 bd
       0.22705837 0.08507211 -0.31579733 -0.064135715
0002a0 b0 db 24 3e b9 a9 01 3e 21 e7 87 3e 1a dc eb bd
       0.16099429 0.126624 0.26543525 -0.115165904
0002b0 70 d7 59 3e 1d f3 a1 3e d2 49 d9 3d f5 de 5c be
       0.21273589 0.31630793 0.10609783 -0.21569426
0002c0 01 0b 85 3d 51 50 20 be 62 c0 6d bc 42 18 71 bc
       0.064962395 -0.15655638 -0.0145112 -0.014715256
0002d0 80 21 dc 3d 43 e9 cb be c3 7e 07 3e 42 6a 70 bd
       0.10748577 -0.39826402 0.1323195 -0.058695085
0002e0 27 30 df bd bb 8c 6f bb 53 90 a3 bd 74 da 14 3e
       -0.10897856 -0.0036552388 -0.07986512 0.14536458
0002f0 87 c5 4c 3e 8d c3 d5 3d 80 33 f1 bc c8 7f 36 be
       0.19997226 0.10437689 -0.029443502 -0.17822182
000300 db cd 62 3e 3e 2a 65 be 7c 0e c6 bd 51 c4 8b bd
       0.2214884 -0.22379395 -0.096707314 -0.06824554
000310 1f 2d 6e be 33 b0 d3 be ca 10 af 3c 93 da 38 3e
       -0.232594 -0.41345367 0.02137031 0.1805213
000320 7f 15 49 be 71 cd da 3e e2 26 1b 3e a1 8f 62 3e
       -0.19637106 0.42734864 0.15151551 0.22125103
000330 0b 42 aa 3d fe 8f ac 3e 5f ed ef be 2c 0a 61 3d
       0.08313378 0.33703607 -0.46860787 0.05494134
000340 57 6d 91 3e bf fb 4a 3e 28 c7 c6 3e 90 f3 ea 3e
       0.28403732 0.19822596 0.3882382 0.45888948
000350 cb 1a 7a 3e a9 bb 9e 3d be 69 18 3e d7 66 2c 3e
       0.24424283 0.07750637 0.14884087 0.16836105
000360 ba 2d eb bd 2b 2c 2b bd e0 6d 2e 3e 01 bb 94 bd
       -0.11483331 -0.04179017 0.17034101 -0.07262231
000370 de ea 99 3e 82 7f a8 3d 83 3b 5c bc e5 6e d7 be
       0.30062002 0.08227445 -0.013441923 -0.42076793
000380 70 e9 04 bd e2 58 60 3e d7 31 85 be 5c 32 5b bc
       -0.032449186 0.21908906 -0.26014587 -0.013378706
000390 bd 25 3c 3d e9 2f 17 bd 51 95 62 be d3 7e 39 3d
       0.045934428 -0.036910925 -0.22127272 0.045286965
0003a0 ff d1 21 3e 8f 49 f4 3d dd 84 36 be d4 d5 5f 3d
       0.15802763 0.11928093 -0.17824121 0.05464728
0003b0 5a 3c f3 3b d3 24 05 bd 9c 01 1c 3d 13 b2 14 be
       0.007422966 -0.03250582 0.038087472 -0.14521055
0003c0 bb 92 b9 bd d4 0f b7 3d bf 28 1e be 09 30 97 be
       -0.0906119 0.08938566 -0.15445231 -0.29528835
0003d0 5d 40 68 3d e1 4c 10 be cc ce 83 3d 9b aa 6e 3d
       0.056702007 -0.14091827 0.06435928 0.05826817
0003e0 90 34 20 be eb f0 26 be 32 1f 7c 3d c5 f6 d6 bc
       -0.15645051 -0.1630284 0.061553188 -0.026240716
0003f0 3c e1 c5 be c6 e5 b2 be 64 8a d6 bd 54 b0 2b be
       -0.38648403 -0.34940928 -0.10475615 -0.16766483

linears.5.bias f4 [40]
000000 73 76 99 3c ff ca a9 bc be bb 74 3b 5d 96 74 3c
       0.018733239 -0.020726679 0.0037343348 0.0149284275
000010 d4 e5 86 3b f6 cd ae 3c f8 4c 66 ba 6c 2a 57 bc
       0.004116753 0.021338444 -0.0008785273 -0.013132673
000020 ae 6a ae 3c 13 04 0c bd fa 98 01 be f7 aa 35 bd
       0.021291103 -0.034183573 -0.12656012 -0.044352498
000030 98 8e 04 3c b1 58 e6 bc 65 bd 05 3c d6 80 5d 3b
       0.008090638 -0.028118463 0.008162831 0.0033798716
000040 6a 87 04 ba 49 11 8a bc 31 ec 0a 3d 33 45 91 3b
       -0.00050555787 -0.016853945 0.033916656 0.004433298
000050 3a d6 08 be 01 e5 6e bc b6 74 83 3c bd 21 a6 bd
       -0.13362971 -0.014580966 0.016046863 -0.08111904
000060 65 87 2b bb e8 0b 91 3b b5 09 32 3d fa d7 5b 3d
       -0.002617323 0.004426468 0.04346629 0.05367277
000070 4a 5e d5 bb db 52 46 bc 56 93 09 3d c4 08 e1 bc
       -0.0065114843 -0.012104715 0.033587776 -0.02747
000080 a4 99 3b bd 83 92 f8 3b d4 37 58 3d c4 f7 a4 3c
       -0.04580082 0.007585825 0.052787617 0.020137675
000090 53 95 84 bc 80 10 ae bd b5 86 80 3c 95 e6 fc 3c
       -0.016184485 -0.08499241 0.015689233 0.030871669

linears.6.weight f4 [1, 40]
000000 53 e0 a0 be ca dd 8e be 42 9b cb 3e 7e 33 6f bd
       -0.31421146 -0.27903587 0.3976689 -0.058398716
000010 bc e0 47 3d f9 bf 14 be 87 df ae be 9e 0a e9 3e
       0.048798308 -0.14526357 -0.34154913 0.45515913
000020 c8 6e e3 be 23 f7 8d be 03 e8 2f 3c bf 65 cf 3e
       -0.44420457 -0.27727613 0.010736468 0.40507314
000030 a4 8e 99 bc 35 23 35 3e c5 85 be 3e 52 93 9e 3e
       -0.018744774 0.17689212 0.37211433 0.3097177
000040 bd 35 6f bc 16 d3 1b 3e 8d 82 13 be 37 50 7a 3e
       -0.014600215 0.15217242 -0.1440527 0.24444662
000050 19 7c 0b 3e 8d 12 02 3e 8f 8b 51 38 ed 53 9e 3e
       0.13621558 0.12702389 4.9959457e-05 0.30923405
000060 b2 e4 8e 3e cb 9f cb 3e 91 29 83 be 37 de 67 be
       0.27908856 0.3977035 -0.2561765 -0.22643362
000070 d7 2c 8c 3d a6 9f 23 bf fa 1e 46 bd ae 16 45 3e
       0.0684449 -0.6391548 -0.048369385 0.19246933
000080 e2 1f f8 3e 1a 53 aa 3e 1c 2d 06 bd 99 33 a2 bb
       0.48461825 0.33266526 -0.032757863 -0.0049499986
000090 0b 77 c3 3d eb 37 05 3e 92 ef 1f be 57 6f a0 3e
       0.0954419 0.13009612 -0.15618733 0.31334946

exp_avg f4 [40, 2]
000000 61 0f 3b ba e2 cb 94 39 60 5d cc 3a 2d 57 af 39
       -0.00071357755 0.00028380664 0.0015591793 0.00033443552
000010 7e 8f e9 38 49 48 38 b9 e7 56 b5 3a 74 b6 30 ba
       0.00011137033 -0.00017574536 0.0013835103 -0.0006741055
000020 0e d0 5c b9 6d b2 86 39 a0 d5 11 39 34 24 a1 39
       -0.00021058341 0.0002569141 0.00013907859 0.00030735286
000030 af cd b2 ba 56 ad 33 b9 47 fc e6 38 28 b6 1a b9
       -0.0013641621 -0.00017135343 0.00011014245 -0.00014754443
000040 39 a0 00 3b b9 1a 8f b9 3e 18 63 b9 2f dd 85 b9
       0.001962675 -0.00027294995 -0.00021657438 -0.0002553253
000050 32 7b a9 3a 55 b0 00 ba 9a e0 b1 b8 40 3b 10 ba
       0.0012930392 -0.0004909088 -8.481853e-05 -0.0005501993
000060 c1 5d 81 ba 2f a7 49 b9 f1 5f 32 3b 15 7d a6 b8
       -0.000986986 -0.00019231135 0.002721783 -7.938795e-05
000070 b3 cd c4 3a 6d e7 82 b9 7f 36 0b ba 43 4c 22 39
       0.0015014916 -0.00024967958 -0.000531055 0.00015477934
000080 d9 c6 20 bb d6 e4 ba b9 f8 9a 13 39 e6 8f 93 b9
       -0.0024532585 -0.0003564718 0.00014076743 -0.00028145238
000090 fb c7 7c 3a 14 cb f3 37 5f dc 15 39 98 88 2d b9
       0.00096428365 2.9062423e-05 0.00014291842 -0.00016549451
0000a0 ef f2 c7 b9 d7 a3 9a 39 80 33 04 bb a9 e2 99 39
       -0.00038137237 0.0002949524 -0.0020172298 0.0002935131
0000b0 0c bb 00 bb 76 4e 19 b9 a6 c2 08 3b 8c d2 03 39
       -0.0019642739 -0.00014620446 0.0020867973 0.00012571568
0000c0 52 a3 38 b9 a2 a4 d2 39 9a 9f 0c ba 43 ed c8 b9
       -0.00017608449 0.00040176982 -0.00053643587 -0.00038323746
0000d0 5d a7 b2 b8 1a d2 5c ba b5 b9 9f b9 31 40 2d ba
       -8.518875e-05 -0.00084236416 -0.00030465206 -0.00066089915
0000e0 94 46 0d bb c6 ee 5f 38 20 f6 cc 39 25 4a 02 39
       -0.002155696 5.338972e-05 0.0003909329 0.00012425387
0000f0 8b 36 26 ba da 6e 4d b9 7c 69 86 b9 ed d3 b5 38
       -0.0006340525 -0.00019591619 -0.00025637064 8.670227e-05
000100 43 8d 76 3a 95 9b 80 39 05 41 bd ba d2 17 d7 39
       0.0009405205 0.0002452998 -0.0014438933 0.00041025743
000110 05 7e 6d 3a a8 26 06 ba 7d f6 65 39 a3 3f 63 b9
       0.0009059611 -0.00051174546 0.00021930966 -0.00021672114
000120 2d 30 02 b8 79 d4 1b b8 2f 87 dd ba 07 fc 38 37
       -3.1039282e-05 -3.715276e-05 -0.001690125 1.1025934e-05
000130 86 ec bf ba 81 39 96 b9 af 34 8b ba 5f 6a 65 b9
       -0.0014642633 -0.00028653073 -0.0010620559 -0.00021878768

exp_avg_sq f4 [40, 2]
000000 83 28 a9 39 0f 76 45 38 89 bf fe 3a f1 7c 80 38
       0.00032264375 4.707841e-05 0.0019435744 6.126788e-05
000010 6d 3d 3c 3a f6 89 5c 37 a2 b3 79 3b 02 e4 3e 39
       0.0007180784 1.3145143e-05 0.0038101454 0.00018204752
000020 7a c9 36 39 e6 7c 28 38 6c 08 d3 3a c6 23 1f 38
       0.00017431928 4.0170642e-05 0.0016100532 3.794187e-05
000030 54 3f 65 3a 04 9b f5 37 93 8b dd 38 ee 31 4c 37
       0.00087450934 2.927846e-05 0.00010564099 1.2170973e-05
000040 9c 07 14 3b ca 10 f7 37 c8 0e 46 3a b6 f5 d5 37
       0.0022587543 2.9452513e-05 0.0007555303 2.5505997e-05
000050 83 02 cd 3a 1e f7 dc 38 ac 66 1f 3b ae a7 04 39
       0.0015641007 0.00010536447 0.0024322672 0.00012650967
000060 65 1d f7 39 0d c8 27 38 ce bf 53 3b d1 79 f1 36
       0.00047133412 4.0002215e-05 0.003231037 7.196541e-06
000070 07 1a a4 3a 39 70 cb 37 0e f4 c2 39 88 e1 0f 37
       0.0012519964 2.4251744e-05 0.00037184398 8.575975e-06
000080 e2 a5 7b 3b 05 1d a4 38 1d f7 59 3a 1d 99 04 38
       0.0038398434 7.825535e-05 0.0008314716 3.161385e-05
000090 c1 05 ce 39 14 20 86 36 c4 d9 80 37 0d 34 ee 37
       0.0003929567 3.9972456e-06 1.5360194e-05 2.8396049e-05
0000a0 91 bc 12 3a 7b a9 14 38 f6 4d 08 3b 87 81 11 38
       0.00055975566 3.544379e-05 0.0020798421 3.4691326e-05
0000b0 49 d9 01 3b da 28 ba 37 81 3b 30 3b 33 e8 e9 36
       0.001981335 2.219195e-05 0.0026890936 6.9709727e-06
0000c0 0f a3 8f 39 a6 09 d5 38 96 c0 7a 3a 84 02 9f 38
       0.00027396574 0.000101584286 0.00095654407 7.5821794e-05
0000d0 90 b1 61 3b a5 57 ad 39 62 cf 20 3b 98 4a 5c 39
       0.003443811 0.00033062432 0.0024537672 0.00021008623
0000e0 d1 8a 02 3b 1b 98 0c 37 8e d3 91 39 0e 27 ed 36
       0.0019919167 8.380065e-06 0.00027814176 7.067697e-06
0000f0 13 c1 b0 39 6c 4d cf 37 5c e6 83 39 3c 2c 43 36
       0.00033713187 2.4712375e-05 0.00025157898 2.9083012e-06
000100 3c 02 94 3a f5 4c e0 37 70 e1 d1 3a af 31 8b 38
       0.001129217 2.6738717e-05 0.001601262 6.637291e-05
000110 f1 e9 03 3b 94 10 dd 38 c8 51 7c 38 5b 97 1a 38
       0.0020128454 0.00010541189 6.0157647e-05 3.6857422e-05
000120 e7 31 2f 37 dc f6 3e 35 72 73 aa 3a 78 e4 5a 37
       1.0442432e-05 7.1139743e-07 0.0013004376 1.3047007e-05
000130 a0 4b e8 3a ed a5 2d 38 ca 57 10 3a db 3e 54 38
       0.0017722733 4.1400945e-05 0.00055062457 5.0603277e-05
