modelos/heat_20x1-20000.pt (torch, 6470 bytes, 9 tensors)

linears.0.weight f4 [20, 2]
000000 7b 04 ee 3f ee da 73 bf 41 85 88 be 9b 21 fb 3f
       1.8595117 -0.95255935 -0.26664165 1.961963
000010 21 31 2d 3c 84 7a 0c c1 5b 34 c0 bf f3 4b 94 bf
       0.010570795 -8.779911 -1.5015978 -1.1585678
000020 fa a4 9a 3f b9 10 29 40 fa ff 3c 3e b8 d4 72 40
       1.2081597 2.6416457 0.18457022 3.7942333
000030 6e 54 d3 3e 58 c3 2c 3f 9d b3 c0 3f f4 67 25 bf
       0.41275352 0.6748557 1.5054814 -0.64611745
000040 8a cc e0 3f cd bc 4a 3e 13 a1 59 bf fe 24 51 40
       1.756242 0.19798584 -0.85011405 3.2678828
000050 a6 91 0d 3f 54 8f 89 3e 30 d8 a5 3f 50 5c b0 bf
       0.55300367 0.26867163 1.29566 -1.3778172
000060 b3 ea 2e bf 63 e6 14 3f e1 f2 cc bf c8 f9 02 c1
       -0.6832687 0.5816404 -1.6011621 -8.185982
000070 0a 36 09 40 1a 97 cb 3f 1e d5 99 bf 41 cd 04 41
       2.1439233 1.5905488 -1.2018163 8.300111
000080 30 91 b5 bf d9 67 45 bb 23 75 46 3f 63 1f 47 40
       -1.4184933 -0.0030121712 0.77522486 3.1112907
000090 a8 f0 11 3f ca 26 25 bf a1 34 8d 3f ee 92 48 40
       0.5700784 -0.6451231 1.1031686 3.1339679

linears.0.bias f4 [20]
000000 76 c7 a8 bf b7 2c 77 3e 4b af 9d bf 3c 25 93 3f
       -1.3185871 0.24138151 -1.231912 1.1495738
000010 3e 6a 83 bf 2e 88 ca be 78 cf 60 bd 1e c5 05 bf
       -1.0266798 -0.39557022 -0.054885358 -0.522539
000020 96 d5 87 be 29 7d f4 3e bf ec 7b be 69 68 05 3c
       -0.2653014 0.4775174 -0.2460203 0.008142569
000030 3a 08 0f be ed 03 8e bf 61 9b 1c 3e 40 78 12 40
       -0.13967982 -1.1094948 0.15293647 2.2885895
000040 6d 9c 9d 3f 51 69 99 bf cc 5f a9 bf e1 47 9b be
       1.2313362 -1.1985265 -1.323236 -0.30328277

linears.1.weight f4 [1, 20]
000000 e3 4f 69 3f 14 6a 49 3f 80 3c 0d 40 7d c7 75 3f
       0.9113752 0.7867749 2.2068176 0.9600752
000010 23 f0 cc bf 9e 20 f2 3f 80 14 3d 3f 74 7e 2d 40
       -1.6010784 1.8916204 0.73859406 2.710843
000020 e8 73 84 3f 36 9d b7 bf 6d 57 f4 3e 9a 37 76 bf
       1.0347872 -1.4344852 0.4772295 -0.9617859
000030 6b 36 f6 3f 1d e7 d6 bf 87 82 88 3f 62 7f fa 3f
       1.9235357 -1.678928 1.0664834 1.9570124
000040 76 35 0a 40 4c 31 8e 3f 48 ca 88 3f 48 61 25 c0
       2.159513 1.1108794 1.0686731 -2.5840626

exp_avg f4 [20, 2]
000000 af 79 a1 b7 1a bc 5f 38 09 5b 71 38 09 bd 83 b8
       -1.9249359e-05 5.3342526e-05 5.754366e-05 -6.281777e-05
000010 bc 94 5c 38 bd 37 e0 38 59 47 67 38 c5 85 24 b8
       5.2590607e-05 0.000106915344 5.514114e-05 -3.922523e-05
000020 ff 45 96 b8 e2 0f 7b b7 ad 58 33 b8 44 a6 b4 38
       -7.165595e-05 -1.4964464e-05 -4.275951e-05 8.614038e-05
000030 e9 29 df b7 86 7f a3 38 3f d8 34 39 a5 82 c5 39
       -2.6603188e-05 7.796199e-05 0.00017246696 0.00037672106
000040 34 30 0e 39 bc a5 b7 38 a4 b2 b7 38 84 e0 0b b6
       0.00013560132 8.7569904e-05 8.7593944e-05 -2.08433e-06
000050 ac be 57 37 cd d6 89 b6 82 38 f1 b8 d3 5b 04 b9
       1.2859393e-05 -4.1079243e-06 -0.00011502301 -0.00012622708
000060 8d 92 21 37 c2 20 97 38 a1 93 c1 b6 bb fd f6 37
       9.630469e-06 7.206343e-05 -5.7690345e-06 2.9443638e-05
000070 2e 3d 8b 38 24 c5 1a b8 fa 67 e2 b8 7c 68 de b7
       6.639432e-05 -3.6900063e-05 -0.00010795887 -2.6513117e-05
000080 f6 b0 2e 38 fb 18 07 39 4e 4b 20 b8 6d 80 c9 38
       4.164964e-05 0.00012883909 -3.8217106e-05 9.608348e-05
000090 e6 61 52 b8 57 a2 a4 37 1c 03 6e b8 2d 97 ec 34
       -5.0159077e-05 1.9625919e-05 -5.6746518e-05 4.406842e-07

exp_avg_sq f4 [20, 2]
000000 f2 30 eb 36 4b 43 4e 37 39 1d 3d 36 97 cf 5d 35
       7.0092437e-06 1.2294225e-05 2.8180204e-06 8.2631e-07
000010 17 08 31 37 eb e3 7f 33 f6 ec 98 37 40 11 89 37
       1.0551906e-05 5.9579104e-08 1.8230156e-05 1.6339705e-05
000020 6b d1 17 37 50 34 96 36 e3 d0 85 36 1f 51 d8 35
       9.04906e-06 4.4764383e-06 3.9880265e-06 1.6116863e-06
000030 a6 74 bd 35 d4 7f 84 36 3f d1 fb 39 50 99 d0 39
       1.4115546e-06 3.9487877e-06 0.0004803035 0.00039787078
000040 7c f0 ba 37 53 df e1 36 cd 95 b2 37 d5 81 0b 35
       2.2284912e-05 6.731521e-06 2.128901e-05 5.1970466e-07
000050 f6 95 dc 35 86 a4 89 36 00 c4 36 38 1b 30 0d 38
       1.6434922e-06 4.102071e-06 4.357472e-05 3.366182e-05
000060 0e 14 c0 38 90 9b c3 38 64 2e 44 33 42 97 38 31
       9.159009e-05 9.3273e-05 4.5676998e-08 2.6861504e-09
000070 e8 d3 0f 36 4b 7a 83 35 30 aa 57 37 c7 a6 e9 31
       2.1432006e-06 9.795853e-07 1.28546235e-05 6.800153e-09
000080 0d 3e 57 38 36 da 3c 39 18 ed 0c 35 e4 15 24 36
       5.1317784e-05 0.00018010367 5.249908e-07 2.4450646e-06
000090 1d ad 0f 37 8c 3e 16 35 f4 c5 2a 36 11 d7 27 35
       8.56377e-06 5.597037e-07 2.5447198e-06 6.252531e-07

exp_avg f4 [20]
000000 85 14 0d 39 02 f8 b9 b7 29 65 08 b9 60 25 d7 37
       0.00013454452 -2.2169206e-05 -0.00013007656 2.5647401e-05
000010 96 74 ac 38 8d 69 95 38 c2 e4 3d 38 08 a7 fd 39
       8.223315e-05 7.124534e-05 4.527416e-05 0.00048380368
000020 c3 f4 1e 36 84 f3 30 38 6a 41 8e 37 68 6c 49 38
       2.3686305e-06 4.218846e-05 1.695818e-05 4.8023096e-05
000030 eb e4 8d 38 cc 43 bf 37 ed ca fd 37 64 81 21 38
       6.766043e-05 2.2800545e-05 3.0254445e-05 3.8505896e-05
000040 7b 79 73 38 99 66 8f 38 e8 1a c8 b6 13 72 b4 39
       5.8048852e-05 6.837882e-05 -5.963597e-06 0.00034417267

exp_avg_sq f4 [20]
000000 f1 58 20 38 27 50 89 36 fc 65 06 38 29 e1 44 38
       3.8229806e-05 4.092249e-06 3.204307e-05 4.693974e-05
000010 88 9f 28 37 01 d5 bd 37 45 f5 cf 34 a7 7c 5c 3a
       1.0050724e-05 2.2629743e-05 3.8735212e-07 0.00084109086
000020 45 4a 1d 37 70 97 8a 37 3a f7 0c 36 9c 2d 6c 38
       9.375221e-06 1.65214e-05 2.100553e-06 5.630926e-05
000030 26 3f 9f 38 39 23 ba 36 a9 6b 02 38 72 d7 77 37
       7.593473e-05 5.5473324e-06 3.109468e-05 1.47725095e-05
000040 a2 7e 9f 39 43 aa a2 36 f1 7b 00 36 54 25 b3 38
       0.00030421192 4.8477973e-06 1.914563e-06 8.542338e-05

exp_avg f4 [1, 20]
000000 bb 22 2f 38 59 18 09 38 9a a1 0f b9 d8 7b c4 b8
       4.1755597e-05 3.268602e-05 -0.00013697744 -9.369076e-05
000010 93 4f 14 39 99 17 15 38 c9 81 a5 36 7f ba ba b7
       0.00014144024 3.5546345e-05 4.932492e-06 -2.2259772e-05
000020 e9 2b 14 37 ca be 0d b8 db a9 00 b8 2d bd e3 35
       8.831711e-06 -3.3794706e-05 -3.067577e-05 1.6967875e-06
000030 ac 15 71 b6 43 c4 62 b7 f0 a8 af b8 50 2a 2a 38
       -3.5924413e-06 -1.35163455e-05 -8.376117e-05 4.0570565e-05
000040 9f 98 76 b7 c2 8e 45 38 4d 20 57 b8 fb d1 fd 38
       -1.46982775e-05 4.7101414e-05 -5.1290077e-05 0.00012103092

exp_avg_sq f4 [1, 20]
000000 6c 3a 94 38 64 1a e6 37 b9 ca 48 37 fd 58 a5 37
       7.068072e-05 2.7430426e-05 1.1968129e-05 1.9710971e-05
000010 d9 c7 76 38 25 91 82 38 86 c6 25 37 32 5c 43 36
       5.8837093e-05 6.225918e-05 9.880989e-06 2.911093e-06
000020 e0 d9 56 38 10 8e 62 38 2c fa 18 36 07 6a e2 36
       5.1224488e-05 5.4014905e-05 2.2795384e-06 6.747668e-06
000030 5d d7 1e 35 24 24 fb 36 d5 0f 3b 38 aa 7d 20 37
       5.917298e-07 7.4845902e-06 4.459902e-05 9.566002e-06
000040 00 c1 5f 37 b2 45 6e 38 0b 59 0c 37 ad 10 4c 38
       1.3336772e-05 5.680853e-05 8.365382e-06 4.865292e-05
