modelos/heat_20x2-20000.pt (torch, 13614 bytes, 15 tensors)

linears.0.weight f4 [20, 2]
000000 55 5c a3 3e a5 25 84 bc 1b f7 fb be 37 4c 1f bf
       0.3190638 -0.016131232 -0.49211964 -0.6222567
000010 b5 c0 bb 3e 5a 92 8b be cc 30 9a be bc f6 a5 be
       0.3667046 -0.27260095 -0.30115354 -0.32414806
000020 e6 8c 8b 3d b3 ef 34 bf 87 e6 5a be 7d e8 70 bf
       0.068139836 -0.7067825 -0.21377002 -0.9410475
000030 9b 22 b7 3e e9 4a 09 3f 53 79 54 3d 3a ec 8c bf
       0.3576859 0.5362993 0.051873516 -1.1009591
000040 11 aa 30 bf 19 5b 0a 3f b8 28 27 3f 7f 45 97 3f
       -0.690095 0.54045254 0.65296507 1.1818084
000050 06 cb 95 3f f9 dd b9 3e 80 b4 9b bf 06 f5 f6 3e
       1.1702583 0.36302164 -1.2164459 0.48233813
000060 2f 19 01 3f 75 2a b9 3f 7c cc 89 be 41 64 06 3f
       0.5042905 1.4466082 -0.26913822 0.52496725
000070 a4 91 ac 3e 62 c8 52 be ad 4b aa be c4 6f fb bf
       0.33704865 -0.20584252 -0.3326086 -1.9643483
000080 53 0e 8a bd 66 9f 8a 3f 3e 7b 56 bd 23 4b 5d 40
       -0.067410134 1.0829895 -0.052363627 3.457711
000090 2f 0f 42 be e1 b0 d7 be 88 70 f3 bd 77 6a 0f 3f
       -0.18951105 -0.42127135 -0.11886698 0.5602183

linears.0.bias f4 [20]
000000 aa 9b a2 bd 09 68 6e be c9 3b b5 be 04 0a 93 bd
       -0.07939847 -0.23281874 -0.35397175 -0.07179645
000010 37 a5 fa bb d4 23 d0 bd d3 32 23 3e 7f db aa bd
       -0.0076490897 -0.10163084 0.15937357 -0.08342647
000020 6f 6d 66 3f 04 e7 b2 bd 94 77 80 bf 53 b7 0d 3e
       0.9001073 -0.08735469 -1.0036492 0.13839464
000030 36 a5 c3 3d 5a c9 10 bd e8 03 a2 be c3 9c d2 bc
       0.09552996 -0.035348274 -0.31643605 -0.025709515
000040 86 84 b5 bd 98 23 70 3e ce 72 b9 be 61 19 0b be
       -0.088631675 0.23451078 -0.36220402 -0.135839

linears.1.weight f4 [20, 20]
000000 c0 d0 1d be 45 d7 d5 3d d6 ae a3 be fc aa 2a be
       -0.15411663 0.1044145 -0.31969327 -0.16666788
000010 46 7d 8a bf f9 8c ad be ca 4e 15 3f 9d 85 93 bf
       -1.081948 -0.33896616 0.5832335 -1.152515
000020 c6 6b 99 be 4d d7 0f bf 75 d1 9b 3e c9 0d 34 bf
       -0.29965037 -0.561879 0.3043324 -0.70333534
000030 e2 23 4b be 2d 02 01 3f 10 a5 5b be 05 a0 14 be
       -0.19837907 0.50393945 -0.21449685 -0.14514168
000040 8b 20 9b 3f f9 73 9f 3e 46 e8 ba 3e a1 51 44 3f
       1.2119306 0.31143168 0.36505336 0.76687056
000050 00 9a eb bd b8 8c e1 be 7e 75 4b 3f 37 fa 4d bd
       -0.115039825 -0.44052672 0.79476154 -0.05028745
000060 8d 85 87 3f 6c 05 06 3d 16 44 77 be b8 a1 b2 3f
       1.0587631 0.032720014 -0.24147066 1.3955603
000070 d1 6d 8a 3e dd fd ee 3e 55 1a 1e be a4 69 7e 3f
       0.27036908 0.46678057 -0.15439732 0.99379945
000080 21 c4 f2 bd 83 26 46 bf 59 4c 15 3f 78 4d 5c 3e
       -0.11853815 -0.77402514 0.5831962 0.21513927
000090 46 b3 c2 bf 3a 0c c0 bf 5f 5c 2e 3e 1c 06 b1 be
       -1.521096 -1.5003731 0.17027424 -0.34574974
0000a0 12 35 e4 bd cf 75 d0 be 86 ab 2b 3f 55 dc f5 be
       -0.11142935 -0.4071488 0.670586 -0.48019662
0000b0 1e fa b7 be d4 55 84 be a0 3f 00 3f da 9c ee bc
       -0.35933012 -0.25846732 0.50097084 -0.029127527
0000c0 50 cd c7 be 44 c1 28 be fa 69 48 3f 63 b1 07 3f
       -0.39023829 -0.16479975 0.7828671 0.53005046
0000d0 42 01 55 3f 7d d2 d7 bd 4c 28 a0 3e 11 e7 d2 be
       0.83205044 -0.10538194 0.31280744 -0.41191915
0000e0 00 ee 52 3f 36 86 42 3f dd be ba be 33 1b a0 3e
       0.8239441 0.7598604 -0.36473742 0.3127075
0000f0 b5 96 d3 bd f1 d9 30 3f 71 4a f2 be 96 21 cc be
       -0.103314795 0.6908255 -0.4732242 -0.39869374
000100 35 37 c8 be 46 9d ef bd 4f ab f5 39 ab 72 d2 be
       -0.3910462 -0.116999194 0.00046857676 -0.4110311
000110 48 7e 0f 3f 90 12 99 3e ea 30 3b bb 90 0f 77 3f
       0.56052065 0.29896975 -0.002856309 0.9650812
000120 e5 fa 08 3e 2b 0f f3 3e dd b0 16 bc 1c dd 4c bf
       0.13376959 0.4747251 -0.009197441 -0.80024886
000130 a7 a9 3b 3f d7 14 1a 3f 1f 30 fb 3b da ea 98 bd
       0.73305744 0.6018805 0.0076656486 -0.074666694
000140 1e 9d 57 be ee ed c2 3d d9 9b 01 bf bd a5 00 3f
       -0.21056029 0.09518038 -0.5062843 0.50252897
000150 af 91 bb bd 3d 85 b2 3d ed 4b 67 3e ee e1 96 3a
       -0.09158646 0.087168194 0.22587557 0.0011511424
000160 cf e9 8f 3d 78 ac b9 3d fb 4f e1 be d1 1a d3 be
       0.07027017 0.09066099 -0.44006333 -0.41231397
000170 8b c1 9b 3e ee 56 c2 be dc df 0d 3d 4d 31 9e 3e
       0.304211 -0.37956947 0.034637317 0.3089699
000180 9a 45 77 be b9 71 de 3e 53 51 a7 bd 56 44 d4 bd
       -0.24147645 0.43446139 -0.08169808 -0.103645965
000190 4f a3 0c 3d 6c 0b 0b bf 03 c8 a0 3e 75 25 a5 be
       0.03433543 -0.54314303 0.31402597 -0.3225514
0001a0 60 24 81 3c 13 0b 52 3e 23 05 09 3f eb d5 4b 3e
       0.015764415 0.20512037 0.53523463 0.19905822
0001b0 1d 38 3f bf b2 c1 b8 3e fa c0 18 bf 45 b0 32 bf
       -0.74695 0.36085278 -0.5966946 -0.69800216
0001c0 ff 9b e1 bd 01 e8 b1 be 07 a9 95 3e 3b 17 36 3f
       -0.11016082 -0.34747317 0.2923052 0.71129197
0001d0 cb 05 22 bf f4 0b 05 bf 9f bd 54 3d 67 4d 68 be
       -0.6329009 -0.51971364 0.05193865 -0.22685777
0001e0 7b 07 bb 3d da dd c5 be e9 f5 03 3e 14 6f fb be
       0.09132286 -0.38645822 0.12886776 -0.49108183
0001f0 e2 45 29 bf 85 b9 b0 be af 77 37 3f fa 37 91 be
       -0.6612226 -0.3451654 0.71667 -0.2836302
000200 0d 23 c6 be 6c 5d 28 3f fa 58 a4 3e e3 75 7c 3f
       -0.38698617 0.6576755 0.32099134 0.9861738
000210 c6 80 aa 3e 97 b7 14 3f 32 4f f7 3e 3e 1b 3a be
       0.3330137 0.58092636 0.4830261 -0.18174455
000220 66 9d fc bd a4 07 21 3f 03 79 85 bd ad 31 19 be
       -0.12334709 0.62902284 -0.06517222 -0.14960356
000230 14 57 21 be c3 cb 95 be a3 51 09 be be 9d c7 ba
       -0.15755874 -0.2925702 -0.13410048 -0.0015229506
000240 8c b5 8e be 89 b5 63 be 70 ac 05 3e ef e1 a4 be
       -0.27872884 -0.22237219 0.13054061 -0.32203624
000250 16 f0 9f 3e 66 9e f0 bd 18 06 bb 3c aa b8 08 bf
       0.3123786 -0.11748962 0.022830054 -0.53406775
000260 3d 4d 55 be c2 60 1c 3f 40 e1 59 bc 02 79 da bc
       -0.20830245 0.6108514 -0.013298333 -0.02666903
000270 35 80 81 3f cc f0 f9 3e 12 49 67 b9 e5 66 e6 3d
       1.0117251 0.48816526 -0.00022057098 0.11250094
000280 f4 b4 7e bc 31 4f 34 3e ec 44 27 3e f9 40 ea 3e
       -0.015546072 0.17608334 0.16334885 0.45752695
000290 73 43 18 3e 74 63 01 3f f1 5f 0b bf a3 30 25 3f
       0.1486948 0.5054238 -0.5444327 0.6452734
0002a0 a3 9a 37 bd 39 71 e8 be f5 6a 2e bf d3 d1 d5 bf
       -0.044825207 -0.45398882 -0.68131953 -1.6704658
0002b0 a0 f9 4e bf 35 96 a8 be b6 9b ff 3e 10 b0 85 3f
       -0.8084965 -0.329271 0.49923486 1.0444355
0002c0 da 5d c4 be 0c 8b 92 bf cf 88 5a 3f 11 45 e0 3d
       -0.38352853 -1.1448684 0.85365003 0.10950673
0002d0 b4 ed 21 be fa a3 40 3e c1 d3 41 3e 9f 38 a6 bd
       -0.15813333 0.18812552 0.18928434 -0.08116268
0002e0 9c 23 2f bf 0d f9 eb 3c bf 41 f7 3d 65 fb bd be
       -0.6841371 0.02880528 0.12073087 -0.3710586
0002f0 6b 78 f0 3d af a8 88 be cb 62 77 be 4d 46 29 bf
       0.11741718 -0.26691195 -0.2415878 -0.66122895
000300 bb 55 82 3e 16 86 a2 3e bb f2 66 be eb ee 11 be
       0.25456032 0.31742924 -0.22553532 -0.14251296
000310 aa fd 5d 3f 37 35 31 3f a7 2a 7b bd 46 85 3b 3e
       0.86715186 0.69221824 -0.061319973 0.18312559
000320 59 17 08 3e 7d c6 cf 3e 25 c6 91 3e fd e5 94 3e
       0.13290156 0.40581122 0.28471485 0.29081717
000330 df 1d fd 3d 92 aa 82 3f d6 ac b7 be 0a 95 08 3f
       0.12359213 1.0208304 -0.3587405 0.53352416
000340 6d 55 ca 3d 0d b8 15 bf f1 07 a8 be ba 6e d7 3e
       0.09879575 -0.58483964 -0.3281856 0.42076665
000350 a0 61 48 bf f8 55 07 be e5 f6 1c 3e e1 04 18 3f
       -0.78273964 -0.13216388 0.15328558 0.59382445
000360 7b d8 ab be 42 73 58 bf c1 54 34 3f 6c 67 59 bd
       -0.335636 -0.8455087 0.70441824 -0.053077146
000370 d9 7d ba 3d d9 8a 93 3e 96 f7 9f 3d e7 e4 61 3d
       0.09106035 0.2881687 0.07810895 0.05514994
000380 a4 14 21 3e 5f b9 26 3e 3d 3b 13 3f 59 4f 05 3e
       0.1573053 0.16281651 0.57512265 0.1301855
000390 77 04 06 be 2b d3 a7 bc 3b 56 a7 3d d2 58 a1 3d
       -0.1308764 -0.020486435 0.08170744 0.07878269
0003a0 38 9e 72 be 10 ac ab be f6 47 84 be 81 d1 3f 3e
       -0.23693168 -0.3352971 -0.25836152 0.18732263
0003b0 a4 0e 2e bf a6 53 61 be 43 4e c0 3e 2f 6e 49 3e
       -0.6799109 -0.22004566 0.3755971 0.19670938
0003c0 50 82 ec be 73 59 e4 bd 35 5b c4 3d 61 a4 cf bd
       -0.4619317 -0.111498736 0.09587709 -0.10138775
0003d0 4a 8b 2e 3f 1b ed fc bd 8a 6c 50 be 29 3e 35 3f
       0.6818129 -0.12349912 -0.20353904 0.70797974
0003e0 20 12 62 bd bf c9 3d bd 6c 86 92 3c f3 dd 89 3e
       -0.055193067 -0.04633498 0.017886363 0.26927146
0003f0 e4 61 3c 3e 70 bb 08 bf fa f0 64 3d a6 76 9e 3e
       0.18396717 -0.53411007 0.055893876 0.30949897

linears.1.bias f4 [20]
000000 33 4c 2c 3d 8a 33 63 bd 6c 71 0c bd 22 3f 9d 3d
       0.042064857 -0.055469073 -0.034287855 0.07678057
000010 39 89 db 3c bd cf fa 3c c1 e5 5b 3d d7 df 03 be
       0.026798831 0.030616635 0.053685907 -0.12878357
000020 be 89 73 be aa 1f ef bc 46 51 3b be e3 4c b8 3d
       -0.23783013 -0.029189903 -0.18292722 0.0899904
000030 6e bb b6 3d 7a 2d 68 be 41 46 3c 3e 06 27 39 3e
       0.08922468 -0.22673598 0.18386175 0.18081293
000040 d2 a1 8d 3d c4 7e 5e bb 52 3a 01 bd 99 49 06 3e
       0.069156304 -0.003395007 -0.03154976 0.13114013

linears.2.weight f4 [1, 20]
000000 fd 6e 81 3f 3a 82 5a bf 22 1e 3f bf 91 f2 6a bf
       1.0111996 -0.8535496 -0.74655354 -0.91776377
000010 71 b3 59 be a1 bc 14 3f c2 65 b8 be e4 5d 8f 3f
       -0.21259858 0.58100325 -0.36015135 1.1200528
000020 e5 93 35 3f 2b c2 0f 3f 92 9e 1a bf 0c a5 19 be
       0.70928794 0.5615565 -0.6039821 -0.15004367
000030 89 91 1d bf d4 a3 7e be ae 58 0b 3f 3f 68 13 bf
       -0.61550194 -0.24867183 0.5443219 -0.5758094
000040 de 20 45 3f 32 77 25 3f fb a6 52 bf f6 06 e6 be
       0.77003276 0.64635 -0.8228604 -0.44927186

exp_avg f4 [20, 2]
000000 01 ee d5 35 13 ce 92 36 08 d7 89 b7 cb 8a 80 35
       1.5939005e-06 4.3751293e-06 -1.6431804e-05 9.577137e-07
000010 36 c4 40 36 dc b0 ef 36 43 f0 20 b7 c3 cb c4 b4
       2.872444e-06 7.143344e-06 -9.592683e-06 -3.66561e-07
000020 77 fb f8 36 e7 b0 08 37 79 d5 68 b4 aa bf a4 36
       7.4202503e-06 8.14742e-06 -2.1684345e-07 4.9098935e-06
000030 50 0c 6b 37 1f 05 fa b5 91 f9 35 37 a9 20 95 36
       1.4009958e-05 -1.8627942e-06 1.0846547e-05 4.444348e-06
000040 a2 c0 a4 36 21 9b 73 b6 12 0b 37 37 13 52 19 b7
       4.9100063e-06 -3.6300119e-06 1.09102275e-05 -9.13862e-06
000050 61 a7 8b 36 90 7c ca b7 c9 be 99 37 f3 f6 84 b6
       4.1620083e-06 -2.413828e-05 1.8327863e-05 -3.9626552e-06
000060 6e b2 96 36 52 4e 1a b7 bc a0 d3 b6 2c 74 c3 b6
       4.4911203e-06 -9.197351e-06 -6.307002e-06 -5.824977e-06
000070 69 2d d8 b3 a3 15 ab 36 1d f1 2b 36 08 15 9a 37
       -1.0066544e-07 5.098716e-06 2.5621332e-06 1.8368024e-05
000080 e7 f0 d1 b7 4c dd 0a b7 0e ee 3a b6 c7 27 73 b7
       -2.502692e-05 -8.276966e-06 -2.7854726e-06 -1.449319e-05
000090 7d 6d a5 b6 33 7e fd 35 0a 48 41 b6 9c 9b a7 b6
       -4.9301293e-06 1.8886698e-06 -2.8801173e-06 -4.995103e-06

exp_avg_sq f4 [20, 2]
000000 d4 ae cf 33 d4 24 04 35 71 2d 88 37 2a 06 d7 31
       9.67099e-08 4.9227424e-07 1.6233624e-05 6.2580243e-09
000010 9f 20 cd 37 2a 79 a3 36 8f c8 8d 38 99 78 cb 36
       2.4453095e-05 4.871884e-06 6.760761e-05 6.063911e-06
000020 ce 8d 20 39 0c 33 e6 37 dc 61 d6 34 80 a8 c8 36
       0.00015311615 2.7441907e-05 3.9931808e-07 5.9800805e-06
000030 25 d3 2d 37 f7 1e f2 36 df 22 30 39 d9 ce be 37
       1.03607645e-05 7.215767e-06 0.00016797658 2.2746086e-05
000040 4e 80 0c 38 72 8b 07 35 e8 79 7b 39 0d b1 f2 37
       3.3498094e-05 5.049434e-07 0.00023982639 2.8931094e-05
000050 7e f4 02 37 eb c7 39 38 e6 70 24 38 8b 51 85 39
       7.805529e-06 4.4293625e-05 3.9205792e-05 0.0002542849
000060 f6 d3 6f 38 be bd 2c 37 98 e2 08 39 ab 72 63 37
       5.7179444e-05 1.0296177e-05 0.00013054383 1.3556953e-05
000070 df 33 92 37 44 9a 39 37 98 6e 8d 39 64 bb c7 37
       1.742871e-05 1.1062777e-05 0.00026976014 2.380991e-05
000080 d9 57 e1 39 d5 a0 f9 37 96 2b 0b 38 55 20 aa 35
       0.00042980796 2.9758006e-05 3.3180775e-05 1.2675397e-06
000090 60 f6 dd 37 01 64 49 37 d3 06 35 38 1f 23 c7 36
       2.645998e-05 1.2003818e-05 4.316012e-05 5.934751e-06

exp_avg f4 [20]
000000 4e 21 c9 b5 45 09 a5 35 e5 d4 1f 37 14 ab 71 36
       -1.498536e-06 1.2296156e-06 9.526707e-06 3.601138e-06
000010 e4 7f a5 37 41 52 3d 37 dd 4c af b5 55 a1 9a 37
       1.9729086e-05 1.1284429e-05 -1.3060886e-06 1.8433357e-05
000020 ad 49 07 b7 7f 97 90 37 fc a3 50 b7 64 55 8a 37
       -8.063781e-06 1.7236684e-05 -1.2435947e-05 1.6490645e-05
000030 19 73 39 37 48 02 84 b7 b0 0b 10 37 d4 0c 08 37
       1.10536575e-05 -1.5736689e-05 8.58579e-06 8.1092185e-06
000040 97 a5 06 b8 ad e7 6f b7 f4 c8 74 35 52 41 52 b6
       -3.2102307e-05 -1.4299451e-05 9.118951e-07 -3.133046e-06

exp_avg_sq f4 [20]
000000 6d 8e 4a 38 4f fc 8c 38 03 01 0f 39 73 80 20 39
       4.8293197e-05 6.722716e-05 0.0001363792 0.0001530664
000010 74 cb 08 3a 16 b3 8f 38 28 3c 8e 37 cd b5 5c 3a
       0.0005218305 6.852129e-05 1.6955732e-05 0.00084194244
000020 d7 3d 80 38 e3 33 ab 3a 85 e6 05 38 10 a5 12 3b
       6.115034e-05 0.0013061728 3.192436e-05 0.0022376217
000030 bb 2f da 39 1c 1e 04 3a f1 fc ea 38 51 63 06 3a
       0.00041615762 0.0005039887 0.000112051035 0.00051264936
000040 e8 76 5f 3a ba 6e d5 38 75 f0 d4 38 28 24 93 38
       0.00085244933 0.00010177256 0.000101537364 7.016241e-05

exp_avg f4 [20, 20]
000000 43 90 f2 b4 80 31 24 b3 d9 d8 ab 34 5e 17 89 35
       -4.5180977e-07 -3.8229246e-08 3.200901e-07 1.0214096e-06
000010 02 3c 4a 35 8b 64 9b 35 63 92 61 b5 8f f8 90 35
       7.5338187e-07 1.1577662e-06 -8.403205e-07 1.0801176e-06
000020 15 08 ba 34 28 dd 0f 36 7f 45 6d 36 d4 1f 86 b5
       3.465108e-07 2.143739e-06 3.5356204e-06 -9.993041e-07
000030 8a 77 0f 36 13 9c ec 33 e3 44 84 34 5a 89 ac b5
       2.1378241e-06 1.1017996e-07 2.4637038e-07 -1.2854973e-06
000040 b5 53 19 b5 21 5d dc b4 8e f1 e9 35 74 9e 2f 33
       -5.711875e-07 -4.1045953e-07 1.7430154e-06 4.0889475e-08
000050 0e ff 63 b2 32 52 a4 b6 10 a9 63 b6 fd 87 09 b6
       -1.3271132e-08 -4.8971497e-06 -3.3924043e-06 -2.0493746e-06
000060 ee 18 38 b5 4f 7c 36 b6 38 06 67 36 1f dd 0a b6
       -6.858162e-07 -2.719247e-06 3.4425302e-06 -2.0692312e-06
000070 fd bd 16 37 29 12 0c 36 f0 57 44 b7 36 aa 24 b7
       8.984932e-06 2.0872196e-06 -1.1702985e-05 -9.814792e-06
000080 61 90 82 36 20 bb 49 b5 1d 01 49 b6 e1 48 44 b6
       3.89111e-06 -7.515064e-07 -2.9951982e-06 -2.9248697e-06
000090 56 a1 a2 b3 e4 ef d2 36 c1 6d a8 b6 cc 9d b6 b5
       -7.57306e-08 6.2864146e-06 -5.019567e-06 -1.3605982e-06
0000a0 57 e5 7d 35 f2 22 90 b5 04 7b b8 35 72 cf 33 b5
       9.458358e-07 -1.0739006e-06 1.374487e-06 -6.698457e-07
0000b0 8f 82 4f 35 b7 ab a8 b2 c0 6c 42 35 e9 5d a6 35
       7.7303497e-07 -1.9635861e-08 7.2428884e-07 1.2395295e-06
0000c0 f8 66 1e b6 ec 40 a2 35 37 a3 76 36 07 6b 8f 35
       -2.360377e-06 1.2088835e-06 3.675186e-06 1.0685479e-06
0000d0 3f 0c 8c 35 aa c6 99 b5 33 1b a5 35 98 5f 69 b2
       1.0434377e-06 -1.1457207e-06 1.2301374e-06 -1.35841205e-08
0000e0 d1 3b 8d b5 15 a3 a1 b6 26 e6 92 b3 37 03 28 b5
       -1.0522728e-06 -4.817159e-06 -6.8405186e-08 -6.2589555e-07
0000f0 60 8c be 35 24 a7 95 b4 79 21 1a 36 6f a7 6e b5
       1.4196958e-06 -2.7875024e-07 2.2967272e-06 -8.8905557e-07
000100 6d a6 86 34 d4 88 28 b4 29 c4 0e 35 ca 32 26 35
       2.5080536e-07 -1.5695997e-07 5.318457e-07 6.1913727e-07
000110 cf f1 89 b6 c3 83 4a b3 70 1e 9a b6 ce e9 5e b6
       -4.1110684e-06 -4.7151627e-08 -4.593101e-06 -3.321667e-06
000120 c5 ab 6c b5 ad 2d 56 b5 a4 d1 0f 36 5e e8 fb 35
       -8.816681e-07 -7.978768e-07 2.1430687e-06 1.8768585e-06
000130 94 9e 89 34 e2 50 30 b7 e2 da 92 34 80 ea 14 b3
       2.563362e-07 -1.05092495e-05 2.7353877e-07 -3.467221e-08
000140 3c 6d 50 35 13 eb 4a 34 55 a3 32 35 34 88 52 35
       7.7644995e-07 1.8898236e-07 6.6547847e-07 7.84293e-07
000150 c0 f7 c8 35 50 ac 07 b5 55 a3 24 b5 ec 15 52 b5
       1.4973266e-06 -5.0542167e-07 -6.133244e-07 -7.8262997e-07
000160 b8 29 84 35 f1 f7 a3 35 13 71 b1 35 a9 a5 05 36
       9.846908e-07 1.2216607e-06 1.3220437e-06 1.9914971e-06
000170 f9 56 1b 36 66 f9 14 b6 10 64 4c 35 1b 46 66 b6
       2.3147425e-06 -2.2198888e-06 7.614153e-07 -3.4313477e-06
000180 f4 63 61 b4 ca 6d 7d 36 dd 67 a1 33 45 41 36 b6
       -2.099112e-07 3.7763843e-06 7.516039e-08 -2.7158105e-06
000190 7f 69 0d 34 50 c0 c2 b5 6d aa 34 33 bb bf df b4
       1.3170028e-07 -1.4510097e-06 4.2064517e-08 -4.167649e-07
0001a0 3c 14 80 b5 08 59 25 b5 c6 8c 3e 35 5b 3f a7 b3
       -9.542632e-07 -6.159685e-07 7.098537e-07 -7.788068e-08
0001b0 71 d6 05 36 52 a4 fe 36 07 99 a0 b5 d5 62 8e b7
       1.9943366e-06 7.5889193e-06 -1.1965466e-06 -1.6973741e-05
0001c0 c5 55 8f 36 a1 58 e7 35 7a 2c 1c 34 e3 f4 a1 b6
       4.271717e-06 1.7236636e-06 1.4544813e-07 -4.8266825e-06
0001d0 99 33 3f 35 b6 af a0 36 ad 95 87 35 63 56 06 36
       7.122813e-07 4.788827e-06 1.0101845e-06 2.001784e-06
0001e0 6b fb 1a b5 65 7d a1 b4 50 0c d7 b5 01 5d b3 34
       -5.773533e-07 -3.0079823e-07 -1.6022332e-06 3.3409017e-07
0001f0 30 8e 7a 35 b8 a9 89 35 9a 59 27 b4 33 ad 91 35
       9.333917e-07 1.025669e-06 -1.5585684e-07 1.085375e-06
000200 87 28 8f 36 e5 eb 0c b6 65 56 be b6 28 49 14 b6
       4.26645e-06 -2.0998934e-06 -5.672499e-06 -2.20963e-06
000210 34 71 c7 b5 6d 03 52 b5 37 04 c7 b5 1c ef 33 36
       -1.4859602e-06 -7.823608e-07 -1.4827882e-06 2.6812259e-06
000220 cc 28 00 b6 55 4e 0d b6 59 b9 78 b5 34 5e b4 b5
       -1.9097233e-06 -2.1056233e-06 -9.2656916e-07 -1.3438462e-06
000230 f8 33 92 b5 49 d3 c1 36 cb 31 49 36 90 73 82 36
       -1.0892973e-06 5.776445e-06 2.9980317e-06 3.887755e-06
000240 8a 13 2d 36 56 fa b2 36 fc af af b6 c0 27 9d 36
       2.5790382e-06 5.3339563e-06 -5.2358937e-06 4.683592e-06
000250 92 bf db b6 a5 28 09 b6 87 d3 32 37 9e 91 0f b6
       -6.5490103e-06 -2.043825e-06 1.0658877e-05 -2.139342e-06
000260 1f 29 76 b6 32 7d 65 34 c7 3f 26 36 56 04 86 36
       -3.6680792e-06 2.1372833e-07 2.477305e-06 3.994016e-06
000270 13 a8 2f b6 d7 46 0a b7 1e 3a e6 36 10 13 be 34
       -2.6174864e-06 -8.241935e-06 6.8613e-06 3.5404128e-07
000280 d1 06 57 34 7d cf a2 35 10 23 9d 35 d8 1f f9 33
       2.0025915e-07 1.2130328e-06 1.1707616e-06 1.16007584e-07
000290 fb e1 e4 b4 34 56 be b4 7f a0 ea b4 0b cb ff b4
       -4.2632732e-07 -3.545298e-07 -4.3702673e-07 -4.7645185e-07
0002a0 03 94 90 b6 ba fa 00 35 9c cf e4 36 68 5f ca 36
       -4.3087653e-06 4.804857e-07 6.8190984e-06 6.031176e-06
0002b0 dd c4 51 34 fb de 1b 35 bf b3 8c 35 80 55 b6 b5
       1.953626e-07 5.806648e-07 1.0483126e-06 -1.358494e-06
0002c0 50 04 7c 35 52 e6 db 35 bd db 61 35 dc 27 49 35
       9.388359e-07 1.6383804e-06 8.4138793e-07 7.493634e-07
0002d0 b6 e4 5d 33 00 ba 35 36 21 56 25 36 45 68 d0 35
       5.1663584e-08 2.7079368e-06 2.463705e-06 1.5527554e-06
0002e0 3f 80 ca 35 c5 3f 33 36 b0 aa 1d b6 e2 ec 3e 36
       1.5087497e-06 2.6710197e-06 -2.3494176e-06 2.845009e-06
0002f0 c1 76 b2 b6 a3 96 21 b5 c9 a3 f5 36 9d c2 b8 b4
       -5.318638e-06 -6.019638e-07 7.320636e-06 -3.441427e-07
000300 90 c3 04 b6 80 76 a0 b4 75 e1 0d 36 77 5f 23 36
       -1.9783365e-06 -2.9888542e-07 2.114187e-06 2.434446e-06
000310 ba 0c d7 b5 6a bd c1 b6 30 4d 6d 36 2c 9d bc 33
       -1.6022452e-06 -5.773899e-06 3.536068e-06 8.7830216e-08
000320 a5 ed 79 b4 32 35 ac 35 dc 9c 9c 34 cb 4a 19 35
       -2.3276387e-07 1.283048e-06 2.9171395e-07 5.710578e-07
000330 d8 00 71 34 70 e3 48 35 b0 a3 66 b5 b2 cd eb 34
       2.2445181e-07 7.483677e-07 -8.5919874e-07 4.3921824e-07
000340 a8 6c d6 b5 67 c3 57 b5 f4 0b 57 36 de 8d 42 b5
       -1.5975866e-06 -8.037809e-07 3.2044454e-06 -7.2477076e-07
000350 64 bd ba b5 88 5f 27 34 57 6a 52 34 5b 19 b5 35
       -1.39132e-06 1.5587841e-07 1.959646e-07 1.349293e-06
000360 ba 6b a8 b4 14 d0 56 b5 40 b8 33 35 88 c9 52 32
       -3.137082e-07 -8.0024006e-07 6.6950815e-07 1.2269432e-08
000370 07 3d df 33 39 61 89 34 f8 97 79 34 6d 3e c1 32
       1.03953475e-07 2.5588977e-07 2.3245218e-07 2.2496545e-08
000380 9a c6 bf 32 6f ae 21 30 a8 27 e9 b3 d0 cc 77 b2
       2.232564e-08 5.8819344e-10 -1.08571214e-07 -1.4423861e-08
000390 24 f0 1d b5 fe 49 06 b5 4a e8 c5 33 98 a8 83 35
       -5.883651e-07 -5.002656e-07 9.2157805e-08 9.809328e-07
0003a0 b5 56 09 b5 c6 ea 0a b4 1f 07 61 34 cc 86 f7 34
       -5.116265e-07 -1.2937662e-07 2.0957349e-07 4.6105413e-07
0003b0 43 00 45 33 db 9d b6 b4 5e 5d 6e 33 79 fa 93 b3
       4.5867875e-08 -3.4014997e-07 5.549861e-08 -6.8907816e-08
0003c0 47 b5 95 35 5d 88 b5 35 45 9a 31 36 ca 1b f1 b4
       1.1154124e-06 1.3525238e-06 2.6464852e-06 -4.4909967e-07
0003d0 8f 59 0a b5 5d d1 00 b4 8f bc 6e b4 9d f6 99 34
       -5.153933e-07 -1.1997095e-07 -2.2234074e-07 2.8677906e-07
0003e0 79 12 06 b7 bd 38 d0 b5 3e 17 9e 36 38 d9 63 37
       -7.991323e-06 -1.5513721e-06 4.7114727e-06 1.358083e-05
0003f0 f6 03 48 b6 80 15 6b 33 97 12 1f 36 83 99 76 36
       -2.9804628e-06 5.4734755e-08 2.3703667e-06 3.6746212e-06

exp_avg_sq f4 [20, 20]
000000 d5 38 f7 34 48 6d 10 37 59 12 e2 35 b5 fd 0e 36
       4.6048686e-07 8.608513e-06 1.6843652e-06 2.1307326e-06
000010 83 ad c0 36 5c 92 b3 36 2f 3b a4 36 5d 49 2c 37
       5.7422453e-06 5.351654e-06 4.8944707e-06 1.026908e-05
000020 89 a9 37 37 80 8d 27 37 93 4c b9 36 34 0d 56 36
       1.0947123e-05 9.986921e-06 5.522344e-06 3.189617e-06
000030 91 79 49 37 e6 4b f1 36 f4 7f a9 35 54 6a cd 37
       1.2008838e-05 7.1911954e-06 1.262872e-06 2.4487417e-05
000040 c6 a3 8d 37 f9 27 90 38 e0 98 2a 37 3b cc 16 37
       1.6884773e-05 6.8739006e-05 1.0168384e-05 8.988248e-06
000050 fc 63 81 36 55 be 99 38 37 bb 05 37 ed ff 9c 37
       3.8561393e-06 7.3310606e-05 7.971007e-06 1.8715824e-05
000060 40 9a f9 35 aa 6f 4a 37 33 6e 28 38 aa fb 1a 34
       1.8596838e-06 1.2066137e-05 4.0156952e-05 1.4433923e-07
000070 a5 37 9c 38 53 07 66 37 c6 2a 0d 38 26 36 80 38
       7.449024e-05 1.3710774e-05 3.3656856e-05 6.1136016e-05
000080 dd ee 01 38 b3 6e 91 37 74 71 cf 36 62 4c a5 36
       3.0978455e-05 1.7336895e-05 6.1822884e-06 4.9262753e-06
000090 b3 60 68 37 94 87 05 36 0a 1c 99 38 1f db b3 37
       1.3850792e-05 1.9897461e-06 7.300831e-05 2.1440499e-05
0000a0 c7 5f b5 33 80 01 43 36 6f 26 39 36 5c a3 11 35
       8.445891e-08 2.9058137e-06 2.758952e-06 5.425443e-07
0000b0 94 58 9b 35 a8 54 e5 35 0c 20 d1 35 3b 35 11 36
       1.157418e-06 1.7086468e-06 1.558104e-06 2.1637668e-06
0000c0 ae 7d 5c 37 09 5c 94 36 74 5d 87 37 c4 e1 77 34
       1.3142284e-05 4.421458e-06 1.6136772e-05 2.30858e-07
0000d0 3d d7 83 36 79 e2 86 35 8d 92 1b 36 fa 2b 01 37
       3.9291613e-06 1.004969e-06 2.3182104e-06 7.699238e-06
0000e0 3b 0b 8d 36 9e 06 8d 37 79 b7 a0 36 96 00 22 36
       4.203435e-06 1.6811591e-05 4.7897306e-06 2.4140222e-06
0000f0 31 b7 37 36 ce 34 7e 37 b7 32 41 34 fd f2 aa 36
       2.7375756e-06 1.5151874e-05 1.7992976e-07 5.0946824e-06
000100 34 05 49 36 df 95 5f 36 65 9c 15 37 a4 27 88 36
       2.9954363e-06 3.3316826e-06 8.9175055e-06 4.0577306e-06
000110 e0 e1 37 36 8a 4f d3 36 f6 03 a7 34 db fc be 37
       2.7400602e-06 6.2975496e-06 3.1109056e-07 2.276751e-05
000120 f3 df 07 37 92 2c 0f 37 50 cc de 33 da ab 0b 37
       8.098769e-06 8.5338415e-06 1.0374845e-07 8.325058e-06
000130 2b d8 20 37 d9 00 e6 37 b1 cb 57 37 c9 d7 01 37
       9.587074e-06 2.7418531e-05 1.2862424e-05 7.739241e-06
000140 41 c4 51 33 c4 5f 8d 32 40 b4 7e 33 80 cd ad 31
       4.8840096e-08 1.645811e-08 5.930292e-08 5.0583253e-09
000150 7b 48 d7 34 f8 b4 2f 34 09 a6 b0 31 c4 c2 2e 35
       4.0099607e-07 1.6363981e-07 5.14115e-09 6.510347e-07
000160 3c cf ea 33 36 1d 8f 34 29 46 9e 33 12 87 88 34
       1.093417e-07 2.665708e-07 7.3702104e-08 2.543025e-07
000170 5c d0 87 34 0f 94 05 35 22 18 20 33 38 9e 80 35
       2.529731e-07 4.9761815e-07 3.727485e-08 9.582791e-07
000180 63 f6 8b 35 74 20 37 36 26 45 54 33 61 aa 04 35
       1.0428015e-06 2.7288015e-06 4.9422987e-08 4.9421766e-07
000190 ef 80 5a 35 50 d9 a0 37 00 12 d9 35 d9 d6 bf 36
       8.139895e-07 1.917468e-05 1.6172999e-06 5.717255e-06
0001a0 db 2b 36 36 62 5d 5b 37 a7 3c 4c 37 bb 33 1a 37
       2.714564e-06 1.307516e-05 1.2173469e-05 9.19116e-06
0001b0 aa 63 5d 37 21 2a cf 37 01 38 b0 35 53 4b 60 37
       1.3195831e-05 2.469594e-05 1.3129321e-06 1.3368978e-05
0001c0 c0 fb 00 38 8d 5f f9 34 c5 38 88 35 26 f5 0e 38
       3.075204e-05 4.6449387e-07 1.0149312e-06 3.408375e-05
0001d0 e5 ce 9a 36 70 15 7f 38 d3 4a 47 37 34 d1 e7 34
       4.6136433e-06 6.0816703e-05 1.1878746e-05 4.3179318e-07
0001e0 1e 9b 8b 31 42 44 c0 35 81 6e 8b 35 26 d9 75 34
       4.063067e-09 1.432498e-06 1.0388468e-06 2.2896401e-07
0001f0 cd 92 b0 34 78 bd 21 34 17 31 35 35 ff 00 a3 34
       3.2889366e-07 1.5063222e-07 6.749919e-07 3.036184e-07
000200 7f 53 c0 36 45 2d 18 35 98 62 d4 36 27 1a 4d 34
       5.731766e-06 5.669029e-07 6.32957e-06 1.9101627e-07
000210 d3 09 bc 34 f6 0a 32 35 b6 a5 6b 35 d4 c4 8f 35
       3.5024877e-07 6.632612e-07 8.7785463e-07 1.0711615e-06
000220 34 f2 dc 35 ad 66 12 36 7b d5 2d 36 3c 90 b2 35
       1.6461768e-06 2.181546e-06 2.590327e-06 1.3304011e-06
000230 49 66 0e 36 91 f6 ee 37 54 98 37 36 64 da f2 36
       2.1219187e-06 2.8486627e-05 2.7357792e-06 7.237586e-06
000240 5f 1f db 36 a3 93 37 36 88 04 7d 37 75 c0 d4 36
       6.5303607e-06 2.735506e-06 1.508103e-05 6.3404973e-06
000250 46 99 de 37 80 1c 51 36 58 b7 51 37 83 3d b2 37
       2.6535836e-05 3.1160016e-06 1.2500059e-05 2.1247897e-05
000260 62 3e e2 36 cc 82 92 37 85 96 1b 36 61 06 29 37
       6.742587e-06 1.7465463e-05 2.3184414e-06 1.007467e-05
000270 df a1 da 37 52 9a 19 38 15 fa 14 38 99 30 b6 37
       2.6063002e-05 3.6621765e-05 3.5518857e-05 2.171872e-05
000280 f9 1b 0f 35 cb bf 8d 37 ca 2a 4d 36 2c 07 84 36
       5.3312357e-07 1.689782e-05 3.0572287e-06 3.9347415e-06
000290 e0 02 9c 34 3c aa 3a 36 5a f9 16 37 3c 09 0a 33
       2.9059356e-07 2.781525e-06 8.998753e-06 3.2139027e-08
0002a0 0e 0b cf 37 2f ba 2a 36 cf 4c 87 37 34 ce 5a 37
       2.468147e-05 2.5440347e-06 1.612902e-05 1.3041823e-05
0002b0 ec 22 ea 36 27 dc 5e 36 6a 48 20 36 de 6d 8f 35
       6.977809e-06 3.3208723e-06 2.3884008e-06 1.0686306e-06
0002c0 7b ae 3c 36 64 59 39 35 3d 15 93 37 bb 4e 9c 36
       2.8115744e-06 6.904795e-07 1.7533655e-05 4.6583277e-06
0002d0 1d f2 50 35 5f b0 4b 37 22 45 a4 35 58 c9 50 36
       7.783836e-07 1.21408075e-05 1.2239072e-06 3.1111613e-06
0002e0 c6 8b a1 35 80 5b ad 35 c4 c6 db 36 0f 9e 39 35
       1.2036114e-06 1.2916134e-06 6.549848e-06 6.9147876e-07
0002f0 f2 96 43 37 28 c9 8c 35 09 d3 ad 36 84 00 1c 37
       1.165805e-05 1.0489357e-06 5.1803695e-06 9.298445e-06
000300 bf 2f 5d 36 bf cf a4 36 84 e1 85 35 bd 4d 72 35
       3.2959358e-06 4.9117657e-06 9.974906e-07 9.026515e-07
000310 98 fd c2 36 b4 d8 7a 36 ef 69 66 37 7b c3 cc 36
       5.8111727e-06 3.737904e-06 1.3733733e-05 6.1024307e-06
000320 f7 12 38 34 3b 9c 07 36 45 2a 81 36 b1 81 6c 34
       1.7143235e-07 2.0207506e-06 3.8494204e-06 2.2026394e-07
000330 9d 5f 61 30 06 8c c6 34 c4 0b 84 35 1b 6f 4f 34
       8.19904e-10 3.6982254e-07 9.838191e-07 1.9318797e-07
000340 cf c5 90 37 e0 b5 77 34 12 ff 9e 37 ae 64 d6 34
       1.725825e-05 2.3069833e-07 1.8953844e-05 3.993386e-07
000350 51 23 c6 34 42 97 b1 33 9b 15 52 36 97 27 03 33
       3.690607e-07 8.2697184e-08 3.1305015e-06 3.053682e-08
000360 aa 54 c3 34 ba b3 bf 35 b0 c4 94 36 d7 2e 47 35
       3.6383182e-07 1.4282916e-06 4.433641e-06 7.420144e-07
000370 4f bf ac 32 4f d9 42 34 8e 71 62 32 25 12 3f 33
       2.0110432e-08 1.8146714e-07 1.3180751e-08 4.4487155e-08
000380 71 00 2f 34 7e 17 5d 33 76 fb c2 33 a4 aa 6f 34
       1.6298306e-07 5.147694e-08 9.0795695e-08 2.2320688e-07
000390 c1 bd 23 34 3e 95 0f 34 35 9d d5 33 60 9a 26 34
       1.524959e-07 1.3372207e-07 9.947181e-08 1.5516116e-07
0003a0 85 09 f2 33 d8 ca 8f 34 2e b6 54 32 f5 6c e7 34
       1.1270735e-07 2.6783414e-07 1.2381447e-08 4.310638e-07
0003b0 ae 97 10 35 a4 b3 a8 35 e1 c1 94 34 26 28 b2 34
       5.3864903e-07 1.2569258e-06 2.7708214e-07 3.3184295e-07
0003c0 26 99 cc 33 87 ec b5 36 31 94 6a 35 28 51 d1 35
       9.527348e-08 5.4217558e-06 8.738744e-07 1.5595333e-06
0003d0 ee 8c 83 36 da e3 e5 36 a0 0b 72 36 00 32 17 37
       3.9205106e-06 6.8512572e-06 3.6067577e-06 9.011943e-06
0003e0 e2 47 be 36 7b ef 65 37 b6 eb 9e 35 31 1b 2e 36
       5.6708095e-06 1.3705222e-05 1.1840518e-06 2.5943848e-06
0003f0 25 8e 80 37 f5 e8 11 36 51 9e 0e 35 fd d7 ce 37
       1.532498e-05 2.1742283e-06 5.3129503e-07 2.4657691e-05

exp_avg f4 [20]
000000 75 1d 80 b6 11 78 49 37 e8 04 50 b5 31 44 20 b6
       -3.8181265e-06 1.2008489e-05 -7.749318e-07 -2.388155e-06
000010 50 a9 01 36 a8 5a 97 b6 73 41 95 36 f4 0b 67 b7
       1.932105e-06 -4.5107045e-06 4.4481653e-06 -1.3771456e-05
000020 59 cf 3f b6 f8 62 02 b7 48 72 3f b5 56 b3 e5 b3
       -2.858191e-06 -7.771647e-06 -7.1319346e-07 -1.06962645e-07
000030 f8 77 74 b6 af 69 21 b5 c8 42 cd b6 2a d2 06 37
       -3.6428664e-06 -6.0130964e-07 -6.1172505e-06 8.035955e-06
000040 e4 3d ef b6 d8 95 a2 b6 22 c3 2c b7 5f f9 0c 36
       -7.12996e-06 -4.8454203e-06 -1.0297432e-05 2.1006779e-06

exp_avg_sq f4 [20]
000000 09 c0 9f 38 e1 c4 e0 39 10 1a 32 38 3a da 93 38
       7.61748e-05 0.00042871296 4.246278e-05 7.050154e-05
000010 b6 bf 8c 35 c0 65 04 38 84 51 c0 37 92 f0 87 39
       1.0486608e-06 3.1566015e-05 2.2926142e-05 0.00025928445
000020 0b 75 df 38 97 ae be 38 87 f2 18 38 9a 41 2b 36
       0.000106552696 9.092426e-05 3.6465495e-05 2.551917e-06
000030 0a 57 24 37 e2 8e 46 37 69 3b d4 37 e6 fc 11 39
       9.795427e-06 1.1834987e-05 2.5300034e-05 0.0001392249
000040 1c b2 ad 38 68 b6 25 39 d5 42 5d 38 86 de e6 36
       8.282458e-05 0.00015803578 5.2752748e-05 6.8804393e-06

exp_avg f4 [1, 20]
000000 f3 02 23 36 26 66 4d 37 8d 7f 02 38 5c e2 c5 37
       2.429061e-06 1.22427355e-05 3.1113206e-05 2.3589637e-05
000010 f1 f2 09 37 2b b8 dd b7 16 ff d9 37 0c b5 e9 35
       8.2224005e-06 -2.6431013e-05 2.59872e-05 1.7412544e-06
000020 df 69 b0 b7 d7 80 f4 b5 6a a9 d2 b4 58 95 a8 b5
       -2.1030135e-05 -1.8216914e-06 -3.9238813e-07 -1.256044e-06
000030 2f d3 b7 b4 ac 8c 1d b7 a4 cf db 36 2a 54 07 37
       -3.4240063e-07 -9.390682e-06 6.550881e-06 8.066223e-06
000040 0a c0 58 b5 91 6a ed b7 91 f5 a9 37 15 ce 22 37
       -8.0745724e-07 -2.8302225e-05 2.026072e-05 9.703935e-06

exp_avg_sq f4 [1, 20]
000000 2a 5d f6 39 cd c0 f4 39 a7 01 fe 39 76 05 00 3a
       0.0004699019 0.00046682954 0.00048447886 0.0004883626
000010 a3 ba 25 37 66 6a 79 39 80 a6 8c 39 6d 15 70 39
       9.878221e-06 0.00023786127 0.00026826933 0.00022896165
000020 3a e5 91 38 60 bc 70 39 9d 35 15 38 cf 08 02 39
       6.9568356e-05 0.00022958359 3.55743e-05 0.00012401048
000030 1e 2e 71 39 2a a3 57 37 0d 78 04 39 98 d0 cf 39
       0.00023000731 1.2852988e-05 0.00012633223 0.0003963753
000040 34 40 d6 38 dd 6d 91 39 8b b3 8f 39 03 c1 91 37
       0.00010216274 0.0002773841 0.00027408855 1.7375225e-05
