modelos/heat_20x3-20000.pt (torch, 20886 bytes, 21 tensors)

linears.0.weight f4 [20, 2]
000000 4d c9 9f 3e 36 48 dc bd 0e 8d 4c be 60 48 34 3e
       0.31208268 -0.10755961 -0.19975683 0.17605734
000010 6a fd c8 be 6e e0 aa 3e 3d f6 5c bc 2f 10 e3 bd
       -0.3925584 0.3337435 -0.013486442 -0.11087071
000020 e6 98 51 be 4e 06 b9 3e 56 38 df be e9 19 b3 bd
       -0.20468482 0.36137623 -0.43597668 -0.08745176
000030 a0 1a 7d 3e 10 7d ae 3e 49 bb bb be b1 b5 9a bf
       0.24717188 0.3407979 -0.36666325 -1.2086698
000040 af d0 85 be 57 89 74 be d1 e1 76 3f 4d 7b 10 3d
       -0.26135775 -0.23880516 0.9643832 0.03527384
000050 c0 97 92 bf 5a d4 95 3f 69 e9 f3 bd 38 5d dd be
       -1.145256 1.170543 -0.11909754 -0.43235183
000060 bb be bd 3e 10 45 ca 3e 47 89 09 3e 72 c1 78 3f
       0.37059578 0.39505816 0.13431273 0.97170174
000070 1f 79 db be d3 81 4d 3e 9f 37 73 bd 12 e1 0b 3f
       -0.42865846 0.20069055 -0.059379216 0.54640305
000080 1c 6e 76 be b9 2e 28 bf 38 b0 6d bd df 98 84 bf
       -0.24065441 -0.65696293 -0.058029383 -1.0359153
000090 fd cf 9d 3e 3c 8a 04 be 04 da 8d be 61 c3 8e 3d
       0.30822745 -0.12943357 -0.27705395 0.06970859

linears.0.bias f4 [20]
000000 90 18 da bb 6a 9a 2c be b7 d7 70 3e c5 ff 80 bc
       -0.00665576 -0.1685578 0.23519789 -0.01574696
000010 2b 42 37 3c aa d9 2f bc ab ce 7a bd 01 8f ea 3d
       0.011185209 -0.0107330475 -0.06123225 0.11453057
000020 1a ec c0 3c 4c d3 15 3e f1 85 43 3e 0e 19 59 be
       0.023550082 0.14631385 0.19094063 -0.21200964
000030 1d cf 80 bd da 54 6b 3d 01 b9 38 3d 0f 16 04 bd
       -0.06289504 0.057453968 0.04509831 -0.0322476
000040 27 76 de bd 77 e1 39 bd 59 28 29 3c 63 05 c3 bc
       -0.108623795 -0.045381036 0.010324561 -0.02380628

linears.1.weight f4 [20, 20]
000000 6e 7c ff 3e d1 d7 06 3e 11 35 9a be 2c 6d d6 be
       0.4989962 0.13168265 -0.3011861 -0.41880167
000010 9d 9a e5 3c 5a bf 10 bf fa c6 f0 3e db 43 30 be
       0.028027827 -0.5654198 0.47026807 -0.17213385
000020 71 91 42 be 4b 1e 94 be 95 b8 0f 3f 25 75 53 be
       -0.19000794 -0.28929362 0.56141025 -0.20650156
000030 4e 64 de 3e 83 00 07 3f 99 ee c3 be 49 21 ad bd
       0.434359 0.52735156 -0.38267973 -0.08453614
000040 9d f0 63 3e 7f d5 aa be 4e 40 b8 3e f5 2c 41 be
       0.22259755 -0.3336601 0.3598656 -0.18864806
000050 ca 14 e2 3d 33 cc b2 be ad cc 28 bd bf a4 b3 3e
       0.110391214 -0.34921417 -0.04121082 0.3508663
000060 ad 16 59 3c 6f 6c 18 3e f9 46 a8 3b 87 80 00 3d
       0.013250035 0.14885114 0.0051354137 0.031372573
000070 ed 82 1a 3d 78 c3 59 3e 7f 21 1f 3f 3c db cc be
       0.037722517 0.21265972 0.62160486 -0.40011013
000080 07 09 0a 3e d3 fe 2a 3d a7 ec 6b 3e 22 31 88 bd
       0.13480006 0.041746926 0.23039494 -0.06649996
000090 e9 19 ec bc a6 ba 1f bd 5f 52 b4 3e 18 e8 2c bf
       -0.028820949 -0.03899636 0.35219094 -0.67541647
0000a0 c8 0f d3 3e 17 b8 56 be 28 7d e6 b8 67 30 58 bd
       0.41222978 -0.20968662 -0.00010990567 -0.052780535
0000b0 83 8a 8c be d8 15 8a 3e 11 14 41 3f 66 dd f4 be
       -0.27449426 0.2696979 0.75421244 -0.47825164
0000c0 38 00 18 bf 5c 7c ab be 11 cd af 3f 60 0b 01 bf
       -0.59375334 -0.33493316 1.3734456 -0.5040798
0000d0 06 7d 29 be f1 de 13 3f 7f 14 40 3e 95 c1 24 3e
       -0.16551599 0.57762057 0.18757819 0.1608947
0000e0 d8 d2 2e bf fa 82 76 bf 1a 26 d7 3e e4 79 f9 be
       -0.6829047 -0.96293604 0.42021257 -0.48725808
0000f0 27 28 74 3e b0 81 b2 be 7f 0d 2d be 3c d9 29 bd
       0.23843442 -0.3486457 -0.1689968 -0.041466936
000100 b7 d1 93 be b0 f0 b7 be b8 19 6d bc f7 33 85 be
       -0.28870937 -0.35925817 -0.014471464 -0.2601621
000110 d2 68 bd bd 50 c9 2e be 14 ed 25 bf 50 d6 8a bd
       -0.092485085 -0.17068982 -0.6481488 -0.06779158
000120 90 1d 6d 3e a1 b8 15 bc a8 de 25 bf dd d5 ec b9
       0.23155808 -0.009138257 -0.6479287 -0.00045172768
000130 d6 b9 c8 3e 9a 64 8d be 73 ed ca 3e cb b1 b0 bd
       0.39204282 -0.27615815 0.39634284 -0.08627661
000140 cd df 99 3d 23 f0 f7 bc 97 40 a5 bd 85 55 43 3d
       0.0751339 -0.030265873 -0.0806896 0.04768898
000150 31 75 b4 bd 04 f8 fc 3d a2 08 fd 3c 7c 7a a6 3e
       -0.08811415 0.12351993 0.030887906 0.32515323
000160 90 80 ad bd 41 96 84 3e a5 38 69 bf 56 79 bb 3e
       -0.08471787 0.25895885 -0.9110206 0.3661601
000170 89 aa 1e 3d 26 a6 48 be 89 5d ae be cc 6d ff bd
       0.038736854 -0.1959463 -0.34055737 -0.12472114
000180 28 0b 07 bd d8 b3 13 3f 1f f7 9d be af e5 a2 be
       -0.032969624 0.57696295 -0.308526 -0.3181586
000190 b6 6f 83 3d ee 4e ca 3e c7 5e 22 3d e5 25 81 be
       0.064177915 0.39513344 0.039641168 -0.25224224
0001a0 93 85 95 3e 9e b7 b0 bb f1 48 a6 3e e8 ed 7c be
       0.29203472 -0.0053929826 0.32477525 -0.24700129
0001b0 62 c5 2d 3d 87 67 81 bd bc 20 af be 25 0f 56 be
       0.042424567 -0.063185744 -0.34204662 -0.20904215
0001c0 5f e6 d6 bd 22 49 2f 3f 9c 80 00 3f 68 03 5e 3e
       -0.104931585 0.68470967 0.5019624 0.21680987
0001d0 f8 f8 83 3e 5b bd 93 bf 57 9e 21 be c2 d4 4e be
       0.25775886 -1.1542162 -0.15783058 -0.20198348
0001e0 29 01 38 3e 41 bf 0b bf 0f 15 56 3e 6e b5 bb bc
       0.17969193 -0.54588705 0.2090647 -0.02291366
0001f0 e6 9b 01 bf df 07 1d bf cf ba 93 3e 2d e7 85 be
       -0.5062851 -0.61340135 0.2885346 -0.26152936
000200 77 0d e3 be d9 28 a8 3e 5b eb 64 be 07 13 60 bf
       -0.4434621 0.32843664 -0.22355406 -0.87529033
000210 26 99 01 3f cf 3b 41 3f f2 2f 86 be 72 3b 0a be
       0.5062431 0.75481886 -0.26208454 -0.13499239
000220 de f3 8a be 18 e8 09 bf 30 77 63 3f c1 3e 10 bf
       -0.2713918 -0.5386977 0.8885374 -0.56345755
000230 cd 17 18 be 29 bb 2a 3e 7b a2 a6 3e cb 49 bc be
       -0.1485283 0.16672958 0.32545838 -0.3677505
000240 65 7e 2a 3e 2e 2c 5a 3e f1 42 14 bc ac ae 58 3e
       0.16649778 0.21305916 -0.009049163 0.21160382
000250 fb 9f 83 3e 64 ce b0 3d 3a 6a 5c bf 9f 4f 18 3f
       0.25707993 0.08633116 -0.8609959 0.5949649
000260 a0 fc 99 3e 19 35 e5 be 86 ec 14 ba 10 fc 92 3e
       0.3007555 -0.44767073 -0.00056809967 0.28707933
000270 dc 74 15 3f 71 54 2d 3f 79 ee 8f be 8f a3 de 3e
       0.5838144 0.6770697 -0.28111628 0.4348416
000280 97 68 b3 be a5 d9 a4 3d a3 96 06 bd ae a4 3b bd
       -0.35040733 0.08049325 -0.032858502 -0.045811348
000290 92 13 2f 3e ea 6a 90 3e db 95 99 be e5 c0 59 3e
       0.17097309 0.2820657 -0.29997143 0.2126499
0002a0 27 6f 8d 3e 5b 91 89 be de 11 c3 3b d9 72 c7 3e
       0.27623865 -0.2686871 0.0059530577 0.3895481
0002b0 72 f1 9b bd 22 65 45 be 72 a4 4e 3e e6 9f 56 bc
       -0.076144114 -0.1927686 0.20179918 -0.013099646
0002c0 a5 79 60 3e 8f 97 e6 bc 3a 88 78 be f7 a3 c7 3d
       0.21921404 -0.02814844 -0.24270716 0.09748071
0002d0 34 88 51 be 0c 1d 1b bc 63 d2 77 bb 90 d1 2f 3c
       -0.20462114 -0.0094673745 -0.003781461 0.010731116
0002e0 47 30 9b ba 4a 49 8d 3d 21 e5 5e be 9f 2d 8e 3e
       -0.0011839949 0.068987444 -0.21767093 0.2776918
0002f0 31 28 c2 3e 98 52 3a bd 51 17 07 bf da 36 8b 3e
       0.3792129 -0.045488924 -0.52769953 0.27190286
000300 da 57 74 be b4 83 65 be 68 19 ff 3c 6d b7 ad bd
       -0.23861638 -0.22413522 0.031140044 -0.08482251
000310 db 80 90 be 3b 4c 69 3e 02 37 6f bf 0a 5e 90 be
       -0.2822331 0.22782986 -0.9344331 -0.28196746
000320 99 4b a2 3d 2f 5c 5a 3c 75 7d 43 bf ed 46 b8 3d
       0.07924575 0.013327642 -0.7636331 0.08997903
000330 d7 dd f4 bd 50 75 2b bf 6d c2 43 3f 57 3b a8 be
       -0.11956375 -0.6697588 0.76468545 -0.32857773
000340 e1 cb e9 be f3 8a cc be 7f 1b d9 bd 57 f2 46 be
       -0.4566336 -0.3994976 -0.106009476 -0.19428383
000350 2e 76 2d 3f 48 2c 79 3e 91 5b 8f 3e 46 76 43 3e
       0.6775845 0.24333298 0.27999547 0.19088086
000360 7b a7 3b be 36 a5 bd bd b8 a9 b7 3e 29 02 ac be
       -0.18325607 -0.09260027 0.35871673 -0.33595398
000370 77 dc 16 bf aa e4 92 bd 27 32 95 3e 83 2f 9e be
       -0.5893015 -0.071725205 0.29139826 -0.30895624
000380 b7 a8 e1 3d 29 ab 5b be 42 91 a3 3e 63 5c 93 bd
       0.11018508 -0.21452011 0.3194676 -0.07195356
000390 5c 9d 1f bf a4 2b 02 bf 6d 4e 87 3f ce 07 e7 be
       -0.62349486 -0.5084784 1.0570809 -0.45123142
0003a0 d0 f7 e2 3e bf c2 0e 3f 65 5d 01 3f 90 02 1b 3d
       0.4432969 0.5576591 0.50533134 0.03784424
0003b0 42 93 69 be b1 91 75 bf 67 cc 91 be 4b c8 99 3e
       -0.2281008 -0.9592543 -0.2847626 0.30035624
0003c0 ef e3 65 bc 22 85 1c be 46 fd b3 3d 20 be dc bd
       -0.014031394 -0.15285161 0.087885424 -0.10778451
0003d0 78 9b f9 bd 3f 3c ab 3e b8 4c da bd cc f7 03 bd
       -0.121878564 0.33444402 -0.10659164 -0.03221874
0003e0 7c b8 13 bf 52 cb 5a be e2 91 93 3e c5 d7 7d be
       -0.57703376 -0.21366623 0.28822237 -0.24789341
0003f0 04 f6 d0 3d 05 a4 5c 3e 83 87 ea 3b 1a 7c c6 3e
       0.10203174 0.21546943 0.0071572675 0.38766557

linears.1.bias f4 [20]
000000 2c 22 48 bc 7a 42 25 3d 97 41 77 3c 2d e5 16 bd
       -0.012215178 0.0403466 0.015091321 -0.036839653
000010 46 d5 0d be c8 6e 43 3b b4 00 a7 3d 39 93 97 bd
       -0.13850889 0.002982067 0.08154431 -0.07401127
000020 de 44 54 bd 8e 95 dc 3b 5a 44 70 bd be 50 25 3d
       -0.05182349 0.0067316955 -0.058658935 0.040360205
000030 36 05 00 3d 0b 52 4f bd 0a ee 09 bc d4 72 79 be
       0.03125497 -0.05061535 -0.008418569 -0.2436021
000040 4d db 1e bd 42 0f 1e be 23 f2 05 bc a9 ed 86 3d
       -0.03878336 -0.15435508 -0.008175406 0.06588299

linears.2.weight f4 [20, 20]
000000 a2 11 8c bf 7b 26 49 3c a9 0f bd be 8b 79 97 3c
       -1.0942881 0.012277241 -0.3692601 0.018490573
000010 95 04 be bd 1b dc 90 3e 2d 7e 71 3e 89 8f 3a 3e
       -0.09278218 0.28292927 0.23583288 0.18218817
000020 3d 18 89 bd bb c7 cd 3e 42 24 4f bd f1 02 ed be
       -0.06694076 0.40191445 -0.050571688 -0.46291307
000030 7c ca bf 3c f6 87 9e 3e bc ed a8 be 9a a4 26 3e
       0.023411982 0.30963105 -0.32993877 0.16273728
000040 f3 27 c6 be a1 d3 0d 3e cf 9b dd bd d8 0d 1b be
       -0.38702354 0.13850261 -0.10820734 -0.15142
000050 fd bd 43 bf 8c f4 cf be 6d 65 4f bf 12 c4 9a 3e
       -0.76461774 -0.40616262 -0.8101414 0.30227715
000060 bf 0d 79 3e 15 48 09 3e fc 65 12 3e b9 90 7e 3f
       0.2432165 0.13406403 0.14296716 0.9943958
000070 36 6b 84 3e 34 9a ee 3e f7 86 17 be 14 b4 3b bf
       0.25863045 0.46602023 -0.14797579 -0.7332165
000080 d0 6e 54 bf c6 51 46 3c e1 e0 81 bd a0 c8 52 3f
       -0.82981586 0.012104457 -0.0634172 0.8233738
000090 d8 38 8a bd b3 e1 30 3e f8 f9 f5 3d 19 9e 72 bd
       -0.06749123 0.17273597 0.120105684 -0.059232805
0000a0 6a 54 48 be 6d 2a 25 bd 20 35 f5 3e 7b ae ac be
       -0.19563451 -0.040323664 0.47892094 -0.33726868
0000b0 12 73 86 3e bc 9b 2f 3f fe e1 a0 bd eb 18 a4 be
       0.26259667 0.68597007 -0.078556046 -0.3205026
0000c0 1e ff b7 3e 66 e4 3e 3d 60 d7 f0 3d ca aa 5f be
       0.35936826 0.046604536 0.117598295 -0.21842495
0000d0 42 b7 80 bd 74 0f 6f be 63 29 53 be 6f 96 19 be
       -0.06284954 -0.23345739 -0.20621257 -0.14998792
0000e0 26 e1 f9 3c 9b 0f 26 be 8b c4 c7 3c b0 61 5d 3a
       0.030502867 -0.1621689 0.024385711 0.00084450375
0000f0 da b3 b2 3e 80 a4 2b 3e 9f b6 74 be b6 14 ab be
       0.3490284 0.1676197 -0.2389779 -0.3341424
000100 41 d2 20 3e d4 3d 6c be 77 6a a0 3e 48 b4 36 3e
       0.15705206 -0.2307046 0.31331226 0.1784221
000110 2b 65 a0 3e 6f 15 13 be ab 1a 94 be cd 15 40 be
       0.31327185 -0.14363645 -0.28926596 -0.18758316
000120 c0 c8 22 be 51 89 22 3d 79 df 50 bd 1a b0 48 3e
       -0.15896893 0.039681736 -0.05099437 0.19598427
000130 0b c9 9a 3d 1c 43 fd bd e7 79 e4 3e c6 7c 19 bd
       0.07557877 -0.12366316 0.44624254 -0.03747251
000140 4f 2b 80 3f dc 31 cd bc f9 c2 3d be 27 17 4d bf
       1.0013217 -0.025048189 -0.18531407 -0.8011345
000150 c3 87 e3 3c df 98 9b be 35 62 ff be 4c f7 a0 bd
       0.027774697 -0.3039007 -0.49879614 -0.07859668
000160 2f 40 cd be 8e 2d d5 3c 6b 94 b5 bd e9 26 79 bd
       -0.4008803 0.026022699 -0.08866199 -0.060828123
000170 3c d2 08 be 05 1e 2d 3d c1 7d 74 3e bc 11 6e be
       -0.13361448 0.042264957 0.23876096 -0.23248953
000180 a3 f1 98 3c 17 e2 89 be 5a 05 0a 3f 19 5a ec 3e
       0.018669909 -0.26930305 0.53914416 0.4616249
000190 8d 32 d8 3e 7d 95 60 3e ef b0 6a be 6e c6 c1 3e
       0.42226067 0.21932025 -0.22919057 0.37846702
0001a0 21 2b 51 3e 06 a6 44 3b c4 67 35 3e 7c c6 10 be
       0.20426609 0.0030006184 0.17715365 -0.14138216
0001b0 c9 7a 81 be 7d b7 59 be ec f6 44 3d e8 6d 0a bf
       -0.2528899 -0.21261401 0.048087046 -0.54073954
0001c0 41 18 bc bd 83 bb df bd 31 db 34 bd 86 47 9f be
       -0.091843136 -0.10924437 -0.04415435 -0.31109256
0001d0 45 66 c2 bd 25 c3 49 be 03 a6 65 be 05 2c 46 be
       -0.094921626 -0.19703348 -0.2242661 -0.1935273
0001e0 1c 1b 54 3f 9f 7a 6e ba 37 a2 76 be 4d 14 8a 3e
       0.82853866 -0.00090972515 -0.24085318 0.26968613
0001f0 ff 4e 94 bd d6 09 5e 3e de a8 3f be 24 dd 78 be
       -0.0724163 0.2168344 -0.18716761 -0.24303108
000200 4f cf d7 3d 7a 1b f2 be 61 9b f2 3e bf cc 62 3e
       0.10537588 -0.47286588 0.4738417 0.22148417
000210 dd e7 77 bd c4 04 0a be 66 bc 0f be 47 15 e5 3c
       -0.060523856 -0.1347838 -0.14036712 0.027964247
000220 32 15 12 3e 49 5a b8 bd 25 08 99 3e ab 05 9c be
       0.14265898 -0.090015955 0.29889026 -0.30473074
000230 72 a9 92 be 9e 76 d2 3d 41 e9 37 3e 8e 67 50 3d
       -0.28644902 0.10276531 0.17960073 0.050880007
000240 28 77 b5 bc 8b 44 80 3e dc 55 9c be 10 d1 d8 bd
       -0.022151545 0.25052294 -0.30534256 -0.105867505
000250 be 12 c5 be 6d 56 3d be eb 62 97 be ea b3 ef 3d
       -0.38490862 -0.1849 -0.29567656 0.11704238
000260 4a 95 91 3e e5 c6 6b bc 89 a5 b2 3d 42 54 48 3e
       0.2843421 -0.014390682 0.087229796 0.19563392
000270 f0 5e a7 3e 55 3f cc bd cf 39 b5 be 30 d5 ad be
       0.3268962 -0.09973017 -0.35395667 -0.33951712
000280 8b 96 49 be 9a 64 83 be 2d f3 c6 be 48 90 08 be
       -0.19686334 -0.2566269 -0.38857403 -0.13336289
000290 32 8e d0 3d 6d fd fd be 2d 65 00 3d c3 8f d8 3d
       0.101833716 -0.4960741 0.03134649 0.10574295
0002a0 6d 84 fe 3e 1f 47 53 be 1e 0e 0e be 73 10 7a ba
       0.49710408 -0.206326 -0.13872573 -0.0009539194
0002b0 a4 3d 61 3d ab b4 e0 be 2f 9e a1 3e 4d 40 14 3e
       0.054990426 -0.4388784 0.31565997 0.14477654
0002c0 f5 19 a2 3e 5d 1b d1 3b 63 76 16 bd 38 95 e6 bd
       0.3166043 0.006381436 -0.036733996 -0.1125893
0002d0 23 30 88 3d db 09 c6 bd 9b e2 4a 3e 09 f7 d3 3e
       0.06649806 -0.096698485 0.19813006 0.4139941
0002e0 1d 7d 6a 3e ab c3 c8 3e 53 0a 43 3e 9e fe 8f be
       0.2289929 0.39211783 0.19046907 -0.28123945
0002f0 56 bd d2 be 43 1f 4c be da d8 50 bd c7 9e c0 3c
       -0.41160077 -0.199338 -0.050988056 0.023513211
000300 1c 8b 49 3e cb 45 dc 3d 6f 74 21 3e 36 e9 99 bd
       0.19681972 0.107554995 0.15767072 -0.075151846
000310 a6 a4 ee bd 35 1a 56 be d1 59 87 be e9 3e 16 3e
       -0.11652498 -0.20908435 -0.26435712 0.14672436
000320 3f ef 54 3f f3 cf 4c be 14 e9 0d 3f 49 47 bf 3e
       0.8317756 -0.20001201 0.55433774 0.37359074
000330 5b 94 79 be 31 8d da 3e 1d 05 93 3e b4 80 1a bf
       -0.24373 0.42685845 0.2871484 -0.60352635
000340 87 01 d6 be 0b 09 72 be d3 b1 1b be 4c fa bc be
       -0.4179804 -0.23636262 -0.15204553 -0.3690971
000350 04 08 ae bd 43 45 82 be 5a 4c 64 3d 48 a3 27 bf
       -0.084976226 -0.25443467 0.055736877 -0.6548352
000360 e1 12 08 be 4b 2e cb be 2e 61 e5 bd 11 dd 80 bc
       -0.13288452 -0.39683756 -0.11200176 -0.015730413
000370 b5 5f 9d 3f 77 b9 83 be cd 39 56 bf 4a 0a 46 be
       1.2294832 -0.25727436 -0.83681947 -0.19339862
000380 56 8e 15 bf a6 e7 98 bf ea a2 e4 be 7c 46 78 be
       -0.5842031 -1.1945693 -0.44655544 -0.24245638
000390 37 83 72 3d 43 19 e3 3e 4c 54 93 3e 06 51 17 3f
       0.059207167 0.4435521 0.2877525 0.59108007
0003a0 b8 14 a4 bf d6 5a 88 bf ca 64 b3 3e 7d d8 c2 3e
       -1.2818823 -1.0652721 0.35037833 0.38055792
0003b0 45 6b cc 3f 5f 5f e3 bc 6e ad 32 3f 9d ee cc be
       1.5970236 -0.027755437 0.6979588 -0.40025797
0003c0 82 5b 72 bf 36 2b be be 0c 95 32 bf a0 af 06 3f
       -0.9467088 -0.37142342 -0.6975868 0.5261173
0003d0 ce dd 18 3e 46 6b b8 3e 3d 94 5a 3e c6 28 47 3f
       0.14928362 0.36019343 0.21345611 0.7779659
0003e0 dd fc 0b be d2 2e 02 3f 8a d3 eb 3c 33 7c 6b be
       -0.13670678 0.5085269 0.028787393 -0.22996597
0003f0 0e 11 ac be d7 71 4c 3f 89 6d fb bd 59 da ec 3e
       -0.33606762 0.79861206 -0.122767515 0.46260336

linears.2.bias f4 [20]
000000 1a 43 a5 ba 1a cd 5b bd 65 75 5c be 34 f8 82 3c
       -0.0012608499 -0.053662397 -0.21529157 0.015987493
000010 d0 ce 0f 3e bc 9a ba 3d c9 44 4a bd d2 c3 fb bd
       0.14043736 0.091115445 -0.049382005 -0.12293209
000020 0c 01 2f 3c bf 34 0d bc d9 e6 51 3d be 3b c2 3d
       0.010681402 -0.008618533 0.051245544 0.09484051
000030 cc a6 15 bd c1 3a 15 3d 87 d1 e6 be 10 0b 23 bc
       -0.036536023 0.036432985 -0.45081732 -0.009951368
000040 69 7e a0 bd 21 9e f2 3c 68 a0 3b bd 1d 8d 8e 3d
       -0.07836611 0.029616417 -0.045807272 0.06960509

linears.3.weight f4 [1, 20]
000000 e0 5d ae 3f 5c 40 41 3f eb 9c 9b 3e 95 6b a5 be
       1.3622398 0.7548883 0.30393156 -0.3230864
000010 65 ab 27 be 34 b9 03 3f c2 2f 35 be 00 fa ea 3e
       -0.16373976 0.5145447 -0.17694 0.4589386
000020 51 61 05 be ca d9 94 3e bd 59 42 3f 77 9e 74 bf
       -0.13025405 0.2907241 0.7591818 -0.955543
000030 b7 d4 00 3f a5 83 40 bf b9 92 83 3e 92 dc a5 be
       0.5032458 -0.75200874 0.25697878 -0.32394844
000040 7a 6b 3f 3e ec e0 2b be 1f 12 39 3e fe ef 0e 3f
       0.18693343 -0.1678502 0.18073319 0.5583495

exp_avg f4 [20, 2]
000000 d9 ba 0f 37 38 ec dd 35 77 7c 78 b5 a0 f3 27 b6
       8.566968e-06 1.6534532e-06 -9.256832e-07 -2.5026748e-06
000010 cf 4d 97 b6 19 e6 31 b3 46 5e fc 36 03 2c a8 36
       -4.509209e-06 -4.1420297e-08 7.52116e-06 5.011914e-06
000020 ee a5 06 b6 e1 85 e4 b6 4e dd 3b 37 d6 40 95 36
       -2.006414e-06 -6.810515e-06 1.1197595e-05 4.448094e-06
000030 66 07 b8 35 16 ab 16 b7 6c a2 be b6 26 c3 32 37
       1.3711222e-06 -8.980531e-06 -5.6813496e-06 1.0655063e-05
000040 fb ce 99 35 77 7d 72 36 ee 90 a9 35 37 a5 fc 35
       1.1459628e-06 3.613384e-06 1.2633661e-06 1.8823547e-06
000050 73 8b 00 b8 f1 87 68 b7 c3 6c 12 35 63 70 9f 36
       -3.064745e-05 -1.3859929e-05 5.454751e-07 4.751653e-06
000060 2f 24 c4 b6 36 d7 e6 b6 55 dd a3 b5 c4 00 1c b7
       -5.8454675e-06 -6.879588e-06 -1.2208862e-06 -9.298503e-06
000070 0f c0 8f 36 75 f2 25 b5 0c d1 a2 b6 cb 42 a9 b6
       4.2840907e-06 -6.182011e-07 -4.8523125e-06 -5.044368e-06
000080 cc 49 b7 b6 1c 6b c1 35 21 c6 5e 36 18 29 38 37
       -5.462416e-06 1.4410793e-06 3.3195904e-06 1.09768225e-05
000090 ba e1 e7 36 14 67 be 36 23 46 2e b7 a4 1a 31 b6
       6.9106145e-06 5.674441e-06 -1.0387538e-05 -2.6390562e-06

exp_avg_sq f4 [20, 2]
000000 b5 48 3b 3a 65 65 3c 38 24 55 45 3a a9 da e3 37
       0.0007144318 4.4917124e-05 0.00075276406 2.716233e-05
000010 12 89 0e 3b bb 82 d2 38 a0 ca c2 36 1c 4a 62 37
       0.002174918 0.00010037931 5.805239e-06 1.3487905e-05
000020 f7 58 af 3a dc 86 9e 38 3c 92 e1 3a 4c da 61 39
       0.0013377954 7.5591466e-05 0.0017209719 0.00021538994
000030 b2 73 6f 39 68 ca 29 38 6f 12 75 3a 6b e5 18 38
       0.00022835916 4.0481245e-05 0.0009348755 3.6453286e-05
000040 49 3d a2 39 44 68 73 38 c6 4b 46 38 22 d0 94 38
       0.0003094471 5.803282e-05 4.7277448e-05 7.095958e-05
000050 69 59 f0 3a 73 62 f5 39 d7 66 ce 39 41 f8 02 38
       0.0018337193 0.00046803392 0.00039368003 3.122562e-05
000060 ca 1c 40 3a 57 52 a6 38 4f bf 64 38 e3 a1 a9 37
       0.00073285087 7.930834e-05 5.4537606e-05 2.0221754e-05
000070 dd 1a 02 39 f1 7a 02 36 79 3d de 3a e4 c4 9c 38
       0.00012407773 1.944307e-06 0.0016955576 7.4753334e-05
000080 19 e4 7c 38 a2 c0 1a 34 f1 3d 25 3a e1 5d 14 37
       6.0293914e-05 1.4412447e-07 0.00063034805 8.843345e-06
000090 32 68 74 3b a8 05 ab 39 a3 84 59 39 4a a4 ef 34
       0.003729355 0.00032619876 0.00020744144 4.4636755e-07

exp_avg f4 [20]
000000 b7 40 6e 36 14 7e 7a b6 0b 17 82 b5 b6 e7 96 36
       3.5502433e-06 -3.732629e-06 -9.692461e-07 4.497323e-06
000010 d9 29 4d 36 29 f4 ab 36 3e bb 2a 37 eb 93 80 36
       3.057174e-06 5.124621e-06 1.0176385e-05 3.831917e-06
000020 48 0a 8b b7 6e 4e e6 34 85 fe 92 b8 cc ce 14 b7
       -1.6574879e-05 4.2897904e-07 -7.0092305e-05 -8.869636e-06
000030 bb 3d 0e 36 28 13 1c 37 d8 71 88 b5 c2 2e 97 36
       2.119558e-06 9.302785e-06 -1.0165923e-06 4.505594e-06
000040 50 b9 c2 35 06 0f 95 b7 b4 71 57 37 8a 57 04 b7
       1.4508059e-06 -1.776918e-05 1.2841472e-05 -7.888195e-06

exp_avg_sq f4 [20]
000000 5a fa dd 3a 0f 1e da 3a f8 bc f8 3b 8e 3f a5 34
       0.0016935572 0.0016641038 0.007590886 3.0779887e-07
000010 80 3f 67 3b 66 0a c7 3b d0 bc c4 39 dd ec dc 3a
       0.0035285652 0.0060742376 0.0003752471 0.0016855259
000020 4d 4c 0a 3a 00 7f 25 3b 73 f0 54 3c 01 ba 26 39
       0.0005275652 0.00252527 0.012996781 0.00015900286
000030 97 7a f0 3a b6 61 83 38 16 b0 b9 38 8a 16 da 3b
       0.0018347081 6.264767e-05 8.854286e-05 0.006655519
000040 20 2f ec 37 1f 82 8a 3b 67 53 24 3c 76 1e 9b 38
       2.8155337e-05 0.0042269374 0.01002965 7.39665e-05

exp_avg f4 [20, 20]
000000 35 c6 d0 b5 4d 3c 50 36 06 fc bb b5 78 23 e6 34
       -1.5554893e-06 3.1029515e-06 -1.4005934e-06 4.2866645e-07
000010 35 15 01 35 ce 09 47 36 5b bc ae b5 8b ad 11 37
       4.8087105e-07 2.9659018e-06 -1.3018829e-06 8.68308e-06
000020 06 a1 ec 35 c0 ed 1a b7 3b 29 2f b4 7d 77 9b 36
       1.7630234e-06 -9.234471e-06 -1.6313145e-07 4.6332702e-06
000030 a6 04 22 b6 d0 9d b3 b6 6e a9 a6 35 63 d4 9d b3
       -2.4142587e-06 -5.3529875e-06 1.2417274e-06 -7.349515e-08
000040 3c 73 b7 36 b2 d7 95 36 fe 10 e4 b5 d1 15 fb 35
       5.46724e-06 4.4656563e-06 -1.6992269e-06 1.8707307e-06
000050 d7 97 06 35 cd 5d 46 b4 5c cf f7 b2 5a 70 37 b4
       5.0139846e-07 -1.8474312e-07 -2.884888e-08 -1.7084076e-07
000060 47 67 61 34 45 c2 8b b5 44 6c 83 34 5d 66 0f 36
       2.099233e-07 -1.0412847e-06 2.4479425e-07 2.1368244e-06
000070 b1 72 d9 b4 8d 6b 60 36 87 ba b5 b6 64 1c 8d b3
       -4.050285e-07 3.3441204e-06 -5.415935e-06 -6.5709884e-08
000080 c5 e5 1b 34 91 31 55 b5 f7 a4 5a b5 0f ea b3 34
       1.451909e-07 -7.942081e-07 -8.1451384e-07 3.3511648e-07
000090 1d e0 15 35 58 c1 0e 35 58 67 ff 34 6c ff f3 b4
       5.5832953e-07 5.3180474e-07 4.7572644e-07 -4.544812e-07
0000a0 2f 99 d0 b4 c2 b1 c5 34 8a 12 73 35 c1 b6 24 34
       -3.8854475e-07 3.6823445e-07 9.055153e-07 1.5340176e-07
0000b0 5f 04 3b 35 f6 8e 8e b5 6b 48 91 b5 3d d1 7e 35
       6.966929e-07 -1.0621432e-06 -1.0824418e-06 9.4926855e-07
0000c0 d8 e3 62 35 f4 87 e5 36 9b 9e 55 b7 e7 27 2c 35
       8.4523117e-07 6.840559e-06 -1.2732718e-05 6.413306e-07
0000d0 ed 28 5d b4 61 68 ba b5 6a 5e 32 b5 3f 19 73 2f
       -2.0597118e-07 -1.3888458e-06 -6.644756e-07 2.210969e-10
0000e0 a5 c5 4a 35 c8 aa a1 35 fa 8d ba b4 3d fb 05 35
       7.5538475e-07 1.2045139e-06 -3.47485e-07 4.991196e-07
0000f0 1f 7c ab 35 f2 b8 fd b5 7a a5 3a b4 05 39 18 b4
       1.2776617e-06 -1.8903795e-06 -1.73828e-07 -1.4176847e-07
000100 89 02 65 b5 6e cf f3 b5 0a f7 df 34 13 d4 da b4
       -8.5312837e-07 -1.8165281e-06 4.171673e-07 -4.0759969e-07
000110 be 11 5a b5 dc 58 9b 36 3a 87 d5 b6 65 db cf b5
       -8.1237147e-07 4.6297046e-06 -6.363637e-06 -1.5486554e-06
000120 ab 74 50 35 4e f6 9f 34 14 b6 cd b5 7b 00 44 b5
       7.765581e-07 2.9795268e-07 -1.5326682e-06 -7.301639e-07
000130 6c 52 9a b5 6d 72 01 34 0c e9 b7 35 d3 0f b1 b5
       -1.1497882e-06 1.2055689e-07 1.3702388e-06 -1.3192133e-06
000140 ef c4 c7 33 1d 29 e7 b4 e1 7d bf 35 03 33 ed b4
       9.3024816e-08 -4.3057017e-07 1.4267245e-06 -4.4181806e-07
000150 8f 94 80 35 ac 2b 5d b5 a5 ff 74 35 58 ca e3 b5
       9.579979e-07 -8.2392467e-07 9.1269095e-07 -1.6971708e-06
000160 bd fa 5e b5 b2 b9 b7 35 bc 31 bc 34 60 8e 04 b6
       -8.3066317e-07 1.3688607e-06 3.5053915e-07 -1.9752406e-06
000170 52 a7 89 35 05 5c 1a 36 a1 a7 76 33 83 49 cf 35
       1.0255992e-06 2.300135e-06 5.7428796e-08 1.5444097e-06
000180 33 38 fe b5 ef d1 2b b6 26 43 ce 33 8f 8e 8c b4
       -1.8940831e-06 -2.5603183e-06 9.604837e-08 -2.6180757e-07
000190 f2 31 a4 35 22 11 e2 b5 79 30 b8 b4 0b a3 8c 34
       1.2233488e-06 -1.6843298e-06 -3.430794e-07 2.6195661e-07
0001a0 07 94 a2 b5 8e c7 22 b6 bc 39 71 b5 5d f7 cc 35
       -1.2113022e-06 -2.4256037e-06 -8.986351e-07 1.5271177e-06
0001b0 67 a6 2e 34 10 b8 2f 37 78 4d c4 b6 f1 3c 79 34
       1.626555e-07 1.0473668e-05 -5.8502737e-06 2.3212102e-07
0001c0 bc ff 17 34 95 0b 4d b6 bc 2c 14 b6 25 56 09 b6
       1.4156007e-07 -3.0554122e-06 -2.2079757e-06 -2.0464734e-06
0001d0 13 2e 40 35 77 ab 78 36 38 20 b6 35 67 94 92 b5
       7.159262e-07 3.7054685e-06 1.3569434e-06 -1.0921038e-06
0001e0 7b 91 ae b5 e1 7b 9a 34 eb 08 2f 36 93 a4 3b b4
       -1.3006351e-06 2.877487e-07 2.6082223e-06 -1.7475604e-07
0001f0 ef e7 a9 35 56 41 be 35 ec b7 27 b5 fc 73 6c b3
       1.2658983e-06 1.4175118e-06 -6.247999e-07 -5.505352e-08
000200 d1 1a 37 35 3a f4 49 b6 d2 a7 b3 36 c4 db 84 b5
       6.8211835e-07 -3.0093493e-06 5.3541526e-06 -9.898727e-07
000210 40 34 86 b5 62 1d 83 35 7c c3 05 36 59 17 63 35
       -9.998985e-07 9.768812e-07 1.9932331e-06 8.4598065e-07
000220 33 94 04 b5 f2 e9 a2 b5 c8 bb a7 b5 85 2f 86 35
       -4.938949e-07 -1.2138028e-06 -1.2497121e-06 9.997608e-07
000230 a7 55 9f b5 41 25 a1 35 78 60 0a 35 53 40 06 34
       -1.1871351e-06 1.2006277e-06 5.1549387e-07 1.2503124e-07
000240 a0 05 08 35 a8 af 10 36 fe de 33 b5 88 3e 7b 35
       5.0672134e-07 2.1559918e-06 -6.700719e-07 9.359578e-07
000250 6a fa 6a 35 a9 ba cc b6 77 62 01 37 f8 d6 92 35
       8.7536193e-07 -6.101404e-06 7.711925e-06 1.0940412e-06
000260 e4 7c b0 b5 5e 99 3b b5 89 c0 f8 35 36 ea 95 33
       -1.314937e-06 -6.988611e-07 1.8533475e-06 6.980956e-08
000270 a4 8f a4 35 c2 48 0b 35 12 32 a5 b5 31 db 94 35
       1.2260757e-06 5.188741e-07 -1.230803e-06 1.1090652e-06
000280 ad f6 aa b5 e2 1a 87 35 6d c6 f4 35 23 64 91 b4
       -1.2737779e-06 1.0066108e-06 1.8237166e-06 -2.7081214e-07
000290 44 71 bb 35 4c 0b 98 35 43 5b 67 34 6c 53 ef 34
       1.396555e-06 1.132817e-06 2.1546752e-07 4.4577916e-07
0002a0 e3 34 e9 33 51 9c 65 b6 60 66 a4 36 72 9f 1e b5
       1.0859528e-07 -3.4214647e-06 4.899499e-06 -5.909161e-07
0002b0 ff df 4b 33 82 d5 c7 34 40 b6 fa 35 0f c7 a3 35
       4.7468344e-08 3.7221986e-07 1.8679493e-06 1.220238e-06
0002c0 db 3b 05 b5 3d 68 f2 b4 66 47 af b5 d9 d2 8c 35
       -4.963346e-07 -4.5151856e-07 -1.3059296e-06 1.0492178e-06
0002d0 11 21 2b b4 66 6c f6 35 5c ad 5e b6 78 2f 0e 35
       -1.5937646e-07 1.8359976e-06 -3.3181486e-06 5.29682e-07
0002e0 6a 3e 8c b5 4d b0 e1 35 2f cd 12 b5 61 e4 34 36
       -1.0448978e-06 1.6815117e-06 -5.468782e-07 2.6955024e-06
0002f0 64 6d 48 35 56 22 c7 b6 92 d8 77 36 fe 85 81 36
       7.466499e-07 -5.9346594e-06 3.6931929e-06 3.8600983e-06
000300 41 48 9f b5 69 3d 79 b6 9c 8d fd 33 5f 1a ae b5
       -1.1867452e-06 -3.7139637e-06 1.1806989e-07 -1.2971685e-06
000310 b5 33 6b 36 b0 bd 7f 36 4f 46 a8 b4 97 18 0b 35
       3.5047826e-06 3.8108374e-06 -3.1343595e-07 5.181732e-07
000320 37 58 8e b4 22 1c b1 32 e0 0a 11 35 25 b8 93 32
       -2.6513746e-07 2.0618305e-08 5.4032535e-07 1.7196792e-08
000330 05 6c 11 b3 8c 8c 6f 34 a5 6f c0 b4 ce b6 15 37
       -3.3858687e-08 2.230974e-07 -3.584402e-07 8.923655e-06
000340 b6 7c ac 34 15 76 5a 36 07 5a 74 b6 a1 fd 41 35
       3.2128236e-07 3.2553264e-06 -3.6411236e-06 7.226718e-07
000350 2e d9 09 b5 77 2b 9e b6 7c 24 69 34 61 cb 09 b5
       -5.1352515e-07 -4.713827e-06 2.1713089e-07 -5.133243e-07
000360 8c f2 05 36 ac 40 a9 36 8d 5c 6a b4 15 fc 72 34
       1.9959725e-06 5.0441213e-06 -2.1826618e-07 2.2629713e-07
000370 34 22 00 b6 4d f2 cc 35 0c c8 e1 34 30 56 3e 35
       -1.9093395e-06 1.5269703e-06 4.205507e-07 7.0905935e-07
000380 14 40 39 b4 4f b1 74 36 7c f3 4d b6 41 e1 e4 36
       -1.7252779e-07 3.646204e-06 -3.0689107e-06 6.8211525e-06
000390 2a 6d 41 36 a7 4a c8 b6 cc 4b e1 36 47 16 6e 36
       2.8822783e-06 -5.969155e-06 6.7143465e-06 3.547773e-06
0003a0 46 c1 88 b6 e6 00 b2 b6 fb 98 1d 36 74 c9 08 b6
       -4.075616e-06 -5.304918e-06 2.348387e-06 -2.038284e-06
0003b0 cf 0a 9c 36 0a 31 b1 36 cd 22 fa b5 75 fe 00 36
       4.6504206e-06 5.28072e-06 -1.863658e-06 1.92216e-06
0003c0 9e b1 18 b6 77 1c da 34 fa c3 b8 36 b7 d8 19 b4
       -2.2753152e-06 4.0626375e-07 5.506442e-06 -1.4328076e-07
0003d0 62 71 27 36 d9 db 96 35 76 1a 06 b6 c0 74 6b 35
       2.4950937e-06 1.1239855e-06 -1.9982958e-06 8.7714216e-07
0003e0 ce 27 f1 35 12 39 c8 36 b1 07 69 b6 23 43 ad b5
       1.7967484e-06 5.9671083e-06 -3.4724183e-06 -1.2909044e-06
0003f0 2f 4b fa b5 a3 b9 3b 35 c7 6a 2b 36 4f 02 a0 35
       -1.8648333e-06 6.9933066e-07 2.5543138e-06 1.1921601e-06

exp_avg_sq f4 [20, 20]
000000 7f fb 40 39 ab b7 1a 3a 07 cf 2e 36 79 7e 0b 34
       0.00018404236 0.00059020024 2.6048526e-06 1.2991394e-07
000010 ea 67 2a 39 16 d4 8d 39 6c 43 55 33 40 96 12 39
       0.00016251174 0.00027051632 4.9654247e-08 0.00013979618
000020 0b 5c ec 37 56 03 ae 3a 6d 92 ae 3a 26 49 91 39
       2.8176253e-05 0.0013276141 0.0013318785 0.00027711055
000030 ce 85 87 37 36 16 3d 37 1a 63 86 39 11 5f 36 39
       1.6155562e-05 1.1270449e-05 0.00025632308 0.00017392288
000040 08 10 cb 38 ab 8c 96 38 9f 22 6e 39 44 e5 55 39
       9.6827804e-05 7.178759e-05 0.00022710346 0.00020398671
000050 9b 8b e2 35 5f fb af 36 3d 2b 08 35 77 b5 e4 33
       1.6878943e-06 5.24467e-06 5.072687e-07 1.06500856e-07
000060 08 33 7f 34 1a 11 a8 36 58 8c 70 35 f8 4a 57 36
       2.3767291e-07 5.008781e-06 8.9611194e-07 3.2081134e-06
000070 0c 89 d4 35 2a 0a 03 38 a8 7a ae 36 36 f7 0a 37
       1.5835117e-06 3.12423e-05 5.199883e-06 8.282999e-06
000080 0e d6 23 36 12 53 8d 36 b0 5d 02 36 d8 e8 64 30
       2.441349e-06 4.211798e-06 1.9426043e-06 8.327681e-10
000090 64 10 fa 36 0d df 38 36 c5 f4 05 36 8f 99 11 36
       7.4524887e-06 2.754797e-06 1.996102e-06 2.1696067e-06
0000a0 3a 8d 59 34 b8 97 84 34 9a e1 08 34 02 28 30 31
       2.0261078e-07 2.4697306e-07 1.274806e-07 2.5634113e-09
0000b0 52 0a b6 33 83 27 c4 34 1a 70 f9 33 d9 a3 8e 34
       8.476913e-08 3.6536593e-07 1.1615357e-07 2.6568776e-07
0000c0 b0 31 22 34 33 7e 53 36 52 14 26 36 38 e3 79 34
       1.5105502e-07 3.1514908e-06 2.4747756e-06 2.3272594e-07
0000d0 5f ce 87 34 09 56 fa 33 77 bf a1 34 64 ba 7d 32
       2.5295864e-07 1.1657182e-07 3.0127896e-07 1.47689185e-08
0000e0 23 6a 8a 34 c8 0a 50 33 1f f9 61 34 5a 97 4e 34
       2.5781728e-07 4.843858e-08 2.1045388e-07 1.9240306e-07
0000f0 a7 ef 67 35 8e d9 2c 37 72 4a 2b 36 39 85 b2 31
       8.6402946e-07 1.0302652e-05 2.5524319e-06 5.1956275e-09
000100 cd d7 99 35 b2 08 a2 35 4b ac 42 35 9c 0c 0b 37
       1.1462195e-06 1.2072471e-06 7.252135e-07 8.2879815e-06
000110 ad f4 ca 32 e1 a5 4f 37 80 d5 8a 36 8f af dc 36
       2.362716e-08 1.2376783e-05 4.137575e-06 6.5769486e-06
000120 55 5f f7 34 e1 03 da 34 1d 80 41 35 37 99 38 36
       4.6076698e-07 4.0608487e-07 7.208453e-07 2.750732e-06
000130 fd 0b 94 35 82 bf a6 35 9e 46 bf 35 08 90 c7 35
       1.1030348e-06 1.24237e-06 1.4251161e-06 1.4868574e-06
000140 11 9f c6 36 d7 d4 7e 37 2d df 89 34 16 1c c9 32
       5.9193776e-06 1.5189135e-05 2.568062e-07 2.3412252e-08
000150 7a fa 83 36 88 d3 27 37 24 28 c0 34 e9 79 93 34
       3.9332635e-06 1.0003227e-05 3.5791993e-07 2.7469585e-07
000160 a3 d7 ee 35 74 9a 3b 38 9c 51 25 38 3e 5c 18 37
       1.779514e-06 4.472812e-05 3.941507e-05 9.081383e-06
000170 a9 08 00 36 eb 3c 05 34 48 a0 0c 37 92 87 47 36
       1.9078527e-06 1.2408752e-07 8.381969e-06 2.9732223e-06
000180 b9 ae ac 36 d1 e0 82 34 53 c0 ea 36 42 2a d6 36
       5.14634e-06 2.4377962e-07 6.996133e-06 6.3826164e-06
000190 3a 17 d6 38 c9 56 ad 39 59 22 5a 35 3a 68 85 34
       0.000102086415 0.0003306179 8.126131e-07 2.4849015e-07
0001a0 25 d5 a9 38 aa 6d 25 39 21 f1 6b 35 76 46 3a 38
       8.098249e-05 0.00015776479 8.789521e-07 4.4411478e-05
0001b0 06 15 ac 37 b5 5b 35 3a 53 d0 1b 3a 12 b2 3f 39
       2.0513788e-05 0.00069182675 0.00059438235 0.00018281516
0001c0 d3 cf 76 37 f5 f3 e5 34 5c 3d 10 39 7b f5 a7 38
       1.47111305e-05 4.2832076e-07 0.00013755768 8.008905e-05
0001d0 83 ab 9f 38 71 25 9d 37 d9 a1 03 39 e9 a6 f1 38
       7.613657e-05 1.8733293e-05 0.00012553426 0.00011522865
0001e0 ad 00 7c 34 6d 33 a7 36 a7 14 67 37 97 73 09 33
       2.3469575e-07 4.9829746e-06 1.3773481e-05 3.2002927e-08
0001f0 ed 8c d3 33 b4 a5 7c 34 42 6a ec 35 9a 26 db 36
       9.8510874e-08 2.3529611e-07 1.7614295e-06 6.5312024e-06
000200 ba a3 1f 35 32 c5 09 35 c2 8c 6c 37 43 54 00 37
       5.947037e-07 5.1323434e-07 1.4099469e-05 7.649013e-06
000210 3a b9 1f 36 52 2f e3 33 de 64 b3 35 d2 6c b7 34
       2.3800662e-06 1.0579119e-07 1.3365895e-06 3.4165583e-07
000220 77 59 96 35 43 5c 5f 33 0e 01 79 33 6f 85 39 32
       1.1201909e-06 5.2005145e-08 5.797579e-08 1.07987566e-08
000230 4d b4 37 38 1c f7 be 38 ea bf 5a 36 61 c5 ba 34
       4.3798518e-05 9.105934e-05 3.259624e-06 3.4788812e-07
000240 72 39 bb 37 5e 25 b1 38 99 1b 05 37 b4 d1 90 36
       2.2318887e-05 8.446978e-05 7.933843e-06 4.315947e-06
000250 af 38 a5 37 3d 7b d7 39 a0 ad 9e 39 f7 12 8b 38
       1.9695928e-05 0.00041099815 0.0003026547 6.631569e-05
000260 4a 37 e4 37 3d e6 06 37 60 75 85 38 17 1c 38 37
       2.7205464e-05 8.040629e-06 6.363797e-05 1.0973795e-05
000270 31 81 5a 38 50 db 13 35 43 9f 51 38 ca 0d 41 38
       5.209557e-05 5.508091e-07 4.9977807e-05 4.6027628e-05
000280 a1 57 52 35 15 bc ac 35 f7 3e 15 37 3f ee 1b 31
       7.8358613e-07 1.2869738e-06 8.895752e-06 2.2690896e-09
000290 6f ec 5f 34 27 fa c3 35 c1 4b 13 36 04 2b 07 37
       2.0854507e-07 1.4601436e-06 2.1948802e-06 8.056642e-06
0002a0 fc 28 a5 35 0f e5 26 36 a2 c3 8c 37 9c a1 06 36
       1.2305386e-06 2.4869257e-06 1.67804e-05 2.0061625e-06
0002b0 3a 8f 6e 36 cb b4 4d 34 e4 6c 19 36 51 05 7c 34
       3.5548132e-06 1.9157885e-07 2.286216e-06 2.3471263e-07
0002c0 9e 66 9f 32 2c ac 1c 34 1a 8b 05 35 b7 79 8d 34
       1.8556701e-08 1.4591268e-07 4.974878e-07 2.6351856e-07
0002d0 d2 29 2c 37 71 47 cb 37 f6 fb 56 36 1c 59 c9 32
       1.0261736e-05 2.4232753e-05 3.2035146e-06 2.3440002e-08
0002e0 e4 d5 3f 37 9b 84 51 37 71 3a ee 33 59 ce 77 37
       1.1434287e-05 1.2488245e-05 1.1093369e-07 1.4770391e-05
0002f0 48 f9 84 35 a9 29 7b 38 db 62 e5 38 d7 0b ad 36
       9.907317e-07 5.9881862e-05 0.00010937984 5.15718e-06
000300 b5 2c 15 35 24 3f b7 36 3d e7 88 37 01 7b 53 37
       5.557188e-07 5.4611755e-06 1.6320142e-05 1.2605219e-05
000310 fa cd 7d 35 42 b6 4e 37 bf e4 4c 37 d0 90 28 37
       9.454958e-07 1.2320992e-05 1.2212607e-05 1.0047297e-05
000320 96 2f 0b 35 3b 1e b8 36 1a b4 6a 33 b3 73 f3 33
       5.185078e-07 5.4871466e-06 5.4646172e-08 1.1336615e-07
000330 32 eb 49 36 7f 60 ff 31 61 a8 4d 36 94 2f 09 38
       3.0088236e-06 7.432447e-09 3.064539e-06 3.2707656e-05
000340 fc da 7f 35 7e 42 f5 34 79 ca 71 37 12 05 a1 33
       9.5313567e-07 4.5683186e-07 1.4411861e-05 7.498069e-08
000350 e0 b8 6e 36 a5 9d 4b 37 f1 55 55 35 66 42 01 37
       3.5572375e-06 1.2136447e-05 7.9473745e-07 7.704459e-06
000360 d6 a8 1f 36 30 77 85 37 b1 23 70 35 c6 f2 22 35
       2.3791122e-06 1.5910337e-05 8.9458905e-07 6.0702985e-07
000370 c0 c7 35 37 d4 fb 49 38 91 76 5e 34 be e4 af 30
       1.0834949e-05 4.8156668e-05 2.0718495e-07 1.2797938e-09
000380 49 02 50 37 58 31 67 37 d9 70 66 35 d2 b1 02 38
       1.2398298e-05 1.3780162e-05 8.584589e-07 3.1160023e-05
000390 d6 13 f4 34 1f b9 aa 38 d5 95 b5 38 f2 b9 a3 37
       4.5462974e-07 8.140713e-05 8.658661e-05 1.9517702e-05
0003a0 26 2a 0e 33 6b 26 98 36 a8 e3 70 37 b8 da 94 37
       3.3100285e-08 4.5344254e-06 1.435812e-05 1.7744824e-05
0003b0 40 3a 5e 36 2f a5 4d 37 5a 8a 6f 37 0c 24 57 37
       3.3114484e-06 1.2257412e-05 1.4277723e-05 1.2823391e-05
0003c0 83 02 ed 36 fa 6d a1 37 35 cb 58 34 a7 c5 a8 33
       7.063443e-06 1.9243907e-05 2.0190494e-07 7.8590624e-08
0003d0 71 26 7f 36 33 fb 56 37 ee 7a 7b 35 6a e0 b9 34
       3.8020337e-06 1.2813881e-05 9.368367e-07 3.4622218e-07
0003e0 dd 36 45 36 47 c0 35 38 17 15 da 37 ea 24 80 37
       2.9387222e-06 4.3332835e-05 2.5997446e-05 1.5275979e-05
0003f0 94 e8 68 36 59 b7 ce 35 02 64 1b 37 1d ad 1b 36
       3.4706072e-06 1.5401557e-06 9.262005e-06 2.3197565e-06

exp_avg f4 [20]
000000 38 6b 65 b7 91 ff 13 34 68 77 0c 35 b7 94 d6 36
       -1.36744275e-05 1.3783416e-07 5.2327823e-07 6.3950097e-06
000010 e9 0c 8b 36 71 3e 99 36 8d 5f 85 36 36 f7 57 b6
       4.1440258e-06 4.5670245e-06 3.9748325e-06 -3.2181392e-06
000020 4e 48 d9 34 6e 0a 4f b7 23 6a 0f 35 f2 4e a2 b6
       4.0472008e-07 -1.234059e-05 5.34261e-07 -4.8371667e-06
000030 de 8d 01 37 b0 1c b8 32 c8 50 05 36 44 1e e0 35
       7.72203e-06 2.1433465e-08 1.9865565e-06 1.6698109e-06
000040 c2 30 4d b6 c1 b5 5b 35 25 88 3f b7 88 14 6a 34
       -3.0575761e-06 8.1848344e-07 -1.1416186e-05 2.1800417e-07

exp_avg_sq f4 [20]
000000 d0 5c ed 3b ac 2f b6 38 3b 25 1b 36 80 b1 58 39
       0.00724373 8.687316e-05 2.311847e-06 0.00020665489
000010 65 5a 36 39 f6 68 8a 3b be d0 5e 39 1f 32 7b 3a
       0.00017390547 0.004223938 0.00021249332 0.0009582359
000020 7c 5a bb 38 5f 9c 60 39 cc 11 9b 38 a0 ce 2e 3a
       8.933709e-05 0.00021420557 7.394291e-05 0.0006668363
000030 6d 5b 81 39 50 67 ff 3a e4 26 aa 39 ed 5b de 34
       0.00024672915 0.0019485746 0.00032453903 4.1417607e-07
000040 f4 ec 59 3b 27 63 bb 36 22 27 56 3a 4c 84 23 38
       0.0033252807 5.584577e-06 0.00081692834 3.898544e-05

exp_avg f4 [20, 20]
000000 53 02 69 b6 d1 fa 4b 35 f2 58 da b6 73 ef e2 36
       -3.4721058e-06 7.598838e-07 -6.507261e-06 6.7632004e-06
000010 ef 20 86 36 6f 39 b4 b6 7e be ab b6 ae 84 0c 36
       3.997345e-06 -5.371104e-06 -5.1183733e-06 2.0938855e-06
000020 6b 6b c5 b5 95 d5 6f 35 8f a5 ec 36 d6 f0 cd b6
       -1.4708907e-06 8.934524e-07 7.0526216e-06 -6.137513e-06
000030 8a 03 c5 b5 69 08 8e b5 01 c3 9f b4 95 57 35 36
       -1.4678674e-06 -1.0582272e-06 -2.9757942e-07 2.7022081e-06
000040 7a e0 af 36 11 32 05 b4 5c f7 c4 35 14 0e c2 b5
       5.241539e-06 -1.2404804e-07 1.4675129e-06 -1.4458224e-06
000050 e4 97 c6 35 b9 92 03 36 45 ab 83 36 33 96 2b b7
       1.4796356e-06 1.9605925e-06 3.9240426e-06 -1.0227365e-05
000060 28 5a d0 b6 44 1f 4c b6 b9 41 17 b7 81 4f 33 b6
       -6.2093786e-06 -3.0416568e-06 -9.015604e-06 -2.6719356e-06
000070 dc 36 8d 36 2c 0e 96 b5 70 10 2d b5 ab 37 2c 37
       4.208514e-06 -1.1179995e-06 -6.447144e-07 1.026496e-05
000080 12 28 9c 35 33 4f 38 b6 8f cf aa 34 b8 72 32 b5
       1.1634568e-06 -2.7464237e-06 3.1815986e-07 -6.6477105e-07
000090 ea 53 77 36 ed e1 a5 35 ce 8d da 35 1e 5c 1d b5
       3.6854713e-06 1.2359211e-06 1.6283536e-06 -5.8621106e-07
0000a0 1f ca c5 b5 85 51 13 36 4f c5 40 b6 28 db ab b5
       -1.4736469e-06 2.1952158e-06 -2.8725078e-06 -1.2804276e-06
0000b0 c5 21 51 b6 0a 4e 31 b6 ed b5 65 b6 a5 da fe 34
       -3.1163083e-06 -2.642048e-06 -3.4229554e-06 4.7470272e-07
0000c0 b4 76 a6 b3 7e 1d fb 34 52 7d 31 b6 07 58 d4 36
       -7.751569e-08 4.6773852e-07 -2.6448001e-06 6.32834e-06
0000d0 86 ae 94 35 00 18 ae 33 8d 69 e4 35 c5 a5 3f 36
       1.1077652e-06 8.106872e-08 1.7018043e-06 2.8557708e-06
0000e0 00 62 9b b5 9f ba d0 34 47 50 ea 35 81 38 15 36
       -1.1576922e-06 3.8878804e-07 1.7457722e-06 2.223562e-06
0000f0 96 04 02 b6 05 43 b1 b4 db dc 75 36 34 ef 69 b4
       -1.937418e-06 -3.3017582e-07 3.66364e-06 -2.1786838e-07
000100 59 f4 48 b4 ad c3 a9 35 05 f0 f1 35 a8 a6 37 34
       -1.8715345e-07 1.264843e-06 1.8025754e-06 1.7103832e-07
000110 87 4e 92 35 b8 52 cd 34 5c 9d 52 b6 3d 51 84 b5
       1.0900702e-06 3.824441e-07 -3.1384034e-06 -9.85841e-07
000120 c1 66 a9 34 7b 9f 03 35 d9 11 98 b5 83 2f d0 b5
       3.1553466e-07 4.903338e-07 -1.1330077e-06 -1.5511035e-06
000130 12 c2 80 b5 af f0 96 35 39 ce 43 34 42 d6 d6 34
       -9.593225e-07 1.1245919e-06 1.8235814e-07 4.00165e-07
000140 78 66 d1 b5 26 b6 6a b5 38 ef 23 b5 2d b1 32 34
       -1.5601536e-06 -8.7436854e-07 -6.107034e-07 1.6641998e-07
000150 96 06 05 36 5b 55 d8 b5 57 c8 1c 35 8d 72 c4 35
       1.9822378e-06 -1.6118096e-06 5.840606e-07 1.4636477e-06
000160 da 9a a3 35 dd 7f 96 35 31 82 15 b6 d8 c5 53 b6
       1.2189514e-06 1.1213084e-06 -2.2278512e-06 -3.155661e-06
000170 82 64 7b b5 48 38 e3 33 dc fe 9c b5 ca 8d 44 34
       -9.3651045e-07 1.0580749e-07 -1.169708e-06 1.8305505e-07
000180 22 45 8b 35 db 8f 7e 35 d3 2e 3e 35 0d 2e b8 b4
       1.0376427e-06 9.483171e-07 7.0848654e-07 -3.4306177e-07
000190 29 e5 8c 35 34 55 2e 36 15 b4 a8 b5 23 20 16 36
       1.0497507e-06 2.5977615e-06 -1.2569386e-06 2.2370448e-06
0001a0 f2 4a 4d 35 7f ba 88 36 1a 25 9c 36 96 25 47 b6
       7.647751e-07 4.074827e-06 4.6534815e-06 -2.9675189e-06
0001b0 c8 23 31 b6 7d 0b cb b5 b8 45 98 b6 cd 8d 91 b6
       -2.6395883e-06 -1.5128022e-06 -4.5380693e-06 -4.3378445e-06
0001c0 70 9f 01 36 84 5d 15 b3 50 39 1b 36 fb 00 e7 b5
       1.9315303e-06 -3.4776818e-08 2.313016e-06 -1.7211127e-06
0001d0 a6 e4 5b b6 b7 b3 c0 b6 9c b9 70 33 70 7a 3c 36
       -3.2766634e-06 -5.7429675e-06 5.6048165e-08 2.808545e-06
0001e0 6e 8b c0 b4 66 9b 29 35 09 be 3a 36 04 17 ca b5
       -3.5864235e-07 6.318354e-07 2.7826775e-06 -1.5056871e-06
0001f0 69 71 33 b6 93 b1 72 35 71 07 85 36 33 b5 b6 b5
       -2.6739092e-06 9.041043e-07 3.964575e-06 -1.3612793e-06
000200 d2 7d fc b4 ce 14 65 b4 d9 ad 26 b6 d6 6c 40 36
       -4.7030204e-07 -2.1334856e-07 -2.483712e-06 2.867358e-06
000210 c5 c9 e4 34 72 1d 06 b4 43 5d 63 b5 c9 00 b4 b5
       4.2615116e-07 -1.2490435e-07 -8.4699803e-07 -1.3411274e-06
000220 c8 64 f9 b5 8e 9e ac b5 4d ab ac 34 5c 8a a9 35
       -1.8581277e-06 -1.2861144e-06 3.2162134e-07 1.2631749e-06
000230 76 43 2d b6 93 61 89 35 e0 8f a4 b6 58 c6 14 33
       -2.5818276e-06 1.0235693e-06 -4.90433e-06 3.4639328e-08
000240 a7 fe 92 35 ca d6 43 b6 aa cc 8c b6 f2 83 e8 35
       1.0951961e-06 -2.9182288e-06 -4.196151e-06 1.7323748e-06
000250 50 ce 15 35 26 99 30 36 c7 ca a8 b6 3b b3 b2 35
       5.580705e-07 2.6315188e-06 -5.0303966e-06 1.3314196e-06
000260 ec 53 a8 b5 7d 61 1b b5 29 fc bf 35 8e ff a4 36
       -1.25414e-06 -5.7883864e-07 1.4303997e-06 4.9173314e-06
000270 69 ed c5 35 f3 00 da 34 c4 f8 a1 36 18 22 f7 34
       1.4746739e-06 4.0606355e-07 4.827134e-06 4.6032142e-07
000280 f8 ef 71 b5 51 4b 8e b3 f8 14 ac 35 4d 26 ff b4
       -9.0128697e-07 -6.62609e-08 1.2821101e-06 -4.752532e-07
000290 34 5d 0d b5 8d 58 5f 35 0e 69 e6 34 48 d6 05 34
       -5.266222e-07 8.320283e-07 4.2917276e-07 1.2464545e-07
0002a0 44 79 22 35 97 fb 1e 34 35 ea d6 b5 43 74 6d 34
       6.052617e-07 1.4806425e-07 -1.6012406e-06 2.2114641e-07
0002b0 0e c9 a0 34 bc c4 04 35 24 74 0f b5 14 e5 b7 b4
       2.994861e-07 4.946012e-07 -5.344066e-07 -3.4253083e-07
0002c0 69 74 5f b5 9f 33 02 35 6d 59 3a 34 6c 8a 0e 35
       -8.324337e-07 4.850389e-07 1.7355133e-07 5.310055e-07
0002d0 1b c7 5b b5 b0 44 4c 35 2b c5 1d 35 54 a6 4a b6
       -8.1873594e-07 7.6095876e-07 5.8773975e-07 -3.0197161e-06
0002e0 a8 35 fd b5 16 ff 46 b6 6e 18 99 b5 91 32 29 b4
       -1.8865585e-06 -2.9652779e-06 -1.1406498e-06 -1.5757747e-07
0002f0 1d be 5d 35 6e 74 e9 34 78 f4 1e b6 44 90 27 36
       8.2605567e-07 4.3484346e-07 -2.3686134e-06 2.4968913e-06
000300 f3 98 3e b4 0b 81 5c b5 4d b8 47 b4 ea 8d ee 34
       -1.7750772e-07 -8.214417e-07 -1.8600367e-07 4.443421e-07
000310 b3 62 2e 35 61 64 77 b4 55 88 a2 35 2e 67 f4 34
       6.496368e-07 -2.3040185e-07 1.2109618e-06 4.5523615e-07
000320 df fd 23 34 dd 04 94 b5 ce d2 5f b6 fa be 93 35
       1.5272916e-07 -1.1028275e-06 -3.3352294e-06 1.1007935e-06
000330 82 3b 10 36 6e 96 a7 b5 9f 27 62 36 2e 48 13 36
       2.149231e-06 -1.248625e-06 3.3699687e-06 2.194672e-06
000340 b7 54 56 b5 0f 9d f4 34 45 75 32 35 01 df 43 b6
       -7.984449e-07 4.5562817e-07 6.6480817e-07 -2.918707e-06
000350 78 20 b5 b5 7e 9b 0f b4 16 14 e0 33 b7 ce 95 36
       -1.3495e-06 -1.337448e-07 1.04344664e-07 4.464611e-06
000360 8e 40 22 36 1d ae b8 35 95 55 30 b4 74 81 f4 b5
       2.4177457e-06 1.3759742e-06 -1.6422412e-07 -1.8217092e-06
000370 6f e7 fb b5 62 cc dd b3 ea 5f b5 36 99 7d d0 b4
       -1.8768313e-06 -1.03282915e-07 5.405386e-06 -3.8834403e-07
000380 49 5e fc 34 f5 63 6c b5 b5 27 0b b6 2c 3e 9e 35
       4.700726e-07 -8.806231e-07 -2.0735727e-06 1.1790012e-06
000390 ae d0 2d 36 b5 a2 8a b5 dd 70 63 b6 c9 65 b1 35
       2.5900476e-06 -1.0329155e-06 -3.389133e-06 1.3217151e-06
0003a0 c2 8c 81 35 ca e1 c6 b5 65 a8 93 33 34 3a 8c 36
       9.652215e-07 -1.4817863e-06 6.875852e-08 4.179101e-06
0003b0 f4 c9 e9 36 89 41 a5 36 41 f2 a5 33 be cf 80 b6
       6.9674516e-06 4.9250125e-06 7.727477e-08 -3.8388816e-06
0003c0 bc 9d fa b5 e8 5c d7 35 7a 27 bc 35 32 49 18 37
       -1.8672358e-06 1.6045788e-06 1.4018581e-06 9.076948e-06
0003d0 9d 8d df 36 8d 3b 87 b6 71 f1 1f 36 31 0c ff b4
       6.662404e-06 -4.030246e-06 2.3833384e-06 -4.7506322e-07
0003e0 8b 03 e5 b5 8b 85 58 b5 4b 25 31 b6 7f f3 86 b7
       -1.7062861e-06 -8.06606e-07 -2.6396763e-06 -1.6087432e-05
0003f0 1d 8f cc b4 50 ab 32 b6 d6 85 ed 34 bf 80 45 36
       -3.810209e-07 -2.6623784e-06 4.4242068e-07 2.9430228e-06
