modelos/heat_10x5-20000.pt (torch, 19686 bytes, 33 tensors)

linears.0.weight f4 [10, 2]
00000000: a1f0 f3bd dc81 83bf 6860 213e 0a32 623f
00000010: fb21 083f 20fe e2bd 7eed 423e 5f5a 753f
00000020: 63e6 693f 4ca8 be3e 63e7 37bf addf b83c
00000030: 21c3 dd3e 914a ca3e da91 0b3d 79c0 4fbf
00000040: 6309 9e3e bb14 30be d0dc febe 0691 2dbf
-0.11911131 -1.0274005 0.15759432 0.88357604 0.5317685 -0.11083627 0.19035909 0.9584102
0.9136717 0.37237775 -0.71837443 0.022567594 0.43312934 0.39510015 0.03407464 -0.81153065
0.30866536 -0.17195408 -0.49777842 -0.67799413

linears.0.bias f4 [10]
00000000: a6f8 37bd 4d7e a63d 37f6 1cbe ed0c 413d
00000010: ccfb 863d c1c1 41bd f229 bdbd 5437 7ebd
00000020: ec3b 8cbd ea82 2a3d
-0.044914864 0.08129559 -0.15328299 0.047131468 0.06590995 -0.04730392 -0.09236516 -0.062064484
-0.06847367 0.041628756

linears.1.weight f4 [10, 10]
00000000: db77 65be aab4 1c3c 85ad e7be 5805 d13e
00000010: a5d6 df3e 3f0e f7bd 1043 a33e 5c4a 81be
00000020: ad2e ca3e 99b5 0c3e 321f bdbe 26da 0abe
00000030: 085d a9be f2e1 663c 6faa 8a3e f9b1 febd
00000040: 2d27 083d 6128 30be 40b0 74be f1bd a53e
00000050: f69c 8f3d 4747 c9be 82b7 0abf b872 14bf
00000060: 991a 2b3d 8b87 a3be a2fa 21bf c71e 37be
00000070: ac3c 21bf 6fcd 01bd 3aff 01bf 4ac7 323f
00000080: 51e9 85bd dc41 0e3f 549a 2a3f 2ce4 483e
00000090: 458b 15be d4d9 bebe dd14 c8be f197 2dbc
000000a0: 179e e13e b03d 0cbe 70c7 ec3d b877 cfbe
000000b0: 76d7 163f 2ba1 893e a36a f63d f1f9 253f
000000c0: d924 c0be 1de8 723e 67cb a8bd 83f7 4c3e
000000d0: 802b 1fbf 1ca3 ad3e babd 2bbf a87b 003f
000000e0: 060b 3ebf bc1b 4bbe 2aac 94be dc6d aebc
000000f0: 3b2b 31be 0001 903e 62ea 5d3d 59eb ba3e
00000100: 02bd 0fbe 63f7 75be eee7 3fbe 2216 ee3d
00000110: 4cd8 aa3e 63ed 16bf 8f29 fa3e eb9a 863c
00000120: 6d3d 91be ff8d 1cbf bbc9 36bc 4864 95be
00000130: 7b34 1abf dd7a 253e c231 19be 4202 ea3e
00000140: 005a 4a3e df2e debe be78 973e bea4 f8be
00000150: 3368 c1bd 366f ccbe b0e0 043e b6ad 473f
00000160: 8201 123f a1be a6be 6a08 fbbe 54d5 253f
00000170: 66c8 b13d 70d4 973f 65f3 07bf b3c6 2cbe
00000180: e815 80bd b996 bfbe c5d2 03bf f2c1 813e
-0.22409002 0.009564558 -0.45249572 0.4082439 0.43718448 -0.12063264 0.31887102 -0.25252044
0.39488736 0.13741149 -0.36937863 -0.1355978 -0.3307879 0.0140919555 0.27083156 -0.12436289
0.033240486 -0.17202903 -0.23895359 0.32371476 0.0701236 -0.39312193 -0.5418626 -0.57987547
0.041773412 -0.3193935 -0.6327306 -0.17882834 -0.629832 -0.031690057 -0.5078007 0.6983534
-0.06538642 0.55569243 0.66641736 0.1961829 -0.14603908 -0.37275565 -0.39078417 -0.010595308
0.44065925 -0.13695407 0.11561477 -0.40521026 0.5892252 0.26880774 0.12032058 0.64834505
-0.37528113 0.23721357 -0.08241921 0.20016293 -0.6217575 0.33913505 -0.67086375 0.50188684
-0.7423557 -0.19834799 -0.290376 -0.02129262 -0.17301647 0.28125763 0.054178603 0.3650768
-0.14036945 -0.24020152 -0.18740818 0.11625315 0.33368146 -0.58955973 0.48859832 0.016431293
-0.28367177 -0.6115417 -0.011156495 -0.2917807 -0.6023633 0.1616015 -0.14960387 0.45704848
0.19760895 -0.43395135 0.29584306 -0.48563188 -0.094437025 -0.39928597 0.12976336 0.77999437
0.5703355 -0.32567313 -0.49029857 0.6477864 0.08680801 1.1861706 -0.53105766 -0.16872673
-0.06254178 -0.3741968 -0.51493484 0.2534328

linears.1.bias f4 [10]
00000000: 3635 27bc 5347 60bc 249a edbc 66dd f03d
00000010: b3fb ab3c 4687 2a3d a6ca 353d aad2 a4bc
00000020: 9593 d5bd f326 3a3c
-0.010205558 -0.01368888 -0.029004164 0.117609784 0.020994043 0.041632913 0.044382714 -0.020119984
-0.1042854 0.011361825

linears.2.weight f4 [10, 10]
00000000: ab5f 25bf f243 32bf 41c4 413f daa9 54bf
00000010: a61b 2a3f 44d9 953d 0f45 68bf 98d5 183f
00000020: 701c d4be efaf ab3e dcdb fb3c a803 463f
00000030: 225e 333f bb7f f7be 226f 953e dfd2 37bf
00000040: f6cd 83be d3cd 0b3f a1f8 a83e b17f 9fbd
00000050: 05ee 0ebf 2b5f 213f e50c fabe 93e2 f9be
00000060: 70ab 463e ec5b c6be 3b4d 843e 0762 7cbd
00000070: 3f7f 6cbe 7de1 e5be 50d3 803f ac9c c7bd
00000080: 47b6 5dbe f468 19bf 46d5 cfbe 7f76 9fbe
00000090: 823e 153e 758c 95be 69cb 713d dc5f 333f
000000a0: a168 46be b2bb 913c ba43 66be e809 82be
000000b0: 086a d5bd 8d8d a9be 7a3b 90be c85d 253f
000000c0: e53d da3e cdc0 e63b b054 ca3e 1f37 ef3d
000000d0: d80a bf3e b598 32be aa39 a2be 74c5 a43e
000000e0: 5c7f b43d 4a93 8a3d f89a 27bd 584c 833c
000000f0: 2411 1a3f b1fc b9be 65ca 833e 00c0 f1be
00000100: 2d7a 25bd bb08 68bf 8467 20bf 08b1 143f
00000110: a1d8 513f e5b9 1fbf 1c02 69be 4488 ad3d
00000120: fcce 1fbf 1da7 62bf 144c db3e 7151 673e
00000130: c6f3 a63e 175c dbbe 2c24 9c3e ef42 1abf
00000140: be3b 3ebe a7a6 223e 0cd5 5b3e 33a6 c63d
00000150: fc53 a5bd 3d39 8abe 652b df3d ba72 123e
00000160: 5242 92be d8fc 663f 0743 d2be 41ac 53bd
00000170: 05b0 c7bd 6506 1b3e e534 5b3e f3a0 9abd
00000180: f717 f2be 7bd6 06bf 7c31 36be c0a8 9dbe
-0.645991 -0.69634926 0.75690085 -0.8307167 0.6644844 0.07316831 -0.90730375 0.5970092
-0.41427946 0.33532664 0.030744486 0.7734933 0.7006551 -0.48339638 0.2918635 -0.7180614
-0.25743073 0.5461094 0.3300219 -0.07788027 -0.5583194 0.6303584 -0.48837963 -0.48805675
0.19401336 -0.38742006 0.25840172 -0.061616924 -0.23095416 -0.44898596 1.0064487 -0.0974668
-0.21651565 -0.5992577 -0.40592402 -0.31145093 0.14574626 -0.29208723 0.059031878 0.70068145
-0.1937585 0.017789695 -0.22486773 -0.25398183 -0.104206145 -0.33115807 -0.28170377 0.64596224
0.42625347 0.0070420266 0.39517736 0.116804354 0.3731296 -0.17441066 -0.3168462 0.32181895
0.088133544 0.067663744 -0.040919274 0.016027614 0.60182405 -0.363256 0.25740352 -0.47216797
-0.04039972 -0.9063832 -0.6265795 0.5808263 0.81971174 -0.6239303 -0.22754711 0.08473256
-0.6242521 -0.88536245 0.4283148 0.22589661 0.3260786 -0.42843696 0.30496347 -0.6025838
-0.18577477 0.15883885 0.2146799 0.09699669 -0.080726594 -0.26996794 0.10896949 0.14301577
-0.28566223 0.9022956 -0.41066763 -0.051677946 -0.0975037 0.15139158 0.21406896 -0.0755023
-0.4728391 -0.5267102 -0.17792314 -0.3079281

linears.2.bias f4 [10]
00000000: 1f32 81bd 92bc a5bd 81e7 0bbe a8ff 3e3d
00000010: 1316 333c a6ea b53c 3644 39be 80ed cb3c
00000020: 52ff 34bd 583f 4d3d
-0.06308388 -0.080926076 -0.1366253 0.04663053 0.010930556 0.022206616 -0.18092427 0.024893522
-0.044188805 0.050109237

linears.3.weight f4 [10, 10]
00000000: 1751 3ebf 920a 08bc 34f3 5dbe 85b6 a8be
00000010: 51c2 0c3e 8302 653f 1a7f 8d3e 1106 043d
00000020: 0db6 ab3e b78d 66be 54d9 a03d 295b 913d
00000030: d081 3e3e a412 23be 10fe 1f3f e628 cfbd
00000040: 7813 553e 4614 bfbe 66ec 52be ed1f e33e
00000050: 545f 8fbd 0d7b 56bf db65 25bf 0a21 083e
00000060: c659 1dbf 5021 603e 0553 2dbf 603e 503d
00000070: f879 ca3e d352 393e 2e72 ac3d 31cd 9e3e
00000080: d505 a3bd b65f e1bd 1e1f e23e 0353 6f3d
00000090: 8ad7 213f 17c0 0ebf befe fb3e 6634 083d
000000a0: 958b f0be 46a7 c73e 7223 b43d 4669 313d
000000b0: d5f6 afbe 5ed9 e9be 5b5c 593e 5a9a 4abe
000000c0: 2e38 1ebf 5398 e1bd 09a3 d73d 0b50 60be
000000d0: 3f43 063d 8845 6ebe 20b2 373f 6cfc b4bd
000000e0: 31a6 c7bd 625f 653f a034 8ebf 052e b33d
000000f0: 4136 c8be bc74 d63e 9777 0b3e 6850 4ebc
00000100: 1f33 763e c909 b13e 917d 333e 1187 08bf
00000110: 62e2 da3e 8915 60be 8d11 443e e577 153e
00000120: 4b46 fe3d 7c64 5dbf 9961 c3be 645d 643e
00000130: 2127 b03d 817f 76be 9c03 223f dcf5 ab3e
00000140: b291 443f 0cac 22bf 4600 083f 405c 043d
00000150: 726b f4be 92a8 d0be c4d1 ba3d 07a7 813f
00000160: 2e02 31bf 1506 1e3f ce89 02bf dd26 81bd
00000170: da13 8fbe 6731 aa3e dfa8 57be 87ed 1bbf
00000180: 7ed7 c03d 7247 44be fb29 94be bbf6 d73e
-0.74342483 -0.008303301 -0.21674806 -0.3295175 0.13746001 0.8945696 0.27636033 0.032232348
0.3353733 -0.22514997 0.07853952 0.070974655 0.18604207 -0.1592508 0.62497044 -0.10115223
0.20808208 -0.37320155 -0.20597991 0.44360295 -0.07000604 -0.8378151 -0.64608544 0.13293853
-0.6146511 0.21887708 -0.677048 0.050840735 0.3954618 0.18098001 0.084202155 0.31015924
-0.07960097 -0.110045835 0.44164366 0.058428776 0.6321951 -0.55761856 0.4921779 0.033253096
-0.46981493 0.38994807 0.08795823 0.043313287 -0.34368005 -0.4567365 0.21226637 -0.19785443
-0.61804473 -0.11015382 0.10529143 -0.21905534 0.032778975 -0.23268712 0.7175617 -0.08837208
-0.09748495 0.8959867 -1.110981 0.08749012 -0.39103892 0.41885936 0.13619839 -0.0125924125
0.24042939 0.34577778 0.17528369 -0.53331095 0.4275084 -0.21883215 0.1914732 0.14596517
0.12415751 -0.8648145 -0.381604 0.2230125 0.08601213 -0.24072076 0.6328676 0.33586013
0.76784813 -0.6354377 0.5312542 0.03231454 -0.47738224 -0.4075361 0.09122041 1.0129098
-0.6914395 0.6172803 -0.50991523 -0.06306241 -0.27944833 0.33240816 -0.21060513 -0.6090931
0.09416102 -0.19167879 -0.2893828 0.42180428

linears.3.bias f4 [10]
00000000: 226b 79bb be26 c63c 519d 713d 553f 79bd
00000010: 5d5e bebc 7e85 563d 0bb5 8ebb 1b49 b0bb
00000020: b3e3 de3c 6e0d c2bc
-0.003805824 0.024188396 0.05898792 -0.060851414 -0.023238355 0.0523734 -0.004355078 -0.0053798086
0.027208185 -0.023688044

linears.4.weight f4 [10, 10]
00000000: 96e4 38bf 815d a03e acf3 21be c18b c43e
00000010: 72a6 a4be 46c1 04bf 3b63 f93b 8db2 e43e
00000020: e351 e13e ea6a b63d 3ce8 3d3d 22b1 c33e
00000030: 33c1 2bbe 0046 86bd 8dfa 2b3e 7d51 f53e
00000040: 4253 93bd 8f72 82bf 021e abbe fbda 153e
00000050: d23a 43bf 121a 87be 8967 6e3f 48cf 34bf
00000060: b2d7 d2be 9233 053d 0a04 5cbf 2c54 6abe
00000070: 052a 0f3f c045 603e fb67 acbe e167 b3bb
00000080: a0c7 e1be 6914 27bb f9eb 4cbe d3f6 473f
00000090: 007e 9bbf 74b2 e33d a8b8 393f 2944 96be
000000a0: 51cc 043f f18e 2d3f be8e 37be 6ad1 b13f
000000b0: acdf cc3e 4fad 83bd 2398 aa3f 4983 553e
000000c0: 59ca 80bf ea4c 2f3e 0966 b2be b5a9 09bf
000000d0: e81a 603d 56f8 53bf 9e9e 45be c4d2 a63e
000000e0: 6fe3 2bbe 5510 1fbe 0087 4b3e 8c2a 823e
000000f0: d68c 413f df8e 11be e8db 2c3d 45ab ca3d
00000100: bf39 0bbe b93e f6be aeb0 123d 4905 2abc
00000110: 06fb 01bf d3bd 983e 92a5 d33e 225b ad3e
00000120: db22 85bf 1db5 3a3f 7571 9e3e 3d97 08be
00000130: 5e5f dd3e eeb7 fa3d 6729 31bf 63d3 7abe
00000140: abb6 87be 6b39 773e c9b9 a2bf 269e ef3e
00000150: 6cb8 3e3e 749a 31bf 0371 82bd e0c4 e1be
00000160: 67ac 78be 7dae 33bf 06c7 2bbe 7bd3 763c
00000170: 5ad8 0b3f 5f98 8c3e b4e1 d83e 0aec abbe
00000180: de50 8f3d 38f4 903e db0f 90be ebbd 69bd
-0.72223794 0.31321338 -0.1581561 0.38387874 -0.32158238 -0.5185741 0.007610706 0.44667473
0.44007787 0.08907111 0.046364054 0.3822108 -0.16772918 -0.0655632 0.16794796 0.47913733
-0.071936145 -1.019121 -0.33421332 0.14634316 -0.7626163 -0.26387078 0.9312673 -0.70628786
-0.41180187 0.032519884 -0.85943663 -0.22883672 0.5592349 0.21901608 -0.3367308 -0.00547503
-0.44097614 -0.0025494343 -0.20011891 0.78111 -1.2147827 0.111180216 0.7254739 -0.29348877
0.5187426 0.67796236 -0.17925546 1.3892033 0.40014398 -0.0642954 1.3327678 0.20850863
-1.0061752 0.17119184 -0.34843472 -0.5377458 0.05471316 -0.82800806 -0.19298789 0.32582676
-0.16785978 -0.15533574 0.19875717 0.25423086 0.75605524 -0.14214657 0.042201906 0.09895948
-0.13596247 -0.4809473 0.035813026 -0.010377237 -0.50773656 0.29832324 0.41337258 0.3385859
-1.0401262 0.72932607 0.30945936 -0.13338943 0.43236822 0.12242113 -0.692038 -0.244947
-0.26506552 0.24142997 -1.2712947 0.46800345 0.18625039 -0.693763 -0.063692115 -0.44095516
-0.24284516 -0.70188123 -0.1677514 0.015065069 0.54627 0.2746 0.42359698 -0.3357852
0.06997846 0.28311324 -0.28137097 -0.057065886

linears.4.bias f4 [10]
00000000: 3475 55bc 812a df3c 853d 713d 75e4 863b
00000010: 4461 d83e 130c 473d 1f4f 32bd e970 bebc
00000020: 37f9 bfbd 62c9 3ebd
-0.013028432 0.027241947 0.05889656 0.0041165897 0.42261708 0.0485955 -0.043532487 -0.0232472
-0.09373706 -0.046578772

linears.5.weight f4 [1, 10]
00000000: f226 bd3d 3fcf 543f c038 94be 42c0 75bf
00000010: 5747 bd3e 8e45 29bf 1a40 d23e a083 fd3e
00000020: 69b9 023f 7692 423d
0.09235944 0.8312873 -0.28949547 -0.9599649 0.3696849 -0.6612176 0.4106453 0.49514484
0.51064163 0.047502957

exp_avg f4 [10, 2]
00000000: 2cb8 7d37 f206 32b6 819c b9b7 7542 9d37
00000010: 2370 48b8 c996 0538 2fd1 08b8 d3e2 f137
00000020: 7f51 8636 913b 0a37 0f46 24b8 5282 1e38
00000030: 7ea8 14b8 34bc 9a37 6911 2538 398c 5337
00000040: 3e69 13b8 cd02 dc36 98cc 8238 f85b 21b7
1.5122856e-05 -2.652811e-06 -2.2126596e-05 1.8746805e-05 -4.778815e-05 3.18501e-05 -3.2619744e-05 2.8835062e-05
4.0029986e-06 8.23931e-06 -3.9165894e-05 3.7791506e-05 -3.544287e-05 1.844587e-05 3.935528e-05 1.2609228e-05
-3.5145546e-05 6.556837e-06 6.2369916e-05 -9.617761e-06

exp_avg_sq f4 [10, 2]
00000000: 1018 9639 64dc a337 04fd 8938 1bd7 b538
00000010: 3f8f 603b 7e6c 9338 8493 ca39 2e2f a139
00000020: 2e1e 4736 0115 e237 2097 2d3b a7c4 de39
00000030: 23f1 8b3b 3c8b 2538 6808 4b3b bed0 a034
00000040: 5e3f b83b a2ad 2737 0cf1 973b 13e5 1b39
0.00028628157 1.9533742e-05 6.579797e-05 8.670819e-05 0.0034265069 7.0297145e-05 0.0003863835 0.00030743465
2.9670878e-06 2.695108e-05 0.0026487783 0.00042489657 0.004270689 3.9468738e-05 0.0030980352 2.9954202e-07
0.0056227883 9.994403e-06 0.0046368893 0.00014867289

exp_avg f4 [10]
00000000: 7681 94b8 0896 a337 2bc9 b8b7 b60b 2d38
00000010: 4c13 8638 be71 2cb9 eebe c8b7 7a4a b5b8
00000020: 7885 81b8 3bc0 0739
-7.081304e-05 1.9500978e-05 -2.2028185e-05 4.125732e-05 6.393212e-05 -0.0001644557 -2.3930766e-05 -8.644625e-05
-6.17606e-05 0.00012946215

exp_avg_sq f4 [10]
00000000: 85d5 f13a a2f9 f738 57a6 243c e21e 413b
00000010: e371 903b dfe9 d83c c9d1 ed3b 376d cd3b
00000020: 91f2 de3b 4e6e 5d3c
0.0018450475 0.000118243755 0.010049424 0.002946787 0.0044081076 0.026478706 0.0072576744 0.006269123
0.0068038185 0.013515068

exp_avg f4 [10, 10]
00000000: 342b 3cb6 606e 2337 429e 4b37 d4df e236
00000010: 6156 1c38 1f70 20b8 e908 cd36 84c0 03b6
00000020: 13f9 9f36 c83c 6eb7 8890 a636 869d 0136
00000030: e477 d334 76b6 7bb5 9143 0535 23ca 01b7
00000040: 45d4 8032 5f4f d736 45d9 c236 1f2e 1fb5
00000050: a660 f636 c99f 8436 ff44 1b38 2cc8 a535
00000060: 09a7 0a37 e40b 20b8 68a7 9b37 f102 8437
00000070: 3647 dd37 02a6 8bb7 4e10 9db6 9f57 ce36
00000080: 8224 1037 d024 ce36 f47e da37 b2e5 b7b7
00000090: fac0 0f37 4c6a 4db6 6468 2736 79eb 6bb7
000000a0: 7e04 3cb7 0dd8 5636 5b97 c2b7 ee72 ef36
000000b0: 7a2c 84b8 98ef 8138 66d6 f4b6 4b94 efb6
000000c0: 42b3 11b7 bdaa 5f37 3f92 be36 81c2 68b7
000000d0: 917c 0db7 23f9 25b7 95a5 82b8 72b3 4e38
000000e0: 6e7b 29b7 ffe6 4336 2e9c 09b7 c943 9137
000000f0: 0dc8 22b7 4649 a436 5e3d 76b7 cc18 ed36
00000100: ff2f 5cb7 387e a337 791e 96b6 4743 1cb7
00000110: be54 32b7 587a 1736 d724 ba36 113b 1437
00000120: 670d bd37 1db8 7a36 caef 1938 e1fd 4ab8
00000130: 6327 4137 07c3 3a37 cca1 9e37 676f 9ab7
00000140: 4cb4 0b36 2b4a 9136 d637 de37 850b ae35
00000150: e1a3 4837 c012 e5b7 2f92 3e37 a3f0 a036
00000160: 1472 b337 fdc1 d4b6 d9a5 84b5 c173 1f37
00000170: c33a 5537 4004 9336 7e3d bd38 dfe3 a2b8
00000180: ddae dc36 9a50 e6b6 9096 8fb6 89b1 dab7
-2.803933e-06 9.741256e-06 1.213659e-05 6.761382e-06 3.7273745e-05 -3.8251394e-05 6.1105134e-06 -1.963258e-06
4.7675653e-06 -1.4200057e-05 4.964011e-06 1.9314189e-06 3.9389045e-07 -9.37703e-07 4.9644683e-07 -7.736063e-06
1.499769e-08 6.4167393e-06 5.806944e-06 -5.929923e-07 7.3426227e-06 3.952508e-06 3.7019137e-05 1.2351716e-06
8.264332e-06 -3.8158047e-05 1.8555394e-05 1.5736996e-05 2.6378413e-05 -1.6647395e-05 -4.6808627e-06 6.149479e-06
8.591569e-06 6.143564e-06 2.6046742e-05 -2.192226e-05 8.568395e-06 -3.0609253e-06 2.4945703e-06 -1.4061917e-05
-1.1206719e-05 3.2014243e-06 -2.3197083e-05 7.1361346e-06 -6.302535e-05 6.195827e-05 -7.296726e-06 -7.1400186e-06
-8.68441e-06 1.3331589e-05 5.6794665e-06 -1.3873564e-05 -8.433258e-06 -9.892773e-06 -6.229725e-05 4.928135e-05
-1.0101923e-05 2.9191722e-06 -8.2022e-06 1.7316912e-05 -9.70253e-06 4.896111e-06 -1.4677031e-05 7.066037e-06
-1.3124197e-05 1.948989e-05 -4.473896e-06 -9.313989e-06 -1.0629357e-05 2.2571967e-06 5.5475207e-06 8.83524e-06
2.2536797e-05 3.736007e-06 3.6701364e-05 -4.8396996e-05 1.1512867e-05 1.1131872e-05 1.891041e-05 -1.8410106e-05
2.081756e-06 4.329971e-06 2.6490463e-05 1.2967363e-06 1.1959085e-05 -2.7307658e-05 1.13589185e-05 4.7963854e-06
2.1391585e-05 -6.3406756e-06 -9.883034e-07 9.50409e-06 1.2709471e-05 4.381436e-06 9.023676e-05 -7.767206e-05
6.5768677e-06 -6.8639174e-06 -4.27926e-06 -2.6070296e-05

exp_avg_sq f4 [10, 10]
00000000: bda2 a735 b9e6 b037 9b43 5338 85f9 b936
00000010: f81e 143a 88b8 0a3a 0c27 9a37 9345 3337
00000020: a8ee 4238 414b 5e38 2081 ba36 4428 8c38
00000030: 7bd8 f536 e4f8 e037 1738 1a3a 2e30 f639
00000040: b3fb b236 1f07 4835 40aa 3737 6e50 2238
00000050: b9be da35 2909 0939 9530 153a 006a 9438
00000060: 6054 5d3b 68d8 3b3b 95c7 9739 6c12 2238
00000070: db62 b339 f43f 113a a548 6a37 4419 2238
00000080: bd4d 2b37 f09c c237 518b e238 4a4b af38
00000090: c02f ae36 c5c1 f436 769f 3b36 0c56 8e37
000000a0: ce3f 1935 a0cf 4138 936b b638 ade5 a837
000000b0: 2f2a 4b3a 41ae 3b3a d0b0 3538 d061 e436
000000c0: d397 9038 eff3 dd38 3434 0a38 a9e5 fa35
000000d0: e869 c936 84f4 a336 981b 0e3a d8a0 0a3a
000000e0: 450e fc35 e2e8 1038 5414 cf37 82ce 1736
000000f0: 36c5 1436 3df0 2637 a14c 8a39 4866 c936
00000100: 85cd 633a e825 433a 16ff f638 8ba7 f237
00000110: 5496 0839 a730 2e39 5f76 9a35 6193 2639
00000120: 090f 203a f821 8238 4756 9f3b 3a03 893b
00000130: 6499 8d39 31c1 9638 02f5 de39 7ae8 1d3a
00000140: ae6c 8e37 b495 a835 503c 9e37 95b6 1436
00000150: fdca aa39 29de a639 da15 9635 9ed8 bf37
00000160: 065f d237 c800 0637 c57c 6a38 588b 7439
00000170: 11e9 393a 7d61 4939 4940 453b 20ae 223b
00000180: 7e2f fe39 4647 6036 f4b7 b839 7a74 573a
1.2489833e-06 2.1088274e-05 5.0369283e-05 5.5424775e-06 0.00056503667 0.00052917795 1.8376413e-05 1.068543e-05
4.647547e-05 5.299901e-05 5.558264e-06 6.68322e-05 7.3267706e-06 2.681878e-05 0.0005882992 0.00046956673
5.334115e-06 7.451617e-07 1.0947289e-05 3.8698716e-05 1.6297773e-06 0.0001306875 0.0005691138 7.076934e-05
0.0033772215 0.0028662924 0.00028949665 3.8640967e-05 0.00034215194 0.0005540841 1.3964401e-05 3.864734e-05
1.0210494e-05 2.3199682e-05 0.000108024695 8.358674e-05 5.191163e-06 7.2943244e-06 2.795799e-06 1.6967788e-05
5.708979e-07 4.620815e-05 8.6984735e-05 2.0134112e-05 0.00077501213 0.000715945 4.3318432e-05 6.8063164e-06
6.8947345e-05 0.000105835374 3.2950382e-05 1.8693291e-06 6.002596e-06 4.886244e-06 0.0005420982 0.000528825
1.8779616e-06 3.4549164e-05 2.4685789e-05 2.2620957e-06 2.216851e-06 9.950306e-06 0.00026378504 6.002174e-06
0.00086899876 0.0007444308 0.000117777076 2.8926666e-05 0.00013025972 0.00016612058 1.1508345e-06 0.00015885897
0.0006105756 6.20521e-05 0.00486258 0.004181293 0.000270079 7.188542e-05 0.00042525685 0.00060237164
1.6978327e-05 1.2560545e-06 1.8863153e-05 2.2159995e-06 0.00032576165 0.0003182751 1.118223e-06 2.2869845e-05
2.50782e-05 7.987204e-06 5.590615e-05 0.00023321563 0.00070919195 0.00019205171 0.0030098131 0.0024823025
0.0004848204 3.3420088e-06 0.0003523227 0.00082189555

exp_avg f4 [10]
00000000: b71f e538 d442 b438 f642 f738 7aff e137
00000010: 8a63 d5b8 d933 17b9 324d 4bb8 d785 4539
00000020: f8a5 ad38 1cb1 2f39
0.00010925478 8.5955166e-05 0.0001179035 2.6941056e-05 -0.00010175172 -0.00014419797 -4.8470865e-05 0.00018837243
8.280197e-05 0.00016755279

exp_avg_sq f4 [10]
00000000: 1ea7 c23b e0fa 203c 5b60 863c f2a6 2d3b
00000010: 6adb f13b deaa 1c3c a4b2 df3a 66e6 fd3c
00000020: 24b7 843b 74b2 1e3c
0.005940332 0.009825438 0.016403368 0.0026497212 0.0073808925 0.009562222 0.0017066789 0.030993652
0.0040501524 0.009686101

exp_avg f4 [10, 10]
00000000: 1c0a efb6 9679 f6b5 71e8 3135 e2db 1ab7
00000010: 2ca8 c6b6 2874 1f37 1a9a cfb6 809c a335
00000020: ddc7 8f35 d0d8 cb36 70df 1e36 d28a 44b6
00000030: 0209 8136 6be8 5437 d385 2337 c790 ca37
00000040: d3c6 d136 4c4e 4137 285e 6337 1357 7eb7
00000050: 8ed7 97b6 7fef deb6 816a 0737 abad b4b6
00000060: 336e 9db6 76a1 d436 db7c 93b6 eac4 1737
00000070: 6845 a035 e152 6736 f6a2 dfb6 c1db 28b6
00000080: 7656 6b36 4480 17b7 dfe4 e636 7d1b c9b7
00000090: f580 aab6 719f 1d37 e352 dd36 84a5 05b7
000000a0: 4ad9 6bb5 345e 6c34 19b3 a436 db56 b6b6
000000b0: aa48 d036 41f8 0a37 274c 6735 5bf0 7f37
000000c0: 153b 8d37 bdf3 a2b7 65de 5b37 119f 0f36
000000d0: 0790 9fb7 9553 4337 4559 06b6 d87e 8cb7
000000e0: 10a9 9237 fe2b 97b7 bc19 9a37 4998 23b7
000000f0: 9d8e ce37 d5bf 3d36 9ec6 c3b7 273a 1238
00000100: 7c36 9136 4d08 84b8 8742 da37 e64d 92b7
00000110: fe88 7c37 06fc d6b6 b124 dfb7 2d66 47b6
00000120: 7b55 4738 c996 53b8 a52c aeb7 a511 bf38
00000130: 7535 2db8 f580 0438 a7bd 30b8 180b d237
00000140: 50ad 0438 47da 2b37 295d 2cb8 8708 4138
00000150: 54ec 0237 5ffa 3ab8 7248 2338 b42a 1cb8
00000160: c372 2837 d87a 37b7 7943 94b6 a175 b9b6
00000170: 7954 d035 5d21 a2b7 0076 01b7 c8ec 3d38
00000180: 2ee1 0ab7 742a 2d37 b89e 28b7 f513 6137
-7.123932e-06 -1.8363814e-06 6.6275885e-07 -9.230311e-06 -5.9204376e-06 9.504183e-06 -6.1870205e-06 1.2189994e-06
1.0712498e-06 6.0751117e-06 2.3673892e-06 -2.928708e-06 3.8455482e-06 1.2690299e-05 9.7467155e-06 2.4147694e-05
6.2518316e-06 1.1521926e-05 1.3552177e-05 -1.5159853e-05 -4.5252445e-06 -6.6439966e-06 8.071424e-06 -5.3846356e-06
-4.6917935e-06 6.336889e-06 -4.3954765e-06 9.046149e-06 1.1941129e-06 3.4469924e-06 -6.664889e-06 -2.5161864e-06
3.5068056e-06 -9.0301655e-06 6.8811783e-06 -2.3973867e-05 -5.0814074e-06 9.395052e-06 6.5959625e-06 -7.965955e-06
-8.786052e-07 2.2013484e-07 4.9084306e-06 -5.434134e-06 6.2073423e-06 8.283242e-06 8.616502e-07 1.52551465e-05
1.6836022e-05 -1.9425404e-05 1.31051975e-05 2.140125e-06 -1.9021345e-05 1.1642366e-05 -2.0019518e-06 -1.6748367e-05
1.7483282e-05 -1.8021088e-05 1.8370214e-05 -9.751014e-06 2.4623523e-05 2.8274856e-06 -2.33383e-05 3.486327e-05
4.3276796e-06 -6.2957966e-05 2.6018604e-05 -1.744083e-05 1.50522665e-05 -6.4070364e-06 -2.6600757e-05 -2.9712785e-06
4.7524907e-05 -5.044675e-05 -2.0763206e-05 9.110876e-05 -4.12962e-05 3.1591353e-05 -4.2138297e-05 2.5039117e-05
3.1632662e-05 1.0243216e-05 -4.1094758e-05 4.6022727e-05 7.803628e-06 -4.4579032e-05 3.89297e-05 -3.723307e-05
1.00403e-05 -1.0936252e-05 -4.4185986e-06 -5.5271234e-06 1.5521792e-06 -1.932744e-05 -7.716473e-06 4.528163e-05
-8.27787e-06 1.0321488e-05 -1.0050535e-05 1.3415692e-05

exp_avg_sq f4 [10, 10]
00000000: fb8e 9636 00f8 7d37 59c9 5938 9de2 0839
00000010: dd2d fd32 c8de 1539 013f cc35 cea6 0e38
00000020: ba57 1739 c908 f937 22a2 cb39 a448 4436
00000030: d609 3239 fc3f 873a 60bf 6f38 3df1 8e3a
00000040: 4f73 da39 e98d f238 b5de db38 133f 8e38
00000050: 507d 3034 e79f ae35 6361 8636 756e 8334
00000060: a0b6 cc33 4ba3 d335 c278 a735 f312 c935
00000070: b313 3d37 7984 0336 d5bc a637 1b70 4c36
00000080: fa67 2136 9c5a a938 9a58 7b35 f2e5 e036
00000090: 6b5b 8437 d904 ea36 4d76 6f37 ad74 2c37
000000a0: bc35 cc37 0ee2 5c36 4a97 3c36 3a57 b438
000000b0: 8312 0639 25b1 5c39 5b60 2b38 8261 8237
000000c0: bddb 5439 2a97 8539 390f 4638 ba01 0835
000000d0: c6ec cc37 49cf 1a39 7c69 9d37 de95 f338
000000e0: f760 8438 db4e 0f37 a520 5638 2934 0138
000000f0: 0e35 7739 84b6 6534 15ff 1f39 2d3f 013a
00000100: 6458 5938 3087 803a e854 8c39 71de bd38
00000110: 4998 3139 be82 d038 f490 6a3a 6eed ed35
00000120: 97b7 383a 993d ff3a 1b15 c838 509c 3d3b
00000130: f907 8e3a a4e2 fd39 d0b8 143a 97b2 4439
00000140: 1d12 2f3a a9fa cf36 bbb8 e739 c54e da3a
00000150: 48a2 fb35 40a4 a63a 2ad7 3f3a 2b8d ee39
00000160: cdd1 8d38 381c cc36 3376 8738 cfae 9935
00000170: 0a89 6338 d47d 1439 23b4 c137 d5b9 9339
00000180: 4c4f b438 4eea d437 85f4 ce38 4b52 4c38
4.4869935e-06 1.5137717e-05 5.192435e-05 0.00013054391 2.9473933e-08 0.0001429274 1.5217521e-06 3.4010787e-05
0.00014433163 2.9687204e-05 0.00038839976 2.9248558e-06 0.00016979067 0.0010318751 5.7160272e-05 0.0010905635
0.00041666112 0.00011565892 0.00010484216 6.782836e-05 1.6436866e-07 1.3010548e-06 4.0048485e-06 2.448102e-07
9.5327096e-08 1.576825e-06 1.2477615e-06 1.4981182e-06 1.1269864e-05 1.959763e-06 1.9876674e-05 3.0463623e-06
2.4051392e-06 8.075425e-05 9.363372e-07 6.7024894e-06 1.5778196e-05 6.974308e-06 1.4273054e-05 1.0279165e-05
2.4343717e-05 3.2914136e-06 2.8102245e-06 8.599316e-05 0.00012786132 0.00021046826 4.0859315e-05 1.5542613e-05
0.00020299754 0.00025480363 4.7221056e-05 5.066646e-07 2.4428951e-05 0.00014763804 1.8764978e-05 0.00011615058
6.3123116e-05 8.541824e-06 5.105198e-05 3.0804575e-05 0.0002357552 2.1393686e-07 0.00015258447 0.00049303734
5.1819152e-05 0.0009805914 0.0002676614 9.053655e-05 0.00016936766 9.9425655e-05 0.00089479913 1.7726977e-06
0.00070464 0.0019473314 9.5406744e-05 0.002893228 0.0010836116 0.0004842478 0.0005673291 0.00018758547
0.00066784193 6.1982614e-06 0.00044197388 0.0016655555 1.8748187e-06 0.0012713745 0.0007318134 0.00045500076
6.7624824e-05 6.082959e-06 6.459318e-05 1.1450264e-06 5.4248645e-05 0.00014161255 2.3091276e-05 0.0002817648
8.597839e-05 2.5381476e-05 9.868391e-05 4.871403e-05

exp_avg f4 [10]
00000000: 3ce1 1eb8 be6a d838 89aa 8ab5 562c 0cb7
00000010: ad8d 7538 feb5 2b38 4ada bb38 2107 1fb9
00000020: 213b f238 ac7d 83b8
-3.78799e-05 0.00010319565 -1.0331433e-06 -8.354973e-06 5.8544498e-05 4.093907e-05 8.9575144e-05 -0.00015166077
0.00011550473 -6.269975e-05

exp_avg_sq f4 [10]
00000000: 6f90 063b 6a08 133c 54ed 6634 3693 ea39
00000010: 55dd 5b3b 1919 f93a f9f2 8a3b ce62 753c
00000020: fa0a 183c 9107 c13a
0.0020532866 0.008974174 2.1506759e-07 0.0004474164 0.0033548672 0.0019004672 0.0042403904 0.01497717
0.009279961 0.0014726986

exp_avg f4 [10, 10]
00000000: 6c2b ffb5 38de 4436 783f c8b4 bb45 a035
00000010: 6586 4636 bcc0 a034 fac8 bc37 d7c2 6137
00000020: 8703 60b7 861a 5936 3d70 ec37 e401 5737
00000030: 0f22 72b6 652f 88b7 2f9e 2a37 6697 e336
00000040: fa20 a537 363d 5337 104a 32b7 1d80 9235
00000050: a67e 9d37 831f 2036 0e48 3337 6baf 1936
00000060: 45cc 4336 8183 7935 8330 9236 3241 ce36
00000070: b981 ac36 151b c9b5 7344 ccb5 c211 3d37
00000080: 2e31 13b7 bc1e 18b6 10a9 2137 34fb 76b6
00000090: 7e1a 5b37 ee92 4836 4831 9235 e6bf 1b35
000000a0: c44f 8b37 7ab4 39b5 71d3 dab6 ae14 5fb7
000000b0: 9d78 9036 bf56 d835 dd05 7f37 1859 d234
000000c0: 030c 4c36 4f9a 0936 c46c ce37 43e2 c237
000000d0: 8e3a 5036 b2b7 63b7 96e5 3537 609e b536
000000e0: f3fd c534 1a45 eab5 ab1d e736 8909 b2b6
000000f0: 2f1a 9936 7d11 4cb6 6410 2337 ceb6 3fb7
00000100: bf55 9f37 3e36 bfb7 89c2 d037 a1ba 0e38
00000110: 0666 cbb7 70b8 d836 2dd8 c9b7 10d3 93b7
00000120: ee6c f9b4 4929 8c37 b008 55b7 adcf dc34
00000130: 13af 08b8 78bc 69b6 2d5c 2d36 49c5 27b7
00000140: 70f9 ad37 b1de 9a37 b7d0 04b7 564c e3b6
00000150: b423 0a37 cf8f 5137 c611 7437 bc84 5cb6
00000160: fa91 3637 0840 3db7 61ae 5336 f4cb 67b6
00000170: 43c0 1a35 9f6e 6bb5 41f9 37b2 8d2b b734
00000180: 4daf 4136 d6b9 6036 e715 28b6 45ff 19b5
-1.9011618e-06 2.9335624e-06 -3.7299083e-07 1.1941223e-06 2.9582527e-06 2.9942555e-07 2.2504933e-05 1.345641e-05
-1.3352262e-05 3.2350958e-06 2.8185657e-05 1.2815439e-05 -3.6080635e-06 -1.6234533e-05 1.016962e-05 6.7827523e-06
1.9684889e-05 1.2590832e-05 -1.0626871e-05 1.0915134e-06 1.8774834e-05 2.38602e-06 1.0686008e-05 2.2900883e-06
2.9176165e-06 9.295109e-07 4.3567866e-06 6.146868e-06 5.141101e-06 -1.4983549e-06 -1.5219106e-06 1.1269412e-05
-8.773333e-06 -2.2667655e-06 9.635711e-06 -3.6803076e-06 1.3059585e-05 2.9887847e-06 1.089219e-06 5.802125e-07
1.6607235e-05 -6.91805e-07 -6.5215213e-06 -1.3296651e-05 4.3055757e-06 1.61185e-06 1.520055e-05 3.9180372e-07
3.040536e-06 2.050441e-06 2.4607762e-05 2.3231963e-05 3.1028499e-06 -1.3573024e-05 1.0841895e-05 5.4126576e-06
3.6878882e-07 -1.745447e-06 6.8877903e-06 -5.3059234e-06 4.5628035e-06 -3.0408548e-06 9.719373e-06 -1.142705e-05
1.8994206e-05 -2.2794233e-05 2.488612e-05 3.402925e-05 -2.4246994e-05 6.458773e-06 -2.4061732e-05 -1.762205e-05
-4.645912e-07 1.6708525e-05 -1.2697812e-05 4.1129297e-07 -3.2587977e-05 -3.4829409e-06 2.5832662e-06 -9.99991e-06
2.073936e-05 1.846193e-05 -7.916408e-06 -6.774014e-06 8.233754e-06 1.2490854e-05 1.45476715e-05 -3.2859816e-06
1.0882033e-05 -1.1280186e-05 3.1542952e-06 -3.4540399e-06 5.764925e-07 -8.7705297e-07 -1.0708676e-08 3.4118094e-07
2.886128e-06 3.3486772e-06 -2.50467e-06 -5.736841e-07

exp_avg_sq f4 [10, 10]
00000000: 1713 e836 62df 6d37 637b 4835 7e5e 2438
00000010: 98ef b637 e70a d936 c4db eb38 059f 2538
00000020: 78cc b038 ee8c 1c36 1ffa f738 7a6f cf38
00000030: 0189 e136 b922 3039 4690 9d38 1984 5935
00000040: 7f37 8439 45a5 c338 d673 1039 5e3a 2e36
00000050: f5fa 183a c03c e337 122a f136 4c11 b138
00000060: bd61 6737 8c0a 0f38 ca1c 2835 7f5d b637
00000070: 6c7b f135 261c 0336 63ef dd38 dddd c838
00000080: a02d d134 f47e 8d39 d5d7 a138 bf63 4c34
00000090: 18d4 8339 dcfe 9738 c1fb 4639 97d8 9036
000000a0: 7d62 4739 89f8 e838 b23f 9b37 3f9c 1739
000000b0: 03db a338 8211 6f34 137c 5e39 1e7d d238
000000c0: 078a c138 765b c735 548a 043a 083a dc38
000000d0: 8b84 8c37 b161 1039 74d3 2538 e1b8 f537
000000e0: 8a80 cc37 adba fc37 c9ab 5735 e75e 3635
000000f0: 5bb7 1138 f6b3 e534 5dc5 1f36 e263 6e37
00000100: b902 e436 95a6 9737 8d3e ba38 137d f637
00000110: 46d1 cf38 16b9 5c36 c43c f739 e697 9739
00000120: fa8c 9a38 500c 8939 f85a 4039 5e67 a035
00000130: 375b f539 97b8 7939 af55 2439 7845 2336
00000140: 730e 103a d031 9f38 d2f5 2237 e765 c638
00000150: 9d8f 4537 b3ac 8b38 b4b1 a937 eefe 8d36
00000160: af5b 1c38 ae59 5836 9d39 ac35 d76d 8435
00000170: 78d0 3e35 8e5b a636 5fc6 4234 6510 0735
00000180: 99d6 df33 5f02 f234 a3d6 9034 7548 1132
6.916361e-06 1.4178311e-05 7.468536e-07 3.918865e-05 2.180766e-05 6.468373e-06 0.00011246608 3.9487164e-05
8.430419e-05 2.3327843e-06 0.000118244665 9.891293e-05 6.721472e-06 0.00016797603 7.5132164e-05 8.1031027e-07
0.0002521835 9.3291084e-05 0.00013776062 2.5961995e-06 0.00058357354 2.7088798e-05 7.1872573e-06 8.4432395e-05
1.3791429e-05 3.410368e-05 6.262677e-07 2.1739628e-05 1.799182e-06 1.9536906e-06 0.000105826904 9.5780684e-05
3.896248e-07 0.00026988203 7.71728e-05 1.9035268e-07 0.0002514429 7.247712e-05 0.00018976537 4.316749e-06
0.00019014809 0.00011108915 1.85071e-05 0.00014458688 7.81324e-05 2.2264979e-07 0.00021217791 0.00010036885
9.228667e-05 1.4853274e-06 0.0005056013 0.00010501227 1.675102e-05 0.00013769303 3.9535997e-05 2.9292367e-05
2.437855e-05 3.0127669e-05 8.034372e-07 6.7938385e-07 3.4741457e-05 4.2785513e-07 2.3807727e-06 1.4209161e-05
6.7952465e-06 1.8078174e-05 8.880822e-05 2.9383727e-05 9.9095094e-05 3.2890289e-06 0.00047156785 0.00028914138
7.369551e-05 0.0002613985 0.00018344435 1.1951013e-06 0.00046798002 0.00023815256 0.00015672178 2.432933e-06
0.0005495317 7.590989e-05 9.713187e-06 9.4603565e-05 1.1775553e-05 6.660204e-05 2.022912e-05 4.231805e-06
3.7278685e-05 3.2238709e-06 1.2831766e-06 9.866734e-07 7.108388e-07 4.957844e-06 1.8139825e-07 5.0315276e-07
1.0423282e-07 4.5077738e-07 2.697826e-07 8.456586e-09

exp_avg f4 [10]
00000000: 43f7 ad37 1371 0eb5 7470 6bb8 337f 8837
00000010: 2fd5 6935 3318 31b8 eb58 3b37 bf80 5237
00000020: c5fb 8ab8 433c e3b6
2.0738347e-05 -5.3063667e-07 -5.6133096e-05 1.6271695e-05 8.7109487e-07 -4.2222626e-05 1.1166771e-05 1.2546951e-05
-6.6272485e-05 -6.7721426e-06

exp_avg_sq f4 [10]
00000000: ce03 cc39 bdd2 2439 d701 9a3a 8f89 3f3a
00000010: a4c6 9336 9b55 893a 8ec6 8d3a e7fe 7e39
00000020: 8efa 043b d93a 7b37
0.00038912747 0.00015718765 0.0011749816 0.00073065696 4.404066e-06 0.0010477783 0.001081662 0.00024318286
0.0020290944 1.4974467e-05

exp_avg f4 [10, 10]
00000000: a7f7 ab35 341c ad35 466f 31b5 2192 6e34
00000010: b046 5435 bbd9 1836 b609 0335 ddca c534
00000020: 5495 f035 21ef b035 eb02 b336 642f e837
00000030: 2f6a 4db8 9174 1b38 3247 d9b6 ad1e 2138
00000040: 37da 9635 5f67 1138 b4db 1138 7441 c8b7
00000050: 9fc8 3ab4 c53e 9c36 3f84 dcb5 6064 0636
00000060: 4bd6 b636 0b31 02b7 f8d5 77b5 114d a9b6
00000070: c12b 1ab7 e3cc abb6 6300 0c36 4949 02b6
00000080: 7635 ddb6 3e95 0737 1024 b9b6 4f2a 83b7
00000090: 75f7 f336 3c7e a135 5d9e adb7 d4b0 8eb6
000000a0: 223e cab6 ac97 3d37 1c1c 82b7 cb7b 0a37
000000b0: ed80 5736 c8bf 06b7 6a5b 71b7 39b1 a5b6
000000c0: 3100 5036 1193 92b6 03a2 b7b6 7aa8 b035
000000d0: e8bf 4537 e44d 5db6 c8f6 4237 0fbd a0b7
000000e0: 1d96 59b6 2d8f 72b7 7762 c5b7 c963 86b6
000000f0: 6f88 6f36 aedb 6836 ad8e 2037 9377 a9b6
00000100: 0af2 3a37 9891 00b6 818e ee35 202a aab6
00000110: d8f6 1fb6 3c00 3a37 3bbe 13b4 1735 c4b5
00000120: 10cd 3cb6 0e40 1036 1a7a 11b7 042b 8337
00000130: e5d2 c534 d6fd 2937 cfe2 8537 b758 b034
00000140: b3bc 2236 2e60 2836 7f2e fa36 d140 ea34
00000150: e598 b736 d8a7 3336 a6b2 bb35 5a37 03b6
00000160: c91d 5e36 6f9d b336 effd 1635 a058 5235
00000170: cb4f aab4 d66b d933 ce99 7135 499c a235
00000180: 7b47 2834 42b1 3833 2aad a835 9f0e ab35
1.2812569e-06 1.2897713e-06 -6.609956e-07 2.2218639e-07 7.907902e-07 2.27765e-06 4.8815434e-07 3.6841712e-07
1.7924854e-06 1.3182618e-06 5.3349554e-06 2.7678623e-05 -4.89747e-05 3.706344e-05 -6.475392e-06 3.841396e-05
1.123938e-06 3.4666966e-05 3.477531e-05 -2.3872337e-05 -1.7395585e-07 4.6564696e-06 -1.6429766e-06 2.0025982e-06
5.4489697e-06 -7.7600225e-06 -9.2326036e-07 -5.045564e-06 -9.189303e-06 -5.120049e-06 2.086185e-06 -1.9414167e-06
-6.592537e-06 8.081375e-06 -5.517628e-06 -1.5636118e-05 7.270772e-06 1.2032174e-06 -2.069695e-05 -4.2525153e-06
-6.0273023e-06 1.1300592e-05 -1.5510297e-05 8.254264e-06 3.2112541e-06 -8.031675e-06 -1.4386003e-05 -4.9380146e-06
3.0994527e-06 -4.36826e-06 -5.4726856e-06 1.3162055e-06 1.1786797e-05 -3.2976905e-06 1.1620759e-05 -1.9161524e-05
-3.2422897e-06 -1.445766e-05 -2.3530081e-05 -4.0051277e-06 3.569319e-06 3.4698564e-06 9.5699625e-06 -5.0505128e-06
1.1142818e-05 -1.9158233e-06 1.7773856e-06 -5.071299e-06 -2.3836528e-06 1.10865185e-05 -1.3759647e-07 -1.4618589e-06
-2.8133545e-06 2.1494957e-06 -8.6711025e-06 1.5636448e-05 3.6847555e-07 1.0132286e-05 1.5960451e-05 3.2847103e-07
2.4249719e-06 2.5089935e-06 7.4559935e-06 4.3633057e-07 5.4716243e-06 2.6770776e-06 1.3984579e-06 -1.955274e-06
3.3097915e-06 5.3529434e-06 5.6248876e-07 7.836006e-07 -3.1723025e-07 1.0124465e-07 9.000331e-07 1.2115426e-06
1.5672224e-07 4.3002053e-08 1.2567373e-06 1.2744748e-06

exp_avg_sq f4 [10, 10]
00000000: 1f3c 4733 8308 a834 132d 8e32 cf95 7d33
00000010: 544f a733 b687 0835 5314 3d34 6d64 3835
00000020: 0f64 2f34 a21d 3d35 6a75 f138 b1b3 be39
00000030: 88c5 523a 9bcc 6e39 9130 4b36 07fa 703a
00000040: df46 bd38 e8cd c838 1cf7 313a 3e2b d639
00000050: debe 8235 5ba1 5537 77ac 5637 fd19 c136
00000060: ac1c e435 b0bc bf37 cec1 b235 418a 1f36
00000070: 113d 1037 1eb6 ca36 85d0 1637 95f7 7037
00000080: 26c9 f638 c192 2338 25b8 d637 7909 db37
00000090: ac81 4334 5603 3c38 7ffa df37 240f bb38
000000a0: 5cb1 af36 2ddb 3537 2a41 3f37 8dbe 1b36
000000b0: 09f2 2035 0bb5 2e38 951f 3e37 51b7 f936
000000c0: 9a3c 1a38 d09d a237 472d 8737 c524 c938
000000d0: 770e dd38 d29b 3f38 8837 6d34 c467 5339
000000e0: 395f c537 324e 6938 e27d de38 a2b8 ec38
000000f0: 5012 fa35 0d87 0e35 a4b1 c337 7845 f236
00000100: 388a 2c37 6a6a 8435 5c9f 3734 f5e7 1537
00000110: 81ac 3736 ae18 9637 2d14 2335 f6c4 9e37
00000120: 325b 0137 b042 cc36 ce34 c836 9067 e137
00000130: 6e30 9d35 1c71 2536 d066 a036 1ee0 8536
00000140: bdce 7235 ab1b cc35 ae0a 1436 46b3 7c33
00000150: 1c2f c736 a9ca ad35 0260 0432 d95d 0b35
00000160: dc8f 4135 4fe5 1836 e97f 5e32 1e74 1534
00000170: 30f8 3b33 9d52 2732 ff10 0b34 b81f d934
00000180: 05bb 8833 1c89 eb31 894b 5d34 9e12 2c32
4.6387978e-08 3.1298632e-07 1.6551473e-08 5.9042403e-08 7.790973e-08 5.0861433e-07 1.760939e-07 6.869148e-07
1.6334546e-07 7.045111e-07 0.000115136456 0.00036373505 0.00080402987 0.0002277367 3.0277627e-06 0.00091925304
9.025423e-05 9.575096e-05 0.00067888363 0.0004084948 9.741304e-07 1.2733358e-05 1.2795549e-05 5.7548737e-06
1.6995668e-06 2.2856839e-05 1.3318438e-06 2.377332e-06 8.597287e-06 6.0412704e-06 8.989246e-06 1.4362759e-05
0.00011767661 3.8998904e-05 2.5596537e-05 2.6111245e-05 1.8207965e-07 4.48258e-05 2.6700318e-05 8.919675e-05
5.2360538e-06 1.08394715e-05 1.1399659e-05 2.3207715e-06 5.995685e-07 4.1653442e-05 1.1332236e-05 7.442119e-06
3.67729e-05 1.9385392e-05 1.6114338e-05 9.591276e-05 0.000105407955 4.5683068e-05 2.2092547e-07 0.00020161184
2.3528572e-05 5.5624354e-05 0.000106092324 0.000112877475 1.8631781e-06 5.3095647e-07 2.3328532e-05 7.2202492e-06
1.02841805e-05 9.865737e-07 1.7101178e-07 8.935099e-06 2.7369535e-06 1.7892886e-05 6.075159e-07 1.8926785e-05
7.710232e-06 6.087437e-06 5.9666118e-06 2.6870315e-05 1.1711506e-06 2.4652754e-06 4.7803405e-06 3.9897996e-06
9.045287e-07 1.5207237e-06 2.2059935e-06 5.883637e-08 5.9361464e-06 1.2948486e-06 7.705241e-09 5.19181e-07
7.2107446e-07 2.278324e-06 1.2951184e-08 1.391895e-07 4.3765056e-08 9.7394635e-09 1.2951567e-07 4.0442478e-07
6.367012e-08 6.8549877e-09 2.0609708e-07 1.0015951e-08

exp_avg f4 [10]
00000000: 9d54 3936 6229 b5b7 0bcc c3b6 aa80 44b7
00000010: b0d3 c9b6 dc22 02b7 71b2 e337 88f5 a236
00000020: 5c3d 3837 1e38 1e36
2.76164e-06 -2.1596152e-05 -5.8352066e-06 -1.1712467e-05 -6.0149105e-06 -7.75672e-06 2.7143602e-05 4.85656e-06
1.0981541e-05 2.35765e-06

exp_avg_sq f4 [10]
00000000: 454a ff35 70f1 8039 a18e b036 84ad b639
00000010: 7353 5136 bb67 2d37 21d3 1539 7fd8 4938
00000020: d3cb 8838 1ab9 2335
1.9020596e-06 0.00024593947 5.261813e-06 0.00034843024 3.1192e-06 1.0335755e-05 0.00014288399 4.8123762e-05
6.5229506e-05 6.099159e-07

exp_avg f4 [1, 10]
00000000: d65e 2137 9b70 9cb7 c843 68b7 4724 a137
00000010: c914 c1b7 2097 1bb6 19f5 1eb8 e322 a936
00000020: 8e27 32b7 e64d 08b8
9.6184285e-06 -1.8649085e-05 -1.3844059e-05 1.9209589e-05 -2.3017072e-05 -2.3184766e-06 -3.78984e-05 5.040654e-06
-1.0618836e-05 -3.2497475e-05

exp_avg_sq f4 [1, 10]
00000000: f7e0 1139 4104 a937 b8be 0439 831b 3538
00000010: 024f 5a39 6bae 8838 0bd2 9439 124a 1e39
00000020: 2472 1938 4084 3c39
0.00013912084 2.014835e-05 0.00012659549 4.3179385e-05 0.00020819533 6.517473e-05 0.00028385254 0.00015095648
3.6584344e-05 0.00017978344
