modelos/heat_40x3-20000.pt (torch, 51030 bytes, 21 tensors)

linears.0.weight f4 [40, 2]
00000000: a4cd 443e b37b 74be f75c 1a3d 204f 25bf
00000010: 8214 55be 72c7 9c3d d65e 27be 5af0 c9bd
00000020: a3ef b7be 0a32 7fbe ea3d 2abe 3981 b93d
00000030: ca36 cc3c c68d 593f b5a3 89be 3c39 42be
00000040: df45 6d3e d60a 033e cb2c cdbc 6eec 923e
00000050: eb8d c53e 4a0a 0f3d a51c a13d 6d0f 133f
00000060: 8497 90bf e2ae bc3e 7b85 64be 6bf7 6fbf
00000070: 0561 833d f39d 6b3d b773 003e 408f b2bc
00000080: c9c9 953d 8c40 f33e eaee 2bbc bf69 abbf
00000090: 07c1 ab3e dc9b ee3c 0a01 dabe bb7e 42bc
000000a0: 3b70 523e a206 51bd cf00 0c3e f705 24bf
000000b0: dd92 873e cca1 d43e 455b f8bc aa62 cebe
000000c0: 91d4 273d 25cb 0a3f 4f71 9d3e c14b 563e
000000d0: 7d4e 80bd f55d 943e 8c9a f93d 1ab1 abbe
000000e0: e9c3 98be f376 e63d 7bd7 cdbd a0d0 2b3e
000000f0: 2794 80be 9464 e7bd c217 33be 00d5 b13e
00000100: a646 34be 39f7 d2be 40b6 35be b8b0 753e
00000110: 5c1f 9f3c d3a4 8abe 9162 29be b627 0c3f
00000120: 03ab bcbc 028d 59bf b913 7fbe f45c 3b3d
00000130: e2d6 93bf 049a 833e 2962 70be 2560 f9be
0.1921907 -0.23875313 0.037686314 -0.6457386 -0.20808604 0.07655229 -0.16344771 -0.098602965
-0.35925016 -0.24921432 -0.16625181 0.090578504 0.02492847 0.84981954 -0.2688271 -0.18967146
0.23171185 0.12797102 -0.025045773 0.28696007 0.38584837 0.03492192 0.07866792 0.5744541
-1.1296239 0.36852175 -0.22316544 -0.93736905 0.064149894 0.05752368 0.12544142 -0.021796823
0.07313878 0.47510183 -0.010493973 -1.3391646 0.33545706 0.029127054 -0.42578918 -0.011871035
0.20550625 -0.051031716 0.13672183 -0.640716 0.26479235 0.4152969 -0.030316958 -0.4030965
0.040974203 0.54216224 0.3075051 0.20927335 -0.062649705 0.28977934 0.121876806 -0.33533555
-0.29836968 0.112531565 -0.10050865 0.16778803 -0.2511303 -0.11298481 -0.17489532 0.3473282
-0.17605075 -0.4120424 -0.17745304 0.23993194 0.019424133 -0.27078876 -0.16541506 0.54748094
-0.023030763 -0.84980786 -0.24909867 0.045742944 -1.1549952 0.25703442 -0.23474945 -0.48706165

linears.0.bias f4 [40]
00000000: ff9c 32bd 11fa 8fbd 1be3 a23c 5369 d23c
00000010: 5633 ca3c 8523 d13c d273 723d 8910 143d
00000020: 8a5b 22bd 2aa8 82bd fd72 0cbe 7f30 853c
00000030: ad78 193c 2873 efbc 22ac 953c 00c6 4f3c
00000040: ad92 203d 3ed0 9dbd b69c 983c 39d3 673e
00000050: 4ae1 dd3b 8e52 cabd f200 813c 97d1 87bd
00000060: 00b4 0f3d 8ad6 36bd c543 dcbc d58c a83c
00000070: d58d a5bc b605 d2bc 0570 b73d fa21 9ebc
00000080: f8f2 5dbe 7a90 8a3d cf41 49bd a957 153e
00000090: 1f58 04be 5ed3 103d c418 81bc bd14 113d
-0.043606754 -0.07030118 0.019883683 0.025684988 0.024682682 0.025529632 0.059192486 0.03614858
-0.03963808 -0.06379731 -0.1371574 0.016258476 0.00936715 -0.029229715 0.018270556 0.012681484
0.03920238 -0.07705735 0.018629413 0.22639169 0.0067712413 -0.09879027 0.015747521 -0.06631773
0.03508377 -0.044638194 -0.026887784 0.020574966 -0.020209232 -0.025637489 0.08956913 -0.01930331
-0.21674716 0.06765838 -0.049135026 0.14584221 -0.1292424 0.035357825 -0.01575888 0.03542017

linears.1.weight f4 [40, 40]
00000000: 62cc 473e e0ee f13e cf6a 333e b136 b2be
00000010: f84e c63d f789 7e3e 0e86 94be 9b25 f03c
00000020: 97bd b1bb 4089 053d b0c3 b7bd 8dd9 6abe
00000030: 77f9 023d 7b85 94bd c356 ecbc 0329 af3c
00000040: effd d2bd cd4b 6b3e 7a4b 403e 71e3 2f3d
00000050: dbff 983e c181 813e 438f 58be 1915 553e
00000060: 4f3a 793e e12d 773c 4a4a af3a 0b85 82bd
00000070: eab7 f0bd d102 c0bc fa74 a0bd 8209 8ebe
00000080: 03c0 e93e eadb 263d 2814 933e c098 93bd
00000090: 08ca e03e e152 34be 96d8 b43d fb55 b53d
000000a0: ed64 d73d b136 4f3e ab21 153c f4ce 543e
000000b0: 7220 323d dce7 be3e 8916 f33c 95b6 503e
000000c0: c43a bcbd cc25 55be b5d2 84be 724e 64be
000000d0: 0b09 85be 66d2 10bd 8f6e 943b 74a1 90bd
000000e0: 4ba2 8f3d 5d9c 683e ad63 eabd 9067 933d
000000f0: c70b b0be ea8f bc3d d6ad 113e 0c4c d5bd
00000100: 59ae 15bd 147e 063c 834a c83d 0770 8a3d
00000110: 2b48 03be 4c3b 61be e029 3c3e c41b a13c
00000120: 664b 133e a587 2c3d 3b75 32be 3e48 bebd
00000130: c39e a13e a6fd c53d 1d54 c73e 7603 6a3e
00000140: b58d ab3d b59a 0a3e f28e 8b3c 140e 893d
00000150: 48bf a4be 46d8 98be 75d6 97bc b49b 08be
00000160: edea 993e 21bf 98be 5994 d2bc 0144 38be
00000170: 79b6 16bd ab22 89bd a668 1fbe ee01 2fbd
00000180: 8cb1 9abd 266d 26be 03e6 fd3a d495 003e
00000190: befc 383e 9097 8c3e 1c0f 673c 5180 9bbe
000001a0: 8d9a 87be d493 70be e4f8 3fbd c9f5 2cbe
000001b0: db5c dfbe 4bfb 35bd ac96 92bd ca17 cabd
000001c0: 5f80 8cbe 13a8 993d dcfc a83e 30fb 00be
000001d0: 9d42 8c3e 83ac f33c f342 b4be b3fc b63d
000001e0: 6f1d aa3c 1929 043e 52f7 febd e49e 873d
000001f0: d5b3 85bd 6b97 69be 660e 5e3c a879 20bd
00000200: ca79 1abe ca3b bc3d cf17 0abd 0cc6 9c3d
00000210: 92a3 e63e 9354 853e 080d 52be f168 9ebd
00000220: 8f10 38be 880f 793e 1d2e 6f3d 83c9 6b3d
00000230: 7da5 bcbe 8224 823e 674e 653d 3f37 443e
00000240: 9273 97be d429 a03d 4c78 803d e60c 8b3e
00000250: 13fd 9e3d 6219 5f3e fdb5 eb3b 780a 6d3b
00000260: ff3b 8ebd ce77 edbd 4347 393e f921 13be
00000270: ae40 c63e 91fe 48bd 24c4 eb3d 896b 773e
00000280: b079 92be 0b83 a7be a8eb 9b3d 33db 3ebe
00000290: 4870 0abe 975a 0e3e 8544 b73d fc9d 5f3e
000002a0: a406 62be 01ad 8a3d d245 403e 8623 79bd
000002b0: 3332 f53d 8c3f b1bc 1923 193e 409b 1b3e
000002c0: a908 3d3e 1c04 8e3d 9a9c 34bd 86db 02be
000002d0: fed3 ad3d 5338 23be 9ffc 85bb 49aa 70be
000002e0: f0c6 1bbe 0edc 53be 8a17 783e c171 1fbd
000002f0: 1514 dcbc ba80 7e3e 2f9a 90bb 1849 4c3e
00000300: db70 61be c4ec 003e 37ab 0dbd 4090 9b3e
00000310: bb55 4fbe ccca 4b3e a428 07be 7aa6 183e
00000320: 6e5d 9dbd b1bc bebe 97cc 483e 2874 f4bd
00000330: ebd8 92be dfed 603d a07d d9bc b321 55be
00000340: ae09 253e f270 1f3e e70b 4cbe 21ed f33e
00000350: 61d6 07be 2f60 22be eb82 993d e776 1c3e
00000360: d986 913d 8f21 04bf ca6d a23e 5e70 9bbd
00000370: d1ae 713e 15db 81bc 11dc 9d3e d411 62be
00000380: b9d6 603d 4aa7 86bd f116 983c c03e babc
00000390: afa8 2abe fb80 91bd 9ac9 25bd 81e2 2a3d
000003a0: a462 34be a882 db3a 4f2d ccbe bb89 e43d
000003b0: 1f21 9bbe f568 5dbe 5121 943e 7771 3dbc
000003c0: 7320 7f3d a23b 63be 3870 7d3e 30bc edbd
000003d0: 3930 eb3d 7790 3e3d 8a3f 393f 73f9 bfbe
000003e0: b818 66bb 0e6e 7d3d a8a3 c43e 776c 6d3e
000003f0: 3bda e63d 2ceb 83be 8d44 18be c91e a03d
0.1951156 0.4725256 0.17521213 -0.3480735 0.09683031 0.24857317 -0.29008526 0.029314807
-0.005424212 0.032601595 -0.08972871 -0.22934552 0.03197619 -0.07252022 -0.028849965 0.02138186
-0.1030234 0.22978134 0.18778792 0.042941514 0.29882702 0.25294307 -0.211484 0.2080883
0.24338649 0.015086622 0.001337358 -0.06373032 -0.11753829 -0.023438843 -0.078348115 -0.2774163
0.45654306 0.04073707 0.28726315 -0.07206869 0.43904138 -0.17609741 0.08830373 0.0885429
0.10517297 0.20235707 0.009102265 0.20782071 0.043487974 0.3728627 0.029673832 0.2038215
-0.09190896 -0.208152 -0.25942007 -0.2229555 -0.25983462 -0.0353569 0.004529781 -0.07062045
0.07013377 0.22715898 -0.11444793 0.07197487 -0.34383985 0.09207137 0.1422647 -0.104148954
-0.036543224 0.00820877 0.09779837 0.06759649 -0.12820499 -0.21995276 0.18375349 0.01966656
0.14384231 0.04212155 -0.17427532 -0.09291123 0.31566438 0.0966752 0.3893136 0.22852883
0.08376638 0.13535579 0.017035935 0.06692138 -0.32177186 -0.29852504 -0.018534878 -0.13340646
0.30062047 -0.2983332 -0.025705503 -0.17994691 -0.036795113 -0.066960655 -0.15567264 -0.04272645
-0.07553396 -0.16252574 0.0019370917 0.12557155 0.18065163 0.27459383 0.014102723 -0.30371335
-0.264851 -0.23493892 -0.04686822 -0.16890635 -0.4362553 -0.044429105 -0.07157645 -0.09867819
-0.2744169 0.07502761 0.33005416 -0.1259582 0.27394572 0.029745346 -0.35207328 0.08934917
0.020765988 0.12906303 -0.12449516 0.06622103 -0.06528441 -0.22811668 0.013553238 -0.03917852
-0.15085521 0.09191091 -0.033714112 0.07654962 0.4504667 0.26041088 -0.20512784 -0.0773486
-0.17975067 0.24322331 0.058393586 0.057565223 -0.36845008 0.25418478 0.055982973 0.191617
-0.2958036 0.07820478 0.06272945 0.27158278 0.07763114 0.21787027 0.0071933256 0.003616957
-0.06945037 -0.115951166 0.1809359 -0.14368428 0.38721222 -0.0490709 0.1151202 0.24162115
-0.28608465 -0.32717165 0.07613307 -0.18638305 -0.13519394 0.13901745 0.08948616 0.2183761
-0.22072846 0.06771279 0.18776634 -0.060824893 0.11972465 -0.021636747 0.14954795 0.15195942
0.18460335 0.069343776 -0.04409466 -0.12779054 0.084877 -0.15939455 -0.0040889527 -0.23502459
-0.15212607 -0.20689413 0.2422773 -0.038926844 -0.026865045 0.24853793 -0.0044129114 0.19949758
-0.22015707 0.12590319 -0.03458711 0.30383492 -0.20247547 0.1990158 -0.13199097 0.14907256
-0.07683836 -0.37253335 0.19609295 -0.119362175 -0.2868112 0.05491435 -0.02654916 -0.20813636
0.16116974 0.15570429 -0.19926415 0.47641852 -0.13265373 -0.15857004 0.07495674 0.15279733
0.07105798 -0.51613706 0.31724387 -0.07589792 0.23601843 -0.015851537 0.3083196 -0.22077113
0.054892275 -0.065748766 0.018565627 -0.022735 -0.1666591 -0.07104679 -0.040475465 0.041719917
-0.17615753 0.0016747313 -0.39878318 0.111590825 -0.30298707 -0.21622069 0.28931668 -0.011562697
0.062286805 -0.22190717 0.2474984 -0.116081595 0.11483807 0.04652449 0.7236258 -0.37495002
-0.0035109948 0.061872534 0.3840611 0.23185907 0.11272093 -0.2576536 -0.148699 0.07818372

linears.1.bias f4 [40]
00000000: abc8 17bd 0dee 583b 2edc 82bc dce2 12bd
00000010: da50 853c c615 813d 82a3 9fba b4f6 3f3c
00000020: e106 30bc 473f 8ebc 09e9 7cbb 4a0b c7bc
00000030: d894 993c 9f87 ac3c 84ae 653c b437 453d
00000040: 5493 063c b147 9e3c 875a 90bd 5068 c63d
00000050: 461e 10bc 69e0 7bbd 1ed5 a3bd d34e 29bb
00000060: 8b13 513d 1ec4 a2bd 513e 83bd 26e5 4bbc
00000070: 815c 523d 9d6f 8dbd 9bd4 02bb 48d5 d2bc
00000080: 4657 bc3d c96f 2b3d 97fd 71bc 211f 953d
00000090: 6665 42be 35a0 293c d2c9 1f3d 8f5e 73bd
-0.037056606 0.0033100874 -0.01597413 -0.03586088 0.016273905 0.06302981 -0.0012179466 0.011716533
-0.010743828 -0.017364157 -0.0038591048 -0.024297375 0.018747732 0.021060763 0.014018659 0.048148826
0.008213837 0.019321295 -0.07048517 0.09687865 -0.00879628 -0.06149331 -0.07999633 -0.0025834336
0.05104403 -0.07947563 -0.0640837 -0.01244477 0.05135775 -0.06906054 -0.0019963149 -0.025736466
0.091963336 0.041854654 -0.014769933 0.07281328 -0.18983993 0.010353138 0.03901083 -0.05941635

linears.2.weight f4 [40, 40]
00000000: 9570 18bd 8d06 fc3d 57bc 8c3e cf33 723d
00000010: d34c cbbd 81c0 0a3e c512 7c3e b514 7a3e
00000020: 8dfe 8ebe 11c5 6d3e dba0 8bbc 9c0c 123e
00000030: a9c6 0abe 3203 65be fc8f fcbd 04c9 733e
00000040: a104 b03c 427b a23e 5110 093d ec33 f0bd
00000050: 7674 0cbe cfac 2a3e 8e91 9bbe a760 2ebe
00000060: 6c48 15be 40c4 403d fc31 cf3e 976e 803e
00000070: 5733 663e 25be 573e 0594 ba3e ad8f aebd
00000080: 1860 a7be 1fe5 3d3c f881 7bbe d772 af3e
00000090: c0a4 9f3d 88a2 703e fe08 28be df27 21be
000000a0: 6f79 b8bd c404 56be 6b4e aa3d 8874 c13c
000000b0: 3f58 783d e080 953e 5ade 39bb 280b 773d
000000c0: b576 f6bd d20d 56bc 7acf a63d 3e19 7e3e
000000d0: 1d6b 793c 9d4b 0f3d 0862 fc3c f59c 503e
000000e0: 0048 fb3b d848 803d 130e 213e 5086 8f3e
000000f0: b3ea fabd 0597 713e 334d a03e cc95 923d
00000100: fd48 763d c575 c4be baa4 9fbd 6fb0 ee3e
00000110: b624 babc 122b acbd c749 acbe a1f9 373e
00000120: 3db1 95bd 0ebe 143e 94a3 c9bd 5e16 00be
00000130: ae18 6cbd 926d 063e 35bb 50bd 54c6 1e3e
00000140: 47d8 9fbe 0236 19be e315 38be a44e b8bd
00000150: aaef 513e bb4b c53e 4f37 fb3e afeb 03bf
00000160: b8b3 413e faf8 42be f048 3cbd 9ef4 dcbe
00000170: c40f e6bc b001 743e 6181 76be f673 153e
00000180: d246 76be a1d2 c03d 7605 35be 869b a73e
00000190: 31dd 9cbe 5106 b4be cf13 933e 2d81 c93e
000001a0: e01b bf3e 73df 13bf b440 283c 1c83 9abd
000001b0: cc0d d53d 5a8b cb3e cb4f 56be 08d0 5abe
000001c0: c619 ba3e ac1b 0f3d 7e16 97bc 7702 cb3e
000001d0: a197 e7be 02de c5bd f252 8b3e 4fc5 00bf
000001e0: 7d80 453c f0b4 c2bd 497a 263e 4211 92be
000001f0: 5c40 033e 5ee6 8dbe b2a7 fb3c 5d5e f43d
00000200: 5acb 323e 1d4a bc3e c39c 063e 769a e63e
00000210: 54bf 863e 86e9 993d bfa3 a63c b340 6cbc
00000220: 8b33 14bd 56cb 723e e06c b33d 7c74 09be
00000230: 04af 54bd 803b 943e c5a7 183e 057d f5bd
00000240: 6319 05bf d9a3 213e 0b33 2f3e eb80 babd
00000250: 4b7b 993d 4cfd 1bbd 7d82 ffbd 4e91 37bd
00000260: 950c 063c d3ec cbbe 01a4 2f3e 36aa 90be
00000270: fd3d 8d3d db9a 9b3d 992c 983d e098 dfba
00000280: 84ed 513e cb1e 223e 2496 82bd 9496 c53d
00000290: 10a3 233e 1bae b6bd 7edc 3abd 1d1e 22be
000002a0: b166 9abe 26ab ac3d b19f b7bb 76b7 8cbe
000002b0: 61de 06be a259 f53d fe26 57be b25f 353d
000002c0: 69a9 2abe ebff ce3d 5b24 1f3c 6ecb 15be
000002d0: 9618 c33d cb5c 3dbe c19e 7f3d fe78 8d3c
000002e0: 5595 e5bd 2545 0a3d dad6 1b3e 7e8b 433e
000002f0: faf5 3f3e 8c4e 16be bdfd 953e 1682 52bd
00000300: c72d 1a3e d52e 363d b06d 393e 56c8 9b3e
00000310: 0413 b33e aba7 263e 6064 743e 18bc 1f3e
00000320: af23 8d3d 7452 723c 284c 033e c7a6 b8bd
00000330: 139a 4b3d 5cfe 99be 23c3 cabd 9efe 863d
00000340: 5556 e2bd 1a95 52bd 99f3 343e 772f 1c3e
00000350: 866b cf3b d4da e6bd 8a7a 15be ea49 56be
00000360: f093 38be 8d91 533d 667d 8f3d 8ba3 c3bd
00000370: d706 8dbe 0271 8abe 36a6 a03d b0ae 2f3e
00000380: d2c4 bebc dd6a 5b3e 1a09 213e 9e9d 173e
00000390: c510 293d 8dd9 873e a846 883e 3abf 033e
000003a0: 665c 85be 1fc1 4e3e ad3c b8bd 85b2 a9bb
000003b0: aac1 80be 5190 cb3d b7a1 c7bd f7f7 563e
000003c0: 3082 cf3d 9fcd 4abe bd0f 8bbd 4b39 553d
000003d0: 67b5 17be 1d32 78bd 8d39 df3d fbaa 85bd
000003e0: f77b 26be efe7 d6bc c7d2 053d 863d ba3c
000003f0: a8d4 3abf 3e27 213e ca29 9bbc 3b9b 68be
-0.03721674 0.12305937 0.27487442 0.05913144 -0.099267624 0.13549997 0.24616535 0.24421962
-0.27928582 0.23219706 -0.017044475 0.14262623 -0.13552345 -0.223645 -0.1233215 0.2380715
0.021486582 0.31734663 0.033462826 -0.11728653 -0.13716301 0.16667484 -0.30384487 -0.17029057
-0.14578408 0.04706216 0.40467823 0.25084373 0.22480522 0.21068628 0.36441055 -0.08523498
-0.326905 0.011590271 -0.24561298 0.34267303 0.077950954 0.23499501 -0.1640968 -0.15737866
-0.090075366 -0.20900255 0.08315738 0.023615137 0.060631033 0.29199886 -0.0028361292 0.060313374
-0.1203436 -0.013064818 0.08145042 0.24814317 0.015223292 0.03498422 0.030808464 0.20372374
0.007668495 0.06263894 0.15728025 0.2803216 -0.122517966 0.23592766 0.31308898 0.07157478
0.0601282 -0.383711 -0.07795091 0.46618983 -0.022722583 -0.084066525 -0.33650038 0.1796632
-0.07309196 0.14525625 -0.09845653 -0.12508532 -0.057640724 0.13127735 -0.050959785 0.15505344
-0.31219694 -0.14962009 -0.17977099 -0.089993745 0.20501581 0.3853434 0.49065635 -0.515315
0.18916214 -0.1904029 -0.045967996 -0.43155378 -0.02808369 0.23828769 -0.24072792 0.14595017
-0.24050453 0.09415174 -0.17677864 0.32735842 -0.30637506 -0.3516107 0.2872605 0.39356366
0.37325954 -0.5776283 0.010269333 -0.075445384 0.10403022 0.39754754 -0.20928876 -0.2136842
0.3634779 0.0349385 -0.018443342 0.39650318 -0.4523287 -0.09661485 0.2721172 -0.5030107
0.01205456 -0.09507167 0.16257586 -0.28528792 0.1281752 -0.2771482 0.030719612 0.11932061
0.17460385 0.36775294 0.13145737 0.4503972 0.26317847 0.07515244 0.020341752 -0.014419722
-0.036181968 0.23710379 0.08761001 -0.13423342 -0.05192472 0.28951645 0.14907749 -0.11986736
-0.5199186 0.15785159 0.17109315 -0.091066204 0.074942194 -0.03808336 -0.124760605 -0.044816308
0.008181711 -0.3982912 0.17152406 -0.2825486 0.06896589 0.07597896 0.07430381 -0.001705911
0.20500761 0.15832059 -0.06376293 0.09647861 0.15980172 -0.08919927 -0.045620434 -0.158318
-0.30156472 0.084310815 -0.0056037535 -0.2748372 -0.13170768 0.11979987 -0.21010968 0.044280715
-0.16666187 0.10107406 0.009713258 -0.14628384 0.09526174 -0.18492429 0.06240726 0.017269608
-0.112101234 0.033757348 0.15218678 0.19096181 0.18746176 -0.14678401 0.2929515 -0.05139359
0.15056525 0.044478256 0.18108249 0.30426282 0.34975445 0.16274898 0.23866415 0.15599096
0.06891572 0.014790166 0.1282202 -0.09016185 0.049707484 -0.30076873 -0.099005006 0.06591533
-0.11051623 -0.051411726 0.1767105 0.15252481 0.0063299565 -0.11272207 -0.14597526 -0.20926633
-0.18025184 0.05165248 0.0700634 -0.09552678 -0.2754428 -0.27039343 0.07844202 0.17156482
-0.02328721 0.21427484 0.15726128 0.1480622 0.04127576 0.26533166 0.26616406 0.12865916
-0.26047057 0.20190857 -0.08995948 -0.005178752 -0.25147754 0.099396355 -0.097476415 0.20993029
0.10132253 -0.19805 -0.06790111 0.052056592 -0.14815293 -0.060594667 0.10899649 -0.065267526
-0.16258226 -0.026233641 0.032671716 0.022734415 -0.7298074 0.15737626 -0.018940825 -0.22715466

linears.2.bias f4 [40]
00000000: 7f9f e73c 6e2e 613b 6f6e 003d e7eb c0bc
00000010: eb91 86bc 7201 a5bc ee5d 1cbb 7231 7bbc
00000020: 0a03 94bb 01ba 133e d339 99bb a7c4 3ebc
00000030: 69e6 683e 650b abbd bf17 fdbc 1812 093c
00000040: 2b0f a6bc 82f4 85bc 5085 93bd 93ec 983d
00000050: baba 28bd e18e 18bd 5a9b 27bc 5924 e23a
00000060: 6961 813a 507f 2a3c ef15 9e3c 1530 943b
00000070: 9244 56bc e536 603d 082b dc3a 3962 103b
00000080: cd7c 33bd 9310 a03c 0192 e03c 35eb 3f3c
00000090: cafe 7e3c baa5 783b a06a 533d 3a52 c4bb
0.028274296 0.003435995 0.031355318 -0.023549987 -0.016427001 -0.02014229 -0.0023859697 -0.015331613
-0.004516964 0.14426424 -0.0046760826 -0.011643565 0.22744144 -0.08351783 -0.030895112 0.00836613
-0.020270905 -0.016351942 -0.07203162 0.07466998 -0.0411937 -0.037245635 -0.01022991 0.0017253264
0.000987095 0.01040633 0.019297568 0.0045223334 -0.013077872 0.05473985 0.0016797492 0.0022031202
-0.04382019 0.019539153 0.02741337 0.011713793 0.015563676 0.0037940578 0.051615357 -0.0059912475

linears.3.weight f4 [1, 40]
00000000: cd07 463e 5629 a83e e854 f6be a9bf f53d
00000010: b334 7cbc b697 67be 2a49 8fbe 9ee8 1ebe
00000020: 1d00 cbbe 9002 13be dac9 0abf 5297 84be
00000030: adcc 82be c857 0c3e 966b febe 15b5 a63e
00000040: f984 edbe e128 923e 1fd7 103e 005d d3bd
00000050: 91fb d1bd 7be2 d43d 45bc 36be 5695 97be
00000060: 3419 3f3f 0e48 9f3e 873c 523a 3922 6a3e
00000070: da08 26be 5aa7 1c3d 5495 523e ef1f de3e
00000080: 9e61 ef3a 7975 dfbe a7b2 ed3e f21f 7abe
00000090: 8142 16be cc5e ebbe 1572 2dbe 7814 13bf
0.19338913 0.32844037 -0.48111653 0.11999447 -0.015393424 -0.22616467 -0.27985507 -0.15518424
-0.39648524 -0.14356446 -0.5421425 -0.25896698 -0.2554678 0.13705361 -0.49691457 0.3256003
-0.46390513 0.28546813 0.14144562 -0.10320473 -0.102530606 0.1039476 -0.17845257 -0.29606122
0.7464783 0.3110966 0.00080198835 0.22864617 -0.16214314 0.038245536 0.20564777 0.43383738
0.0018263345 -0.43644312 0.46425363 -0.24426249 -0.14673807 -0.45970762 -0.1693805 -0.5745311

exp_avg f4 [40, 2]
00000000: 07a5 a7b4 bb1c f7b7 026a 86b7 5202 8b36
00000010: 75b9 efb7 8ad1 6436 f875 cab7 a477 1e38
00000020: aefa 77b8 ed82 9838 c3a9 68b8 d672 4e38
00000030: 9172 9935 e8ef 9ab7 8717 84b8 33f8 7d38
00000040: 037b 6637 c6b3 2ab8 1916 01b8 c20f 94b4
00000050: 4d91 6236 ccc0 9fb7 67d0 3db6 0a93 2fb8
00000060: 05cc d3b8 b3d3 cab8 2af0 6537 60b2 9038
00000070: d9e4 6f38 2c92 a9b7 2927 1938 f58d a4b7
00000080: c831 ab37 d5d6 d7b7 0e03 36b7 4009 a837
00000090: a5c8 cb37 63c5 47b8 db02 37b7 d14e fc36
000000a0: 6b5b 8838 26ba f1b7 6396 f4b7 860b 24b7
000000b0: b3eb 3b38 ca69 7eb8 f1f8 3737 5fb7 3538
000000c0: cf2d 93b7 2f5d c3b7 425f 0836 454e 2db8
000000d0: bd89 27b8 afe2 af37 bbb4 9038 05a7 1eb8
000000e0: ff92 9fb7 663a 0e38 845a 68b8 eee8 ae36
000000f0: c187 93b7 3beb 1b35 c32b 84b7 c3c0 5238
00000100: 2409 63b8 ac66 0d38 f95c d3b7 4f9f b737
00000110: 957f 8636 8cc3 b137 48c1 5b37 34f9 a6b6
00000120: 7d7b bbb7 415a 1538 92fe 6037 d20c 2338
00000130: a413 d0b8 dadf ccb8 e240 f8b7 337a 7438
-3.1226247e-07 -2.9458073e-05 -1.6023409e-05 4.142793e-06 -2.857738e-05 3.4096615e-06 -2.413521e-05 3.778156e-05
-5.9122853e-05 7.2723116e-05 -5.5471213e-05 4.9221177e-05 1.1432732e-06 -1.8469946e-05 -6.298633e-05 6.0551054e-05
1.3737709e-05 -4.0698586e-05 -3.0776577e-05 -2.7578614e-07 3.37612e-06 -1.9044055e-05 -2.82845e-06 -4.1860192e-05
-0.00010099266 -9.671543e-05 1.3705381e-05 6.89968e-05 5.719517e-05 -2.0214437e-05 3.6514513e-05 -1.9616427e-05
2.040797e-05 -2.5730036e-05 -1.0848757e-05 2.0031468e-05 2.4292918e-05 -4.7629128e-05 -1.0908315e-05 7.5193607e-06
6.502013e-05 -2.881612e-05 -2.9157096e-05 -9.777845e-06 4.4803786e-05 -6.0656843e-05 1.0965611e-05 4.332454e-05
-1.7545097e-05 -2.3289203e-05 2.0321027e-06 -4.131931e-05 -3.994418e-05 2.0967183e-05 6.900119e-05 -3.7825685e-05
-1.9022727e-05 3.3909826e-05 -5.539741e-05 5.2127207e-06 -1.758698e-05 5.8084305e-07 -1.5756004e-05 5.0247425e-05
-5.412953e-05 3.371264e-05 -2.5196454e-05 2.1889484e-05 4.0083637e-06 2.1191103e-05 1.3098419e-05 -4.9761966e-06
-2.234964e-05 3.5608424e-05 1.3410712e-05 3.887417e-05 -9.921871e-05 -9.7691736e-05 -2.9594117e-05 5.828794e-05

exp_avg_sq f4 [40, 2]
00000000: 4fd7 1139 8d13 7638 a148 4a37 2f0c bd36
00000010: 31eb 6838 ddd2 9c34 d9d5 6339 0c9c 8738
00000020: 776e b63a 715f 4b39 f0d2 7c3a 8ab5 ce38
00000030: c50c 9037 3d3b 2f35 ba88 633a 0cd9 1839
00000040: f45e 0339 3ea0 bc38 1397 a338 5c07 8f36
00000050: 4bcb cb37 8277 0038 bb77 bb37 d369 0338
00000060: 5db6 1c38 414d e339 e911 5e39 3e09 2639
00000070: b06b f839 f7a4 3e37 4290 7839 e547 4637
00000080: 5f01 ba38 e7eb 8a37 2966 ae37 b49c 2735
00000090: eb22 ec39 0214 b038 a12e 7e35 6e63 4b36
000000a0: 87e0 183a 46a7 1438 0403 8236 de43 5337
000000b0: 5077 443a 0d2a 0e39 7afa ba38 a795 4b38
000000c0: 4166 5f37 a8b4 3c37 3063 0039 73ce 8138
000000d0: 4ed7 f739 479d 0138 0fdd 803a 74cc 8a38
000000e0: 003f a539 d334 5738 7238 ac39 fd25 4336
000000f0: 8d91 d637 3b21 a833 63a7 ff39 a4ef 0839
00000100: 44da de39 18a4 0038 505c 9639 d220 0638
00000110: 78e8 5437 71d3 a135 0e8d fa36 4194 8434
00000120: 7be8 1c38 8ba0 ac37 c73e 3c38 1c4b 7b38
00000130: 4ec8 8038 0cff c639 9abd bc39 c471 ff38
0.00013908486 5.866918e-05 1.20570485e-05 5.6340573e-06 5.553215e-05 2.9210688e-07 0.00021728071 6.4663676e-05
0.0013918419 0.00019395143 0.0009644469 9.85666e-05 1.7172084e-05 6.5278783e-07 0.00086797366 0.00014576706
0.00012528506 8.994386e-05 7.8005854e-05 4.262589e-06 2.4294151e-05 3.062888e-05 2.2347891e-05 3.133139e-05
3.7363137e-05 0.00043354373 0.00021178242 0.00015834437 0.0004738248 1.1363291e-05 0.00023704863 1.1818459e-05
8.8694265e-05 1.6560733e-05 2.0789988e-05 6.244038e-07 0.00045039444 8.396061e-05 9.469023e-07 3.0307233e-06
0.0005831797 3.5441735e-05 3.874653e-06 1.2592382e-05 0.00074945856 0.0001355784 8.915826e-05 4.8538346e-05
1.3315644e-05 1.12477355e-05 0.00012243981 6.1896535e-05 0.00047271926 3.0902473e-05 0.0009831506 6.618435e-05
0.0003151819 5.130919e-05 0.00032848452 2.9079376e-06 2.5578565e-05 7.829154e-08 0.00048762103 0.00013059244
0.0004250576 3.0670402e-05 0.00028679008 3.1978656e-05 1.26903105e-05 1.2056972e-06 7.4670015e-06 2.4694785e-07
3.7409813e-05 2.0578756e-05 4.488116e-05 5.9913014e-05 6.140825e-05 0.00037955528 0.00035999418 0.00012180538

exp_avg f4 [40]
00000000: 101a 9b38 fed8 5838 f5a9 bdb8 838b 40b8
00000010: 9de2 6cb9 dee0 69b9 5eb0 8db7 de01 75b9
00000020: 7ec0 9e38 e4b9 9ab8 5c1b a0b5 4e22 74b8
00000030: 1b0d 4439 6391 82b7 5956 d238 9e23 1039
00000040: 0f7e e1b7 a0d5 0f38 6a0d ed38 373a 8cb7
00000050: 7fb7 2739 3875 c337 c0e8 fc38 387f c938
00000060: 7a35 a2b8 b9e5 b438 a513 02b9 42dd 6b39
00000070: 1823 ecb8 e15a ceb8 26bc bab7 f1b5 00b9
00000080: 923d cdb8 bf00 e4b8 03a0 6e38 f113 4eb7
00000090: d8e3 2438 9e77 56b8 9dbe 6139 7b16 73b8
7.3958305e-05 5.1700503e-05 -9.043879e-05 -4.5906298e-05 -0.00022591134 -0.00022304381 -1.6890637e-05 -0.00023365716
7.5698816e-05 -7.377917e-05 -1.1928892e-06 -5.8206082e-05 0.00018696899 -1.5564909e-05 0.00010029664 0.00013746179
-2.688079e-05 3.429281e-05 0.00011303539 -1.6716409e-05 0.00015994719 2.3300396e-05 0.000120596495 9.608123e-05
-7.734723e-05 8.625858e-05 -0.00012405084 0.00022493771 -0.00011259894 -9.839773e-05 -2.2260541e-05 -0.0001227481
-9.78663e-05 -0.00010872026 5.6892644e-05 -1.22832e-05 3.9312843e-05 -5.1132978e-05 0.00021528681 -5.795665e-05

exp_avg_sq f4 [40]
00000000: 0a3e c13a bae6 183a 0e3c 153a 64f4 5f3a
00000010: 1c2f 113c b733 dd3b 101b df38 f0bc e13b
00000020: d4b7 c23a 7e9c f639 65cf 8c38 3a31 1d39
00000030: 072f 343c 27e1 b93a 12e6 9f3a 9380 023b
00000040: ac3c 0037 3160 9039 cb0e 473b ebef b637
00000050: 46ba 493b b7e3 aa39 4af5 693b 2745 8838
00000060: e297 1539 1407 e23a 52ec 1c3b 5783 d23b
00000070: 719f 1c3b 831f 873a d10f a737 b89e 843b
00000080: 9a18 a83a 446c f23a 6adf 3239 f56c e237
00000090: 2bad 4138 feb7 9a3a 2f01 573c 2aa6 c03a
0.001474322 0.0005832721 0.0005692848 0.0008543192 0.008861329 0.0067505497 0.000106385094 0.006888978
0.001485581 0.00047037372 6.7143505e-05 0.00014991025 0.01099754 0.001418148 0.0012199304 0.0019913062
7.643521e-06 0.00027537488 0.0030373808 2.1807811e-05 0.0030781194 0.00032594588 0.0035699182 6.497866e-05
0.00014266328 0.0017244541 0.0023944569 0.0064243483 0.0023898745 0.0010309074 1.9915316e-05 0.004047241
0.0012824715 0.00184954 0.00017058631 2.6992037e-05 4.617606e-05 0.0011804102 0.013122841 0.0014697958

exp_avg f4 [40, 40]
00000000: a801 32b5 44de 3a37 6997 9e36 6b1f ae36
00000010: 46c3 6937 06f6 3b36 0d88 7ab7 096f 1c37
00000020: cfc1 ecb6 548c 2735 f250 b3b6 421e 37b7
00000030: a144 3338 b02e ad37 e455 82b6 0439 98b6
00000040: 4e39 34b7 89ce af37 9ee6 56b7 2c32 6335
00000050: fb66 dab6 828a 2037 9be3 7bb7 4b31 2737
00000060: a7ae 2db7 4ec5 2eb7 235a 96b4 1fb8 40b5
00000070: 537e 2337 eac7 2836 2bb3 9a36 1aa6 1836
00000080: 5ba6 bd37 c9de a5b5 ce0b c036 039a 29b7
00000090: ff96 9b37 8de9 bc36 4644 4438 3e52 4937
000000a0: c7f8 2ab5 7e63 4a35 623a 9b35 1728 0435
000000b0: 42ca ec35 dd89 4135 aa60 3bb5 9741 7335
000000c0: 72e8 26b5 b77a 0836 a91e 0535 195a c7b4
000000d0: e514 0237 0a7a ae35 d2ec 69b5 23bb aab5
000000e0: cabf 86b5 3417 a634 a0a5 42b6 a183 1bb6
000000f0: 787f ebb5 c7cf 3e35 6693 fcb5 fbcf be35
00000100: 7186 1eb5 3d60 80b5 6be1 be35 ed2d ecb5
00000110: d05d 3e36 9840 d035 b6ba e7b4 facb 0f36
00000120: 9c22 ca36 fb2a 7db3 8492 4e35 ac63 e8b5
00000130: 7177 1f36 d244 8d35 05ca 0a37 13ed b734
00000140: 8e73 d0b5 e764 22b6 b06d 6735 8c17 a632
00000150: 6c43 33b5 c323 6335 a615 4336 3acc 95b4
00000160: 26d2 bb30 20ad 9b35 4f70 55b5 aa61 0636
00000170: 2750 5fb6 db41 5db6 6400 9633 2c91 dcb4
00000180: b1d5 e035 3dfe 90b6 2c5a adb4 a6ae ac35
00000190: 1805 3bb5 e9f0 31b6 71f7 b835 1c8b cbb5
000001a0: bb28 0336 4ff2 c134 b84b af35 915d ddb5
000001b0: 31b8 8b35 5171 7c35 3b77 4c34 2ad4 f735
000001c0: b147 cab5 b91f cf35 f3f9 9bb5 31ee 2836
000001d0: f8b2 43b6 e8e5 5a35 e1a2 9ab6 56e4 d1b5
000001e0: 09c4 04b6 d81e 4b36 6010 3536 b8fd 9f36
000001f0: 694c 1a37 29ee 1f36 3a12 e7b6 7de9 0437
00000200: 7f09 e7b6 0be3 ffb6 3340 67b7 f073 ebb6
00000210: 6559 8837 478b 4a37 4d40 48b4 c3ec 8ab4
00000220: 45fa 8ab6 eee2 3e37 f87c 5cb6 3bf1 a037
00000230: 6805 a8b5 cbf5 b733 4f67 f4b6 35bb 8235
00000240: 1781 a5b6 98f4 1ab7 29ea a0b6 123c 8f36
00000250: 8e6a 6535 cba1 37b6 a573 2a37 722b 78b6
00000260: 7a1f fab6 2066 6136 9d24 1ab3 e01b 9536
00000270: 4da6 0736 d485 9a36 125f 8c37 2aa6 3b37
00000280: 27bf 0d36 e419 99b6 240d 83b6 e29c 8ab6
00000290: ffa5 1eb7 b804 3db6 14f7 f436 8565 eab6
000002a0: 97ea be36 ab98 5635 c623 ec36 79a5 ce36
000002b0: c7cf b4b7 6823 4db7 4cf4 0b36 460e 3e36
000002c0: 0f46 ba36 5cac 2db7 810d 0337 3c0e d8b6
000002d0: b74d 9136 feb3 2db6 f677 1937 70d0 91b6
000002e0: eb77 b036 1fc3 0337 dcd8 ca34 0101 1835
000002f0: c931 cab6 319c b5b5 42ed b5b6 0c89 ddb5
00000300: 5226 17b7 fa27 cab5 5222 0bb6 53d7 f335
00000310: 2cdd 04b7 8f7e a2b6 90c1 c3b7 5631 0eb7
00000320: 83e0 b036 439f 4836 63f2 b9b6 0425 29b6
00000330: 3244 e0b6 7f29 8db6 d01e 6db6 fd7d 8bb6
00000340: 31f6 6836 5eb8 d8b6 2d43 7036 503f f4b5
00000350: 04cc deb7 9eb8 9a33 ee80 1b36 0bbb 9436
00000360: 7e60 cc33 2371 f736 f4b6 2737 9e63 dbb4
00000370: c591 dd36 d5e4 9036 2216 a136 bf2b 6ab5
00000380: fc18 ddb5 ff24 9b36 adea bdb6 f3e0 f736
00000390: fb5c 2cb7 d6ce bcb6 ddb6 d5b5 ea24 15b7
000003a0: a153 51b7 b043 74b6 8a90 b534 e019 feb5
000003b0: 0e7b f9b3 fef4 bcb6 f63d e2b7 e1dc 48b5
000003c0: d299 1f35 b6ae c5b5 d9b9 d7b5 c5e7 e3b4
000003d0: 1c26 3ab6 c9e5 67b5 c923 9635 6a58 8db5
000003e0: 9e49 0b35 af8e 87b6 4712 0db6 27ef c734
000003f0: 15ce 6fb7 c216 10b6 1eda c935 2198 0d36
-6.631258e-07 1.1138214e-05 4.7263934e-06 5.1892616e-06 1.3933348e-05 2.8008376e-06 -1.4932838e-05 9.324177e-06
-7.0559104e-06 6.241655e-07 -5.344039e-06 -1.0914695e-05 4.274084e-05 2.0644948e-05 -3.884301e-06 -4.5365905e-06
-1.0742178e-05 2.0957801e-05 -1.2809089e-05 8.46371e-07 -6.508895e-06 9.568992e-06 -1.5013759e-05 9.965453e-06
-1.0352268e-05 -1.0417147e-05 -2.800526e-07 -7.1793505e-07 9.744969e-06 2.5150316e-06 4.6104155e-06 2.2746449e-06
2.2608021e-05 -1.2358297e-06 5.72342e-06 -1.0109044e-05 1.8547753e-05 5.6300255e-06 4.6793626e-05 1.1999682e-05
-6.3691954e-07 7.5395644e-07 1.1565392e-06 4.923217e-07 1.7642235e-06 7.209872e-07 -6.9803593e-07 9.062e-07
-6.217807e-07 2.0337009e-06 4.959098e-07 -3.7132193e-07 7.753469e-06 1.2999528e-06 -8.7143883e-07 -1.2720451e-06
-1.0039596e-06 3.0936792e-07 -2.900466e-06 -2.3173418e-06 -1.7545963e-06 7.108287e-07 -1.8818362e-06 1.4216633e-06
-5.9055225e-07 -9.564752e-07 1.4221708e-06 -1.7596736e-06 2.8366812e-06 1.5516007e-06 -4.3162953e-07 2.142739e-06
6.024098e-06 -5.8945243e-08 7.695419e-07 -1.7314355e-06 2.376237e-06 1.0525348e-06 8.272477e-06 3.42589e-07
-1.5530838e-06 -2.4198614e-06 8.621382e-07 1.9335651e-08 -6.678081e-07 8.461613e-07 2.9069865e-06 -2.7902007e-07
1.3665769e-09 1.1598786e-06 -7.9512114e-07 2.0024404e-06 -3.3276244e-06 -3.29699e-06 6.9849904e-08 -4.108382e-07
1.6751493e-06 -4.3211317e-06 -3.228937e-07 1.2865828e-06 -6.967034e-07 -2.6515283e-06 1.3781083e-06 -1.5165165e-06
1.954423e-06 3.6125354e-07 1.3060553e-06 -1.6493015e-06 1.0409914e-06 9.404221e-07 1.9042356e-07 1.8464682e-06
-1.5071038e-06 1.5431934e-06 -1.1621145e-06 2.5172596e-06 -2.9161438e-06 8.1545886e-07 -4.6085192e-06 -1.5638168e-06
-1.978364e-06 3.026731e-06 2.6980633e-06 4.768106e-06 9.196906e-06 2.3831474e-06 -6.8864583e-06 7.922176e-06
-6.885442e-06 -7.6260235e-06 -1.37836205e-05 -7.0170427e-06 1.6254091e-05 1.2072566e-05 -1.8649844e-07 -2.587677e-07
-4.1418557e-06 1.1377719e-05 -3.2855296e-06 1.9185818e-05 -1.2518549e-06 8.566311e-08 -7.2837934e-06 9.740239e-07
-4.9324112e-06 -9.236064e-06 -4.7956314e-06 4.268725e-06 8.5464205e-07 -2.73633e-06 1.0159715e-05 -3.6980168e-06
-7.454245e-06 3.3587057e-06 -3.588922e-08 4.443791e-06 2.0213367e-06 4.6051373e-06 1.6733571e-05 1.1184757e-05
2.1121903e-06 -4.5627694e-06 -3.905634e-06 -4.130984e-06 -9.456183e-06 -2.8165941e-06 7.3005303e-06 -6.985562e-06
5.689751e-06 7.9943374e-07 7.0375127e-06 6.158542e-06 -2.1554426e-05 -1.2227196e-05 2.0854814e-06 2.8320515e-06
5.551388e-06 -1.0351734e-05 7.811353e-06 -6.4389587e-06 4.330384e-06 -2.5883778e-06 9.147441e-06 -4.345602e-06
5.259169e-06 7.853639e-06 3.7783218e-07 5.6625873e-07 -6.025865e-06 -1.3531009e-06 -5.421841e-06 -1.6505669e-06
-9.0092235e-06 -1.5061808e-06 -2.073259e-06 1.8167578e-06 -7.919309e-06 -4.8427096e-06 -2.3335946e-05 -8.4753465e-06
5.2713453e-06 2.9895025e-06 -5.541647e-06 -2.5204508e-06 -6.683659e-06 -4.2069582e-06 -3.5333687e-06 -4.15719e-06
3.4713996e-06 -6.458765e-06 3.5801888e-06 -1.8197843e-06 -2.6559464e-05 7.2047655e-08 2.3171847e-06 4.4325184e-06
9.517042e-08 7.3743445e-06 9.996573e-06 -4.086441e-07 6.603283e-06 4.318174e-06 4.8007505e-06 -8.723545e-07
-1.6473055e-06 4.623667e-06 -5.659959e-06 7.387361e-06 -1.0273648e-05 -5.6269155e-06 -1.5922957e-06 -8.889687e-06
-1.2476842e-05 -3.6398233e-06 3.3819043e-07 -1.8932005e-06 -1.16173496e-07 -5.6313575e-06 -2.6970152e-05 -7.4827227e-07
5.9455954e-07 -1.4728491e-06 -1.6072837e-06 -4.245068e-07 -2.7738342e-06 -8.638859e-07 1.1186286e-06 -1.053105e-06
5.188866e-07 -4.039924e-06 -2.1021276e-06 3.7240645e-07 -1.4293492e-05 -2.147092e-06 1.5039147e-06 2.1099188e-06

exp_avg_sq f4 [40, 40]
00000000: 34ed f034 4a8c d236 a6d9 cd33 5650 f234
00000010: 506f 5136 1c62 6033 932c 3b37 b6af d035
00000020: 1d96 5f35 5cc4 8135 e9cd 0035 ba04 bb36
00000030: a8d3 8437 5a49 8337 f8e4 2f34 b42b d033
00000040: 3562 8836 3fa9 d537 8d78 9f35 f9c8 1e34
00000050: 6c21 5034 0d55 bc36 32ad a036 deb8 4536
00000060: 7bcf a236 735f 0436 6f74 8035 06e5 9835
00000070: 76ad d534 9132 8434 bc9c 2f35 1e70 8f35
00000080: fb74 b936 9771 0e35 3532 a235 6193 8e36
00000090: eff1 4137 4753 3634 f0f5 b237 e3ef ab36
000000a0: f186 cf32 5435 2334 ab63 0034 e421 8633
000000b0: d6af 0735 71b6 4c33 f159 8134 25cb 5434
000000c0: 24e8 f033 d6c1 dc33 eb5f f132 bea0 0b34
000000d0: d72e a336 75c4 2435 d189 8033 34d8 f233
000000e0: 8b72 4b34 7ef8 c334 b3b2 3935 750a 4233
000000f0: b512 7334 9c80 d233 f3d4 1035 8b62 7134
00000100: 6576 0e34 9835 8234 a4fa 4933 8f35 c733
00000110: 83c3 0f35 de23 d933 b600 8732 767d 3534
00000120: 81b2 1736 62dd 992f 1e4c 9033 7567 7134
00000130: 6688 3b35 29e5 0d34 9341 bd36 9666 4434
00000140: 2096 5834 61f0 8d32 38fc 9b34 0896 e833
00000150: 0de4 3435 a30b 2a34 a4fc cd32 9b74 a334
00000160: 0820 5f34 e585 4034 d7cf 9934 e93a 9632
00000170: ba35 f036 6c8d 2834 b4a7 6d33 7507 3734
00000180: e589 2e33 5aae 0734 6fb1 8335 1eb3 c033
00000190: 620e cf34 65bc 8b33 139a e934 ba30 4633
000001a0: 65cd 5932 4286 ce34 c7c1 1e34 78a9 9b34
000001b0: 1394 6e35 49d2 5234 33b4 d933 b6ec f934
000001c0: 0f87 b535 4bbc d533 e3fa 9331 a4c8 7232
000001d0: 9bee 9e33 96e2 b334 c5b4 ff36 4dbd 0d34
000001e0: 274c ea33 6a81 f033 0a26 d634 e919 8133
000001f0: 28d2 bb34 08da ec33 afda c834 dec0 2634
00000200: 3555 1934 1c30 a636 10d7 4036 9c15 e134
00000210: c1db 0637 18a5 2935 9b98 bb34 905f 5635
00000220: 466b 1034 87e6 d635 7133 4936 0d9e 4837
00000230: 79db af35 2851 2e34 1129 1435 7033 4235
00000240: faa9 1c34 293e 7234 94a2 1c36 2b89 4636
00000250: c7ff 7736 d57d 0336 616f ef35 0d3d 7936
00000260: fde5 c637 2f1a dc33 242c 8734 dbd6 1836
00000270: 15c3 0436 13c3 2c34 18ad 1e37 d9d8 8a35
00000280: 0424 8033 16a7 c735 5207 d134 6a72 5b35
00000290: 76ad 8336 ddbc 6234 61db 7d36 b47f 1e36
000002a0: 07d6 d535 0f08 1e35 ae5d 6236 4ed1 2e36
000002b0: 94e2 6a37 1279 0b37 5e33 e833 db63 1a34
000002c0: e9b8 e335 bed7 0e37 78a5 da35 ed63 9236
000002d0: 85e0 d134 13bf 2435 1632 7436 6880 5b35
000002e0: 78bb f635 3910 4d36 5208 9c34 5f11 3834
000002f0: 43ae 2c35 ec14 7b32 93ca 0c36 b62c 8333
00000300: e987 8b35 6707 8333 c39b 6534 ba1e 1634
00000310: cb78 4536 cc1f 5b35 cacc 8737 ff2b 9536
00000320: c1c9 f335 6544 e832 9234 3b36 7090 7835
00000330: dd6d cf36 61ad c435 5e8b 5033 9783 3036
00000340: a556 ea35 9016 1b36 90e3 f135 6cef be33
00000350: fda8 8a38 b097 e935 cbe1 2335 3d79 f135
00000360: d3e6 e434 9a30 8734 4b64 2737 f4f7 1834
00000370: 3687 8436 70c6 a334 c259 9136 1ed7 2435
00000380: 8847 9d33 5342 5c36 df22 e635 a61c 5736
00000390: c407 1b37 9043 1436 8b42 1a35 369f a936
000003a0: ea5e 9337 36ec 4835 5f19 8633 4ce0 8232
000003b0: eae8 af35 91a9 4d36 e782 9338 693c 8335
000003c0: 8c80 0033 f86f 6d35 9d39 0c33 f930 fa32
000003d0: 6ac7 ff34 e784 2531 3c1c 9d35 0516 0a34
000003e0: ca8f 4133 a8a3 0334 497c f433 8d82 f434
000003f0: cb71 f736 e16b da35 d52e c733 d807 da33
4.4876072e-07 6.2748195e-06 9.5856464e-08 4.5134465e-07 3.120822e-06 5.2243294e-08 1.1156447e-05 1.5548346e-06
8.329242e-07 9.668397e-07 4.7983355e-07 5.5735845e-06 1.5834186e-05 1.5650574e-05 1.6381443e-07 9.693704e-08
4.0645486e-06 2.547039e-05 1.1881508e-06 1.478801e-07 1.9383668e-07 5.612738e-06 4.788534e-06 2.9462894e-06
4.85213e-06 1.9725092e-06 9.57063e-07 1.1391537e-06 3.980055e-07 2.4623708e-07 6.542066e-07 1.0686961e-06
5.527048e-06 5.306442e-07 1.2084553e-06 4.249087e-06 1.1560026e-05 1.6980367e-07 2.1333777e-05 5.1241236e-06
2.4159336e-08 1.5199959e-07 1.1957188e-07 6.246026e-08 5.0547294e-07 4.766338e-08 2.4093563e-07 1.9817942e-07
1.1218097e-07 1.0279807e-07 2.8099711e-08 1.3003861e-07 4.8632314e-06 6.1380644e-07 5.985533e-08 1.130833e-07
1.8947519e-07 3.6502382e-07 6.917791e-07 4.5178655e-08 2.2637944e-07 9.802281e-08 5.395406e-07 2.2480724e-07
1.3267852e-07 2.4253382e-07 4.7026916e-08 9.276402e-08 5.355616e-07 1.0111374e-07 1.5716392e-08 1.6902581e-07
2.2604656e-06 2.798784e-10 6.719368e-08 2.2482511e-07 6.9861414e-07 1.3215016e-07 5.640273e-06 1.8291243e-07
2.0171183e-07 1.6523872e-08 2.9054513e-07 1.08306324e-07 6.7387083e-07 1.5836717e-07 2.3980029e-08 3.0445958e-07
2.0780146e-07 1.7930104e-07 2.8649694e-07 1.7489088e-08 7.158812e-06 1.5697668e-07 5.5333388e-08 1.7045916e-07
4.0637946e-08 1.2636283e-07 9.8119e-07 8.973278e-08 3.856722e-07 6.506961e-08 4.3511736e-07 4.6144784e-08
1.2677764e-08 3.8468175e-07 1.4785392e-07 2.8994305e-07 8.8877385e-07 1.9634275e-07 1.0137628e-07 4.6552094e-07
1.3524858e-06 9.952836e-08 4.3067856e-09 1.4131874e-08 7.4008504e-08 3.350621e-07 7.6206366e-06 1.3200516e-07
1.0910326e-07 1.1199411e-07 3.9888283e-07 6.0117436e-08 3.4984373e-07 1.1029266e-07 3.7412016e-07 1.553012e-07
1.4280234e-07 4.952786e-06 2.8735412e-06 4.192524e-07 8.038188e-06 6.319765e-07 3.49425e-07 7.9860274e-07
1.3450071e-07 1.6011335e-06 2.9981277e-06 1.1957728e-05 1.3102391e-06 1.6234537e-07 5.5194056e-07 7.2345483e-07
1.4590469e-07 2.256062e-07 2.3340444e-06 2.9584141e-06 3.695475e-06 1.9593765e-06 1.7839303e-06 3.7139428e-06
2.3710536e-05 1.0249311e-07 2.5177826e-07 2.2774827e-06 1.9783085e-06 1.6089716e-07 9.457835e-06 1.0344912e-06
5.967016e-08 1.4875284e-06 3.893461e-07 8.175035e-07 3.9242977e-06 2.1116598e-07 3.7827633e-06 2.3618168e-06
1.5932027e-06 5.8871314e-07 3.3731153e-06 2.6049852e-06 1.4000241e-05 8.3132345e-06 1.08126855e-07 1.4378695e-07
1.6966634e-06 8.514091e-06 1.6290423e-06 4.362772e-06 3.9092643e-07 6.137281e-07 3.6387987e-06 8.1770713e-07
1.8382989e-06 3.0556823e-06 2.9063318e-07 1.7142655e-07 6.432858e-07 1.461488e-08 2.097954e-06 6.108296e-08
1.0395862e-06 6.101509e-08 2.1383953e-07 1.3981017e-07 2.9425598e-06 8.163013e-07 1.6188616e-05 4.445668e-06
1.8163629e-06 2.7039457e-08 2.7895771e-06 9.2597384e-07 6.1818705e-06 1.4653598e-06 4.8555528e-08 2.630264e-06
1.7459575e-06 2.3109933e-06 1.8022129e-06 8.891115e-08 6.611829e-05 1.7404e-06 6.1050804e-07 1.7991184e-06
4.2636256e-07 2.5181072e-07 9.977327e-06 1.4246308e-07 3.949647e-06 3.0505498e-07 4.331786e-06 6.14078e-07
7.323894e-08 3.282116e-06 1.7146484e-06 3.2054172e-06 9.240528e-06 2.2093045e-06 5.7466303e-07 5.055127e-06
1.7567963e-05 7.484954e-07 6.244476e-08 1.523599e-08 1.3106303e-06 3.064608e-06 7.033889e-05 9.777842e-07
2.9919235e-08 8.8452316e-07 3.264869e-08 2.91261e-08 4.7642544e-07 2.4086206e-09 1.1705629e-06 1.2860262e-07
4.506709e-08 1.2259864e-07 1.1384743e-07 4.554353e-07 7.374421e-06 1.6273663e-06 9.275178e-08 1.0152843e-07

exp_avg f4 [40]
00000000: 38b1 6db8 eb53 ccb7 e76f 6835 26c4 8b38
00000010: f06a 3c37 35a4 5838 19cd 4c38 d25a b3b8
00000020: ee71 2c38 a1ad 00b7 d101 7b35 d6f4 9cb8
00000030: 4451 c5b9 89f0 a1b7 4601 2c38 9da5 cd37
00000040: a660 ef37 519d 6937 156a d436 9310 7538
00000050: 4466 40b6 3f07 28b7 de8e 2c38 4329 4a36
00000060: 18b8 38b7 41f7 48b8 69c3 e0b6 90e7 f237
00000070: 7b60 44b6 70d6 2938 16e0 81b6 c5be 1c37
00000080: 6a10 cd36 d77c d7b7 fdac c236 6252 8a38
00000090: 8774 ac37 42c9 a8b7 f924 3537 af5f e4b8
-5.667025e-05 -2.4357772e-05 8.6589574e-07 6.664572e-05 1.12305715e-05 5.1651343e-05 4.8828402e-05 -8.552302e-05
4.11141e-05 -7.669821e-06 9.350743e-07 -7.484264e-05 -0.00037635316 -1.9304704e-05 4.100918e-05 2.4515024e-05
2.8536026e-05 1.392451e-05 6.330442e-06 5.8427988e-05 -2.8669756e-06 -1.0015267e-05 4.114105e-05 3.0124363e-06
-1.1010117e-05 -4.791399e-05 -6.698469e-06 2.8956478e-05 -2.9262435e-06 4.049245e-05 -3.8705866e-06 9.342742e-06
6.111387e-06 -2.568813e-05 5.801789e-06 6.595698e-05 2.055826e-05 -2.0120879e-05 1.0797049e-05 -0.0001088971

exp_avg_sq f4 [40]
00000000: 5d38 5d37 62bd d437 c7d6 8337 2104 103a
00000010: 66c9 0c37 b524 6a39 3bdf 8438 44d0 853a
00000020: adfd ff39 076a 7738 fa51 0f36 eab5 5c3a
00000030: 712c 793c 768a 0236 e00f 4337 1464 d237
00000040: 0a23 a437 486e 1c39 2083 c136 92e6 8939
00000050: b904 5036 c084 d839 0352 0837 fe26 d139
00000060: 11f1 9a38 4ba6 c938 0530 be35 8aa5 8c38
00000070: 46cd f137 73bd 6c3a 9f23 3f34 cdc6 ab36
00000080: 58f9 4736 fdfc 2937 6c6c d035 67a1 d63a
00000090: 56e8 4339 ac63 9939 de41 fc35 7be3 1b3b
1.318575e-05 2.5360558e-05 1.571643e-05 0.00054937793 8.391542e-06 0.00022329653 6.3358304e-05 0.0010209163
0.00048826393 5.8988135e-05 2.1356377e-06 0.00084194413 0.01520835 1.9452104e-06 1.1626602e-05 2.5080553e-05
1.956664e-05 0.00014918402 5.767113e-06 0.00026302465 3.0997164e-06 0.00041297637 8.1253265e-06 0.00039892638
7.388194e-05 9.615401e-05 1.4170079e-06 6.706554e-05 2.8825027e-05 0.00090309157 1.780122e-07 5.1193406e-06
2.9798448e-06 1.0132088e-05 1.5528763e-06 0.0016375006 0.00018683201 0.00029256695 1.8794633e-06 0.0023786712

exp_avg f4 [40, 40]
00000000: 452a c2b7 68c8 93b7 aabf 3d37 a233 e4b7
00000010: 45fc 2137 c40e e037 15f4 b537 43e5 1238
00000020: 8012 1eb7 3930 0637 c69b 1b36 2771 fbb7
00000030: c0a4 1e38 47b3 0737 40f7 7b37 0a45 3837
00000040: b146 c5b5 cdb7 7136 3876 88b7 d1a6 1138
00000050: 40a2 3bb7 33ee c8b7 7b34 8237 e44d 2e37
00000060: c4d7 94b5 5efd 25b8 9f70 00b6 f3af f4b6
00000070: 4bc0 9c37 aff6 9237 68ff 6d35 2f62 a2b7
00000080: 4c20 0138 1c8c 85b7 34e7 98b7 852e ea37
00000090: adad 0cb8 4b9a 7a37 dbf1 6836 113f ecb7
000000a0: 89c1 fcb7 0a89 b0b7 3be8 ac36 f867 00b8
000000b0: 3596 9b37 0550 0838 54ea 0938 94bd 2938
000000c0: de76 18b7 4f59 df36 8f1c 4335 4dae 24b8
000000d0: 6c88 5a38 78c0 3c37 3863 b637 856e 2937
000000e0: 9d85 2eb6 7c42 1635 211f d9b7 97ed 3538
000000f0: dc77 8ab7 fdd3 fcb7 9420 dd37 8fd3 7737
00000100: 5fc9 b936 79eb 6bb8 a08b bfb5 2c63 a1b6
00000110: 23c7 d237 95a3 f337 2cd6 1335 25cb b0b7
00000120: 09c5 2938 09fb d9b7 64f6 bdb7 7972 2238
00000130: f296 05b8 37ea 9137 ea04 cab5 37b3 19b8
00000140: c89e a6b7 a199 94b7 42ea ff37 2984 0db8
00000150: a6cf 2236 1e4f e237 ef16 34b5 5a92 5e38
00000160: f756 97b7 b2c2 da37 6e6f 8736 6ad9 b4b7
00000170: f9d1 e737 1354 0537 6b22 9337 a6a4 b837
00000180: d327 b0b4 4069 2837 3db2 bab6 9294 ee37
00000190: 3902 f2b6 8472 c2b7 652d eab6 3d15 0237
000001a0: a809 c8b7 4e1b 87b6 b570 bdb6 372d 90b7
000001b0: 1531 aa37 c57f be34 21dd 7135 4ce3 dbb7
000001c0: a7cc 7537 cfcb f9b6 68db a4b7 259e 8837
000001d0: 6513 7637 108e aa37 c53d 6937 3b40 abb7
000001e0: 4dd5 72b7 8eaa 1fb7 61f3 f335 1bb6 61b7
000001f0: aba9 2037 b8d0 7d37 a3cc 6637 974d 9637
00000200: c006 81b6 e307 d735 4caf 3734 7434 93b7
00000210: b87c be37 07dd d336 17df 2b37 d4f7 d236
00000220: 736d 0fb6 81bd e835 cb1a 5bb7 10cc a937
00000230: c897 09b7 ea8f 67b7 64f2 3b37 e643 0937
00000240: eb5e c436 c68d d0b7 7586 eeb4 d2c5 56b6
00000250: 64f2 5137 0bed 3a37 0b99 d034 cd08 27b7
00000260: 18fb a137 78a7 39b7 d743 2eb7 f0bc 8837
00000270: bc18 7bb7 0ff4 0937 cffc 3e33 adf4 8bb7
00000280: e508 e735 918a b935 ba1b 3eb5 328f fc35
00000290: 4e87 70b5 e216 04b6 1e4c efb5 307c 24b6
000002a0: b9d2 2135 5bac 65b5 1491 66b4 081a 1b36
000002b0: 116b 47b6 02c9 49b5 c532 94b5 bd46 51b5
000002c0: 43f6 af34 b1ef 93b4 08aa b135 ed95 2cb6
000002d0: 172a 8935 bc89 f735 8c1e bdb5 45a5 82b5
000002e0: 9039 9934 e8ff 4f36 4406 20b4 cc26 0735
000002f0: ba66 bcb5 c23c e6b5 fb40 01b4 0e16 bb35
00000300: f1c6 15b6 1c4a ad35 9e8b b835 bcb3 17b6
00000310: a136 3e35 a6c9 9cb5 3c07 3ab4 2217 1236
00000320: edc4 a137 649e 4437 2c33 41b6 f726 9137
00000330: dea1 50b7 29e3 a0b7 d3fa b3b7 c120 b4b7
00000340: 8c5e a136 820c 58b6 e950 77b5 9f81 c537
00000350: 3dbb 05b8 4260 d8b6 b276 65b7 d4b6 b9b6
00000360: a172 e035 ee19 f9b3 c1d5 9737 0b94 dab7
00000370: 851a 2637 3cd9 9037 6828 91b7 404d 0fb7
00000380: f490 93b6 ea3f 1438 8522 6434 9514 4d36
00000390: 394a 86b7 5288 86b7 a6da 65b5 28cb 4537
000003a0: b4e6 ddb7 a5f7 8e37 7bc1 5d37 3e16 c1b7
000003b0: 8ea2 e037 c4a9 23b7 ad9b 3b35 7b0b b837
000003c0: eb75 0537 43b0 bb36 9267 8536 f6cc d536
000003d0: 05f3 e3b6 76ce 08b7 f1e2 74b7 9d90 22b7
000003e0: c083 af34 6ad4 0e36 1936 9334 20fd 5637
000003f0: f720 8ab7 5116 1eb6 92e9 b6b6 7e65 9635
-2.3146285e-05 -1.7617087e-05 1.1309903e-05 -2.7203761e-05 9.655084e-06 2.6709757e-05 2.1690541e-05 3.502263e-05
-9.421841e-06 7.99825e-06 2.3187472e-06 -2.9974222e-05 3.782357e-05 8.088368e-06 1.5018333e-05 1.0983329e-05
-1.4698218e-06 3.6018785e-06 -1.6267513e-05 3.4726054e-05 -1.1183845e-05 -2.3952778e-05 1.5521646e-05 1.03893435e-05
-1.1089655e-06 -3.9575032e-05 -1.913904e-06 -7.29225e-06 1.8686193e-05 1.7519427e-05 8.8661045e-07 -1.9357625e-05
3.0786076e-05 -1.5920079e-05 -1.8227474e-05 2.7916636e-05 -3.354035e-05 1.4937085e-05 3.4711472e-06 -2.816276e-05
-3.0130863e-05 -2.1044649e-05 5.1530346e-06 -3.0614407e-05 1.8547385e-05 3.249945e-05 3.288158e-05 4.04693e-05
-9.087582e-06 6.656315e-06 7.268472e-07 -3.9262977e-05 5.2102303e-05 1.1250486e-05 2.1742293e-05 1.0098917e-05
-2.6005794e-06 5.59761e-07 -2.5882911e-05 4.3375036e-05 -1.6506696e-05 -3.0139456e-05 2.6360423e-05 1.4771605e-05
5.5368723e-06 -5.6247667e-05 -1.4271245e-06 -4.809719e-06 2.5126681e-05 2.9044031e-05 5.507343e-07 -2.1075432e-05
4.0476243e-05 -2.5985313e-05 -2.264529e-05 3.873042e-05 -3.185025e-05 1.7394412e-05 -1.5051603e-06 -3.664495e-05
-1.986268e-05 -1.7714514e-05 3.0507454e-05 -3.3740103e-05 2.4260748e-06 2.6978141e-05 -6.70886e-07 5.3065225e-05
-1.8041099e-05 2.6078287e-05 4.0362856e-06 -2.1558913e-05 2.7635122e-05 7.946993e-06 1.7539793e-05 2.201118e-05
-3.281153e-07 1.0038086e-05 -5.5639816e-06 2.8440994e-05 -7.2124208e-06 -2.3179928e-05 -6.979028e-06 7.753549e-06
-2.3846354e-05 -4.026492e-06 -5.6457598e-06 -1.7187192e-05 2.0288435e-05 3.5483222e-07 9.010128e-07 -2.6212678e-05
1.4650787e-05 -7.4445047e-06 -1.9652492e-05 1.6286105e-05 1.4667258e-05 2.0331732e-05 1.3902264e-05 -2.0414698e-05
-1.4473987e-05 -9.516849e-06 1.8175743e-06 -1.3453445e-05 9.576247e-06 1.5128571e-05 1.3756714e-05 1.7917524e-05
-3.8452854e-06 1.6021044e-06 1.7106976e-07 -1.7548191e-05 2.2707842e-05 6.314021e-06 1.0244336e-05 6.2873387e-06
-2.1372368e-06 1.73405e-06 -1.3059655e-05 2.0241394e-05 -8.201176e-06 -1.3802181e-05 1.12025045e-05 8.181645e-06
5.852305e-06 -2.486155e-05 -4.4428785e-07 -3.2003632e-06 1.2513807e-05 1.1141655e-05 3.8854373e-07 -9.956025e-06
1.930962e-05 -1.1065851e-05 -1.0387003e-05 1.6300444e-05 -1.4966525e-05 8.222661e-06 4.446775e-08 -1.6684027e-05
1.721343e-06 1.3823902e-06 -7.0820863e-07 1.8817138e-06 -8.960386e-07 -1.9682852e-06 -1.7829041e-06 -2.451019e-06
6.0283816e-07 -8.555996e-07 -2.1473198e-07 2.3111952e-06 -2.9715632e-06 -7.517084e-07 -1.1041635e-06 -7.7961505e-07
3.277547e-07 -2.7555282e-07 1.3237013e-06 -2.5717266e-06 1.0219545e-06 1.844302e-06 -1.4090488e-06 -9.733855e-07
2.8540353e-07 3.099436e-06 -1.490344e-07 5.0347876e-07 -1.4036989e-06 -1.7154018e-06 -1.2037701e-07 1.3939004e-06
-2.231853e-06 1.2911073e-06 1.3749702e-06 -2.2605373e-06 7.086001e-07 -1.1681593e-06 -1.7325232e-07 2.176916e-06
1.9284396e-05 1.1719389e-05 -2.8789027e-06 1.7303491e-05 -1.2435454e-05 -1.9179266e-05 -2.1455262e-05 -2.1472924e-05
4.8091806e-06 -3.2193789e-06 -9.213241e-07 2.354459e-05 -3.188405e-05 -6.4485075e-06 -1.36771e-05 -5.5347136e-06
1.6722662e-06 -1.15996826e-07 1.810014e-05 -2.6056563e-05 9.900546e-06 1.7267295e-05 -1.7304163e-05 -8.54145e-06
-4.397816e-06 3.5345474e-05 2.1246713e-07 3.055936e-06 -1.6008607e-05 -1.6037524e-05 -8.5627323e-07 1.1789416e-05
-2.6452683e-05 1.7043038e-05 1.3217675e-05 -2.301775e-05 2.6778576e-05 -9.755084e-06 6.9889467e-07 2.1939855e-05
7.954873e-06 5.593554e-06 3.975766e-06 6.3717553e-06 -6.7934184e-06 -8.154302e-06 -1.4596372e-05 -9.689623e-06
3.269215e-07 2.128329e-06 2.7420245e-07 1.2814329e-05 -1.6466232e-05 -2.3556825e-06 -5.451214e-06 1.1205409e-06
