modelos/heat_10x3-20000.pt (torch, 12630 bytes, 21 tensors)

linears.0.weight f4 [10, 2]
0	0x3d2d98cc	0.042382047
1	0xbf16b56d	-0.58870584
2	0x3edb17df	0.4279165
3	0x3e92caef	0.2867045
4	0xbdfd4864	-0.12367323
5	0x3f488173	0.78322524
6	0x3ef6f2cf	0.48232123
7	0x3eb2a5a2	0.34891993
8	0x3e6df224	0.232369
9	0xbfca7fec	-1.5820289
10	0xbe6c4e9d	-0.23076864
11	0x3f3584f2	0.70905983
12	0x3e8004e0	0.2500372
13	0x3f9d384c	1.2282805
14	0xbe65e78c	-0.2245161
15	0xbf8eef48	-1.1166773
16	0xbfbf589a	-1.4948914
17	0xbc197adb	-0.00936767
18	0x3eb3cac2	0.3511563
19	0xbed6a871	-0.41925386

linears.0.bias f4 [10]
0	0x3d9c05bf	0.076182835
1	0xbe6a721a	-0.22895089
2	0x3da78457	0.08179539
3	0xbdd05305	-0.10172085
4	0xbe61a7a9	-0.22036614
5	0x3d065e23	0.03280462
6	0x3e35ac63	0.17741542
7	0xbdc6f5b7	-0.09714835
8	0xbc8afef9	-0.016967284
9	0xbe16b318	-0.14716756

linears.1.weight f4 [10, 10]
0	0x3da74116	0.08166711
1	0x3f11ef55	0.57005817
2	0xbeaa7178	-0.33289695
3	0xbd15a6ef	-0.036536153
4	0xbf39231a	-0.72319186
5	0xbcf2c181	-0.029633285
6	0x3ecf0457	0.40433
7	0xbfe9aee7	-1.8256501
8	0x3f64bad9	0.89347607
9	0x3e95d89c	0.29266822
10	0x3b262172	0.0025349525
11	0xbc8a5804	-0.016887672
12	0xbefca72c	-0.49346292
13	0x3f321546	0.6956371
14	0x3f84422c	1.0332694
15	0xbf56e6ca	-0.83945906
16	0xbbee5e47	-0.0072744223
17	0x3f6e82f1	0.9316855
18	0x3f2384dd	0.6387461
19	0x3f02b8ec	0.5106342
20	0x3f0f60c9	0.5600706
21	0x3e0336f4	0.12813932
22	0xbf725b7d	-0.9467085
23	0xbeb1e719	-0.34746626
24	0x3fb73ca0	1.4315376
25	0xbf249e8a	-0.6430441
26	0xbf2ccc35	-0.67499095
27	0x3f8dba58	1.1072493
28	0xbcd8a7fe	-0.026447292
29	0x3f3f67fc	0.7476804
30	0x3f234ca9	0.6378885
31	0x3edd0082	0.4316445
32	0x3e88f1ce	0.26746982
33	0x3f3913f7	0.7229609
34	0xbd8b43c8	-0.068000376
35	0xbf5067ad	-0.81408197
36	0x3e45625c	0.19275802
37	0xbfaf9671	-1.3717786
38	0x3f6dd3dd	0.929014
39	0x3eb0cec8	0.34532762
40	0x3ea1bb3f	0.3158817
41	0xbf503a58	-0.81339025
42	0x3f0781de	0.52932537
43	0xbf1f9e10	-0.6235056
44	0xbfa59a7b	-1.2937769
45	0xbd55c378	-0.052188367
46	0x3ee7e603	0.45292673
47	0xbd9643e1	-0.073371656
48	0x3eed5420	0.46353245
49	0xbf8a55a3	-1.0807384
50	0x3c09943f	0.008397161
51	0xbf0dfea5	-0.5546668
52	0xbd92ce33	-0.07168236
53	0xbf001681	-0.5003434
54	0x3f06e53d	0.5269354
55	0xbe09c29e	-0.13453147
56	0xbe30826f	-0.17237256
57	0x3f05c9f1	0.52261263
58	0x3e5aeb91	0.21378924
59	0xbdf3ae6b	-0.11898502
60	0xbd017d9f	-0.031613942
61	0x3e474e3e	0.19463441
62	0x3eb68231	0.35646203
63	0x3f0dc029	0.5537134
64	0x3d8174e2	0.06321122
65	0x3e7952e4	0.24348027
66	0x3f613b9e	0.87981594
67	0xbf889582	-1.0670626
68	0x3c5b6b49	0.013392278
69	0xbe7eb390	-0.24873185
70	0xbd154c6b	-0.03644983
71	0x3da17f03	0.07885554
72	0x3f0da13e	0.5532416
73	0xbc9fef62	-0.019523326
74	0xbf5ac788	-0.8546071
75	0x3f0e71a5	0.5564216
76	0x3f6fd086	0.93677557
77	0xbff19c9c	-1.8875918
78	0xbf4b9fc0	-0.79540634
79	0xbcba1bc8	-0.022718325
80	0x3e56fd6a	0.20995107
81	0x3f41675d	0.75548345
82	0xbeb6fc76	-0.35739487
83	0x3f2d5b14	0.677171
84	0x3ec9e4b0	0.39432287
85	0xbea07ef4	-0.31346858
86	0x3def2f92	0.11678995
87	0xbebabe65	-0.36473384
88	0x3f5fe0c1	0.8745232
89	0x3ea14c4a	0.31503516
90	0x3f0324ad	0.5122784
91	0x3ebc4491	0.36771062
92	0xbec13c41	-0.37741283
93	0x3dd93ab8	0.10606903
94	0x3f055b65	0.5209258
95	0xbd13e23c	-0.036104426
96	0x3b04c8a4	0.0020261193
97	0xbd2c415f	-0.04205453
98	0xbef20803	-0.47271737
99	0x3ed9a8c1	0.42511562

linears.1.bias f4 [10]
0	0x3d4698fd	0.048485745
1	0x3ccb924e	0.024850037
2	0xbed34c5a	-0.4126919
3	0x3e5c4504	0.21510702
4	0x3e119434	0.14216691
5	0x3dab7347	0.08371597
6	0x3e750e84	0.23931319
7	0x3d54aa60	0.051920295
8	0x3d759cce	0.059963994
9	0x3cdf906e	0.02729055

linears.2.weight f4 [10, 10]
0	0xbecd0e84	-0.40050137
1	0xbf955bdc	-1.1668658
2	0xbef0baff	-0.47017667
3	0xbc5461f6	-0.012962809
4	0xbf87806f	-1.058607
5	0xbf0236b1	-0.508647
6	0x3efb9bcd	0.49142304
7	0x3d23c52e	0.039982967
8	0xbf12955a	-0.5725914
9	0x3e9963a3	0.2995883
10	0x3f96bb57	1.1775922
11	0x3eb5bf26	0.35497397
12	0x3d4640d0	0.048401654
13	0x3dd2bc33	0.102898024
14	0x3f15839c	0.58403945
15	0xbf1cb1b0	-0.6120863
16	0xbe76305d	-0.24041887
17	0x3e111249	0.14167131
18	0x3fea86af	1.8322352
19	0x3e836f62	0.25670916
20	0xbfac6008	-1.3466806
21	0xbed0cc5b	-0.4078091
22	0x3eb1908b	0.3468059
23	0xbefead68	-0.49741673
24	0xbeb53e7d	-0.35399237
25	0x3e42c788	0.19021428
26	0xbf206fba	-0.6267048
27	0xbf2bdbdf	-0.6713237
28	0xbf65bbd0	-0.89739704
29	0x3f1d15af	0.6136121
30	0x3f592edb	0.8483712
31	0x3dd87030	0.10568273
32	0xbf188b4f	-0.5958757
33	0x3f6c017e	0.92189777
34	0xbd37e534	-0.04489632
35	0xbedb066c	-0.42778337
36	0x3e91c9e8	0.28474355
37	0xbf0c5db2	-0.5483047
38	0x3f769d78	0.9633403
39	0x3e4922d1	0.19642188
40	0x3e9ea6a0	0.309865
41	0xbf8a7733	-1.0817627
42	0x3eae0b71	0.33993104
43	0xba8d6f22	-0.0010790566
44	0xbeb54f61	-0.35412124
45	0xbde94b89	-0.1139136
46	0x3f8ccbaa	1.0999653
47	0x3f784233	0.9697601
48	0x3d90c86c	0.070694774
49	0x3d700df4	0.058607057
50	0x3f0d1aab	0.5511882
51	0xbec0f617	-0.37687752
52	0xbf81b9a1	-1.0134774
53	0xbecb9272	-0.39760166
54	0xbe8d3e96	-0.27586812
55	0xbea57fe2	-0.3232413
56	0xbecb19ce	-0.39668125
57	0x3e59cbdb	0.21269171
58	0xbf1b6b41	-0.6071053
59	0xbe1bec40	-0.15226841
60	0xbec51bd3	-0.3849779
61	0x3e989f03	0.29808816
62	0x3e96f48f	0.29483458
63	0xbdf47b32	-0.1193756
64	0x3d9cfd90	0.07665551
65	0xbe06ad3d	-0.13152023
66	0x3e85e18e	0.26148647
67	0x3e0bd650	0.13655972
68	0xbec9c199	-0.39405516
69	0x3e1cde16	0.15319094
70	0xbe12b7f1	-0.1432798
71	0xbf4c3f73	-0.79784316
72	0xbe3491e2	-0.17633775
73	0x3e88c760	0.2671461
74	0xbf72151e	-0.9456347
75	0x3e482b1e	0.19547698
76	0xbec94979	-0.39313868
77	0xbdf51bfc	-0.11968228
78	0x3f067b7b	0.52532166
79	0x3daefa06	0.08543782
80	0xbfbe19d4	-1.4851632
81	0xbdf8f229	-0.121555634
82	0x3ee79439	0.45230272
83	0xbf4469ef	-0.7672414
84	0xbe81e114	-0.25367033
85	0x3ee5ef96	0.44909352
86	0xbf1356d8	-0.5755439
87	0xbd85217e	-0.06500529
88	0xbf302332	-0.68803704
89	0x3ec61cca	0.3869384
90	0xbeb336ff	-0.35002896
91	0x3f2f7426	0.68536603
92	0xbfaf2513	-1.3683189
93	0xbf7847fd	-0.96984845
94	0xbe1c4caa	-0.1526362
95	0x3c8eb025	0.017417977
96	0xbf128da1	-0.5724736
97	0xbe97113a	-0.2950533
98	0xbfafd467	-1.3736695
99	0xbee2221c	-0.44166648

linears.2.bias f4 [10]
0	0xbde9e770	-0.11421096
1	0x3dd5cc07	0.10439306
2	0xbd088a98	-0.0333353
3	0xbca803fe	-0.020509716
4	0x3db23f66	0.087034985
5	0xbd4cebaf	-0.050029453
6	0x3e5a3bf5	0.21311934
7	0x3d3d5af1	0.046229307
8	0xbdb5ce85	-0.08877281
9	0xbe4842c0	-0.19556713

linears.3.weight f4 [1, 10]
0	0x3ed6ac6d	0.41928425
1	0xbf6b522c	-0.9192226
2	0x3f3dbe44	0.7411845
3	0xbf3e8215	-0.7441724
4	0x3f5196c8	0.818707
5	0x3fc62483	1.5479892
6	0xbf4d5962	-0.8021451
7	0xbd7495a6	-0.05971303
8	0x3f85bb13	1.0447716
9	0xbf183952	-0.59462464

exp_avg f4 [10, 2]
0	0x3623bef0	2.4400033e-06
1	0x3628af08	2.5135832e-06
2	0x3773221a	1.4491869e-05
3	0x36d29b38	6.2765575e-06
4	0xb5d0633a	-1.5526086e-06
5	0x3592a9a8	1.0927224e-06
6	0x36285e4e	2.5088843e-06
7	0xb6d2a663	-6.2778577e-06
8	0x37b2240e	2.1236043e-05
9	0x36c844a4	5.9684553e-06
10	0x35cacd72	1.5109965e-06
11	0xb74da7ef	-1.2258052e-05
12	0x3694bccd	4.432723e-06
13	0xb6a67fed	-4.962078e-06
14	0xb5ed41ea	-1.767706e-06
15	0x378155f6	1.5418027e-05
16	0xb72d5222	-1.0330727e-05
17	0xb6343ab2	-2.6856255e-06
18	0x36d009c0	6.200018e-06
19	0x36a62b2e	4.9522123e-06

exp_avg_sq f4 [10, 2]
0	0x3959b592	0.00020762373
1	0x373d65c8	1.1288976e-05
2	0x39d51eb6	0.00040649407
3	0x387cfdeb	6.031796e-05
4	0x38e87e21	0.000110861154
5	0x37280434	1.0014559e-05
6	0x3a1b789d	0.00059307535
7	0x385f3db2	5.32248e-05
8	0x3943c06b	0.0001866833
9	0x36f93744	7.427212e-06
10	0x3a2f8481	0.0006695465
11	0x37f0deba	2.8713945e-05
12	0x392bc7ce	0.00016382264
13	0x37a54368	1.9700921e-05
14	0x3a910e89	0.0011066954
15	0x390ddbe3	0.00013528722
16	0x3820b259	3.8313072e-05
17	0x38945de2	7.074677e-05
18	0x39679a3b	0.00022087332
19	0x36f01586	7.155063e-06

exp_avg f4 [10]
0	0xb68534a2	-3.969836e-06
1	0x3803a412	3.1385636e-05
2	0x36ff0d8b	7.601169e-06
3	0x37631201	1.3534446e-05
4	0x363680a0	2.7194983e-06
5	0x37737999	1.451224e-05
6	0x36dea613	6.635449e-06
7	0xb6f19040	-7.1991526e-06
8	0xb77d1fe6	-1.5087402e-05
9	0xb56a7c24	-8.735244e-07

exp_avg_sq f4 [10]
0	0x3a27a9bc	0.0006395837
1	0x3af86e2f	0.0018953736
2	0x3a30d872	0.000674612
3	0x3b7936d6	0.003802707
4	0x39de96b1	0.00042455413
5	0x3b7ed4d7	0.0038884187
6	0x3a188e45	0.00058195397
7	0x3b88eebb	0.0041788495
8	0x3b9a542d	0.0047097416
9	0x3a8733a7	0.0010315076

exp_avg f4 [10, 10]
0	0xb5a1cdaf	-1.2055297e-06
1	0xb4f24f1f	-4.513358e-07
2	0x34fa37fa	4.6606857e-07
3	0x355ed927	8.3017443e-07
4	0x34a11a3e	3.000768e-07
5	0x35faaa79	1.8676066e-06
6	0xb640f746	-2.8754162e-06
7	0x35e8edb0	1.7354523e-06
8	0xb652ce26	-3.1412433e-06
9	0xb5a96990	-1.2622204e-06
10	0xb66376fa	-3.389489e-06
11	0xb5471d7f	-7.41762e-07
12	0x36234ce6	2.4333654e-06
13	0xb67152a6	-3.5959906e-06
14	0xb658a455	-3.2282162e-06
15	0x3682bf94	3.8966045e-06
16	0xb687c1b5	-4.045864e-06
17	0x3608c82f	2.0382101e-06
18	0xb5402e6f	-7.1593144e-07
19	0xb6278b92	-2.496618e-06
20	0xb5aedef5	-1.3028899e-06
21	0x36bcf76e	5.631641e-06
22	0x33cd59d2	9.5623946e-08
23	0x368d23ff	4.206318e-06
24	0x330e803b	3.3178576e-08
25	0xb5856f8b	-9.941735e-07
26	0x3649d453	3.0074923e-06
27	0xb670d6f7	-3.5887913e-06
28	0x36ff7102	7.612748e-06
29	0x365c99ab	3.2872001e-06
30	0x35d73c25	1.6036253e-06
31	0x3672982e	3.614939e-06
32	0xb5715aa5	-8.99114e-07
33	0x345a4cef	2.033082e-07
34	0xb5fa8fff	-1.866836e-06
35	0xb5ad397f	-1.2906238e-06
36	0xb700f097	-7.685411e-06
37	0x36b3419d	5.342254e-06
38	0x370a9636	8.260415e-06
39	0x36a9186f	5.039437e-06
40	0x355d5800	8.245697e-07
41	0x34cec2f8	3.8512349e-07
42	0xb5b2cf32	-1.3322335e-06
43	0xb30d4a00	-3.2896423e-08
44	0x345d1e95	2.0593355e-07
45	0xb5225507	-6.0473434e-07
46	0xb57d2a88	-9.4311736e-07
47	0x3544f44f	7.3371206e-07
48	0x374f2b10	1.2348188e-05
49	0x339f46d1	7.416896e-08
50	0x34b43c6c	3.3571575e-07
51	0x34a455b8	3.060975e-07
52	0x33018e85	3.0164774e-08
53	0xb52b9213	-6.391503e-07
54	0xb6066978	-2.0028947e-06
55	0xb48b02b0	-2.5892723e-07
56	0x361927c1	2.2821916e-06
57	0xb6053362	-1.9848453e-06
58	0x3597d480	1.1312222e-06
59	0x35ade7d1	1.2956972e-06
60	0x34c8ce16	3.740285e-07
61	0xb50593a9	-4.9761235e-07
62	0xb54b45ab	-7.5724773e-07
63	0xb4ec531d	-4.4018898e-07
64	0x3583d867	9.823242e-07
65	0xb5312154	-6.5986137e-07
66	0xb58b9800	-1.0400545e-06
67	0x3580ab58	9.586611e-07
68	0xb704f40b	-7.924634e-06
69	0x34a62ab8	3.0950991e-07
70	0x35c3c0aa	1.4584705e-06
71	0xb58503e7	-9.910408e-07
72	0xb54fd430	-7.742228e-07
73	0x34348b99	1.6814592e-07
74	0x352e68c3	6.49725e-07
75	0xb5bae5ca	-1.3924957e-06
76	0x35411982	7.193522e-07
77	0xb4082afa	-1.2681622e-07
78	0xb50d5328	-5.26476e-07
79	0x34cadf4f	3.778791e-07
80	0xb5e5e2f7	-1.7127885e-06
81	0xb6ae3a20	-5.1923707e-06
82	0x36900679	4.292288e-06
83	0x35d62054	1.5953651e-06
84	0xb69a9a63	-4.6075306e-06
85	0x367e263d	3.7871207e-06
86	0x365f62d2	3.328711e-06
87	0xb5a7afcd	-1.2493634e-06
88	0xb801725a	-3.0862495e-05
89	0xb70f038c	-8.52429e-06
90	0x3578e595	9.2721285e-07
91	0xb5caf834	-1.5122409e-06
92	0xb55c1759	-8.199036e-07
93	0xb5895053	-1.0230673e-06
94	0x34b25c3d	3.3222196e-07
95	0x33d0ef8d	9.729329e-08
96	0xb5118d76	-5.422256e-07
97	0x352c14ed	6.4105444e-07
98	0x35e62559	1.7147205e-06
99	0xb5dd8868	-1.6505483e-06

exp_avg_sq f4 [10, 10]
0	0x37e18dd3	2.6888132e-05
1	0x3748a5cd	1.19595325e-05
2	0x3704609e	7.890309e-06
3	0x32be1d50	2.2132241e-08
4	0x3784c0aa	1.5825342e-05
5	0x37b12f2b	2.1122009e-05
6	0x35be4a52	1.4177733e-06
7	0x351a8bc2	5.7572845e-07
8	0x38a7d589	8.0029546e-05
9	0x35f07321	1.79149e-06
10	0x37c008ed	2.289234e-05
11	0x37397b6c	1.1055596e-05
12	0x35aa92c9	1.2708707e-06
13	0x358262e0	9.714531e-07
14	0x33b44064	8.393616e-08
15	0x3768206a	1.3835825e-05
16	0x37d91a92	2.5880789e-05
17	0x36ccab27	6.0995985e-06
18	0x38ab3948	8.164585e-05
19	0x3492ab20	2.731913e-07
20	0x32a47bf6	1.9148484e-08
21	0x3666d126	3.4394411e-06
22	0x32885d5c	1.5874939e-08
23	0x36b66541	5.43581e-06
24	0x3183655a	3.824124e-09
25	0x35356d7a	6.7587064e-07
26	0x368ee57f	4.2586466e-06
27	0x3659f719	3.247935e-06
28	0x376bb804	1.4049936e-05
29	0x35ebb6fb	1.7562119e-06
30	0x373f314f	1.1395968e-05
31	0x35367965	6.7976936e-07
32	0x344f49d3	1.9305234e-07
33	0x3723f4d0	9.772557e-06
34	0x34e87101	4.329559e-07
35	0x371d8d8f	9.390888e-06
36	0x382856cb	4.0135154e-05
37	0x378b4b39	1.660512e-05
38	0x395759c6	0.00020537441
39	0x35c3d2e8	1.4590014e-06
40	0x369fcbbf	4.7622884e-06
41	0x358aaa65	1.0331393e-06
42	0x36713d49	3.594747e-06
43	0x339df1fd	7.3548996e-08
44	0x3733259b	1.0677987e-05
45	0x36b3fabc	5.363805e-06
46	0x359ec50d	1.1829267e-06
47	0x361d722c	2.346128e-06
48	0x36830d81	3.9056763e-06
49	0x35b456ce	1.3436309e-06
50	0x36351753	2.6984678e-06
51	0x36077de9	2.0189857e-06
52	0x364617e0	2.9518196e-06
53	0x35ee18ad	1.7739563e-06
54	0x372bd58c	1.02421145e-05
55	0x362b969c	2.5568652e-06
56	0x36be04f7	5.6630192e-06
57	0x36cb5eea	6.060921e-06
58	0x361ecf5b	2.3664531e-06
59	0x34ab390d	3.1892742e-07
60	0x35ddfe04	1.6539711e-06
61	0x3593947d	1.0995569e-06
62	0x349c3bef	2.9100872e-07
63	0x36ddec8f	6.6138523e-06
64	0x3455ac88	1.9899937e-07
65	0x3653ee15	3.1580032e-06
66	0x370ff5fd	8.580738e-06
67	0x369400e9	4.4108497e-06
68	0x389e5c72	7.5512464e-05
69	0x361b4ac2	2.3140315e-06
70	0x34c9eca2	3.761134e-07
71	0x36480987	2.9807868e-06
72	0x347e08c1	2.3658778e-07
73	0x35584aaa	8.057492e-07
74	0x35ed8acb	1.769827e-06
75	0x3314893e	3.4583756e-08
76	0x35835a5b	9.786557e-07
77	0x34590aef	2.0213677e-07
78	0x348e595d	2.6514581e-07
79	0x3594b5dd	1.1079788e-06
80	0x385d321a	5.2737167e-05
81	0x3716ae8f	8.981339e-06
82	0x37a484ab	1.9612102e-05
83	0x35f29c45	1.8075885e-06
84	0x382f18a2	4.1746192e-05
85	0x385b6366	5.230624e-05
86	0x36b64e6b	5.4331517e-06
87	0x33e7d3ec	1.0795324e-07
88	0x38dd36e1	0.00010548323
89	0x37372c37	1.0917945e-05
90	0x34a16c0f	3.006721e-07
91	0x349fa89d	2.973874e-07
92	0x34a96a8a	3.155622e-07
93	0x34fc8a4b	4.703928e-07
94	0x361e017a	2.3544694e-06
95	0x32da18a6	2.5389749e-08
96	0x36c794b8	5.9479753e-06
97	0x3649d825	3.0077147e-06
98	0x37a09c10	1.9146159e-05
99	0x33f55d75	1.1425701e-07

exp_avg f4 [10]
0	0xb720d079	-9.585282e-06
1	0xb76a8aa3	-1.3979766e-05
2	0xb69d4ab8	-4.687663e-06
3	0xb732b944	-1.0652762e-05
4	0xb6bdc554	-5.655611e-06
5	0xb686b19d	-4.014188e-06
6	0xb6060098	-1.9967902e-06
7	0x36f6766e	7.3451583e-06
8	0x38078ebe	3.2319447e-05
9	0xb5fba839	-1.8749917e-06

exp_avg_sq f4 [10]
0	0x3a2cd5a6	0.00065931154
1	0x3a8f5a08	0.0010936866
2	0x36ab7980	5.1103416e-06
3	0x3a4333da	0.0007446386
4	0x38359d62	4.3300337e-05
5	0x36c3e71e	5.8383584e-06
6	0x38b402e5	8.583608e-05
7	0x384f6d7e	4.945462e-05
8	0x3a9b59a7	0.001185228
9	0x388b7cca	6.65128e-05

exp_avg f4 [10, 10]
0	0x35f09ace	1.7926448e-06
1	0x348ce68a	2.624477e-07
2	0x35d24643	1.5666668e-06
3	0xb53bd832	-6.9977534e-07
4	0xb70398a4	-7.843748e-06
5	0xb601ff16	-1.9370977e-06
6	0x35be4a32	1.4177697e-06
7	0x362bb679	2.5587199e-06
8	0x3618d4ef	2.2773709e-06
9	0x362564bc	2.464555e-06
10	0xb72e4e15	-1.0389388e-05
11	0xb71f9886	-9.512651e-06
12	0x37b11b9e	2.1112905e-05
13	0xb73c490a	-1.1222679e-05
14	0xb699c971	-4.583206e-06
15	0xb67f55bc	-3.8047865e-06
16	0xb4286a93	-1.5684991e-07
17	0x3653a486	3.1537215e-06
18	0xb70627d5	-7.9962965e-06
19	0xb5ac48ad	-1.283615e-06
20	0x35fbe1b8	1.876665e-06
21	0x365293cd	3.137847e-06
22	0x35cc9e57	1.5245267e-06
23	0x3601d0f9	1.9344136e-06
24	0x344ec668	1.9257425e-07
25	0xb63d00c7	-2.8163647e-06
26	0x3584d1f2	9.895869e-07
27	0xb5383801	-6.862684e-07
28	0x367083a9	3.5839423e-06
29	0x34c3d879	3.6479085e-07
30	0xb721bb4c	-9.639956e-06
31	0x368a51a5	4.122225e-06
32	0x368a4d7a	4.12174e-06
33	0xb642a499	-2.9004061e-06
34	0xb7453868	-1.1755248e-05
35	0x374f70c4	1.2364417e-05
36	0xb6cd9c1f	-6.127651e-06
37	0x36e86423	6.9257962e-06
38	0x36052569	1.984032e-06
39	0x365dee50	3.3070282e-06
40	0xb58b8dcb	-1.0397574e-06
41	0x3631927c	2.646032e-06
42	0x35cf8474	1.5461251e-06
43	0x353181b7	6.61264e-07
44	0x3610cb72	2.1576093e-06
45	0xb5e60559	-1.7137892e-06
46	0x35583db3	8.0556055e-07
47	0x3613b9f2	2.2012941e-06
48	0x35acb3ab	1.2867289e-06
49	0x35c0cbf8	1.4364477e-06
50	0xb4d057e9	-3.8806982e-07
51	0xb6ce1c6e	-6.142588e-06
52	0xb63fa80c	-2.8559034e-06
53	0x36f0e577	7.1792706e-06
54	0x36d542b4	6.35566e-06
55	0x359fc66f	1.1904175e-06
56	0x366f1be0	3.563e-06
57	0x3520b81a	5.987255e-07
58	0xb5a6631e	-1.2396811e-06
59	0xb73c5f41	-1.1227851e-05
60	0x371d3bd8	9.371863e-06
61	0xb75a6c72	-1.3019062e-05
62	0xb6cd1ccd	-6.112829e-06
63	0x368bfa4f	4.1716626e-06
64	0x36b11da4	5.2784617e-06
65	0xb7181883	-9.065613e-06
66	0x3551bee6	7.813636e-07
67	0x372b4e9b	1.0210696e-05
68	0x3705cf28	7.97565e-06
69	0x327148de	1.4044614e-08
70	0x34e0fea4	4.1908527e-07
71	0xb41b0381	-1.4436775e-07
72	0x341812b6	1.416291e-07
73	0x34850b8d	2.4781585e-07
74	0xb5b27bf4	-1.3298109e-06
75	0x30f5763e	1.7859703e-09
76	0xb25db8ee	-1.2905941e-08
77	0x33d74fe6	1.0026251e-07
78	0xb60d8f6e	-2.1094124e-06
79	0xb4816234	-2.4099575e-07
80	0xb5bbbeb2	-1.3988085e-06
81	0x36634e2a	3.3871133e-06
82	0xb670c983	-3.5880082e-06
83	0x36988d7e	4.546425e-06
84	0xb6d51d06	-6.3512734e-06
85	0xb6a5a7ad	-4.936903e-06
86	0x36c7ea18	5.9579143e-06
87	0x36e92448	6.948165e-06
88	0x36462037	2.952305e-06
89	0x36f1d00c	7.2065795e-06
90	0xb6c08e12	-5.738585e-06
91	0xb74bc9bd	-1.2146714e-05
92	0x345bed10	2.0482207e-07
93	0xb71a1443	-9.183833e-06
94	0xb70bf093	-8.341059e-06
95	0xb675b4b4	-3.6613028e-06
96	0x36ac997d	5.143868e-06
97	0x375071ea	1.2424289e-05
98	0x34805e75	2.3910584e-07
99	0x3615e036	2.2333238e-06

exp_avg_sq f4 [10, 10]
0	0x345a5090	2.033214e-07
1	0x34a56b74	3.0811827e-07
2	0x3695fcda	4.469982e-06
3	0x3500f5b4	4.804126e-07
4	0x36a985e8	5.052181e-06
5	0x365fdc96	3.3357987e-06
6	0x345f1962	2.0777728e-07
7	0x34b3c96f	3.348791e-07
8	0x340c3351	1.3057185e-07
9	0x3624ddb7	2.456696e-06
10	0x38947c51	7.080346e-05
11	0x39195e75	0.00014626405
12	0x38d9d9ee	0.00010387959
13	0x370b5e1d	8.306958e-06
14	0x387ec91e	6.0745624e-05
15	0x38d52088	0.00010162691
16	0x38a42849	7.827633e-05
17	0x38d1d284	0.00010005108
18	0x37eba941	2.8092998e-05
19	0x34a7ea22	3.1276528e-07
20	0x35a55257	1.2317422e-06
21	0x3667fda6	3.4569325e-06
22	0x37a9cf2a	2.0242838e-05
23	0x362c6c9e	2.569322e-06
24	0x3588e622	1.0199767e-06
25	0x35c36cd5	1.4560306e-06
26	0x37a35a72	1.9473231e-05
27	0x381d9477	3.7569986e-05
28	0x362a8208	2.5407662e-06
29	0x373553a3	1.0807914e-05
30	0x37ab8e03	2.0450918e-05
31	0x3783ca2b	1.5710559e-05
32	0x36272802	2.4908227e-06
33	0x352fb09d	6.5449586e-07
34	0x36ebe082	7.029682e-06
35	0x37b804c1	2.1936723e-05
36	0x3672df3c	3.619075e-06
37	0x36295e2e	2.5237782e-06
38	0x35252f5e	6.153622e-07
39	0x35b02d48	1.31262e-06
40	0x3548e737	7.484227e-07
41	0x3677d9d8	3.693267e-06
42	0x37768979	1.46947505e-05
43	0x359c294b	1.1634924e-06
44	0x371c4cea	9.3162325e-06
45	0x34e35592	4.2344305e-07
46	0x3687d01e	4.0475416e-06
47	0x36e711fc	6.88643e-06
48	0x35c8ff53	1.497547e-06
49	0x3543f73a	7.300292e-07
50	0x358061d6	9.565217e-07
51	0x36a7f5cf	5.0056037e-06
52	0x38cd602d	9.793076e-05
53	0x3831749d	4.2308693e-05
54	0x383166d1	4.2295844e-05
55	0x370f7884	8.551524e-06
56	0x38e9b338	0.00011143688
57	0x393fd58a	0.00018294729
58	0x345e4277	2.0699541e-07
59	0x38953701	7.115119e-05
60	0x384ee748	4.9329625e-05
61	0x38df45fd	0.00010646505
62	0x3875a36d	5.8564754e-05
63	0x35c44535	1.462328e-06
64	0x38b01c52	8.397609e-05
65	0x388aea59	6.6240034e-05
66	0x382c8cc3	4.113909e-05
67	0x38557841	5.0895153e-05
68	0x3801b60a	3.0925534e-05
69	0x36aa5ba3	5.0770627e-06
70	0x347fd06e	2.3824552e-07
71	0x34d751f7	4.0106508e-07
72	0x34845be5	2.4653778e-07
73	0x328d0b76	1.6419772e-08
74	0x347a26f3	2.3297234e-07
75	0x34919c28	2.7121973e-07
76	0x3436fe8f	1.7042679e-07
77	0x344deb13	1.9177632e-07
78	0x33a8696b	7.842285e-08
79	0x32385dc7	1.0731532e-08
80	0x3603497e	1.95633e-06
81	0x37427f5a	1.1592952e-05
82	0x386a2ceb	5.583178e-05
83	0x36d583d1	6.36324e-06
84	0x3591f16e	1.0873607e-06
85	0x368b89be	4.158558e-06
86	0x38502226	4.9622868e-05
87	0x38c53686	9.403848e-05
88	0x36fb4f91	7.4896457e-06
89	0x37c8f5bb	2.3956285e-05
90	0x380c7d28	3.3495162e-05
91	0x38565c8f	5.1107778e-05
92	0x3827f7e7	4.004678e-05
93	0x3707ed43	8.101869e-06
94	0x37486d98	1.1946446e-05
95	0x385e3a99	5.2983498e-05
96	0x38289380	4.019169e-05
97	0x3848fa85	4.791703e-05
98	0x36dfc383	6.6686785e-06
99	0x347461aa	2.2759801e-07

exp_avg f4 [10]
0	0xb6bf644a	-5.7039188e-06
1	0x35b57226	1.3518772e-06
2	0xb62be4ff	-2.561428e-06
3	0x36146601	2.2113093e-06
4	0xb55e0cf0	-8.272027e-07
5	0x3667be4d	3.4532452e-06
6	0xb547c2e3	-7.4416874e-07
7	0xb2c6b8df	-2.3134303e-08
8	0x36f862e6	7.4024892e-06
9	0x36ad04a5	5.1563425e-06

exp_avg_sq f4 [10]
0	0x374a87a9	1.2071724e-05
1	0x374277b3	1.1591171e-05
2	0x38a9939a	8.086041e-05
3	0x3783266d	1.563431e-05
4	0x37f5fbb5	2.9323486e-05
5	0x39ef3d0d	0.0004563112
6	0x35a37ce2	1.2180792e-06
7	0x315d3f26	3.2195628e-09
8	0x394fcc25	0.00019817108
9	0x370456c2	7.888013e-06

exp_avg f4 [1, 10]
0	0xb7a4e79a	-1.9658171e-05
1	0x3753dee4	1.2628476e-05
2	0xb785e261	-1.5960251e-05
3	0x37e55164	2.7336828e-05
4	0xb4789886	-2.3152288e-07
5	0xb6f0375f	-7.1590034e-06
6	0x373e4890	1.1341777e-05
7	0x36753657	3.6539475e-06
8	0xb7840d7b	-1.5741904e-05
9	0x36aa33d1	5.072427e-06

exp_avg_sq f4 [1, 10]
0	0x38bb430b	8.9293426e-05
1	0x38009355	3.065479e-05
2	0x383d655d	4.5155513e-05
3	0x38850758	6.343302e-05
4	0x36cf8a79	6.185201e-06
5	0x3887b68c	6.471304e-05
6	0x36ea1eda	6.977335e-06
7	0x389e061b	7.535164e-05
8	0x38757460	5.8520935e-05
9	0x36d782fd	6.4227484e-06
