modelos/heat_10x4-20000.pt (torch, 16126 bytes, 27 tensors)

linears.0.weight f4 [10, 2]
0	0xbf9bc4ec	-1.2169471
1	0x3da75593	0.08170619
2	0x3ebb6064	0.36596978
3	0x3f2a7aef	0.6659383
4	0x3f29d460	0.66339684
5	0x3bffc71e	0.007805719
6	0x3d4f79b8	0.05065319
7	0x3eda629c	0.42653358
8	0x3dc66d00	0.09688759
9	0x3f9c9301	1.2232362
10	0xbf854ae3	-1.0413479
11	0x3f3ad342	0.72978604
12	0x3f06bf3f	0.5263557
13	0x3e5b556f	0.21419309
14	0xbc9e5041	-0.019325377
15	0x3faa665d	1.3312489
16	0x3e5b0e6a	0.21392217
17	0xbf2ad671	-0.6673346
18	0xbeed3274	-0.46327555
19	0x3e85c354	0.26125586

linears.0.bias f4 [10]
0	0xbe53ca27	-0.20682584
1	0xbdc54efd	-0.096342064
2	0x3e3d059b	0.1845917
3	0x3e357e8d	0.17724057
4	0x3e1fbc9f	0.15599297
5	0x3c0adec4	0.008475963
6	0xbe8e2ec1	-0.27770045
7	0x3e936e57	0.2879512
8	0xbe3d4371	-0.18482758
9	0x3e24a65d	0.16079088

linears.1.weight f4 [10, 10]
0	0x3f395d2c	0.72407794
1	0xbf3346e1	-0.7003003
2	0xbf46d47b	-0.7766797
3	0x3ee6c140	0.45069313
4	0x3ed66d74	0.4188038
5	0x3f084fa3	0.53246516
6	0x3ee8f45d	0.45498934
7	0x3f07179f	0.5277042
8	0xbf660961	-0.8985806
9	0x3db35326	0.08756094
10	0x3eaaa222	0.33326823
11	0x3f86ba29	1.0525562
12	0xbdf8f819	-0.12156696
13	0x3f5fc4a3	0.8740942
14	0x3eefee42	0.46861464
15	0x3efea2f4	0.49733698
16	0x3e347ce4	0.17625767
17	0x3e857ac6	0.2607023
18	0xbeb4baee	-0.35298866
19	0x3dd75415	0.10514084
20	0x3ecd9b11	0.4015737
21	0xbf29044e	-0.66022193
22	0xbd4fa1b5	-0.050691325
23	0xbf14900b	-0.5803229
24	0xbd6d7934	-0.057976916
25	0xbe9fe949	-0.3123267
26	0xbe3a302e	-0.18182442
27	0xbd68f936	-0.05687829
28	0xbe30f52e	-0.17281029
29	0xbefa7433	-0.48916778
30	0xbea4df19	-0.3220146
31	0x3f70c964	0.940573
32	0x3e7c7342	0.24653342
33	0x3e8c39e3	0.27387914
34	0x3e8f0ddb	0.27940258
35	0x3f3a23f8	0.72711134
36	0x3f010c74	0.50409627
37	0x3e5580b6	0.2084988
38	0xbf104c56	-0.5636648
39	0xbf0239bc	-0.50869346
40	0xbd19289b	-0.03739224
41	0x3e44eb9a	0.192305
42	0x3e0fbdda	0.14037266
43	0x3f3cd58a	0.73763335
44	0x3f7e4b70	0.9933386
45	0x3e8287e2	0.25494295
46	0xbf82ec32	-1.0228331
47	0x3f951f1a	1.1650116
48	0xbf6aa765	-0.91661674
49	0x3ca1c40c	0.019746803
50	0xbf2be9ff	-0.67153925
51	0xbf167e5d	-0.58786565
52	0xbbd4a418	-0.006489288
53	0x3ead950e	0.33902782
54	0xbfadfeef	-1.3593425
55	0xbc85390f	-0.01626256
56	0xbfbcf7dd	-1.4763142
57	0xbea5ee10	-0.3240819
58	0xbeeda3f4	-0.4641415
59	0x3f54f32f	0.8318357
60	0x3f0f205c	0.5590875
61	0x3ee81167	0.45325777
62	0xbe0a104f	-0.13482784
63	0x3f10935e	0.56474864
64	0x3f1507eb	0.58215207
65	0x3efccf3b	0.49376854
66	0xbe82c4cd	-0.25540772
67	0x3f17650b	0.59138554
68	0xbe400c0a	-0.18754593
69	0xbf0481ac	-0.51760364
70	0xbefeb5c5	-0.49748054
71	0x3ecf13cd	0.40444794
72	0x3ec415f0	0.38297987
73	0xbe4a1e34	-0.19738084
74	0x3fa2ee2b	1.2728933
75	0x3ea4894f	0.32136008
76	0xbe281d95	-0.16417535
77	0x3f0d5595	0.5520871
78	0xbf068989	-0.5255361
79	0xbeafa77a	-0.34307462
80	0x3e8e356f	0.27775142
81	0x3d944936	0.072405264
82	0xbe8b9b74	-0.2726704
83	0xbf1be2ba	-0.6089283
84	0xbf03860b	-0.5137641
85	0xbf618d69	-0.881064
86	0xbe934ed0	-0.28771067
87	0xbd2054e7	-0.03914347
88	0xbe7ba02e	-0.24572822
89	0xbae13fc7	-0.0017185145
90	0xbe5ee49f	-0.217669
91	0xbf43bc28	-0.7645898
92	0x3d34d970	0.044152677
93	0xbe6a2c3b	-0.22868435
94	0xbf2f72d3	-0.6853458
95	0xbf3e1c1d	-0.7426165
96	0xbf3b63b8	-0.73199034
97	0xbf07c096	-0.5302824
98	0xbf1fafcd	-0.62377626
99	0xbe19c0d5	-0.15014966

linears.1.bias f4 [10]
0	0xbd7701d4	-0.060304478
1	0x3db1c074	0.08679286
2	0xbd443551	-0.04790241
3	0x3e591219	0.2119831
4	0x3e0baf13	0.13641004
5	0x3e26323f	0.16230105
6	0x3d8c80c3	0.06860497
7	0x3e153118	0.14569509
8	0xbdbc9f53	-0.09210076
9	0xbe48b9ba	-0.19602099

linears.2.weight f4 [10, 10]
0	0xbf43d35e	-0.76494396
1	0x3f651e7c	0.8949964
2	0x3e91a6d8	0.28447604
3	0x3eead606	0.45866412
4	0x3eb52af2	0.35384327
5	0xbf30f5e3	-0.69125193
6	0x3d408e0f	0.047010478
7	0x3e81f525	0.25382343
8	0xbde2741d	-0.11057303
9	0xbf64f276	-0.89432466
10	0x3f3edc1b	0.74554604
11	0x3eff3bc0	0.49850273
12	0xbea33456	-0.31875867
13	0x3eb6a69d	0.3567399
14	0xbe132272	-0.14368609
15	0xbf31ab5d	-0.69402105
16	0x3d914daf	0.07094895
17	0x3f3cc6bf	0.7374076
18	0xbdcecb91	-0.10097421
19	0xbf207c09	-0.6268926
20	0x3da0f068	0.07858354
21	0x3f69ee27	0.91379017
22	0x3e944a38	0.28962874
23	0xbd1f6fa9	-0.038924847
24	0x3f88fd4c	1.07023
25	0xbebaf7fb	-0.3651732
26	0x3f0d008a	0.5507895
27	0xbcfebbd8	-0.03109543
28	0xbf55dd01	-0.8354035
29	0xbf2c8dfe	-0.6740416
30	0xbf144274	-0.579139
31	0xbef7d330	-0.4840331
32	0x3e0f8c2a	0.14018312
33	0xbe794bd8	-0.24345338
34	0x3e6df12a	0.23236528
35	0x3e9cd8a0	0.30634022
36	0x3c547b55	0.012968858
37	0xbe544cb3	-0.20732383
38	0xbdad5b5b	-0.0846469
39	0x3edba54c	0.4289955
40	0xbe9c21d0	-0.30494547
41	0x3f35aad7	0.70963806
42	0xbe542a52	-0.20719269
43	0xbe64f02c	-0.22357243
44	0x3f6e0e01	0.9299012
45	0x3f812ec6	1.0092399
46	0x3f4cf20f	0.8005685
47	0x3d3ac048	0.04559353
48	0xbeb9b62b	-0.36271796
49	0xbeed3c0a	-0.4633487
50	0xbf0c1ce0	-0.5473156
51	0xbe8ff461	-0.28116134
52	0x3e671fe4	0.22570759
53	0xbf0fb705	-0.5613864
54	0x3be76dce	0.0070626503
55	0x3eb63d67	0.3559372
56	0xbf0be49e	-0.5464572
57	0xbfa60d2e	-1.2972772
58	0x3ee96349	0.4558356
59	0x3e6a4754	0.22878772
60	0x3eeee226	0.46656913
61	0x3e015cf7	0.1263312
62	0xbb77ba65	-0.0037800309
63	0x3f2444e7	0.64167637
64	0x3e798d86	0.24370393
65	0x3f06fc8c	0.52729106
66	0x3ea0cf79	0.3140829
67	0xbe84a277	-0.259052
68	0xbebe5577	-0.3717458
69	0x3f122243	0.5708353
70	0x3ee7bd23	0.45261487
71	0x3f48dad5	0.7845891
72	0xbf489295	-0.78348666
73	0x3df2375a	0.11826964
74	0xbed4e207	-0.41578695
75	0x3e32ffc1	0.17480375
76	0x3f09b38c	0.5378959
77	0x3f57d23b	0.8430516
78	0xbf48a02b	-0.78369397
79	0xbf252652	-0.645116
80	0xbed11efc	-0.40843952
81	0x3dc7999c	0.097460955
82	0x3e77a996	0.24185786
83	0x3e3a448e	0.18190214
84	0xbe81631e	-0.25270933
85	0xbeb2d155	-0.34925333
86	0xbf429a28	-0.76016474
87	0x3f2a6d49	0.66573006
88	0x3eb225a8	0.34794354
89	0xbe9a064d	-0.30082932
90	0xbe5d542d	-0.21614142
91	0x3ee9a313	0.45632228
92	0xbf2e4023	-0.68066615
93	0x3f1c844c	0.6113937
94	0x3d6a74a8	0.05724016
95	0xbe6331c3	-0.22186951
96	0xbe3085d3	-0.1723855
97	0x3f1eea20	0.62075996
98	0xbdedb378	-0.116064966
99	0xbf08a950	-0.5338335

linears.2.bias f4 [10]
0	0xbc67f7e2	-0.014158221
1	0x3e1d537e	0.15363881
2	0x3ec7cccb	0.39023432
3	0xbd76f0ac	-0.060288116
4	0x3d4c819d	0.049928296
5	0xbe9335f8	-0.28752112
6	0xbb487cdf	-0.0030592007
7	0x3e284c22	0.16435292
8	0x3d35ea04	0.044412628
9	0x3d57765a	0.052603103

linears.3.weight f4 [10, 10]
0	0x3ea75a66	0.32686156
1	0x3e14ffd6	0.14550719
2	0x3e3c0e4a	0.18364826
3	0x3e34dd56	0.17662558
4	0x3e0f2262	0.1397796
5	0x3e5c9cfa	0.21544257
6	0xbbe72813	-0.0070543378
7	0x3d20202b	0.039093178
8	0x3ef182b7	0.4717004
9	0x3e244b5a	0.1604437
10	0x3e133f54	0.14379627
11	0xbe20bfea	-0.1569821
12	0xbe919f3c	-0.284418
13	0xbec3b695	-0.38225237
14	0x3e829105	0.25501266
15	0xbe06152f	-0.13094018
16	0x3e87bee7	0.26512834
17	0x3eb699f9	0.35664347
18	0xbef3c89a	-0.47613984
19	0xbe375a96	-0.1790565
20	0x3f022232	0.5083343
21	0xbec6fbbf	-0.38863942
22	0xbe58ccfb	-0.21171944
23	0x3f1a1a6a	0.60196555
24	0x3f0a560d	0.54037553
25	0x3d520410	0.051273406
26	0xbe1ff995	-0.15622552
27	0xbf14eaf0	-0.58170986
28	0xbeda7ca0	-0.42673206
29	0x3ecfbe15	0.4057471
30	0x3ef8fb2a	0.48629123
31	0xbec1bd1f	-0.378396
32	0x3f44cffd	0.76879865
33	0x3dd096d8	0.10185021
34	0x3fbcf1ba	1.4761269
35	0x3d4dd577	0.050252404
36	0xbef3aa26	-0.4759075
37	0x3e8e0796	0.27740163
38	0xbd7bc944	-0.06147124
39	0xbf0753fc	-0.52862525
40	0x3ecca839	0.39972094
41	0xbeb31d89	-0.3498347
42	0x3e82132b	0.2540525
43	0x3ddfcfdc	0.10928318
44	0x3eed5cb7	0.46359798
45	0x3ec9ed14	0.3943869
46	0xbe1de04d	-0.15417595
47	0xbdd4823a	-0.10376401
48	0xbded6c2b	-0.11592897
49	0x3ec1fbb7	0.37887356
50	0xbe1fb886	-0.15597734
51	0x3d8f5563	0.06998708
52	0x3c2dd5d7	0.010610065
53	0x3e6b84b0	0.22999835
54	0xbf0b3bc3	-0.54388064
55	0xbf3ee05a	-0.74561083
56	0x3eac402f	0.33642718
57	0x3f036276	0.51322114
58	0xbdfb68f3	-0.12275877
59	0x3e1ef747	0.15524016
60	0xbde728c8	-0.11287075
61	0xbf2a8a5f	-0.6661739
62	0xbf1974ae	-0.59943664
63	0x3e8aae8c	0.27086294
64	0x3e2e2dc0	0.1700964
65	0x3f10dd14	0.5658734
66	0x3ef8f685	0.4862558
67	0xbe989d9d	-0.2980775
68	0x3ee58f25	0.44835773
69	0x3e8b2742	0.2717839
70	0x3db89ed5	0.0901467
71	0xbe654921	-0.22391178
72	0x3bba8035	0.005691553
73	0xbe1ec63b	-0.15505306
74	0xbf118263	-0.5683958
75	0xbf380b85	-0.7189258
76	0x3e82eb50	0.25570154
77	0x3f65f986	0.8983387
78	0xbe3ea36d	-0.1861703
79	0xbb84ab5f	-0.0040487493
80	0xbead0576	-0.3379323
81	0xbe08d237	-0.1336144
82	0x3ee8213a	0.4533785
83	0xbe841696	-0.25798482
84	0x3e8691c1	0.26283076
85	0xbeb131c9	-0.34608296
86	0x3f5877d6	0.84557855
87	0xbd2e1cd7	-0.042507973
88	0xbe837d54	-0.25681555
89	0xbea0ac6f	-0.31381556
90	0xbe942ce4	-0.289405
91	0xbe84f01d	-0.25964442
92	0x3be9315b	0.0071164793
93	0x3e8a4b44	0.27010548
94	0x3ed27cf1	0.41110948
95	0x3f087653	0.5330555
96	0x3f1c1dfc	0.6098325
97	0xbee02cf6	-0.43784302
98	0xbe8fd1ee	-0.2808985
99	0xbf5b286a	-0.8560854

linears.3.bias f4 [10]
0	0xbd27303a	-0.040817477
1	0x3c4fc917	0.012682221
2	0x3d724b3d	0.059153784
3	0xbc677062	-0.014125915
4	0xbe96b3d1	-0.29434064
5	0x3ccdadc6	0.025107276
6	0xbd7fb87b	-0.062431794
7	0x3d2f5ace	0.042811207
8	0xbd74a70a	-0.059729613
9	0xbd04c88d	-0.032417823

linears.4.weight f4 [1, 10]
0	0x3e400d0c	0.18754977
1	0x3eb1fddc	0.34763992
2	0x3f4420e8	0.7661271
3	0x3f34c554	0.706136
4	0x3ef8056e	0.48441643
5	0xbf2b20f9	-0.6684719
6	0x3f92630a	1.1436474
7	0xbe8b46c6	-0.27202433
8	0x3db9fb5c	0.09081146
9	0xbf8c33f1	-1.0953351

exp_avg f4 [10, 2]
0	0xb66d3123	-3.5344353e-06
1	0xb5a9c583	-1.2648965e-06
2	0xb7d7af53	-2.5711639e-05
3	0xb769c0a3	-1.3932734e-05
4	0xb6b33957	-5.341291e-06
5	0xb5f71120	-1.8407918e-06
6	0xb84c2a5e	-4.8676848e-05
7	0xb51efc75	-5.922696e-07
8	0xb84c22ae	-4.8669688e-05
9	0xb6e2565c	-6.7453784e-06
10	0xb7b21a8e	-2.1231619e-05
11	0xb685ce8c	-3.987754e-06
12	0x37a97f09	2.0205525e-05
13	0xb68243ba	-3.8821863e-06
14	0xb8443792	-4.6781795e-05
15	0x35c90ae9	1.4978842e-06
16	0x37c33db6	2.3274548e-05
17	0xb6ee33fc	-7.0990045e-06
18	0xb75fb18c	-1.3333174e-05
19	0x358224df	9.696486e-07

exp_avg_sq f4 [10, 2]
0	0x352a4cc5	6.344165e-07
1	0x3613b3d0	2.2009372e-06
2	0x39801579	0.0002443006
3	0x371f978d	9.512424e-06
4	0x36f325f8	7.2463845e-06
5	0x35c78443	1.4865149e-06
6	0x39e2215d	0.00043130937
7	0x36711115	3.5921742e-06
8	0x39b24bfa	0.00034007413
9	0x381906db	3.6484427e-05
10	0x38b41bb7	8.588231e-05
11	0x3743fa6e	1.1681213e-05
12	0x3b2c1bfe	0.0026261802
13	0x3857d5b5	5.1459025e-05
14	0x39441c33	0.00018702522
15	0x36beda34	5.6878434e-06
16	0x3a13b7f3	0.00056350156
17	0x359bb9dd	1.1602493e-06
18	0x397e1eeb	0.00024234845
19	0x3649b817	3.0058488e-06

exp_avg f4 [10]
0	0x36029b6b	1.9461975e-06
1	0x374b4fe4	1.2118344e-05
2	0xb692a6af	-4.3705436e-06
3	0xb7a5f21a	-1.978227e-05
4	0x35d17b10	1.5607529e-06
5	0x363702fe	2.7270867e-06
6	0x380d11b9	3.3633525e-05
7	0xb72ec5d8	-1.0417272e-05
8	0x36a64345	4.9550167e-06
9	0xb6bb006b	-5.573083e-06

exp_avg_sq f4 [10]
0	0x38a7f729	8.009218e-05
1	0x38edb5f6	0.000113349335
2	0x389718a4	7.204831e-05
3	0x38a3a956	7.803987e-05
4	0x39940929	0.00028235585
5	0x38a744df	7.976009e-05
6	0x3acbfdde	0.0015563329
7	0x3857af8b	5.142348e-05
8	0x38e80897	0.00011064222
9	0x3958df91	0.0002068265

exp_avg f4 [10, 10]
0	0xb6b8ffc4	-5.5134024e-06
1	0x357c383b	9.395914e-07
2	0x35dd2845	1.6477503e-06
3	0x34db5268	4.0851887e-07
4	0x3681262f	3.8489447e-06
5	0xb69019c5	-4.2945344e-06
6	0xb6266b2d	-2.4798312e-06
7	0x36860cd1	3.995003e-06
8	0xb564f569	-8.529374e-07
9	0x358a8db3	1.0323041e-06
10	0x371bea5b	9.293285e-06
11	0xb6dfef5d	-6.6737834e-06
12	0xb6cea44c	-6.158405e-06
13	0xb52b15ce	-6.3734194e-07
14	0xb5fe2551	-1.8935335e-06
15	0x3723af0c	9.756313e-06
16	0xb71e8c63	-9.45022e-06
17	0x350ca1c6	5.2389476e-07
18	0xb695b6f5	-4.461845e-06
19	0x370959e8	8.186769e-06
20	0xb6f40e82	-7.2734556e-06
21	0x36149570	2.2140703e-06
22	0x3686636a	4.0050845e-06
23	0x34921d48	2.7215924e-07
24	0x35eae2c1	1.7500353e-06
25	0xb69a42fb	-4.597355e-06
26	0x363bcedf	2.7985586e-06
27	0x35c2eaeb	1.4522496e-06
28	0x359003e6	1.0729971e-06
29	0xb63248e8	-2.6566504e-06
30	0xb6b6397f	-5.430716e-06
31	0xb59717cc	-1.1257303e-06
32	0x36583bec	3.2221387e-06
33	0x351021c2	5.3693304e-07
34	0xb513081f	-5.4773585e-07
35	0xb5c248b7	-1.4475289e-06
36	0xb5a15f5e	-1.202319e-06
37	0x34474f2b	1.856212e-07
38	0xb46116ca	-2.0963049e-07
39	0x33a72abb	7.784316e-08
40	0x3766ce2c	1.3757071e-05
41	0xb698fa3c	-4.559084e-06
42	0xb746dd5f	-1.1853262e-05
43	0xb622729c	-2.4206593e-06
44	0xb4de2922	-4.138065e-07
45	0x375eeff5	1.32881005e-05
46	0xb6e2de73	-6.7612214e-06
47	0x355ae392	8.1542487e-07
48	0xb6b9a338	-5.532431e-06
49	0x371788cd	9.032153e-06
50	0x366ccbeb	3.5285436e-06
51	0x35187377	5.6792436e-07
52	0xb691410d	-4.3289097e-06
53	0xb530b645	-6.5830346e-07
54	0x36316649	2.6434593e-06
55	0x3722e1b9	9.708508e-06
56	0xb53da83c	-7.06528e-07
57	0x361677d2	2.2421486e-06
58	0x33c5016b	9.173785e-08
59	0x3571307a	8.985004e-07
60	0x360c599d	2.0913787e-06
61	0xb66e30d1	-3.5493179e-06
62	0xb61d130f	-2.3405917e-06
63	0xb682fbce	-3.903616e-06
64	0xb70bc8e8	-8.331823e-06
65	0xb5abf3c8	-1.2811443e-06
66	0x36128811	2.1834896e-06
67	0xb7156215	-8.903929e-06
68	0x3684fcb5	3.9633255e-06
69	0xb6286aff	-2.509623e-06
70	0x359c9e9c	1.1669067e-06
71	0xb60cf04c	-2.1001497e-06
72	0xb4f964c3	-4.6453178e-07
73	0x350ff695	5.3630475e-07
74	0xb4871c86	-2.5166463e-07
75	0x363c93de	2.8100253e-06
76	0xb64bfd0c	-3.039665e-06
77	0x357bb945	9.377439e-07
78	0xb5a84a74	-1.2538644e-06
79	0x360b91b5	2.0797427e-06
80	0xb71c6aa2	-9.323152e-06
81	0x3653c4a6	3.1555915e-06
82	0x36f31b53	7.2451453e-06
83	0x365d9fbb	3.3024542e-06
84	0x3694f7c2	4.4395865e-06
85	0xb6e43213	-6.800759e-06
86	0x36038d9d	1.960295e-06
87	0x36aad46c	5.091124e-06
88	0xb57d35d6	-9.4328186e-07
89	0xb61a01d1	-2.2948846e-06
90	0xb7084713	-8.12278e-06
91	0x36bf680d	5.7043567e-06
92	0x3685f83e	3.992608e-06
93	0xb1bae75e	-5.439616e-09
94	0x35f7b797	1.8456366e-06
95	0xb6fd1228	-7.5421012e-06
96	0x370019bb	7.635385e-06
97	0xb4e594bd	-4.2762795e-07
98	0x363ae584	2.7849755e-06
99	0xb6b8a0a5	-5.502329e-06

exp_avg_sq f4 [10, 10]
0	0x370c12d7	8.349037e-06
1	0x36ee6f0e	7.105881e-06
2	0x37136610	8.785646e-06
3	0x36170492	2.2503414e-06
4	0x35397c5d	6.9098843e-07
5	0x36917f84	4.3361815e-06
6	0x3761d670	1.3460973e-05
7	0x355788fe	8.029309e-07
8	0x34accdc0	3.21872e-07
9	0x3578d11f	9.269151e-07
10	0x36e7cfe2	6.908537e-06
11	0x35ebb30a	1.7560972e-06
12	0x36fd33fd	7.54604e-06
13	0x368b0d15	4.1440458e-06
14	0x37071a0f	8.052694e-06
15	0x369f0d3f	4.7401113e-06
16	0x35ec041b	1.7584565e-06
17	0x37584482	1.2890554e-05
18	0x363bc85b	2.7981794e-06
19	0x35b10d69	1.319143e-06
20	0x37ea8b52	2.795985e-05
21	0x3491c43b	2.715113e-07
22	0x376c0cac	1.4069647e-05
23	0x35788e0c	9.2593905e-07
24	0x33ebed10	1.0986162e-07
25	0x37b28391	2.1280519e-05
26	0x34a45423	3.0608598e-07
27	0x349b8cdc	2.8973488e-07
28	0x346659d3	2.1453097e-07
29	0x360188f3	1.9302213e-06
30	0x378e65f2	1.6975191e-05
31	0x36430762	2.9061562e-06
32	0x370b2101	8.29273e-06
33	0x346b1a14	2.1895568e-07
34	0x354a4706	7.5354217e-07
35	0x37f59857	2.9277215e-05
36	0x373f5675	1.1404617e-05
37	0x365cba1f	3.2890891e-06
38	0x36b01d60	5.2486284e-06
39	0x37382817	1.0976589e-05
40	0x39a2eb50	0.0003107437
41	0x37c740b7	2.3752784e-05
42	0x394d157a	0.00019558324
43	0x37985067	1.8157252e-05
44	0x3789dda3	1.643488e-05
45	0x39834529	0.00025037795
46	0x37c9978d	2.4031639e-05
47	0x379a3a88	1.8385486e-05
48	0x35db43f9	1.6336554e-06
49	0x3828e96a	4.0271705e-05
50	0x3989d653	0.0002629036
51	0x378e674b	1.6975819e-05
52	0x391f17ce	0.0001517229
53	0x36d5afe0	6.368369e-06
54	0x3604917a	1.9754211e-06
55	0x39841411	0.00025191953
56	0x3802999b	3.113747e-05
57	0x35618fd7	8.4028346e-07
58	0x371b9657	9.273724e-06
59	0x38520be7	5.0078987e-05
60	0x36154097	2.2240326e-06
61	0x36ceccf2	6.163137e-06
62	0x35bdf0e2	1.4151703e-06
63	0x35df8567	1.665362e-06
64	0x35837253	9.793533e-07
65	0x36e0b0e1	6.6963116e-06
66	0x37bf4d80	2.2805063e-05
67	0x36d2b366	6.2793724e-06
68	0x36eeb4c9	7.113999e-06
69	0x37573d50	1.2829274e-05
70	0x3864486f	5.4426895e-05
71	0x35f51396	1.8259623e-06
72	0x37e0c47d	2.6794378e-05
73	0x359de7c2	1.1764862e-06
74	0x348252d7	2.427466e-07
75	0x38480f43	4.769793e-05
76	0x365be8dd	3.2769087e-06
77	0x3491ca67	2.7155622e-07
78	0x359dd8a6	1.1760465e-06
79	0x36e0e6b2	6.7025767e-06
80	0x383199fe	4.2343505e-05
81	0x3421dd75	1.5074859e-07
82	0x37a06b45	1.9123438e-05
83	0x365e464d	3.3121498e-06
84	0x35c0aee3	1.4356013e-06
85	0x379bd93d	1.85786e-05
86	0x3602b9fd	1.947977e-06
87	0x3697f807	4.529025e-06
88	0x352816f9	6.2618307e-07
89	0x339fb27a	7.436479e-08
90	0x36b8cd05	5.5074947e-06
91	0x35a94e9b	1.2614358e-06
92	0x35bb159a	1.3938873e-06
93	0x3652aba2	3.1392342e-06
94	0x36b40442	5.3649137e-06
95	0x374efaba	1.2336934e-05
96	0x370bf7ae	8.342713e-06
97	0x375079b8	1.2426106e-05
98	0x36c9b07a	6.0108114e-06
99	0x36c2e262	5.808005e-06

exp_avg f4 [10]
0	0x368595e4	3.9811584e-06
1	0x366092b7	3.3464e-06
2	0x33d01f46	9.6914434e-08
3	0x36e3c481	6.7880032e-06
4	0xb77f8a81	-1.5231432e-05
5	0xb6b2e33b	-5.3312665e-06
6	0xb769b825	-1.3930757e-05
7	0x36ce281a	6.143947e-06
8	0x3760be7e	1.3395793e-05
9	0xb6e69578	-6.8719346e-06

exp_avg_sq f4 [10]
0	0x395842a2	0.00020624188
1	0x388c074c	6.677079e-05
2	0x382b0fe1	4.0784365e-05
3	0x36a678be	4.9612418e-06
4	0x39e14915	0.00042969795
5	0x3957c179	0.00020576072
6	0x38920a1d	6.963706e-05
7	0x38382367	4.390199e-05
8	0x39021f5c	0.00012409448
9	0x388af244	6.625478e-05

exp_avg f4 [10, 10]
0	0x3731e308	1.0602882e-05
1	0x35ca207a	1.5059625e-06
2	0xb59ef54e	-1.184331e-06
3	0x366380fd	3.3900717e-06
4	0x36cba9ab	6.0696234e-06
5	0x371e6f87	9.443501e-06
6	0x366eb041	3.5567357e-06
7	0x36d4b8c1	6.3396005e-06
8	0xb60a7759	-2.0633072e-06
9	0x33b4952a	8.409036e-08
10	0x378841c4	1.6243088e-05
11	0x36819d95	3.8628446e-06
12	0x3614638d	2.2111665e-06
13	0xb644f676	-2.9349735e-06
14	0xb4b03d86	-3.282732e-07
15	0x36344f89	2.6868386e-06
16	0x36e6c189	6.8770646e-06
17	0xb577dd02	-9.233628e-07
18	0xb59eacbd	-1.1822191e-06
19	0xb5d1065f	-1.5573568e-06
20	0x3708e39d	8.159227e-06
21	0x358fb85d	1.0707987e-06
22	0x365d1915	3.2946166e-06
23	0xb6abbafb	-5.1179645e-06
24	0xb6b7c5c2	-5.476847e-06
25	0xb5effa8f	-1.787981e-06
26	0x362e30d1	2.5956435e-06
27	0xb6fdcc81	-7.563795e-06
28	0x35bf40bf	1.4249453e-06
29	0xb537aa87	-6.842096e-07
30	0xb59b3634	-1.1564175e-06
31	0x3602e6e6	1.950591e-06
32	0x3590064d	1.073067e-06
33	0x34694733	2.1725718e-07
34	0xb6ac2272	-5.1300094e-06
35	0xb4fb8508	-4.6849186e-07
36	0x362b1d67	2.54981e-06
37	0xb59ed815	-1.1834805e-06
38	0xb3a5cb6e	-7.720415e-08
39	0xb67b2f1b	-3.7429334e-06
40	0xb6805b3e	-3.8253193e-06
41	0xb6ed675f	-7.0751844e-06
42	0x36cb5ff3	6.0610414e-06
43	0xb647fb7d	-2.9799696e-06
44	0x36cfce26	6.1930796e-06
45	0x341c1f8c	1.4540109e-07
46	0xb6e9dd91	-6.969735e-06
47	0xb614590b	-2.2105548e-06
48	0x36dfc59d	6.668923e-06
49	0x36d3458a	6.2963854e-06
50	0xb606031a	-1.9969361e-06
51	0x341e0c55	1.4719383e-07
52	0xb59b04b2	-1.1549766e-06
53	0x35f08bf8	1.792213e-06
54	0x3628e4cd	2.516713e-06
55	0x349c1248	2.9070566e-07
56	0xb43662a2	-1.6985953e-07
57	0x36358c6c	2.7052838e-06
58	0xb565848e	-8.550204e-07
59	0xb4a4c5da	-3.0691336e-07
60	0xb32c4b1d	-4.0115186e-08
61	0x34fdcca7	4.7273826e-07
62	0xb616fbd2	-2.249832e-06
63	0x36493a7e	2.998538e-06
64	0xb5caf554	-1.5121573e-06
65	0xb5993c0b	-1.1416863e-06
66	0xb594f99d	-1.1099506e-06
67	0x362e0df7	2.593615e-06
68	0x35fb9ac5	1.8746001e-06
69	0x3589d4a8	1.0269187e-06
70	0x36385661	2.7468416e-06
71	0xb6978d3f	-4.516594e-06
72	0x3617df08	2.2630575e-06
73	0xb6607773	-3.344813e-06
74	0xb6d88206	-6.4524384e-06
75	0x35fe4729	1.8945185e-06
76	0xb6536d0e	-3.1504928e-06
77	0xb678279e	-3.697794e-06
78	0x362d76d1	2.584817e-06
79	0x369c1d09	4.6525424e-06
80	0xb56694d1	-8.5898233e-07
81	0x3590bf63	1.0784537e-06
82	0x360d6ce9	2.1074031e-06
83	0xb60b222f	-2.0732512e-06
84	0x362c6b13	2.5692323e-06
85	0x36a0764b	4.7821427e-06
86	0x355bff86	8.1955693e-07
87	0xb50074d7	-4.785374e-07
88	0x36b5399a	5.400926e-06
89	0x365ed818	3.320636e-06
90	0x36ee2f55	7.098463e-06
91	0x3607af44	2.0218586e-06
92	0x3574ac5c	9.11479e-07
93	0xb5ce218f	-1.5357963e-06
94	0x36a0f56d	4.796943e-06
95	0x365c2a41	3.280715e-06
96	0x367926f3	3.7126563e-06
97	0xb61ba16e	-2.3190764e-06
98	0xb57c79d0	-9.4054576e-07
99	0xb44b9a28	-1.896193e-07

exp_avg_sq f4 [10, 10]
0	0x365a49ff	3.2527603e-06
1	0x35e0a454	1.6737126e-06
2	0x36314d9c	2.642023e-06
3	0x3694de3b	4.4366147e-06
4	0x389865fe	7.266922e-05
5	0x38702437	5.7254187e-05
6	0x366f1165	3.56239e-06
7	0x3817c70c	3.6186582e-05
8	0x36d45273	6.3276907e-06
9	0x32501a02	1.2113107e-08
10	0x38d92c4a	0.00010355616
11	0x375864b1	1.2898047e-05
12	0x3713e778	8.815776e-06
13	0x37942b47	1.7663127e-05
14	0x381991d9	3.6613874e-05
15	0x37ca8a75	2.414475e-05
16	0x37c8180a	2.3853052e-05
17	0x388dd52a	6.763109e-05
18	0x35338862	6.688116e-07
19	0x3711c2e3	8.688049e-06
20	0x37348631	1.076008e-05
21	0x3451d691	1.95427e-07
22	0x35eaea63	1.7502574e-06
23	0x365e9ed2	3.3173023e-06
24	0x372900f4	1.0073407e-05
25	0x36acb8fb	5.147534e-06
26	0x35505151	7.760437e-07
27	0x373c2068	1.1213218e-05
28	0x350bc6ac	5.207064e-07
29	0x34b119df	3.2987643e-07
30	0x33bf9069	8.9203986e-08
31	0x3717c9a1	9.047247e-06
32	0x3610ec0a	2.1595065e-06
33	0x36897f4d	4.097738e-06
34	0x37503ffb	1.2412663e-05
35	0x33f07ac1	1.11982e-07
36	0x36f31d0a	7.245345e-06
37	0x36a12dd7	4.8035104e-06
38	0x3643912e	2.914177e-06
39	0x36998244	4.5749202e-06
40	0x39aa4798	0.00032478268
41	0x37050d6d	7.930544e-06
42	0x3850afb9	4.975472e-05
43	0x390ba0e2	0.00013316007
44	0x383b635e	4.4676817e-05
45	0x381dc6b8	3.7616788e-05
46	0x385d14ac	5.2709758e-05
47	0x39640491	0.00021745476
48	0x36a3f0a2	4.885792e-06
49	0x34e9f009	4.357428e-07
50	0x3812de3f	3.5016095e-05
51	0x35717fc6	8.996543e-07
52	0x36b27345	5.3182325e-06
53	0x373bbb74	1.1189713e-05
54	0x37af979d	2.0932226e-05
55	0x36ac99bf	5.143898e-06
56	0x3678f680	3.7098362e-06
57	0x380345ae	3.1297728e-05
58	0x35983b42	1.1342129e-06
59	0x35187ec5	5.6808886e-07
60	0x36516f0c	3.1208065e-06
61	0x35bf193b	1.4237952e-06
62	0x35d97dfb	1.6204425e-06
63	0x364a1e17	3.011786e-06
64	0x364faec6	3.0947135e-06
65	0x3497fab8	2.8308364e-07
66	0x34fb4096	4.6799386e-07
67	0x365354e9	3.1490874e-06
68	0x354e465b	7.684336e-07
69	0x357941cf	9.285549e-07
70	0x38703ebd	5.727889e-05
71	0x369a5562	4.5994975e-06
72	0x36ce7190	6.152499e-06
73	0x37625571	1.3490543e-05
74	0x378a354a	1.6475697e-05
75	0x36a51a3a	4.9204364e-06
76	0x3738f7a3	1.1024912e-05
77	0x3821d4c2	3.8583537e-05
78	0x35271256	6.223903e-07
79	0x360db474	2.1115675e-06
80	0x37ec6ddb	2.8184548e-05
81	0x36e4cd9a	6.8188647e-06
82	0x379f2ff2	1.8976603e-05
83	0x382051b5	3.822307e-05
84	0x38bfda0b	9.1482034e-05
85	0x36f5854a	7.317086e-06
86	0x35ef60fc	1.7835114e-06
87	0x38b00e31	8.394977e-05
88	0x374bf081	1.215574e-05
89	0x366fb821	3.5720952e-06
90	0x356d5858	8.8417937e-07
91	0x362ad47a	2.5455652e-06
92	0x36614ced	3.357239e-06
93	0x36b8815e	5.4986876e-06
94	0x38a18fd0	7.7038654e-05
95	0x3866bd8b	5.50128e-05
96	0x368bfb2e	4.171764e-06
97	0x381f8220	3.8029742e-05
98	0x36ea23e3	6.977921e-06
99	0x32c2fb4f	2.2698854e-08

exp_avg f4 [10]
0	0x36cb589c	6.060187e-06
1	0xb58a7e5a	-1.0318574e-06
2	0xb724a208	-9.812888e-06
3	0xb6b731b1	-5.45961e-06
4	0xb686ee48	-4.021251e-06
5	0x3681028f	3.8447974e-06
6	0x362edf16	2.6057874e-06
7	0xb6883eac	-4.060412e-06
8	0x36801a76	3.8177777e-06
9	0x369b5a0e	4.6298437e-06

exp_avg_sq f4 [10]
0	0x39190dd1	0.00014596364
1	0x394e2afd	0.00019661705
2	0x37d1def6	2.5018566e-05
3	0x35791950	9.2796563e-07
4	0x39c4c859	0.00037533304
5	0x388e04cf	6.771983e-05
6	0x351a118a	5.7394993e-07
7	0x38c20534	9.25161e-05
8	0x390fbaad	0.00013707085
9	0x390cf59a	0.00013442934

exp_avg f4 [10, 10]
0	0xb687914b	-4.040228e-06
1	0xb5599e93	-8.1069555e-07
2	0x35142ef2	5.520261e-07
3	0x363e5db0	2.836674e-06
4	0x3490794d	2.6910348e-07
5	0xb42a0b7c	-1.5836662e-07
6	0xb4782687	-2.3110816e-07
7	0xb482b39f	-2.4345078e-07
8	0xb63fca8e	-2.857912e-06
9	0xb540adaa	-7.177829e-07
10	0xb527bf65	-6.2490864e-07
11	0x3573d994	9.084117e-07
12	0x35c8f706	1.4973054e-06
13	0xb656435d	-3.1927696e-06
14	0xb5e59ab1	-1.7106851e-06
15	0xb5372241	-6.822266e-07
16	0xb640710a	-2.8676027e-06
17	0xb58e96a7	-1.062367e-06
18	0x3664ffa3	3.4123448e-06
19	0x337fc96b	5.9555003e-08
20	0xb679720a	-3.717027e-06
21	0xb70e9d11	-8.500429e-06
22	0x352bb50d	6.396593e-07
23	0xb5035a95	-4.8933117e-07
24	0xb5fb8e35	-1.8742345e-06
25	0x36dd8d1a	6.6027396e-06
26	0xb694c82f	-4.434048e-06
27	0xb60ccdf0	-2.0981497e-06
28	0xb5e62ef0	-1.7149996e-06
29	0xb67d357f	-3.7731077e-06
30	0xb59616d6	-1.1182517e-06
31	0x36bdeb07	5.6599997e-06
32	0x3682c0ff	3.8967696e-06
33	0xb5ee965f	-1.7776146e-06
34	0xb673306e	-3.6238011e-06
35	0xb580c4f0	-9.59406e-07
36	0xb624cd45	-2.4557387e-06
37	0x3655aa51	3.183861e-06
38	0xb5b2a399	-1.3309647e-06
39	0xb527ed28	-6.2557456e-07
40	0xb6c72178	-5.9345584e-06
41	0xb5d3e56a	-1.5787493e-06
42	0x355b9f34	8.181553e-07
43	0x3702021d	7.749096e-06
44	0xb5f8f221	-1.8547909e-06
45	0x355faa69	8.3321953e-07
46	0xb6e74e8b	-6.89348e-06
47	0xb63e57a2	-2.8363215e-06
48	0x36232f59	2.4316453e-06
49	0xb5f006f4	-1.7883417e-06
50	0x36981532	4.5324205e-06
51	0xb616ac44	-2.2452014e-06
52	0xb5a08e88	-1.1962411e-06
53	0xb6e02518	-6.6800385e-06
54	0x34f172a6	4.4973166e-07
55	0x3583b276	9.8122e-07
56	0x36c29392	5.79883e-06
57	0x3403277b	1.2214689e-07
58	0xb6b3b653	-5.355841e-06
59	0x35df8ddb	1.665608e-06
60	0xb682d98f	-3.899629e-06
61	0xb67e9896	-3.7937766e-06
62	0x36c4039a	5.8416745e-06
63	0x36cd2e4f	6.114867e-06
64	0x34957da4	2.7844828e-07
65	0xb71699e3	-8.976526e-06
66	0xb634bb6a	-2.693118e-06
67	0x367f7ada	3.806947e-06
68	0x36b035e4	5.2514824e-06
69	0x369d3329	4.6849204e-06
70	0x33fc05e7	1.1735738e-07
71	0xb5c70ab2	-1.4829768e-06
72	0xb5bb89f2	-1.3972733e-06
73	0x357e559a	9.474694e-07
74	0xb5929a9e	-1.0922847e-06
75	0x35c14090	1.4398411e-06
76	0x3571e846	9.01175e-07
77	0xb5c2e69d	-1.4521244e-06
78	0xb581500f	-9.634549e-07
79	0xb520a84b	-5.9849543e-07
80	0x35e68068	1.7173707e-06
81	0x35bbffd2	1.4007039e-06
82	0x35804b01	9.558572e-07
83	0xb5b5661e	-1.3515271e-06
84	0xb4833b97	-2.444401e-07
85	0xb55dfd54	-8.2697557e-07
86	0xb58fd4ee	-1.0716301e-06
87	0x355b9ce2	8.181215e-07
88	0x3631927b	2.6460318e-06
89	0x358dea63	1.0573534e-06
90	0x35d7e8bb	1.6086482e-06
91	0xb61cea69	-2.3382256e-06
92	0xb72f1354	-1.0435313e-05
93	0x35f52374	1.8264241e-06
94	0xb70f08a3	-8.525475e-06
95	0x371161e3	8.6654645e-06
96	0xb6f6696b	-7.3436436e-06
97	0xb723fcc5	-9.77441e-06
98	0x369b583b	4.6296313e-06
99	0x3616644d	2.2410125e-06

exp_avg_sq f4 [10, 10]
0	0x35afffaf	1.311293e-06
1	0x35923196	1.0892279e-06
2	0x323df84d	1.1057705e-08
3	0x353bb5ac	6.9927296e-07
4	0x31c9d3b3	5.8739373e-09
5	0x346631ed	2.1438582e-07
6	0x33d3d552	9.864256e-08
7	0x3385d5b2	6.232166e-08
8	0x3525362b	6.1546115e-07
9	0x333dc1d2	4.418127e-08
10	0x378de484	1.691492e-05
11	0x37fa895a	2.9866282e-05
12	0x376c2c0e	1.4076953e-05
13	0x37422e4b	1.15740795e-05
14	0x377d0b41	1.5082595e-05
15	0x36e24630	6.7434958e-06
16	0x365ceb19	3.29194e-06
17	0x3797c8df	1.809414e-05
18	0x34ec6189	4.4029392e-07
19	0x36f5fb19	7.3308006e-06
20	0x3916e54f	0.00014390539
21	0x38ed15a0	0.000113050686
22	0x38ab528e	8.1692924e-05
23	0x37d76583	2.5677267e-05
24	0x38ea1956	0.00011162709
25	0x383edad7	4.550334e-05
26	0x371e2241	9.425509e-06
27	0x38bf4b1d	9.121581e-05
28	0x37c62df3	2.3624836e-05
29	0x388f638f	6.8373156e-05
30	0x377821b4	1.4789799e-05
31	0x36890ca8	4.0843915e-06
32	0x3726a91e	9.933747e-06
33	0x3559d8a0	8.115403e-07
34	0x354ad56a	7.556142e-07
35	0x37b18697	2.1162718e-05
36	0x3653cb16	3.1559662e-06
37	0x36be1a75	5.6655213e-06
38	0x376ef462	1.4242805e-05
39	0x37b15492	2.1139425e-05
40	0x380167ea	3.0852774e-05
41	0x38128aa6	3.493824e-05
42	0x37537e69	1.2606012e-05
43	0x37727ef4	1.4453883e-05
44	0x37a97297	2.019973e-05
45	0x3665691f	3.4184848e-06
46	0x36343d5c	2.6857806e-06
47	0x379c9039	1.8663808e-05
48	0x3639dd71	2.7696044e-06
49	0x370727fc	8.055937e-06
50	0x375379c6	1.2604933e-05
51	0x3820d956	3.8349383e-05
52	0x370863f3	8.129503e-06
53	0x37bdce8a	2.2626733e-05
54	0x37243609	9.787743e-06
55	0x35914026	1.0822012e-06
56	0x36330f01	2.6681812e-06
57	0x376f30fb	1.4256914e-05
58	0x351232ea	5.446333e-07
59	0x35d827a1	1.6104788e-06
60	0x380fb08f	3.425829e-05
61	0x3755ba5c	1.27391795e-05
62	0x3843b87c	4.6663437e-05
63	0x38773ae9	5.8944253e-05
64	0x388c3ab9	6.686658e-05
65	0x38c7d4de	9.528709e-05
66	0x3504ecd4	4.951846e-07
67	0x376dc0af	1.41711635e-05
68	0x384ce24c	4.8848146e-05
69	0x38c686e5	9.466502e-05
70	0x348b47e5	2.5943078e-07
71	0x366baa7b	3.5116961e-06
72	0x3423a08a	1.5238962e-07
73	0x364d891a	3.0627184e-06
74	0x34635b8c	2.1174327e-07
75	0x34887526	2.541721e-07
76	0x3427f8bf	1.564358e-07
77	0x351791d4	5.646409e-07
78	0x34e119db	4.1928328e-07
79	0x344b61de	1.8941452e-07
80	0x358b9343	1.0399166e-06
81	0x360f16dc	2.1321966e-06
82	0x35a7df97	1.2507543e-06
83	0x354c4b1f	7.610524e-07
84	0x359a324f	1.1488536e-06
85	0x35408709	7.1722076e-07
86	0x3465923b	2.1380485e-07
87	0x35c02bcc	1.4317861e-06
88	0x337221b4	5.637567e-08
89	0x352401ed	6.1097563e-07
90	0x3608762d	2.0334367e-06
91	0x35edffb6	1.7732298e-06
92	0x388dea7d	6.767081e-05
93	0x35f878e3	1.8512623e-06
94	0x38b9b43c	8.855059e-05
95	0x3897bf65	7.235891e-05
96	0x38090e67	3.267676e-05
97	0x38365b1a	4.3477026e-05
98	0x36e2190f	6.738242e-06
99	0x38077d6b	3.2303313e-05

exp_avg f4 [10]
0	0x35382ee1	6.861356e-07
1	0x356d4eed	8.840423e-07
2	0xb6da34cf	-6.503054e-06
3	0xb556407b	-7.9815044e-07
4	0x341fbedf	1.4877467e-07
5	0xb555979e	-7.9569315e-07
6	0x3737ffcb	1.0967206e-05
7	0xb5ab19df	-1.2748022e-06
8	0x3529d785	6.327103e-07
9	0xb70e576c	-8.484214e-06

exp_avg_sq f4 [10]
0	0x35a3a937	1.2193694e-06
1	0x35bb86fb	1.397187e-06
2	0x379ba237	1.8552977e-05
3	0x38085af0	3.250962e-05
4	0x334db0e9	4.789118e-08
5	0x360cba18	2.0969946e-06
6	0x3960959a	0.00021418036
7	0x360d3f6c	2.1047554e-06
8	0x34a15d94	3.0056674e-07
9	0x38fa7ed0	0.000119445496

exp_avg f4 [1, 10]
0	0xb714119b	-8.8255865e-06
1	0xb77053a7	-1.4324592e-05
2	0xb6dd7b88	-6.600694e-06
3	0xb58351a9	-9.784027e-07
4	0xb706c770	-8.033458e-06
5	0x351feb89	5.9574865e-07
6	0xb4e8c651	-4.3357662e-07
7	0xb5af7a0e	-1.3074039e-06
8	0xb7921406	-1.741388e-05
9	0x3720a141	9.574288e-06

exp_avg_sq f4 [1, 10]
0	0x3863feba	5.435825e-05
1	0x383200c5	4.2439224e-05
2	0x37e914f0	2.7785514e-05
3	0x37b023fd	2.0997593e-05
4	0x379c1ea6	1.8610921e-05
5	0x3646e038	2.9634812e-06
6	0x38bd0f87	9.0151145e-05
7	0x378d5c87	1.6851596e-05
8	0x385cca1a	5.264031e-05
9	0x381c3a85	3.72478e-05
