modelos/heat_10x1-20000.pt (torch, 5894 bytes, 9 tensors)

linears.0.weight f4 [10, 2]
0	0x3f679030	0.9045439
1	0x4004c9c1	2.074814
2	0xbfa985cc	-1.3243957
3	0x40c62233	6.1916747
4	0x3f90d9f7	1.1316518
5	0xbe3bd42d	-0.18342657
6	0xbf783dd6	-0.96969354
7	0x3f9ab0f0	1.2085247
8	0x3f247556	0.6424154
9	0x4028420a	2.6290307
10	0xbf5076ff	-0.81431574
11	0x3ffe2a91	1.985674
12	0xbe875f29	-0.2643979
13	0x4048a87d	3.1352837
14	0x3fa11a25	1.2586104
15	0x3edd1a47	0.4318411
16	0xbf000c90	-0.5001917
17	0x4008e71e	2.1391063
18	0xbf915ef7	-1.1357106
19	0x410c4afc	8.768307

linears.0.bias f4 [10]
0	0x3f05a60b	0.52206486
1	0x3fe9206b	1.8213018
2	0xbf81e4f6	-1.0147998
3	0x3e104d11	0.14091899
4	0xbe59b2f7	-0.21259676
5	0xbf060836	-0.5235628
6	0xbeb5d07d	-0.35510626
7	0xbfc62d7e	-1.5482633
8	0x3ee263ab	0.44216666
9	0x3fbc5d0e	1.4715898

linears.1.weight f4 [1, 10]
0	0x40592d95	3.393407
1	0x40504ea4	3.2547998
2	0xc0ade64e	-5.4343634
3	0xc0a166e7	-5.0438113
4	0xc02f7914	-2.741765
5	0x4016af6d	2.3544571
6	0x4019d7c4	2.4037943
7	0x4019ae7a	2.4012742
8	0xc05cc272	-3.449368
9	0xbfba2131	-1.4541379

exp_avg f4 [10, 2]
0	0x375ca424	1.3151239e-05
1	0x3885d186	6.380961e-05
2	0x38aaea20	8.149841e-05
3	0xb82e0c08	-4.1496038e-05
4	0xb8828ee1	-6.225496e-05
5	0x38a16f27	7.697782e-05
6	0xb9a4d1da	-0.0003143687
7	0xb9c8d60d	-0.00038306453
8	0x34ea8b3a	4.3687197e-07
9	0xb7b73912	-2.1841875e-05
10	0x3961e522	0.00021543031
11	0xb71a010f	-9.179362e-06
12	0xb8640977	-5.436825e-05
13	0xb8a0a7ac	-7.660626e-05
14	0x382e6b42	4.1584724e-05
15	0x38e18b1c	0.00010754747
16	0x381b09e2	3.6964084e-05
17	0xb9b10ea0	-0.00033770967
18	0x39aea6cd	0.00033312142
19	0xb85c9b10	-5.25965e-05

exp_avg_sq f4 [10, 2]
0	0x346b3038	2.1903622e-07
1	0x3585abd4	9.959281e-07
2	0x3938c452	0.00017620742
3	0x33e2458a	1.0536594e-07
4	0x39bf5c05	0.0003649892
5	0x3a0e0e09	0.00054189615
6	0x3a4cb3ed	0.00078087935
7	0x39dc488c	0.00042015722
8	0x36048c5b	1.975123e-06
9	0x36d775fc	6.4212345e-06
10	0x3918f94e	0.00014588723
11	0x388053fe	6.1191604e-05
12	0x3733700b	1.0695318e-05
13	0x3728b6e3	1.0056162e-05
14	0x37ddb907	2.6431413e-05
15	0x38b9d118	8.860434e-05
16	0x38a1c090	7.712946e-05
17	0x379dce7d	1.8812012e-05
18	0x382c0ceb	4.1020026e-05
19	0x33a41d5a	7.642184e-08

exp_avg f4 [10]
0	0xb8904e2d	-6.8810165e-05
1	0xb8a79ec9	-7.9927566e-05
2	0xb9cdb06a	-0.00039232086
3	0xb89128f0	-6.921764e-05
4	0x38ddb04c	0.00010570939
5	0x379e3b63	1.8862722e-05
6	0x3886dd0a	6.43079e-05
7	0x38897ec9	6.556285e-05
8	0xb9a2fcd3	-0.00031087417
9	0xb93c36e2	-0.00017949523

exp_avg_sq f4 [10]
0	0x386cd624	5.646622e-05
1	0x392d1143	0.00016504996
2	0x3a87f04d	0.0010371298
3	0x3a67d0e2	0.00088430766
4	0x383b8de3	4.4716417e-05
5	0x390af1bd	0.0001325076
6	0x380948ee	3.2731266e-05
7	0x39023bbc	0.00012420019
8	0x388e0368	6.771722e-05
9	0x385aff49	5.2213003e-05

exp_avg f4 [1, 10]
0	0xb990f0db	-0.00027645272
1	0xb872fcda	-5.7932783e-05
2	0x392f17be	0.00016698145
3	0x39d0e598	0.00039843912
4	0x39a1bce7	0.00030849056
5	0xb8999da2	-7.32497e-05
6	0xb939c6a6	-0.00017716977
7	0xb850031c	-4.959396e-05
8	0xb7895448	-1.637092e-05
9	0x382452c0	3.9177714e-05

exp_avg_sq f4 [1, 10]
0	0x3752cf41	1.25652305e-05
1	0x37d028d4	2.4814544e-05
2	0x3687c4d9	4.0462296e-06
3	0x36b3d091	5.358896e-06
4	0x37e9d816	2.7876387e-05
5	0x370d812a	8.434328e-06
6	0x382e7c26	4.1600455e-05
7	0x3681ef94	3.87239e-06
8	0x37d59671	2.5461633e-05
9	0x381768b6	3.6098725e-05
