modelos/heat_10x2-20000.pt (torch, 9198 bytes, 15 tensors)

linears.0.weight f4 [10, 2]
1.6722925 0.90977263 -1.1685373 -1.5429773 0.06134614 -1.2607799 -0.45263258 -0.1282664
-0.41941518 0.3648965 -0.029869681 -1.9066528 0.0461182 -1.2215341 0.4186138 2.786386
0.99615324 -2.1226673 -0.0022163196 -1.3161542
00000000: ae0d d63f dce6 683f a192 95bf 4880 c5bf
00000010: 1746 7b3d 3c61 a1bf 75bf e7be 4458 03be
00000020: 96bd d6be b7d3 ba3e 43b1 f4bc 330d f4bf
00000030: 70e6 3c3d 3b5b 9cbf 8c54 d63e 2654 3240
00000040: e603 7f3f c8d9 07c0 ac3f 11bb be77 a8bf

linears.0.bias f4 [10]
0.04104945 0.6307028 -0.113918126 0.012080438 0.26058826 0.09803823 -0.116300106 0.3448804
-0.5763069 -0.012645336
00000000: 7823 283d bd75 213f e84d e9bd 08ed 453c
00000010: d36b 853e 44c8 c83d c02e eebd 2a94 b03e
00000020: d988 13bf 622e 4fbc

linears.1.weight f4 [10, 10]
-0.8291493 -0.7692753 -0.7294558 -0.39747444 1.2148145 0.107600555 -0.29178923 1.5899206
-0.71164477 0.58669233 -0.047571756 -0.24687165 -0.8821023 -0.42694378 0.5746951 -0.061658613
0.3265386 0.28604257 -0.022026505 0.29380023 -1.2923778 -2.2592847 2.5404544 -0.4692014
-0.38695365 1.7407721 2.6187565 0.56012964 -2.0149662 1.8710972 0.82498115 -0.035549764
0.72870404 -0.84960103 -0.5249755 0.19945534 0.33317026 -0.71063095 0.157574 0.1988442
-0.5126533 -0.4976814 0.5910439 -0.6625248 0.009414148 0.76646316 0.3248849 0.39740697
-0.87617713 0.5659338 0.40233365 -1.0074788 -0.47655588 -0.55204123 -0.111010365 0.029885445
-0.40544847 0.9111632 -1.0245339 -0.29745862 -0.26095024 -0.086574525 0.12626831 -0.54730505
-0.46875158 0.6553371 0.56107455 -0.08323216 -0.052833363 0.8568316 1.080014 0.13148841
-1.0005788 0.74031395 0.313148 -0.6170331 -1.4189197 -0.11013247 0.2801042 -0.45609125
1.5103079 1.027837 -0.67103046 1.0481952 1.6670152 -0.263389 -0.86289006 -0.87388074
0.16088343 -0.6990197 -0.45922825 -1.0353911 -0.2068612 0.089754306 0.0434514 -0.57837486
-0.40834677 0.67252135 -0.21545565 -0.3258111
00000000: 2143 54bf 3aef 44bf 9ebd 3abf c581 cbbe
00000010: 0b7f 9b3f ae5d dc3d 6665 95be 8582 cb3f
00000020: 5a2e 36bf 7831 163f 9ada 42bd eccb 7cbe
00000030: 75d1 61bf 6098 dabe 381f 133f be8d 7cbd
00000040: 1130 a73e 2c74 923e ee70 b4bc fc6c 963e
00000050: a36c a5bf 1f98 10c0 ce96 2240 2a3b f0be
00000060: ca1e c6be 9fd1 de3f b599 2740 a864 0f3f
00000070: 35f5 00c0 1d80 ef3f f731 533f a19c 11bd
00000080: 598c 3a3f 747f 59bf cb64 06bf 053e 4c3e
00000090: 4b95 aa3e e9eb 35bf 145b 213e d09d 4b3e
000000a0: 3f3d 03bf 19d0 febe a74e 173f 3a9b 29bf
000000b0: cc3d 1a3c ee36 443f 5057 a63e ed78 cb3e
000000c0: 254d 60bf 0ae1 103f adfe cd3e 11f5 80bf
000000d0: 22ff f3be 9352 0dbf 6759 e3bd 52d2 f43c
000000e0: f196 cfbe fe41 693f ed23 83bf 7f4c 98be
000000f0: 459b 85be fc4d b1bd 7b4c 013e 2f1c 0cbf
00000100: 3500 f0be 2cc4 273f 95a2 0f3f 9f75 aabd
00000110: cc67 58bd 5159 5b3f e63d 8a3f e6a4 063e
00000120: f712 80bf 3785 3d3f ef54 a03e e2f5 1dbf
00000130: 299f b5bf 228d e1bd d169 8f3e cb84 e9be
00000140: c551 c13f 2a90 833f a7c8 2bbf 432b 863f
00000150: c160 d53f ecda 86be 5de6 5cbf a6b6 5fbf
00000160: a0be 243e f4f2 32bf f71f ebbe b287 84bf
00000170: 6cd3 53be 1bd1 b73d 18fa 313d 6010 14bf
00000180: d412 d1be 5c2a 2c3f 68a0 5cbe b6d0 a6be

linears.1.bias f4 [10]
0.16441126 -0.03516898 -0.03372189 -0.24960798 -0.010703962 0.02274947 0.067383274 0.0042100223
0.25305638 -0.01664528
00000000: 6d5b 283e 590d 10bd f71f 0abd 3c99 7fbe
00000010: ac5f 2fbc 195d ba3c 3e00 8a3d 3af4 893b
00000020: 9b90 813e af5b 88bc

linears.2.weight f4 [1, 10]
-1.5948699 -0.5858337 -2.0262203 0.984284 -0.371416 -1.2381713 -0.39966416 1.0987879
1.0506345 -0.5565721
00000000: b224 ccbf 33f9 15bf 98ad 01c0 09fa 7b3f
00000010: 3d2a bebe 667c 9ebf c8a0 ccbe 15a5 8c3f
00000020: 317b 863f 827b 0ebf

exp_avg f4 [10, 2]
-3.9571296e-06 -2.8626979e-05 4.300869e-05 4.750209e-05 1.7647585e-06 7.31253e-06 7.178788e-05 -2.836577e-06
1.1151861e-06 -2.0618875e-06 1.1739904e-05 -8.329179e-06 4.2757794e-05 8.030923e-06 -3.9193812e-05 -3.285452e-05
0.00014440234 4.5610832e-05 3.7242375e-05 2.4767553e-06
00000000: 7cc7 84b6 f823 f0b7 3b64 3438 fb3c 4738
00000010: a4dc ec35 285e f536 d38c 9638 065c 3eb6
00000020: 81ad 9535 f55e 0ab6 81f6 4437 8dbd 0bb7
00000030: d556 3338 8dbc 0637 0964 24b8 46cd 09b8
00000040: b56a 1739 424e 3f38 b234 1c38 5536 2636

exp_avg_sq f4 [10, 2]
4.624547e-06 4.679031e-05 0.002413986 0.00019811103 0.0020272448 8.453385e-06 0.00079038466 2.6960592e-05
3.6857462e-05 1.5601765e-06 0.0018894994 3.968062e-05 0.0042633847 8.058851e-05 0.001723247 5.5887158e-05
0.0028505381 0.00010758119 0.0035996926 8.310444e-05
00000000: 8e2c 9b36 b640 4438 f733 1e3b 06bc 4f39
00000010: 86db 043b 03d3 0d37 d131 4f3a 6e29 e237
00000020: 6697 1a38 4267 d135 14a9 f73a be6e 2638
00000030: ddb3 8b3b a001 a938 93de e13a 6168 6a38
00000040: 18d0 3a3b 369d e138 d2e8 6b3b 5b48 ae38

exp_avg f4 [10]
0.00016955235 -4.0617786e-05 3.506801e-05 1.1381056e-05 -5.624487e-06 -3.443705e-06 2.074788e-05 4.284995e-06
0.00012827989 -2.9974883e-06
00000000: ddc9 3139 045d 2ab8 fd15 1338 43f1 3e37
00000010: fab9 bcb6 671a 67b6 bc0b ae37 d4c7 8f36
00000020: df82 0639 7528 49b6

exp_avg_sq f4 [10]
0.002911449 0.008172111 0.0077779763 0.0044395938 8.691929e-05 0.007049935 0.015163354 0.009321242
0.0093433345 0.01023785
00000000: 02ce 3e3b 51e4 053c 65de fe3b 037a 913b
00000010: 7048 b638 2403 e73b b76f 783c 1fb8 183c
00000020: c914 193c a8bc 273c

exp_avg f4 [10, 10]
4.8269652e-05 8.498305e-06 2.7097858e-06 -1.603092e-05 -2.089747e-05 -6.1654896e-06 2.1529754e-06 -1.8578141e-05
2.2885259e-05 -1.6805224e-06 -3.7352647e-06 -1.00949865e-05 6.424903e-06 -4.6492737e-06 -8.863738e-06 1.1008834e-05
6.006197e-06 -1.3925133e-05 2.0847428e-05 5.2101436e-06 -6.587079e-06 3.1911688e-05 -6.307437e-06 -5.647769e-06
-4.15768e-06 -4.464943e-06 -6.7817987e-06 1.5380663e-06 9.237685e-06 -6.5581908e-06 9.762166e-06 -2.332073e-05
-1.2173702e-05 2.0772638e-06 1.00528905e-05 -1.4628866e-05 -1.189918e-05 3.3143588e-06 -4.993009e-06 -1.22234005e-05
-3.9384966e-05 -7.769476e-06 -4.8349607e-06 2.1713688e-06 2.0755437e-05 1.0468226e-06 -4.9052037e-06 -4.5271418e-06
-8.1386415e-06 -4.6320124e-06 4.114126e-06 4.93469e-06 8.836057e-06 2.1508242e-06 -3.2776684e-06 8.583764e-06
8.7250855e-06 -3.0537794e-05 2.91565e-05 8.240057e-06 -9.05863e-07 6.6912858e-06 -7.376728e-06 1.6581007e-06
8.518497e-07 -1.3998793e-05 -7.113687e-06 3.5978837e-07 -2.107703e-06 -8.706696e-06 -2.9954566e-05 -2.5384958e-05
4.656482e-06 -5.86173e-07 -1.2064125e-06 1.0276348e-05 4.6194923e-06 5.478723e-06 -9.0386663e-07 6.331704e-06
-9.255117e-06 -1.2453609e-06 1.0319104e-05 -1.1840026e-05 2.9074322e-06 2.6132377e-06 9.79675e-06 -8.023255e-06
-1.871889e-05 7.909262e-06 2.568493e-05 -1.3936071e-06 4.645861e-06 1.3874436e-06 -2.3130974e-07 6.205293e-06
4.581828e-06 -1.8598337e-05 7.296907e-06 4.6438727e-06
00000000: 2575 4a38 f193 0e37 c4d9 3536 237a 86b7
00000010: fa4c afb7 27e1 ceb6 d67b 1036 41d8 9bb7
00000020: b8f9 bf37 4f8e e1b5 5cab 7ab6 a35d 29b7
00000030: 7f95 d736 f500 9cb6 77b5 14b7 95b2 3837
00000040: d788 c936 fe9f 69b7 83e1 ae37 cbd2 ae36
00000050: 9406 ddb6 ead8 0538 79a4 d3b6 f781 bdb6
00000060: 3382 8bb6 91d1 95b6 358f e3b6 8e6f ce35
00000070: 8efb 1a37 6e0e dcb6 2fc8 2337 e3a0 c3b7
00000080: a73d 4cb7 1f67 0b36 d6a8 2837 806e 75b7
00000090: 97a2 47b7 406c 5e36 9f89 a7b6 1b13 4db7
000000a0: 4931 25b8 a559 02b7 ff3b a2b6 d5b7 1136
000000b0: f61b ae37 8d80 8c35 6197 a4b6 dae7 97b6
000000c0: 338b 08b7 af6c 9bb6 130c 8a36 aa94 a536
000000d0: 933e 1437 e156 1036 eaf5 5bb6 fc02 1037
000000e0: f561 1237 b515 00b8 1b95 f437 c63e 0a37
000000f0: 6e2a 73b5 b585 e036 9c85 f7b6 e88b de35
00000100: aaaa 6435 5cdc 6ab7 1bb2 eeb6 f028 c134
00000110: 1072 0db6 f912 12b7 f146 fbb7 c8f1 d4b7
00000120: e03e 9c36 8059 1db5 05ec a1b5 9468 2c37
00000130: 2301 9b36 dfd5 b736 3ea1 72b5 ec74 d436
00000140: 6d46 1bb7 4626 a7b5 3720 2d37 86a4 46b7
00000150: 4e1d 4336 155f 2f36 b95c 2437 9e9b 06b7
00000160: 8306 9db7 06b2 0437 f875 d737 fa0b bbb5
00000170: a4e3 9b36 3338 ba35 f05d 78b4 1037 d036
00000180: 9abd 9936 a003 9cb7 f4d7 f436 90d2 9b36

exp_avg_sq f4 [10, 10]
0.00026223127 8.215229e-07 9.5304637e-07 5.3086223e-05 3.3474275e-06 4.0668052e-05 2.8218318e-07 0.00010121106
6.401843e-05 6.8862014e-06 9.097686e-06 1.9733963e-05 7.2065945e-06 2.6521937e-08 4.015031e-07 2.4905366e-05
6.4953947e-06 5.986573e-06 2.4290739e-05 1.0137138e-05 0.00023328666 1.9052e-05 3.031653e-08 5.351724e-05
1.7739545e-07 6.179449e-05 1.1284019e-07 0.00017593078 1.7113169e-05 8.000513e-06 2.3678529e-05 9.545585e-06
2.9360008e-05 5.5506824e-08 1.0038924e-05 5.4086402e-05 2.7350829e-05 5.821466e-05 0.00013713913 2.8664032e-05
1.1139404e-05 9.779954e-06 6.555029e-06 5.092206e-08 8.3613617e-07 1.5773006e-05 6.0882303e-06 1.0020341e-05
2.2788761e-05 7.582052e-06 1.9825618e-05 8.807897e-05 1.7415621e-06 2.4880383e-06 1.39537815e-05 1.4296696e-05
2.2239346e-06 5.8209156e-05 3.2717944e-05 6.5111817e-07 9.933184e-08 3.850128e-06 1.7261754e-06 5.4536446e-07
2.1738956e-07 8.278931e-06 1.4639147e-06 1.2224828e-07 9.2996615e-06 2.8616803e-06 2.0596788e-05 4.4326796e-05
1.5963465e-08 6.205038e-06 3.5155304e-06 2.238149e-05 1.162572e-07 4.0377723e-05 6.430347e-07 2.8533987e-06
3.514788e-05 6.0387006e-06 2.7809858e-06 1.9081954e-05 8.091465e-06 1.6115353e-05 1.9469169e-06 1.1648778e-05
8.1630315e-05 4.5849592e-06 1.3170004e-06 9.630186e-06 2.3969985e-06 2.3652973e-07 2.6216389e-08 1.2398468e-05
2.0630746e-06 5.692185e-07 8.729387e-06 4.2252727e-06
00000000: 167c 8939 a086 5c35 d9d4 7f35 e6a8 5e38
00000010: 5ea4 6036 fd92 2a38 f67e 9734 4641 d438
00000020: a241 8638 0510 e736 44a2 1837 5d8a a537
00000030: 2dd0 f136 5bd2 e332 2a8e d734 deeb d037
00000040: 04f3 d936 45e0 c836 f7c3 cb37 ad12 2a37
00000050: 699e 7439 dcd1 9f37 6135 0233 b377 6038
00000060: 177a 3e34 aa97 8138 8d52 f233 0f7a 3839
00000070: 408e 8f37 f139 0637 41a1 c637 fa25 2037
00000080: 234a f637 6666 6e33 da6c 2837 d5da 6238
00000090: 756f e537 842b 7438 01cd 0f39 8a73 f037
000000a0: 60e3 3a37 9514 2437 45f3 db36 66b5 5a33
000000b0: d772 6035 4650 8437 8049 cc36 091d 2837
000000c0: 7e2a bf37 5569 fe36 314f a637 09b7 b838
000000d0: 9ebf e935 2cf8 2636 091b 6a37 d7db 6f37
000000e0: e83e 1536 9b25 7438 a03a 0938 80c8 2e35
000000f0: 4250 d533 5930 8136 efae e735 2965 1235
00000100: 966b 6934 bde5 0a37 ba7b c435 5a43 0334
00000110: be05 1c37 4b0b 4036 44c7 ac37 89eb 3938
00000120: 0820 8932 df34 d036 5aec 6b36 e2bf bb37
00000130: 12a9 f933 405b 2938 029d 2c35 047d 3f36
00000140: c06b 1338 0ba0 ca36 f9a0 3a36 2f12 a037
00000150: 94c0 0737 752f 8737 c7a7 0236 1f6f 4337
00000160: f130 ab38 80d8 9936 cac3 b035 5591 2137
00000170: 1fdc 2036 ccf8 7d34 7332 e132 0403 5037
00000180: 5a73 0a36 66cc 1835 6f74 1237 d1c6 8d36

exp_avg f4 [10]
-8.2654615e-06 -8.869832e-06 2.4494942e-05 3.9376605e-06 3.9441697e-06 -6.994621e-06 -5.1189977e-06 1.1711487e-06
-9.727266e-06 -3.6327317e-06
00000000: e3ab 0ab7 a3cf 14b7 7d7a cd37 3f20 8436
00000010: 2958 8436 56b3 eab6 dbc3 abb6 5d30 9d35
00000020: 4a32 23b7 dbc9 73b6

exp_avg_sq f4 [10]
0.0007130585 1.7410985e-05 0.0013779897 5.611753e-06 3.6406402e-07 0.00056159095 1.9239253e-05 0.0004614551
0.00011508659 2.7470032e-05
00000000: 8cec 3a3a ce0d 9237 a99d b43a 974c bc36
00000010: 9474 c334 bb37 133a fb63 a137 75ef f139
00000020: a45a f138 726f e637

exp_avg f4 [1, 10]
5.4324155e-05 -1.2227032e-05 8.327811e-05 -4.037166e-05 -3.874036e-05 2.7486358e-05 3.48898e-05 -2.494245e-05
-5.3201973e-05 5.9787258e-06
00000000: 1eda 6338 b422 4db7 98a5 ae38 bd54 29b8
00000010: 257d 22b8 8192 e637 a356 1238 813b d1b7
00000020: 2f25 5fb8 dd9c c836

exp_avg_sq f4 [1, 10]
0.000103044804 4.8773167e-05 0.00010905871 0.00016561466 1.6278516e-05 0.00013106344 0.00027460483 0.00019149143
0.00012724473 0.00038180157
00000000: c219 d838 ca91 4c38 73b6 e438 d9a8 2d39
00000010: d98d 8837 136e 0939 d6f8 8f39 17cb 4839
00000020: ff6c 0539 8a2c c839
