modelos/heat_40x2-20000.pt (torch, 29166 bytes, 15 tensors)

linears.0.weight f4 [40, 2]
0	0xbf08db8e	-0.53460014
1	0x3f3624e5	0.71150047
2	0xbf04b5a4	-0.5183966
3	0x3ed66db8	0.41880584
4	0x3e9cb84a	0.3060935
5	0xc00e9e1a	-2.2283998
6	0x3b371af4	0.002793965
7	0xbec6b3dc	-0.38809097
8	0xbd4b05f0	-0.04956621
9	0xbf81dd66	-1.014569
10	0xbde69ebf	-0.11260747
11	0xbf96de47	-1.1786584
12	0xbec70dab	-0.38877615
13	0xbfaed47d	-1.3658596
14	0x3e26b3f2	0.16279581
15	0xbead5b29	-0.33858612
16	0xbe84ee31	-0.25962976
17	0xbd7cf18f	-0.061753806
18	0x3e8b8549	0.27250126
19	0x3e93bf29	0.2885678
20	0x3e5c6dec	0.21526307
21	0x3f946165	1.1592222
22	0xbe95f606	-0.29289263
23	0xbe6946b6	-0.2278088
24	0xbeb67e09	-0.35643032
25	0xbf4ec5de	-0.8077067
26	0xbe833422	-0.25625712
27	0x3ecb88c8	0.39752793
28	0x3eb8c974	0.36091197
29	0xbcce43e4	-0.025178857
30	0xbe8b170d	-0.27166024
31	0xbfbda2ff	-1.4815367
32	0x3d2a2642	0.04154039
33	0xbfb4a7e9	-1.4113742
34	0x3ea0ffe6	0.31445235
35	0xbf2c65d3	-0.6734287
36	0x3eb18f11	0.34679464
37	0x3f18b7b8	0.5965533
38	0x3e985137	0.29749462
39	0xbd32678c	-0.04355578
40	0x3eb991ed	0.36244145
41	0xbdb5b2cc	-0.088719934
42	0x3eccbf07	0.39989492
43	0xbe9efe44	-0.31053364
44	0x3cab1cbc	0.020887725
45	0xbf4af99d	-0.7928713
46	0xbf8ee98b	-1.1165022
47	0x3eaeee20	0.3416605
48	0x3eb549ca	0.3540786
49	0x3ef41013	0.47668514
50	0x3f0d8928	0.5528741
51	0xbd56000b	-0.052246135
52	0x3f090073	0.5351631
53	0x3f99e0c9	1.2021724
54	0xbda400bf	-0.08007955
55	0xbe8ffa5a	-0.2812069
56	0x3e806ea1	0.25084403
57	0xbec42d23	-0.38315687
58	0xb8b0f406	-8.437787e-05
59	0xbf49f0f4	-0.7888329
60	0x3e51341a	0.20430031
61	0x3f5b6f90	0.85717106
62	0x3e760a41	0.24027349
63	0x3f8c5b36	1.0965335
64	0x3e8a086c	0.2695955
65	0x3f3a27d6	0.72717035
66	0xbeb42cdb	-0.35190472
67	0xbea90713	-0.3301321
68	0x3ef0a2b3	0.4699913
69	0xbea1199d	-0.31464854
70	0xbc531673	-0.01288377
71	0xbf302f4d	-0.68822175
72	0x3eaa5224	0.33265793
73	0x3ea71460	0.32632732
74	0x3d1f41fb	0.038881283
75	0x3f17f8f8	0.5936427
76	0xbf2f3b50	-0.6844988
77	0xbe4067fe	-0.1878967
78	0xbe8e6b2d	-0.27816144
79	0x3f63f806	0.8905033

linears.0.bias f4 [40]
0	0x3f10c7ba	0.5655476
1	0x3e77f6ce	0.24215242
2	0xbec186e8	-0.37798238
3	0xbda00f3d	-0.078154065
4	0x3cd91374	0.026498534
5	0xbb440c9d	-0.0029914745
6	0x3e2bfd2d	0.16795798
7	0x3d54b894	0.05193384
8	0xbd85e274	-0.06537333
9	0x3dfe8074	0.12426844
10	0xbd88fb73	-0.06688585
11	0x3d2f1c2d	0.04275148
12	0x3e8ef031	0.27917627
13	0x3c4aaa84	0.012369756
14	0xbd97939f	-0.07401203
15	0x3bbb59af	0.005717478
16	0xbe32ea8d	-0.17472287
17	0xbe87ac21	-0.2649851
18	0xbe21a0b8	-0.15783966
19	0xbdd4c4ec	-0.10389122
20	0xbdd3b18e	-0.103366
21	0xbdf784db	-0.12085887
22	0xbd21b222	-0.03947652
23	0xbd353826	-0.044243
24	0x3d9cbb19	0.076528735
25	0xbed9d332	-0.42543942
26	0x3dc95f45	0.09832624
27	0x3d399da4	0.045316353
28	0xbc9421a3	-0.018082445
29	0xbee7fb66	-0.4530899
30	0xbd4b7e99	-0.04968128
31	0x3e31a999	0.17349853
32	0xbdbb2270	-0.09137428
33	0xbd9b1279	-0.07571883
34	0x3ed6b886	0.41937655
35	0xbd3bedac	-0.04588096
36	0xbd4334a8	-0.04765764
37	0x3dee9db8	0.11651176
38	0xbe77a6c3	-0.24184708
39	0x3d8bb376	0.06821339

linears.1.weight f4 [40, 40]
0	0x3df4160e	0.11918269
1	0x3cc1e735	0.023669818
2	0xbde974e0	-0.11399245
3	0xbeca55b7	-0.3951852
4	0xbdfe20d5	-0.12408606
5	0xbddf12a9	-0.10892231
6	0xbf096d06	-0.5368198
7	0x3e3f0315	0.1865352
8	0x3e1f4472	0.15553454
9	0x3d6e75e1	0.058217887
10	0x3d969c73	0.07354059
11	0x3de6806d	0.11254964
12	0xbe3c9f62	-0.18420175
13	0xbe18915c	-0.148992
14	0x3e13efa1	0.1444688
15	0xbe7653f6	-0.24055466
16	0xbeabd763	-0.33562765
17	0xbd754d0d	-0.059887934
18	0xbc8ffd7b	-0.017576924
19	0xbd64d276	-0.055864774
20	0xbeac4a1a	-0.33650285
21	0xbdc8902a	-0.09793122
22	0xbdccbc4f	-0.099968545
23	0xbe0a3eaf	-0.13500474
24	0x3e8f4a7c	0.27986515
25	0xbdf55b8c	-0.11980352
26	0xbe36505c	-0.17804092
27	0xbe0a875f	-0.13528202
28	0x3e83696c	0.25666368
29	0xbe1a9238	-0.1509484
30	0xbd89a33e	-0.06720589
31	0xbd5b4189	-0.053529296
32	0x3cb5e402	0.02220345
33	0x3ea28f33	0.31749877
34	0xbde3d5a1	-0.11124731
35	0xbd050ed7	-0.032484856
36	0xbc8bbcf9	-0.017057883
37	0x3d648a0b	0.05579571
38	0xbca0073e	-0.019534703
39	0x3e116c55	0.14201482
40	0xbd8cf44c	-0.068825334
41	0xbead8a90	-0.33894777
42	0x3dc780c4	0.09741357
43	0x3ec2299e	0.37922376
44	0x3d5cb20d	0.05388074
45	0x3d466808	0.048439056
46	0xbd1d72ea	-0.03843967
47	0x3d9c525d	0.07632897
48	0xbe2c17e0	-0.16805983
49	0x3db91417	0.09037035
50	0xbdc773cd	-0.09738884
51	0xbdf1a512	-0.11799063
52	0x3d71c870	0.059029043
53	0x3ce2839b	0.027650645
54	0xbdc21486	-0.09476571
55	0x3d508d7b	0.050916176
56	0xbd9337af	-0.07188355
57	0x3dcf91ff	0.101352684
58	0xbd866966	-0.06563072
59	0x3e97e1cc	0.29664457
60	0xbdbb7835	-0.09153787
61	0x3ea6a259	0.32545736
62	0x3e919e02	0.28440863
63	0x3de90838	0.11378521
64	0x3d511fbf	0.051055666
65	0x3e05041b	0.12989847
66	0x3ddcb0e0	0.10775924
67	0x3df6d25f	0.12051844
68	0xbeaa52ef	-0.33266398
69	0xbe0f7431	-0.14009167
70	0xbe45d982	-0.19321254
71	0x3d94dee0	0.072690725
72	0xbcc8a149	-0.02449097
73	0x3c582eba	0.013194734
74	0x3e5ed32f	0.21760248
75	0x3e4b837c	0.19874376
76	0xbdf7d3ab	-0.12100919
77	0xbdff79ae	-0.124743804
78	0x3b1a4938	0.0023542177
79	0x3cafc5ab	0.02145656
80	0x3e0b6dbf	0.13616084
81	0xbdcefcd6	-0.101068184
82	0x3dc84bd3	0.09780087
83	0xbd0f3371	-0.034961168
84	0x3d12e3de	0.035861842
85	0x3de024ec	0.10944542
86	0x3e7f1945	0.24911983
87	0x3e169918	0.14706838
88	0xbe861527	-0.26188013
89	0xbeb3e1f8	-0.35133338
90	0x3d27a4df	0.040928718
91	0x3e1b8556	0.15187582
92	0x3c235795	0.009969612
93	0xbc5e02ca	-0.01355047
94	0x3d5c2458	0.053745598
95	0xbcb0e17f	-0.0215919
96	0x3bb7039f	0.0055851485
97	0x3e92cbf6	0.28671235
98	0x3e964358	0.29348254
99	0x3ed195c2	0.4093457
100	0xbe0741b4	-0.13208658
101	0x3b013e95	0.001972114
102	0x3e039838	0.12851036
103	0x3e27b936	0.16379246
104	0x3e198815	0.14993317
105	0x3b798deb	0.0038078974
106	0x3ecc713a	0.39930135
107	0x3d9338e1	0.07188583
108	0xbdc0b649	-0.09409768
109	0x3edce677	0.4314458
110	0xbe0c072c	-0.13674611
111	0xbe0068ca	-0.12539974
112	0xbe997b4f	-0.2997689
113	0x3d2b3c02	0.041805275
114	0x3e54dba2	0.20786908
115	0x3d99be9b	0.07507058
116	0x3d04512f	0.032303985
117	0x3d98ad1f	0.07454895
118	0xbe978915	-0.29596773
119	0xbe829452	-0.25503784
120	0x3e4d65f6	0.20058426
121	0xbc2f148c	-0.010686051
122	0xbda93540	-0.0826211
123	0x3e8973da	0.268462
124	0x3e22cddd	0.15898843
125	0x3ed764ee	0.4206919
126	0x3dbe73e6	0.092994496
127	0x3e67f41a	0.22651711
128	0x3d3d4cdc	0.046215877
129	0xbe2dec16	-0.16984591
130	0xbf204495	-0.6260465
131	0x3eaad640	0.33366585
132	0x3eeeed96	0.4666564
133	0xbe003798	-0.12521207
134	0x3e68cce6	0.22734413
135	0x3eb7c684	0.35893643
136	0x3e554c34	0.2082985
137	0xbc1a4a21	-0.009417088
138	0xbea2ee18	-0.31822276
139	0xbed74cb4	-0.42050707
140	0x3a682a68	0.00088564167
141	0x3e751775	0.2393473
142	0x3eb478b9	0.35248354
143	0xbedb63b9	-0.4284952
144	0xbe926bb4	-0.28597796
145	0xbef92ba1	-0.486661
146	0xbe1773f4	-0.14790326
147	0xbde4ef3d	-0.111784436
148	0x3e06a5de	0.13149211
149	0x3ecbbb52	0.39791352
150	0xbf2f7a9f	-0.6854648
151	0xbeadea0b	-0.33967623
152	0xbea4ba26	-0.3217327
153	0x3d5d5613	0.054037165
154	0x3c812663	0.015765375
155	0x3da22a26	0.079181954
156	0xbebe4128	-0.37159085
157	0xbea80500	-0.32816315
158	0xbcffa717	-0.031207604
159	0x3e36b8e8	0.17843974
160	0xbe9ac7b9	-0.302305
161	0xbf2d90b4	-0.67798924
162	0x3f43276b	0.7623202
163	0x3f536a44	0.82584023
164	0x3f064a5b	0.5245721
165	0x3f3cd5f9	0.73763996
166	0x3f830f3b	1.0239023
167	0x3e28335b	0.1642584
168	0x3d21590f	0.039391574
169	0xbec2abf1	-0.38021806
170	0xbef49390	-0.4776883
171	0x3f57fdfc	0.84371924
172	0x3fb074ea	1.3785679
173	0xbdfd84aa	-0.12378819
174	0xbe2fa25b	-0.17151777
175	0x3f84af20	1.0365944
176	0x3f3f596c	0.7474582
177	0x3ed27149	0.41102055
178	0xbf551e5f	-0.8324947
179	0x3d130c1f	0.03590023
180	0xbe264139	-0.16235818
181	0x3f47f3c6	0.78106344
182	0x3f1ccbcf	0.6124849
183	0xbf8feed9	-1.1244766
184	0xbea62a73	-0.3245426
185	0xbc65633c	-0.01400071
186	0xbf86569f	-1.0495185
187	0x3f6b1d87	0.9184193
188	0x3e702e2e	0.23455116
189	0x3ef30bbb	0.47469887
190	0xbf2905c9	-0.6602445
191	0xbf639ae5	-0.88908225
192	0xbf5f97bd	-0.8734091
193	0xbe1b4f0c	-0.15166873
194	0x3dc64669	0.096813984
195	0x3f62ed1f	0.8864307
196	0xbf6732d1	-0.90311915
197	0xbf97c2ab	-1.1856283
198	0xbe2d8b9a	-0.16947785
199	0xbf3586bc	-0.70908713
200	0x3d51292d	0.05106466
201	0xbd48fc37	-0.049068656
202	0x3e421e22	0.18956807
203	0xbd0f3d43	-0.034970533
204	0xbe265606	-0.16243753
205	0xbd81934c	-0.06326923
206	0xbdd05135	-0.10171739
207	0x3e030538	0.1279496
208	0xbec4333e	-0.38320345
209	0x3e51600a	0.20446792
210	0x3d39ccf9	0.045361493
211	0xbcd60b6c	-0.026128493
212	0x3de6bdf8	0.112667024
213	0x3dbcf935	0.0922722
214	0xbd71c362	-0.059024222
215	0xbec796b0	-0.38982153
216	0xbdef6bf4	-0.11690512
217	0x3d290131	0.0412609
218	0x3e1e702c	0.15472478
219	0x3e086903	0.13321309
220	0xbe0a9eda	-0.1353716
221	0x3ea0ced8	0.3140781
222	0xbed5d5d6	-0.41764706
223	0x3e396a56	0.1810697
224	0xbd2b02ee	-0.04175084
225	0x3e3e4a7b	0.185831
226	0x3e785f0d	0.24255009
227	0x3dfb1739	0.12260289
228	0xbdb23ca8	-0.087029755
229	0xbe08482e	-0.13308784
230	0x3eb5c435	0.35501257
231	0x3d9505fe	0.072765335
232	0x3e81cc5d	0.2535123
233	0x3d75d114	0.060013846
234	0x3e99cc77	0.30038807
235	0xbd5f6bbf	-0.054546114
236	0x3df83b97	0.12120741
237	0xbde595a0	-0.11210179
238	0x3e0470f2	0.1293371
239	0xbe6fec1e	-0.23429915
240	0xbd538c50	-0.051647484
241	0xbe513d31	-0.20433499
242	0x3eae460f	0.34037825
243	0x3e8baaf4	0.27278864
244	0x3e9832df	0.29726312
245	0x3d7b7b17	0.061396684
246	0xbe39ea30	-0.18155742
247	0xbe19bac9	-0.15012659
248	0xbd9f70c7	-0.077851824
249	0x3e209e6b	0.15685432
250	0x3e967ae0	0.2939062
251	0x3d50edad	0.051007915
252	0xbe908a60	-0.28230572
253	0xbeff491b	-0.49860463
254	0x3df47ccc	0.119378656
255	0x3dfd7e61	0.123776205

linears.1.bias f4 [40]
0	0xbd1896c2	-0.03725315
1	0x3d2c916a	0.042130865
2	0x3d77aa05	0.060464878
3	0x3c193a36	0.0093522575
4	0xbd8929ed	-0.0669745
5	0x3ddafb47	0.106924586
6	0xbe5d4b71	-0.2161081
7	0x3c2d5da5	0.010581409
8	0xbcd3c932	-0.025852773
9	0xbdb7cbaa	-0.08974393
10	0xbe0058ac	-0.12533826
11	0x3bef8780	0.007309854
12	0xbbe57826	-0.007002848
13	0xbdf2b14f	-0.11850225
14	0xbc18b7b5	-0.009321143
15	0x3dc81875	0.0977029
16	0x3d9d626d	0.07684789
17	0xbd855b5e	-0.065115675
18	0x3de7c124	0.113161355
19	0xbd2ec934	-0.04267235
20	0xbde8a34f	-0.11359274
21	0x3d9e7e02	0.07738878
22	0xbbf58064	-0.007492112
23	0xbe876dbb	-0.26450905
24	0x3e09e0f0	0.13464713
25	0xbe2463e5	-0.16053732
26	0x3ca80f41	0.020515086
27	0xbd556ed9	-0.052107666
28	0xbdad690b	-0.08467301
29	0xbd0847d2	-0.03327162
30	0x3bbe8e95	0.005815337
31	0x3d0c43d2	0.034244366
32	0xbe9b05a7	-0.3027775
33	0x3d656cf6	0.056012116
34	0xbcaa3d76	-0.02078126
35	0x3d6df35e	0.05809342
36	0x3da6f9bd	0.081531025
37	0x3da9db9f	0.082938425
38	0xbca97854	-0.02068726
39	0x3d50a0e5	0.05093469

linears.2.weight f4 [1, 40]
0	0x3f00b6f5	0.5027917
1	0xbe45de7b	-0.19323151
2	0xbe374b12	-0.17899731
3	0x3eaaf1d7	0.33387634
4	0x3e9ff9b3	0.31245193
5	0xbe57e53e	-0.21083543
6	0xbf27c160	-0.6552944
7	0x3f00114b	0.50026387
8	0xbf2963a9	-0.66167694
9	0xbee03a92	-0.43794686
10	0x3ed5176b	0.4161943
11	0x3e0af76c	0.13570946
12	0x3f13a8e3	0.57679576
13	0x3e7c890b	0.24661653
14	0x3f18e563	0.59725016
15	0xbea5f8e2	-0.32416445
16	0xbe39d401	-0.1814728
17	0x3e8c0cb0	0.2735343
18	0xbedab787	-0.42718145
19	0xbf0e6e0d	-0.55636674
20	0xbf2bc67a	-0.67099726
21	0x3f1295eb	0.57260007
22	0x3ed2cad0	0.4117036
23	0x3dae66ba	0.08515687
24	0x3f055a05	0.52090484
25	0x3e407d4c	0.18797797
26	0xbecb09f3	-0.39656028
27	0x3f384396	0.7197813
28	0x3ed6f73f	0.4198551
29	0xbf444654	-0.7666981
30	0x3e9780d6	0.29590482
31	0xbec15416	-0.37759465
32	0xbf11c195	-0.5693601
33	0xbefd87aa	-0.49517566
34	0x3e103cfd	0.14085765
35	0xbe7b8ef2	-0.24566248
36	0xbe8d90b8	-0.27649474
37	0xbe7d80f3	-0.24756221
38	0xbef31952	-0.47480255
39	0xbeefbf69	-0.46825722

exp_avg f4 [40, 2]
0	0x361eb1b7	2.3647278e-06
1	0xb5b67e26	-1.3596771e-06
2	0xb740a459	-1.1482357e-05
3	0xb72fa0bb	-1.0468236e-05
4	0xb78b7901	-1.6626438e-05
5	0x37087534	8.13352e-06
6	0x35ad8402	1.2927924e-06
7	0x374d1a6a	1.2225102e-05
8	0xb6d69569	-6.3950906e-06
9	0xb6672053	-3.4440498e-06
10	0xb66d269e	-3.533823e-06
11	0x36b6ec7e	5.451554e-06
12	0x37586113	1.2897205e-05
13	0x35caea5c	1.511838e-06
14	0x365d54fe	3.2981038e-06
15	0xb69f0f3d	-4.7403432e-06
16	0x371b3f4d	9.253458e-06
17	0x367ebab5	3.7957627e-06
18	0xb7a2bbe9	-1.9399407e-05
19	0xb674eb58	-3.6495821e-06
20	0xb7c42b10	-2.3385073e-05
21	0xb6886170	-4.064459e-06
22	0xb6a08d08	-4.78479e-06
23	0xb7806f96	-1.531075e-05
24	0x379a9616	1.842812e-05
25	0xb6c03348	-5.728016e-06
26	0x3796f0be	1.7993498e-05
27	0x3766e758	1.3762932e-05
28	0x371e7552	9.44485e-06
29	0x370ccce3	8.392354e-06
30	0x37230aea	9.718098e-06
31	0xb6869285	-4.0105683e-06
32	0x352fb16d	6.545077e-07
33	0x3611abe5	2.170674e-06
34	0xb70b3f16	-8.299734e-06
35	0x36651abf	3.4139227e-06
36	0xb7134f0d	-8.780288e-06
37	0x3749c724	1.20269e-05
38	0xb7963d4d	-1.7909939e-05
39	0x370f14b5	8.528285e-06
40	0xb6eaab84	-6.9937105e-06
41	0x37676dbd	1.3794223e-05
42	0x35279e4b	6.2442695e-07
43	0x35840e22	9.83888e-07
44	0xb6d757fe	-6.417743e-06
45	0x3701d059	7.737509e-06
46	0x38438a39	4.6620353e-05
47	0x3807526c	3.226327e-05
48	0xb7bb1c5a	-2.230534e-05
49	0xb5cbf27b	-1.519525e-06
50	0xb783573b	-1.5657037e-05
51	0x3770a89e	1.4344374e-05
52	0xb72b2e82	-1.0203223e-05
53	0x368c3120	4.178044e-06
54	0xb6b2befb	-5.3270464e-06
55	0x3750fc39	1.2456491e-05
56	0x3576aa38	9.188984e-07
57	0xb6f0cb9f	-7.176262e-06
58	0x36d4a7c2	6.337622e-06
59	0xb6d8c5ef	-6.460344e-06
60	0xb7d24a0d	-2.5068433e-05
61	0xb5e5713e	-1.7094787e-06
62	0xb5b5ea2d	-1.3553705e-06
63	0x378b0762	1.657353e-05
64	0xb7867d84	-1.6032493e-05
65	0x371874de	9.087116e-06
66	0x369fad3c	4.7587364e-06
67	0xb71d5f48	-9.380114e-06
68	0xb6a3ee8d	-4.8855495e-06
69	0x371cf267	9.354763e-06
70	0x35b3fe90	1.3410627e-06
71	0xb62a94b5	-2.5418533e-06
72	0xb79ad4f4	-1.8457395e-05
73	0x362dc480	2.5893387e-06
74	0x3624e996	2.457387e-06
75	0xb726cd4f	-9.942173e-06
76	0x37a76a66	1.9957497e-05
77	0x3720b363	9.57851e-06
78	0xb73cf1ba	-1.1261955e-05
79	0xb58b5dba	-1.0383585e-06

exp_avg_sq f4 [40, 2]
0	0x362be53f	2.5614424e-06
1	0x3599c023	1.1455307e-06
2	0x37f19cf2	2.8802522e-05
3	0x3817abe2	3.6161284e-05
4	0x38800e4a	6.106177e-05
5	0x33a75c6f	7.793357e-08
6	0x362e7609	2.5996726e-06
7	0x37c0477f	2.2921477e-05
8	0x37c2d0d5	2.3223847e-05
9	0x35e1b561	1.6816595e-06
10	0x36648c98	3.4056484e-06
11	0x35050297	4.955013e-07
12	0x382f7e02	4.1840605e-05
13	0x3517e781	5.6588766e-07
14	0x371e2950	9.427153e-06
15	0x36b0c29f	5.2678656e-06
16	0x3781491f	1.5412048e-05
17	0x367f086a	3.8002859e-06
18	0x38a6b4f5	7.949203e-05
19	0x3637b2ad	2.7373128e-06
20	0x37dc97bf	2.6296706e-05
21	0x34d9c79d	4.0564638e-07
22	0x37a5f11d	1.978181e-05
23	0x38016852	3.0853153e-05
24	0x380a703b	3.3006287e-05
25	0x3702434b	7.764272e-06
26	0x3899b90a	7.330075e-05
27	0x37d9f41e	2.5982092e-05
28	0x37d5e31f	2.549734e-05
29	0x37b4856b	2.15198e-05
30	0x365166a5	3.1203174e-06
31	0x364a6330	3.015808e-06
32	0x36ae22a9	5.189639e-06
33	0x35e9a655	1.7408262e-06
34	0x37fb2e3e	2.9943065e-05
35	0x34925b33	2.7260975e-07
36	0x375b7a2c	1.3081863e-05
37	0x38133dde	3.510515e-05
38	0x378829b3	1.6231881e-05
39	0x376c9948	1.4102385e-05
40	0x3627a785	2.4982448e-06
41	0x3812bde9	3.498598e-05
42	0x35dc16fa	1.6397964e-06
43	0x35ce6433	1.5377358e-06
44	0x37ee9f54	2.8446004e-05
45	0x36acbeb9	5.1482025e-06
46	0x398af908	0.00026506954
47	0x3987631b	0.00025823046
48	0x39017f4d	0.00012349822
49	0x362f8628	2.6155121e-06
50	0x37f47404	2.914109e-05
51	0x385ea487	5.3082153e-05
52	0x389b8a92	7.416787e-05
53	0x37433a8d	1.1636538e-05
54	0x37d5637b	2.5437903e-05
55	0x37c2c69e	2.321909e-05
56	0x36771c96	3.6822507e-06
57	0x372004ae	9.537833e-06
58	0x36b6b331	5.4448833e-06
59	0x37534deb	1.2594722e-05
60	0x38c269c8	9.270344e-05
61	0x36118967	2.1686662e-06
62	0x36e07114	6.6888842e-06
63	0x384ea298	4.9265655e-05
64	0x38770cd3	5.8901333e-05
65	0x36c008d4	5.7230736e-06
66	0x36b0c20b	5.2677983e-06
67	0x37420680	1.15648145e-05
68	0x3572e4e8	9.048513e-07
69	0x37286bc0	1.0038668e-05
70	0x36f28b09	7.228348e-06
71	0x361f0330	2.3694702e-06
72	0x389e5d7c	7.55144e-05
73	0x365858d9	3.2238224e-06
74	0x370ce6ba	8.3983705e-06
75	0x3746c0ef	1.18466405e-05
76	0x38547796	5.0656112e-05
77	0x37cdc6b0	2.4530425e-05
78	0x371a715a	9.205507e-06
79	0x35142f86	5.520345e-07

exp_avg f4 [40]
0	0xb7b28e6a	-2.128557e-05
1	0xb84c08e7	-4.864568e-05
2	0x371a8f4c	9.212479e-06
3	0xb41cbfa0	-1.4598345e-07
4	0x34b626a0	3.3928245e-07
5	0xb672b6ba	-3.616717e-06
6	0x365f93b2	3.331556e-06
7	0xb67a894d	-3.7332823e-06
8	0xb65ad8a5	-3.2610635e-06
9	0xb742058a	-1.1564591e-05
10	0x363dbd39	2.8273337e-06
11	0xb6b5133c	-5.3964595e-06
12	0xb6344a87	-2.686547e-06
13	0xb53727f1	-6.8230935e-07
14	0x379dc95e	1.8809627e-05
15	0xb6eb6e1c	-7.016364e-06
16	0xb734d485	-1.0778317e-05
17	0xb5da9073	-1.6284306e-06
18	0x375a0f0f	1.2997319e-05
19	0x37da409a	2.6017708e-05
20	0xb5cc6ff7	-1.523177e-06
21	0x381454e6	3.5365018e-05
22	0xb71f15e8	-9.482239e-06
23	0x37c9fcb4	2.4078741e-05
24	0xb6b5ba0d	-5.4158795e-06
25	0x3836c307	4.3573815e-05
26	0xb8579ff3	-5.140896e-05
27	0xb78e8563	-1.6989832e-05
28	0x36bbdf75	5.599048e-06
29	0x376b8b40	1.4039513e-05
30	0xb6736c93	-3.627302e-06
31	0xb6bcb62e	-5.624045e-06
32	0x37bded05	2.2640927e-05
33	0xb8040401	-3.147498e-05
34	0xb6c8bbf7	-5.9823465e-06
35	0xb7f7b5a1	-2.9529272e-05
36	0xb7c24b1d	-2.316158e-05
37	0x36550682	3.1743261e-06
38	0x37f2622d	2.8894365e-05
39	0xb72baed0	-1.0233096e-05

exp_avg_sq f4 [40]
0	0x37b573cc	2.1630804e-05
1	0x39a77edb	0.00031947237
2	0x380b959e	3.3279524e-05
3	0x35683782	8.650751e-07
4	0x36058881	1.9898e-06
5	0x36b03cb0	5.2522737e-06
6	0x36f96cab	7.433429e-06
7	0x37d29c71	2.51068e-05
8	0x36600748	3.338284e-06
9	0x377fc880	1.5245867e-05
10	0x36fb9c77	7.498598e-06
11	0x36b13c50	5.2820324e-06
12	0x3721c3d8	9.641946e-06
13	0x355d4571	8.2429966e-07
14	0x38b10c10	8.4422645e-05
15	0x367ab6c1	3.735928e-06
16	0x38b0b720	8.426444e-05
17	0x37dbf246	2.6219652e-05
18	0x384e31d7	4.9160644e-05
19	0x38abf6f1	8.199912e-05
20	0x3788d6a9	1.6312422e-05
21	0x3951d85a	0.0002001239
22	0x370d6438	8.427589e-06
23	0x392c116a	0.00016409685
24	0x36da1aa8	6.5000095e-06
25	0x388f1188	6.822037e-05
26	0x3985d302	0.0002552495
27	0x38ae426d	8.309339e-05
28	0x375ad6be	1.3043811e-05
29	0x3739e7e8	1.1080854e-05
30	0x37e9160c	2.778603e-05
31	0x386a8334	5.591214e-05
32	0x387e5f22	6.064692e-05
33	0x39788582	0.00023700859
34	0x374e30f8	1.2289958e-05
35	0x398c8e86	0.0002680907
36	0x39774dfd	0.00023584809
37	0x372a2afc	1.0142798e-05
38	0x38acd6b7	8.241593e-05
39	0x37043158	7.879302e-06

exp_avg f4 [40, 40]
0	0xb5d1af3b	-1.5622712e-06
1	0xb6365089	-2.716699e-06
2	0x3739b715	1.1069486e-05
3	0x360667ab	2.0027899e-06
4	0x37027632	7.776123e-06
5	0x37066145	8.00967e-06
6	0x3725831c	9.865293e-06
7	0x36886c12	4.065697e-06
8	0xb5d2b49f	-1.5698787e-06
9	0x3555ae7b	7.9602586e-07
10	0xb70afd88	-8.284471e-06
11	0x356dc3bb	8.8574205e-07
12	0x370475a1	7.895201e-06
13	0xb688e5d2	-4.0798705e-06
14	0x35802962	9.548787e-07
15	0x371298fe	8.737899e-06
16	0x37006d60	7.65486e-06
17	0x365b4977	3.2676305e-06
18	0xb6a134bd	-4.8043134e-06
19	0x34eeb68b	4.4463772e-07
20	0x3593a969	1.1001658e-06
21	0x363663c7	2.7178191e-06
22	0x36bd0158	5.6327954e-06
23	0xb514dd2c	-5.5456144e-07
24	0xb53761a8	-6.831492e-07
25	0xb5be571b	-1.4181454e-06
26	0xb658da01	-3.2313403e-06
27	0x362430e0	2.4466353e-06
28	0x36827026	3.8873577e-06
29	0xb584a2f2	-9.88219e-07
30	0xb6ca87d8	-6.0358834e-06
31	0xb669b872	-3.4827067e-06
32	0xb6b21d2c	-5.3082094e-06
33	0xb47487ed	-2.277372e-07
34	0x37002e0d	7.640117e-06
35	0x369a4e62	4.5986826e-06
36	0xb5c4dee4	-1.4668008e-06
37	0xb6363e0f	-2.7156236e-06
38	0xb64bd68d	-3.0374242e-06
39	0xb6ec8e34	-7.0499027e-06
40	0x368be81f	4.1695453e-06
41	0x3602900f	1.9455363e-06
42	0xb6e69d10	-6.8728186e-06
43	0xb625f1d1	-2.4727672e-06
44	0xb6b18a80	-5.2911346e-06
45	0xb6c48881	-5.8571463e-06
46	0xb6e0cf73	-6.6998705e-06
47	0xb5cbb53f	-1.5177428e-06
48	0xb5a51cf4	-1.2301884e-06
49	0x362be9de	2.5617114e-06
50	0x36c5a2c9	5.890008e-06
51	0xb604bb06	-1.9778395e-06
52	0xb6941465	-4.413118e-06
53	0x35f3235e	1.8115204e-06
54	0x35230d79	6.074184e-07
55	0xb6e4c464	-6.8177924e-06
56	0xb6cc9d05	-6.0979532e-06
57	0xb67bde96	-3.7531477e-06
58	0x3677ea50	3.6942256e-06
59	0x3479b08f	2.3254164e-07
60	0x340e7482	1.3267166e-07
61	0xb59f06f7	-1.184845e-06
62	0xb69305a0	-4.381596e-06
63	0xb65ea4bd	-3.3176468e-06
64	0x366a96bf	3.4956463e-06
65	0xb4d37961	-3.9390127e-07
66	0x36cc8c26	6.095989e-06
67	0xb5f13a16	-1.7972804e-06
68	0xb5eb3342	-1.7523782e-06
69	0xb68abce5	-4.1347107e-06
70	0x36a0552c	4.778287e-06
71	0x36b6949a	5.441322e-06
72	0x368f44d7	4.269746e-06
73	0xb63fd529	-2.8585293e-06
74	0x357cace7	9.412892e-07
75	0xb684c596	-3.9569086e-06
76	0x362cb81e	2.5737168e-06
77	0x3671a3f0	3.6007223e-06
78	0xb670d472	-3.5886446e-06
79	0x369a6488	4.601261e-06
80	0x3653bb08	3.1550317e-06
81	0x35b36d64	1.3368376e-06
82	0xb6cc306b	-6.0853104e-06
83	0xb611f115	-2.1747012e-06
84	0xb69c7fbc	-4.6640325e-06
85	0xb6afa070	-5.234084e-06
86	0xb6ced461	-6.1640026e-06
87	0xb5a6c0c0	-1.2424061e-06
88	0xb59f7e7e	-1.1883237e-06
89	0x36216881	2.4051699e-06
90	0x36b32ef9	5.340084e-06
91	0xb5fce5a7	-1.8842301e-06
92	0xb68b4b1e	-4.1512676e-06
93	0x35bfb885	1.4284311e-06
94	0x3531a18e	6.617273e-07
95	0xb6d0be4c	-6.2210365e-06
96	0xb6b41da5	-5.367869e-06
97	0xb647dd94	-2.9782286e-06
98	0x366a7308	3.4935674e-06
99	0x34ab4d32	3.19074e-07
100	0x34863d8c	2.5004226e-07
101	0xb55e4f71	-8.2817047e-07
102	0xb67f7677	-3.8066917e-06
103	0xb6363942	-2.7153442e-06
104	0x365d6cb2	3.2994835e-06
105	0xb41afbe5	-1.4434006e-07
106	0x36be4805	5.6708254e-06
107	0xb5da430e	-1.6261781e-06
108	0xb5b9ab81	-1.3833488e-06
109	0xb6755ebc	-3.6562988e-06
110	0x36921f6e	4.354798e-06
111	0x36a6ae66	4.967488e-06
112	0x3684c365	3.9566535e-06
113	0xb635d8b0	-2.709723e-06
114	0x355cf8cb	8.231843e-07
115	0xb66919e3	-3.4734774e-06
116	0x36244be7	2.4482085e-06
117	0x365641cd	3.1926786e-06
118	0xb66330c5	-3.3854024e-06
119	0x36773113	3.6834433e-06
120	0x34ea9d1f	4.3700217e-07
121	0x34d67c29	3.9950945e-07
122	0x361fd308	2.3815683e-06
123	0x34ac435e	3.2086513e-07
124	0x35f936a7	1.8567852e-06
125	0x360281d8	1.9447089e-06
126	0x3637eba4	2.7406286e-06
127	0x3572fc68	9.0519325e-07
128	0xb493da42	-2.7539687e-07
129	0x3426cb83	1.5533992e-07
130	0xb60e2ebf	-2.1186859e-06
131	0x34edd6a0	4.430085e-07
132	0x3615327f	2.2232123e-06
133	0xb53f2d6f	-7.121916e-07
134	0xb469f079	-2.17873e-07
135	0x361dedb3	2.3533182e-06
136	0x35e3aa52	1.6962388e-06
137	0x3461f5a2	2.1044119e-07
138	0xb5c7053f	-1.4828182e-06
139	0xb4818219	-2.412278e-07
140	0xb4704489	-2.2376675e-07
141	0x324426db	1.1417536e-08
142	0x35a47ed6	1.2255866e-06
143	0x3696c10d	4.4928224e-06
144	0xb4d7c87f	-4.019275e-07
145	0xb5ab5c73	-1.2767399e-06
146	0xb5da6efd	-1.6274568e-06
147	0x3526c541	6.212686e-07
148	0x35343aeb	6.714096e-07
149	0xb555efb9	-7.9697526e-07
150	0xb5cdabad	-1.5323654e-06
151	0xb568233f	-8.6478025e-07
152	0xb5c29b9b	-1.4499414e-06
153	0x3445a951	1.8408652e-07
154	0x35e1b3de	1.6816155e-06
155	0x35834f41	9.783327e-07
156	0xb52cf565	-6.443209e-07
157	0xb4f41851	-4.5466234e-07
158	0x34d1d5f1	3.9084946e-07
159	0xb5afc013	-1.3094417e-06
160	0x370f887d	8.555243e-06
161	0x36371a5d	2.728447e-06
162	0xb6b4c248	-5.3870353e-06
163	0xb5b989eb	-1.3823714e-06
164	0x3582bb36	9.74024e-07
165	0x343d8a32	1.7652272e-07
166	0x3632bf13	2.6635287e-06
167	0x3606847c	2.0044672e-06
168	0xb6216c17	-2.4053786e-06
169	0x366ae0fb	3.4999673e-06
170	0xb59ee24c	-1.1837778e-06
171	0xb456c97e	-2.0003606e-07
172	0x369c077f	4.650035e-06
173	0xb590a88f	-1.0777893e-06
174	0xb33116ad	-4.1231647e-08
175	0xb3f37ff2	-1.13388424e-07
176	0xb6306795	-2.6286336e-06
177	0xb67c8333	-3.7627294e-06
178	0xb6119343	-2.1692401e-06
179	0xb56c575c	-8.8043976e-07
180	0xb522a504	-6.058983e-07
181	0xb53b6d5f	-6.9822084e-07
182	0xb482f75a	-2.439436e-07
183	0xb68c7852	-4.1863323e-06
184	0x36349adc	2.691223e-06
185	0xb6d28770	-6.2742547e-06
186	0x3653872e	3.1520135e-06
187	0x354e83ff	7.693306e-07
188	0x357a0ff3	9.3155467e-07
189	0xb70f0276	-8.524037e-06
190	0xb5385e39	-6.8682454e-07
191	0x36827002	3.8873413e-06
192	0xb5a0764c	-1.1955358e-06
193	0xb63985ed	-2.7645103e-06
194	0x3725ed9f	9.890092e-06
195	0xb51f34a3	-5.930871e-07
196	0x3440d578	1.7959053e-07
197	0x36166562	2.2410754e-06
198	0xb6e6576c	-6.8647114e-06
199	0xb4a72ca3	-3.1138651e-07
200	0xb5b7eaa8	-1.3702856e-06
201	0xb5a737a3	-1.2458662e-06
202	0xb5a3ec6a	-1.2213252e-06
203	0xb4adcb2a	-3.2371582e-07
204	0xb600e513	-1.9206825e-06
205	0xb60e559c	-2.120948e-06
206	0xb675006b	-3.6508088e-06
207	0xb4e5dc72	-4.281497e-07
208	0xb4f09cff	-4.4817713e-07
209	0x3519f0c8	5.7347324e-07
210	0x362d1091	2.5788652e-06
211	0xb5a58ee7	-1.2335048e-06
212	0xb654da57	-3.1717552e-06
213	0x339ffc41	7.449899e-08
214	0x3592da32	1.0941351e-06
215	0xb638e3a5	-2.7550643e-06
216	0xb5bd6e83	-1.411376e-06
217	0x34d7c7e0	4.01923e-07
218	0x362043a4	2.388123e-06
219	0x3585edd5	9.97849e-07
220	0x35907df2	1.0765491e-06
221	0x3559866d	8.1034415e-07
222	0xb599bc9d	-1.1454282e-06
223	0xb65a0442	-3.248701e-06
224	0x35a81bde	1.2525086e-06
225	0x361c9a08	2.333547e-06
226	0x361fffc8	2.384173e-06
227	0xb55fa581	-8.3314814e-07
228	0xb32f41c0	-4.0805162e-08
229	0x354143e1	7.199688e-07
230	0x36078602	2.019457e-06
231	0x35a98783	1.263092e-06
232	0x360f3ae5	2.1342942e-06
233	0xb58ede44	-1.0644512e-06
234	0xb543ed3d	-7.298839e-07
235	0xb58563ee	-9.938356e-07
236	0x35cb55a7	1.5149607e-06
237	0x3517d29c	5.655836e-07
238	0xb5c22b68	-1.4466759e-06
239	0x3547349e	7.4209845e-07
240	0x375541db	1.27111225e-05
241	0x376e51d7	1.420496e-05
242	0xb7914afc	-1.7320264e-05
243	0xb535e925	-6.7767024e-07
244	0xb5d5ba53	-1.5923964e-06
245	0xb32ca871	-4.0200067e-08
246	0x36f10634	7.183082e-06
247	0xb6d05c60	-6.209637e-06
248	0x3705668d	7.951295e-06
249	0xb705d68e	-7.977373e-06
250	0xb63d5c72	-2.8217005e-06
251	0x37057db2	7.9566835e-06
252	0x36ec29a4	7.0381957e-06
253	0x370d2fc1	8.4153735e-06
254	0xb72da1f5	-1.0349312e-05
255	0x367a3d65	3.728864e-06

exp_avg_sq f4 [40, 40]
0	0x357f6708	9.514483e-07
1	0x3590869d	1.0768014e-06
2	0x377140a2	1.4379768e-05
3	0x3505ea1c	4.9887035e-07
4	0x3702e831	7.802665e-06
5	0x370962ed	8.188869e-06
6	0x3770ca60	1.4352234e-05
7	0x362842d4	2.507285e-06
8	0x355a0f00	8.1233156e-07
9	0x3564d60d	8.5248104e-07
10	0x3717ad29	9.040618e-06
11	0x347ce087	2.3551011e-07
12	0x37106a1e	8.607776e-06
13	0x36266472	2.4794394e-06
14	0x348104a0	2.4031488e-07
15	0x373a23e3	1.10948195e-05
16	0x36fcd352	7.534786e-06
17	0x35c6e461	1.4818617e-06
18	0x365df8bf	3.3076356e-06
19	0x3368e102	5.4221353e-08
20	0x34771de2	2.3014539e-07
21	0x35955cef	1.1128412e-06
22	0x36855f7b	3.9748243e-06
23	0x35bb22e8	1.3942745e-06
24	0x355cc6c5	8.2245634e-07
25	0x350592b3	4.9759836e-07
26	0x3697c3ad	4.5229303e-06
27	0x35472b60	7.4196396e-07
28	0x3615e756	2.2337385e-06
29	0x3636f134	2.7260512e-06
30	0x36a30c8f	4.8592406e-06
31	0x36471a03	2.9668452e-06
32	0x36829209	3.8913026e-06
33	0x3536922c	6.801299e-07
34	0x374054c0	1.1463824e-05
35	0x3631a7c7	2.6472715e-06
36	0x35027c22	4.860941e-07
37	0x358ecd0d	1.0639502e-06
38	0x364c01be	3.0399383e-06
39	0x36f282e3	7.2273992e-06
40	0x36527044	3.1357786e-06
41	0x355bc6a1	8.18729e-07
42	0x374aeb50	1.2094926e-05
43	0x3551ad1a	7.8110463e-07
44	0x368a7fa6	4.1275807e-06
45	0x36b3cd1e	5.3584945e-06
46	0x36f7b4c8	7.3822193e-06
47	0x34c502ca	3.669614e-07
48	0x34439d9d	1.821813e-07
49	0x3562e495	8.452419e-07
50	0x36b36c34	5.347212e-06
51	0x34d9bde6	4.055757e-07
52	0x362b6a00	2.5542686e-06
53	0x351196c1	5.4236085e-07
54	0x332054c3	3.7329993e-08
55	0x3706168c	7.992272e-06
56	0x36e4d0a8	6.8192203e-06
57	0x3611c577	2.1721623e-06
58	0x35e2cdf2	1.689825e-06
59	0x324d3b81	1.19461e-08
60	0x32ef329a	2.7846273e-08
61	0x34bb3466	3.486959e-07
62	0x3632cdb6	2.6643806e-06
63	0x35d0469f	1.5517761e-06
64	0x35e30db0	1.6916802e-06
65	0x3420b517	1.4967041e-07
66	0x36df4cca	6.6548573e-06
67	0x34bea7df	3.55124e-07
68	0x350920d3	5.108424e-07
69	0x3636c7f7	2.7236508e-06
70	0x36596379	3.239342e-06
71	0x36a37055	4.8708557e-06
72	0x362599ef	2.4676517e-06
73	0x358ef277	1.0650391e-06
74	0x34e85c4c	4.3280522e-07
75	0x360d6bed	2.1073458e-06
76	0x354a649b	7.5397264e-07
77	0x35e8e4e5	1.7351964e-06
78	0x360d3704	2.104266e-06
79	0x36527d89	3.136551e-06
80	0x3637b817	2.737628e-06
81	0x35461e63	7.3804966e-07
82	0x372cfd1a	1.0310929e-05
83	0x35315313	6.605853e-07
84	0x3668ff43	3.4719276e-06
85	0x369708b7	4.501165e-06
86	0x36cdd932	6.134761e-06
87	0x34ab0954	3.185802e-07
88	0x341d6041	1.4656781e-07
89	0x353aee3a	6.9637065e-07
90	0x3695ea8d	4.4678513e-06
91	0x34ae391e	3.2451584e-07
92	0x360c2e69	2.088864e-06
93	0x34ff78c8	4.758533e-07
94	0x32f63317	2.8661402e-08
95	0x36e0b2d6	6.6965395e-06
96	0x36c1de3e	5.7777206e-06
97	0x35fc8064	1.881283e-06
98	0x35b8e53b	1.3775783e-06
99	0x32439f28	1.1386682e-08
100	0x32e8413a	2.7038016e-08
101	0x34aa8c80	3.1767195e-07
102	0x36172198	2.2520308e-06
103	0x35a573ee	1.2327198e-06
104	0x35bb088f	1.3935077e-06
105	0x3421f227	1.5082388e-07
106	0x36ba43ba	5.5511164e-06
107	0x349dda40	2.9402327e-07
108	0x34f0bb0a	4.4839572e-07
109	0x361b9d88	2.3188495e-06
110	0x36350fca	2.6980292e-06
111	0x368931b5	4.088705e-06
112	0x3608da0b	2.0392497e-06
113	0x3569fcf1	8.716734e-07
114	0x34c50817	3.6699996e-07
115	0x35ee879a	1.7771847e-06
116	0x35237322	6.088977e-07
117	0x35c454ef	1.4627857e-06
118	0x35e84cf9	1.7307749e-06
119	0x3634b6ad	2.6928421e-06
120	0x369da46f	4.698107e-06
121	0x35810090	9.611413e-07
122	0x35c828be	1.4913019e-06
123	0x33e4abc8	1.0648324e-07
124	0x3557cd77	8.039273e-07
125	0x3560c8f7	8.3738945e-07
126	0x3663cc1f	3.394445e-06
127	0x345ea981	2.0737026e-07
128	0x34090b62	1.276326e-07
129	0x34bb796b	3.4919807e-07
130	0x35be3530	1.4171583e-06
131	0x34544301	1.9768414e-07
132	0x367cdcb9	3.7679404e-06
133	0x32e5bdb2	2.6745372e-08
134	0x343c4e22	1.7537289e-07
135	0x35c4ec04	1.4671828e-06
136	0x35228517	6.0543374e-07
137	0x3586b4a7	1.0036355e-06
138	0x35d0ca73	1.5556128e-06
139	0x3498096c	2.8319062e-07
140	0x348a827f	2.5799451e-07
141	0x3469a65b	2.1760336e-07
142	0x3478b519	2.3162683e-07
143	0x34e9ed5e	4.357234e-07
144	0x34752fb4	2.2834757e-07
145	0x3683f336	3.9324177e-06
146	0x3562edb4	8.4537464e-07
147	0x344aa955	1.8874319e-07
148	0x329b2147	1.8059508e-08
149	0x3682e53b	3.900988e-06
150	0x355dbdcc	8.2605106e-07
151	0x3532ba99	6.65817e-07
152	0x358999d3	1.0252064e-06
153	0x3448e5ac	1.8710006e-07
154	0x368f8756	4.2774873e-06
155	0x343778ce	1.7087152e-07
156	0x34a38485	3.0457537e-07
157	0x347774b5	2.3046125e-07
158	0x359ab3d3	1.152623e-06
159	0x34258ce9	1.5418085e-07
160	0x371ba256	9.276517e-06
161	0x35363962	6.7883786e-07
162	0x3676ea86	3.6793367e-06
163	0x34b0a238	3.2900584e-07
164	0x33bf3101	8.903044e-08
165	0x314ab40a	2.949721e-09
166	0x35350c26	6.744543e-07
167	0x351c4657	5.8216887e-07
168	0x35855d76	9.936473e-07
169	0x360759f5	2.016893e-06
170	0x33c33598	9.090144e-08
171	0x33138829	3.434994e-08
172	0x362e52d3	2.597623e-06
173	0x3457aa64	2.0085423e-07
174	0x327830e0	1.4446613e-08
175	0x3353f6cb	4.9351723e-08
176	0x358fcc83	1.0713851e-06
177	0x35ee0086	1.7732534e-06
178	0x34fe297b	4.7341368e-07
179	0x337ca973	5.8827435e-08
180	0x325adb23	1.2739096e-08
181	0x32b4cafb	2.1047063e-08
182	0x32aac4bb	1.9880067e-08
183	0x369f3829	4.745107e-06
184	0x35b72d37	1.3647722e-06
185	0x369ba4bc	4.6385376e-06
186	0x361bb393	2.3201326e-06
187	0x3388f46c	6.3774536e-08
188	0x34254382	1.5391382e-07
189	0x372e1b87	1.0377617e-05
190	0x32c52610	2.2951127e-08
191	0x362c5049	2.567673e-06
192	0x33e85fe3	1.08207836e-07
193	0x35bddef3	1.4146484e-06
194	0x37721298	1.4428653e-05
195	0x339639e9	6.995453e-08
196	0x333ff34c	4.469193e-08
197	0x355256fc	7.8357675e-07
198	0x370c589d	8.365282e-06
199	0x32d81d3a	2.5159e-08
200	0x34e5664a	4.2729e-07
201	0x347d12f1	2.3569352e-07
202	0x35be5669	1.4181252e-06
203	0x33c9d0a6	9.397745e-08
204	0x35ab10b2	1.2745352e-06
205	0x35daf9f7	1.6315015e-06
206	0x36892ab3	4.087889e-06
207	0x338639ba	6.250362e-08
208	0x33ac6cee	8.029188e-08
209	0x345a8a0c	2.0353053e-07
210	0x36125ef7	2.1810972e-06
211	0x34dad1d9	4.0758349e-07
212	0x363290a7	2.6608266e-06
213	0x32642786	1.3280333e-08
214	0x348699d6	2.5071375e-07
215	0x363f405c	2.849868e-06
216	0x3594f6a2	1.1098639e-06
217	0x33baa628	8.6915236e-08
218	0x35d0b763	1.555058e-06
219	0x345572e7	1.9878972e-07
220	0x346f177f	2.2267157e-07
221	0x33d0eb3b	9.728543e-08
222	0x351253ae	5.451101e-07
223	0x35f39fbc	1.81514e-06
224	0x35254994	6.157436e-07
225	0x35980d92	1.1328832e-06
226	0x361afcaf	2.309487e-06
227	0x345deac9	2.0667643e-07
228	0x32361d9b	1.0600526e-08
229	0x349539a1	2.7795343e-07
230	0x35b87b7a	1.3745005e-06
231	0x358b7835	1.0391292e-06
232	0x35bd81d1	1.4119379e-06
233	0x34dffbb6	4.172013e-07
234	0x34716451	2.2481369e-07
235	0x34ec284e	4.398775e-07
236	0x35298360	6.314858e-07
237	0x348746ad	2.5197133e-07
238	0x351d06ae	5.849678e-07
239	0x34a04653	2.985349e-07
240	0x36c8236a	5.964587e-06
241	0x37c3a337	2.3321814e-05
242	0x37196a85	9.144312e-06
243	0x34dd8bad	4.1266085e-07
244	0x35f4adff	1.8230056e-06
245	0x360c2a0c	2.08861e-06
246	0x36b749a4	5.462398e-06
247	0x37093bf5	8.179796e-06
248	0x3765a6d9	1.3688311e-05
249	0x37877985	1.6149841e-05
250	0x36384ea1	2.7463905e-06
251	0x371c0224	9.298823e-06
252	0x361bad07	2.3197515e-06
253	0x37510e8e	1.24607595e-05
254	0x377903b3	1.4842418e-05
255	0x36c11a0c	5.7548805e-06

exp_avg f4 [40]
0	0x375f46a9	1.3308288e-05
1	0x362f87f6	2.6156172e-06
2	0x361d7430	2.3462453e-06
3	0x369857a2	4.540155e-06
4	0x37b00147	2.098143e-05
5	0xb68a46d0	-4.120964e-06
6	0xb70b2791	-8.294258e-06
7	0xb80328d5	-3.127086e-05
8	0xb6deadae	-6.6363345e-06
9	0x3796b4e7	1.7965633e-05
10	0xb6d54395	-6.3557623e-06
11	0x3656011c	3.188913e-06
12	0x38065da8	3.2035314e-05
13	0x376d5d69	1.414805e-05
14	0xb73484ff	-1.0759802e-05
15	0x339e8a47	7.382601e-08
16	0x34fd485e	4.7177576e-07
17	0x37130cf6	8.7649005e-06
18	0x3703ab98	7.848161e-06
19	0x363c0544	2.8017248e-06
20	0x38099760	3.2804324e-05
21	0xb803e323	-3.144437e-05
22	0xb6617d3c	-3.3600509e-06
23	0x35fa2c4d	1.8639345e-06
24	0xb78c814f	-1.6749515e-05
25	0xb65327b6	-3.1464565e-06
26	0xb752b6f3	-1.2559572e-05
27	0x380934ed	3.2712636e-05
28	0xb6c1485c	-5.760272e-06
29	0xb8122ddb	-3.485182e-05
30	0x36eccc95	7.0571646e-06
31	0xb75ae144	-1.3046261e-05
32	0xb7579721	-1.2850186e-05
33	0xb7844fd8	-1.5772806e-05
34	0x36a9265f	5.0410595e-06
35	0xb73d0e2c	-1.12685775e-05
36	0xb70e7466	-8.490961e-06
37	0x358a6947	1.0312441e-06
38	0x379e3bc8	1.8862906e-05
39	0xb7aa3fee	-2.0295349e-05

exp_avg_sq f4 [40]
0	0x3825fd97	3.957524e-05
1	0x35eb93b9	1.7551857e-06
2	0x35ccc80d	1.5257407e-06
3	0x37f0e4d7	2.8716791e-05
4	0x38822afe	6.206891e-05
5	0x365f52de	3.3277825e-06
6	0x38ab7dd1	8.1773505e-05
7	0x394ffd3e	0.00019835398
8	0x389dab50	7.518253e-05
9	0x380c910d	3.351369e-05
10	0x3774c515	1.458942e-05
11	0x364cc37d	3.0512158e-06
12	0x39241bdb	0.00015650636
13	0x382aa4fd	4.0684816e-05
14	0x37f8511b	2.9601671e-05
15	0x370a5b13	8.246646e-06
16	0x36244048	2.447532e-06
17	0x37818192	1.5438334e-05
18	0x37a8b2ab	2.011036e-05
19	0x37f7b035	2.9526747e-05
20	0x39648b99	0.00021795779
21	0x393e5f61	0.00018155343
22	0x374cf6a9	1.2216778e-05
23	0x355d0a62	8.2344025e-07
24	0x386bd072	5.6222496e-05
25	0x364a0bf1	3.0107296e-06
26	0x38285737	4.0135546e-05
27	0x39547828	0.00020262657
28	0x379b0781	1.8480934e-05
29	0x39b3496f	0.00034196253
30	0x37872307	1.6109565e-05
31	0x37f61f27	2.9339992e-05
32	0x383926be	4.414352e-05
33	0x38a2ad08	7.7569915e-05
34	0x36bef186	5.6905583e-06
35	0x37be18ec	2.266137e-05
36	0x37651443	1.3654181e-05
37	0x36bfa6bc	5.711654e-06
38	0x38df7297	0.00010654813
39	0x388709fc	6.4391614e-05

exp_avg f4 [1, 40]
0	0xb8650804	-5.460532e-05
1	0x3803c080	3.1412113e-05
2	0x380434ad	3.152031e-05
3	0x388141ca	6.1634535e-05
4	0x381de81e	3.7647893e-05
5	0xb81e5389	-3.7747934e-05
6	0x38879d40	6.466592e-05
7	0xb67d0d24	-3.7707587e-06
8	0x38c66e91	9.46197e-05
9	0xb85968dd	-5.1834493e-05
10	0xb844b6e8	-4.6900386e-05
11	0x388a94e5	6.6080866e-05
12	0x38884434	6.497689e-05
13	0x38b8851f	8.7985994e-05
14	0x382885f4	4.0179075e-05
15	0x388574f5	6.363719e-05
16	0x36622a1a	3.370113e-06
17	0x3826b86b	3.9749237e-05
18	0x38323272	4.2485488e-05
19	0xb885a89e	-6.3733416e-05
20	0xb7eff2af	-2.8604029e-05
21	0xb868c1fc	-5.5493772e-05
22	0x389ad02b	7.3820665e-05
23	0x37ccd790	2.4419074e-05
24	0xb79ccb0a	-1.8691197e-05
25	0xb76dfb60	-1.4184829e-05
26	0xb824abeb	-3.9260758e-05
27	0xb8b08505	-8.417111e-05
28	0xb898754a	-7.2697716e-05
29	0x384c51c0	4.8713526e-05
30	0x386644c2	5.490031e-05
31	0x388d8df1	6.7498426e-05
32	0x37b3373d	2.1364185e-05
33	0xb8dcbd05	-0.00010525625
34	0x386097cf	5.3547144e-05
35	0x38acacef	8.2338105e-05
36	0xb8151f70	-3.5553647e-05
37	0x389db651	7.5203025e-05
38	0xb809a449	-3.2816348e-05
39	0x38afe536	8.387344e-05

exp_avg_sq f4 [1, 40]
0	0x39e80d4b	0.00044260392
1	0x3931307a	0.00016898094
2	0x392c52a0	0.00016433978
3	0x3a8d4570	0.001077814
4	0x39f7c963	0.00047261556
5	0x3992ebe1	0.00028023034
6	0x39e2bf08	0.00043248408
7	0x389b599f	7.407669e-05
8	0x3a9e119e	0.0012059694
9	0x3a551c62	0.00081295345
10	0x39ab4a88	0.00032671192
11	0x3a80fdf9	0.0009841315
12	0x3a8dcf13	0.0010819159
13	0x3a82a14a	0.0009966281
14	0x39ad2807	0.00033026954
15	0x3a0db08f	0.00054050324
16	0x371db49c	9.399981e-06
17	0x39b586c0	0.00034623407
18	0x3981628a	0.00024678215
19	0x3a8328e0	0.0010006689
20	0x39511c69	0.00019942377
21	0x39e2b33e	0.00043239625
22	0x3ae59031	0.0017514286
23	0x39112455	0.00013841812
24	0x38261930	3.960094e-05
25	0x375de590	1.3226076e-05
26	0x39cb192c	0.00038737932
27	0x3a7ca8f0	0.0009638211
28	0x3a369a89	0.00069657766
29	0x3a3f4336	0.0007296087
30	0x3a4c1880	0.0007785633
31	0x3a35d6bc	0.00069366
32	0x3920d7ae	0.00015339136
33	0x3ade832b	0.0016976347
34	0x3a2b90bc	0.00065446994
35	0x3a78c7f1	0.0009490243
36	0x3989f9ae	0.00026316702
37	0x3a4522c8	0.00075201364
38	0x3a552b1c	0.0008131729
39	0x3a7959d6	0.0009511983
