modelos/heat_20x2-20000.pt (torch, 13614 bytes, 15 tensors)

linears.0.weight f4 [20, 2]
-0.33414936 -1.7687362 -0.13212775 -0.54867476 -1.5137534 0.29901573 0.40264726 0.2569347
0.21845463 -1.3316401 -0.4015309 0.38233355 0.15626797 -3.5484786 -0.6577606 -1.6591896
-0.29347128 0.7040998 0.49766126 0.108114995 -0.18627127 -0.78792214 -0.47312063 -1.5085492
0.6282762 0.12311388 -0.1102092 -0.2348438 -0.11745486 -0.9300355 0.41523015 1.0893027
-0.16808298 0.17543001 0.29507372 -0.61559594 -0.3147081 -0.7720688 -0.71252203 -0.46404445
00000000: a015 abbe f365 e2bf 7f4c 07be f375 0cbf
00000010: acc2 c1bf 9718 993e c827 ce3e f28c 833e
00000020: 92b2 5f3e 2f73 aabf 7595 cdbe 39c1 c33e
00000030: b604 203e 461a 63c0 0063 28bf 5360 d4bf
00000040: de41 96be e23f 343f 75cd fe3e 656b dd3d
00000050: e5bd 3ebe 44b5 49bf de3c f2be 2418 c1bf
00000060: b6d6 203f 2123 fc3d 5cb5 e1bd e57a 70be
00000070: 2c8c f0bd ce16 6ebf 0c99 d43e 456e 8b3f
00000080: f21d 2cbe eda3 333e e713 973e b297 1dbf
00000090: 6c21 a1be 4da6 45bf d867 36bf 3c97 edbe

linears.0.bias f4 [20]
-0.21855848 -0.09617098 -0.023107879 -0.35348904 -0.13972421 -0.06292094 -0.33469525 0.13172391
0.21615489 -0.41260603 -0.20554577 0.6297184 -0.49415275 0.0037941064 -0.004041981 0.21390784
-0.16132767 -0.13691047 -0.34748074 -0.069292724
00000000: cbcd 5fbe 4af5 c4bd bc4c bdbc 84fc b4be
00000010: dd13 0fbe b2dc 80bd 2d5d abbe a2e2 063e
00000020: b557 5d3e 1941 d3be 977a 52be 3a35 213f
00000030: 9701 fdbe 8ba6 783b 9872 84bb a80a 5b3e
00000040: 1533 25be 4232 0cbe ffe8 b1be 58e9 8dbd

linears.1.weight f4 [20, 20]
0.24234559 0.19005662 -0.5206874 -0.21119665 0.26119006 0.009219049 -0.21244092 0.40249988
0.000622913 -1.0710472 0.2043654 0.16886565 -0.42195415 0.15220827 -0.15593377 -0.2885081
0.06526572 0.2727413 0.12936231 -0.031257015 -0.3047427 -0.49764478 -0.30684564 0.1897571
0.26271746 -0.3369546 0.21586053 -0.47283074 -0.006074397 0.5757913 -0.043981686 -0.17616904
0.00016418041 0.01748138 -0.5264189 -0.09539791 -0.047693543 0.36106026 0.0017671451 -0.14382008
-0.16473223 -0.17401104 0.01972582 0.010788743 0.14033204 -0.43158785 0.484021 0.0717979
-0.45426866 -0.06743567 0.007895387 0.5409854 -0.17532307 -0.010611703 0.37936065 0.1183958
0.36591995 0.05388883 0.17968194 -0.06981046 0.3181233 -0.14248987 0.06017831 0.5680632
-0.30483204 0.03013909 -0.81289977 0.32010794 0.5807195 1.4975983 -0.21310915 -0.5001899
0.41772857 -0.20596813 -1.0557247 -0.49646747 -0.24734692 0.10044736 -0.11648304 0.4307422
-1.4780617 0.090307236 1.2146935 -0.4235811 -0.8985269 1.0787752 -1.417566 -1.3618509
0.8562465 -1.1026852 0.12706247 0.51979774 0.29155117 0.3402469 -0.90707225 -0.106689736
0.3413426 -1.1702734 -0.31216404 -0.5458499 -0.5646775 -0.47236586 0.48648068 0.4808998
-0.10359895 0.33013797 -0.23633274 -0.30048454 0.006480642 0.7985359 -0.1870854 -0.49491936
0.40609434 -0.06992015 -0.5108093 0.16643986 0.14807698 -0.052789345 -0.5717424 0.10680343
0.7522031 0.10762452 -1.4434731 -0.583023 0.28210893 -0.142304 1.520378 0.9361604
-0.19772293 -1.0097287 0.809246 -0.025011782 0.024761427 0.14497052 0.56838655 -0.6685141
0.16569528 -0.0020119036 0.62425876 -0.14757432 -0.15322153 -0.00437237 -0.2200292 -0.2363632
0.011532758 -0.006925752 0.2801424 -0.16933379 -0.10342202 -0.20800337 0.3364524 0.42499328
-0.06454449 0.31676906 0.28151497 -0.08935604 0.1289602 0.053101704 -0.077428326 -0.09858309
-0.1507679 0.28088707 0.02374568 0.025063649 -0.334142 0.036511384 0.20057216 -0.3547115
-0.32349828 -0.33897975 -0.060756523 0.444471 -0.09180155 0.317924 0.2663964 -0.076206
0.35451818 0.079833455 -0.14329354 0.23255861 0.89712673 0.6887157 -1.2728648 -0.13122743
0.26230294 -0.10854816 0.6599953 0.7698223 0.34617075 -0.64994174 0.11504276 -0.010145621
0.10886583 0.13845736 0.53127134 -0.42381477 0.32927394 -0.22060381 0.20214266 -0.025406426
-0.053752862 0.11056737 0.06647044 -0.058653336 0.07176903 -0.42758408 -0.32815874 -0.31710795
-0.23452006 0.10535861 0.09762461 0.25211614 0.15466978 -0.2735473 -0.19545831 0.77778906
0.036188204 -0.06899313 -0.4756783 0.45290533 0.005080182 0.3453887 0.8441816 -0.3829831
0.24681279 0.31781712 0.77876997 -0.14417355 -0.7678058 -0.040971898 0.006251852 -0.009914023
0.26034337 0.32855284 0.09072474 0.023245554 -0.14884691 -0.01972426 -0.37158233 0.33302352
0.3762836 0.12570262 1.1461744 -0.02445568 1.0217788 -0.5314185 1.5389798 0.055533733
-1.3583041 0.38051674 0.06402657 1.068121 0.38836396 0.6973791 0.73521596 -0.2199206
00000000: 7129 783e 349e 423e c54b 05bf ef43 58be
00000010: b4ba 853e 7e0b 173c 1d8a 59be 7714 ce3e
00000020: fc4a 233a 1318 89bf 2a45 513e 1eeb 2c3e
00000030: 600a d8be 7cdc 1b3e 1aad 1fbe 55b7 93be
00000040: 09aa 853d bfa4 8b3e 8e77 043e 5b07 00bd
00000050: 3c07 9cbe 4ccb febe df1a 9dbe af4f 423e
00000060: e782 863e 5085 acbe 8b0a 5d3e df16 f2be
00000070: bc0b c7bb 0f67 133f 2426 34bd a865 34be
00000080: d827 2c39 1c35 8f3c 64c3 06bf fb5f c3bd
00000090: 4e5a 43bd e4dc b83e 8d9f e73a 9245 13be
000000a0: 91af 28be f32f 32be 0b98 a13c 45c3 303c
000000b0: 34b3 0f3e 15f9 dcbe 9ad1 f73e c70a 933d
000000c0: e795 e8be b61b 8abd a75b 013c 057e 0a3f
000000d0: e487 33be b5dc 2dbc 8f3b c23e 7f79 f23d
000000e0: dc59 bb3e 89ba 5c3d 8bfe 373e c9f8 8ebd
000000f0: 0fe1 a23e dde8 11be 887d 763d 976c 113f
00000100: f212 9cbe 41e6 f63c 331a 50bf 30e5 a33e
00000110: 08aa 143f 4db1 bf3f 4939 5abe 720c 00bf
00000120: 85e0 d53e 4fe9 52be fd21 87bf fc30 febe
00000130: 8348 7dbe 58b7 cd3d a98e eebd 3e8a dc3e
00000140: 2031 bdbf 00f3 b83d 147b 9b3f 9fdf d8be
00000150: dc05 66bf 4e15 8a3f cd72 b5bf 2151 aebf
00000160: f832 5b3f ca24 8dbf aa1c 023e 7711 053f
00000170: 3246 953e d734 ae3e e335 68bf 2680 dabd
00000180: 75c4 ae3e 85cb 95bf f7d3 9fbe d2bc 0bbf
00000190: b48e 10bf f0d9 f1be ff13 f93e 8038 f63e
000001a0: b02b d4bd d807 a93e 3601 72be 1cd9 99be
000001b0: 915b d43b d96c 4c3f 5193 3fbe 1266 fdbe
000001c0: 99eb cf3e 4c32 8fbd 66c4 02bf 366f 2a3e
000001d0: 7ea1 173e a439 58bd b65d 12bf c2bb da3d
000001e0: 6290 403f 3f6a dc3d bac3 b8bf ff40 15bf
000001f0: 9570 903e 24b8 11be bf9b c23f 35a8 6f3f
00000200: e177 4abe ca3e 81bf bf2a 4f3f 82e5 ccbc
00000210: 7ad8 ca3c 2773 143e c881 113f bd23 2bbf
00000220: 06ac 293e 24da 03bb 6ccf 1f3f b91d 17be
00000230: 1be6 1cbe 1946 8fbb 564f 61be 3209 72be
00000240: e5f3 3c3c 6bf1 e2bb d36e 8f3e d665 2dbe
00000250: edce d3bd d6fe 54be 7d43 ac3e b898 d93e
00000260: e72f 84bd 8e2f a23e bb22 903e 4d00 b7bd
00000270: 250e 043e 2c81 593d be92 9ebd eee5 c9bd
00000280: e662 1abe 6ed0 8f3e 4d86 c23c 4852 cd3c
00000290: a914 abbe f68c 153d ca62 4d3e bf9c b5be
000002a0: 91a1 a5be c18e adbe d5db 78bd b491 e33e
000002b0: 7302 bcbd efc6 a23e 1c65 883e e411 9cbd
000002c0: 6883 b53e b97f a33d 8bbb 12be d823 6e3e
000002d0: 19aa 653f ac4f 303f 3ced a2bf 7c60 06be
000002e0: 924c 863e 7f4e debd 74f5 283f 1313 453f
000002f0: 4b3d b13e 9562 26bf 8a9b eb3d d239 26bc
00000300: 0cf5 de3d c4c7 0d3e 6601 083f 40fe d8be
00000310: 9896 a83e f7e5 61be 7cfe 4e3e 2321 d0bc
00000320: f62b 5cbd 2571 e23d a721 883d 7b3e 70bd
00000330: a4fb 923d 4dec dabe 6c04 a8be f95b a2be
00000340: 0726 70be 41c6 d73d 69ef c73d 5e15 813e
00000350: c161 1e3e 640e 8cbe 3926 48be 2f1d 473f
00000360: 153a 143d 454c 8dbd 1b8c f3be 35e3 e73e
00000370: a877 a63b cad6 b03e 491c 583f 5c16 c4be
00000380: 7ebc 7c3e edb8 a23e 785d 473f 3ba2 13be
00000390: ec8e 44bf 26d2 27bd 56dc cc3b 6d6e 22bc
000003a0: ba4b 853e 1438 a83e e4cd b93d 766d be3c
000003b0: 536b 18be c594 a1bc 0a40 bebe 0f82 aa3e
000003c0: 3ea8 c03e 30b8 003e d8b5 923f 4757 c8bc
000003d0: a6c9 823f 0b0b 08bf 4afd c43f 5777 633d
000003e0: e9dc adbf 17d3 c23e 5d20 833d 30b8 883f
000003f0: a4d7 c63e 7087 323f 1d37 3c3f de32 61be

linears.1.bias f4 [20]
-0.08277899 0.021939408 0.09825477 -0.20661557 0.00029783702 -0.094162665 -0.408166 0.19219209
0.25149179 -0.27836087 0.14339365 0.066486634 0.06923455 -0.27431685 -0.19443218 -0.18831082
0.09827507 -0.075128324 0.0016136905 0.030878836
00000000: 0888 a9bd 46ba b33c cc39 c93d 0893 53be
00000010: 0227 9c39 5bd8 c0bd 22fb d0be 01ce 443e
00000020: 88c3 803e 5185 8ebe c9d5 123e 252a 883d
00000030: d8ca 8d3d 4273 8cbe 3b19 47be 8dd4 40be
00000040: 7144 c93d e1dc 99bd 7882 d33a 9df5 fc3c

linears.2.weight f4 [1, 20]
0.665743 -0.29880604 -0.82076657 0.6737957 -0.6414718 -0.4370627 1.0850227 -0.4015623
-0.36645958 0.9398122 -0.18987796 -0.62434214 -0.87589 -0.5006643 -1.1381962 -0.75395966
-0.58707154 0.9685507 0.9989494 0.73757786
00000000: 226e 2a3f 1bfd 98be c21d 52bf e07d 2c3f
00000010: 7f37 24bf afc6 dfbe 06e2 8a3f 9399 cdbe
00000020: 97a0 bbbe 8897 703f 5e6f 42be e3d4 1fbf
00000030: 543a 60bf 892b 00bf 6ab0 91bf 8003 41bf
00000040: 524a 16bf f0f2 773f 26bb 7f3f e7d1 3c3f

exp_avg f4 [20, 2]
-8.638544e-06 1.0900131e-05 1.9325678e-06 2.5742906e-06 -2.018989e-06 -1.4625753e-06 -3.8128073e-06 -3.887549e-06
9.674149e-06 7.1360573e-06 1.4213788e-05 -1.3691703e-06 1.3610687e-06 9.2675855e-06 -7.530944e-06 1.7845867e-05
-7.641932e-06 -2.066951e-05 2.4508892e-05 -2.130221e-06 -6.2531524e-07 4.4812427e-06 1.4341531e-05 1.1894152e-05
3.6033606e-07 -4.282406e-08 -2.7613087e-06 1.6467782e-06 1.6849174e-06 7.706051e-07 -9.70683e-06 -6.1439678e-06
1.8039324e-06 -3.6136953e-06 -4.153113e-06 1.3017557e-05 2.2214672e-06 7.758477e-07 1.7799401e-06 1.2437395e-06
00000000: 44ee 10b7 b5df 3637 43b1 0136 fac1 2c36
00000010: f87d 07b6 b44d c4b5 88df 7fb6 cb71 82b6
00000020: 274e 2237 4472 ef36 c177 6e37 55c4 b7b5
00000030: f7ad b635 fa7b 1b37 51b2 fcb6 b5b3 9537
00000040: d935 00b7 6f63 adb7 7298 cd37 ebf4 0eb6
00000050: 56db 27b5 955d 9636 689c 7037 fe8c 4737
00000060: 3674 c134 8ded 37b3 ec4e 39b6 de06 dd35
00000070: 5225 e235 94db 4e35 84da 22b7 4828 ceb6
00000080: a51e f235 d082 72b6 f85a 8bb6 fb65 5a37
00000090: 8414 1536 d943 5035 47e6 ee35 90ee a635

exp_avg_sq f4 [20, 2]
0.00044382914 3.288323e-05 7.2467145e-07 1.6872425e-08 6.6328384e-06 8.9738045e-05 5.8728515e-06 8.0287606e-07
0.00035947713 5.7226237e-07 2.9588598e-05 3.0435004e-07 8.858311e-05 7.924953e-08 0.0007712511 8.157993e-05
0.00036055894 5.2981664e-05 9.045648e-05 7.3893876e-05 1.4345356e-05 8.1079115e-08 0.00068224553 3.0369683e-06
0.00025363886 4.366362e-06 0.00021814789 2.6400574e-05 1.3468526e-06 8.185783e-06 6.0595215e-05 8.815614e-06
9.281583e-05 6.892002e-05 1.5845511e-05 8.4743115e-06 0.00026342028 2.326114e-06 1.9015088e-05 7.1427627e-07
00000000: bdb1 e839 19ec 0938 0b87 4235 dbee 9032
00000010: a68f de36 bf31 bc38 690f c536 3985 5735
00000020: 3478 bc39 929d 1935 0835 f837 8d65 a334
00000030: b2c5 b938 e42f aa33 c92d 4a3a e415 ab38
00000040: 6709 bd39 a138 5e38 74b3 bd38 79f7 9a38
00000050: d6ac 7037 b71d ae33 b9d8 323a b8ce 4b36
00000060: d5fa 8439 c482 9236 a1be 6439 cd76 dd37
00000070: 81c5 b435 ac55 0937 9e27 7e38 c6e6 1337
00000080: 1fa6 c238 2789 9038 faeb 8437 e42c 0e37
00000090: ac1b 8a39 561a 1c36 9782 9f37 b1bc 3f35

exp_avg f4 [20]
-2.4957262e-06 -2.626634e-07 -0.000121335135 3.2949335e-06 4.8181914e-06 2.3873924e-06 1.4146186e-05 -4.0442308e-07
-1.7754666e-05 3.615825e-05 -1.1955556e-06 1.04090905e-05 9.285575e-06 -5.1503243e-06 4.24394e-06 -2.0303141e-06
-2.2478127e-06 1.3559458e-05 4.903026e-06 -5.6916597e-06
00000000: 407c 27b6 2f04 8db4 4e75 feb8 871e 5d36
00000010: f3ab a136 1737 2036 6855 6d37 7c1f d9b4
00000020: dbef 94b7 a0a8 1738 fa76 a0b5 b4a2 2e37
00000030: 3ec9 1b37 f3d0 acb6 2b67 8e36 8840 08b6
00000040: 21d9 16b6 6e7d 6337 ac84 a436 fcfa beb6

exp_avg_sq f4 [20]
0.0012515546 3.219812e-06 0.003745732 4.313961e-07 0.0013372379 4.500758e-06 0.00019707113 0.0026310135
0.0016716693 0.00046523518 7.684359e-05 0.0017955097 0.00039657127 0.00049131067 1.5585167e-05 0.00020877337
0.00066427264 0.00016972795 0.0011927407 3.0237416e-06
00000000: 340b a43a f313 5836 f47a 753b a19a e734
00000010: 4246 af3a 3805 9736 e1a4 4e39 156d 2c3b
00000020: ea1b db3a cfea f339 1727 a138 4f57 eb3a
00000030: e5ea cf39 4dcb 003a e4bc 8237 2dea 5a39
00000040: 9522 2e3a 00f9 3139 bd55 9c3a 7ceb 4a36

exp_avg f4 [20, 20]
-6.3215857e-06 -2.0812602e-06 -2.8156087e-06 3.2983548e-06 -5.419491e-06 -1.5408946e-07 -7.094272e-06 -7.6000583e-06
5.134944e-07 3.2794758e-06 -2.7092685e-06 -1.0037887e-05 3.5944288e-06 -1.2654143e-06 -3.7342802e-06 3.474077e-06
1.7183919e-07 -1.9850347e-07 -1.9064978e-06 8.652271e-07 -3.813723e-06 5.8237003e-07 -2.229188e-05 1.2718236e-06
-1.3679447e-06 -5.46964e-06 -3.3179363e-06 -8.878528e-06 -2.019448e-06 2.6090324e-06 -7.013345e-07 -4.9488685e-06
3.0390995e-06 4.1203424e-07 -2.9600807e-07 2.9746145e-06 -2.8375794e-06 2.9680434e-06 -1.5199853e-06 -4.042603e-06
-4.8276405e-07 -1.1982576e-07 6.870099e-06 1.6731751e-06 3.220057e-06 1.1135315e-06 -9.288746e-06 5.925889e-07
-1.2019137e-06 2.4670105e-06 -1.6172149e-07 -2.0612936e-06 3.5289002e-06 -5.8865897e-08 -3.605222e-07 -7.478974e-07
7.518889e-08 5.540863e-07 6.1345975e-07 2.8636503e-06 -2.2355832e-06 -8.007914e-07 -3.1918076e-05 -2.1777066e-06
-5.8647433e-06 2.8840723e-06 7.2393773e-06 -4.628937e-06 3.6688932e-06 -3.3721765e-06 -7.857605e-07 1.7685741e-06
-3.833733e-06 -1.0312207e-07 -1.601484e-06 1.425886e-06 2.3002028e-06 -3.4667949e-06 -6.187342e-07 -1.4331093e-06
3.4722445e-06 1.6478506e-06 -1.1825926e-05 4.4082245e-07 2.8788676e-08 1.8372737e-06 2.616003e-06 5.644663e-07
-2.4200654e-07 1.05415346e-07 2.8368713e-06 -1.8149203e-06 -4.7290374e-07 6.059844e-07 7.174236e-07 -3.0172503e-06
2.3351324e-06 -3.6950473e-07 4.0009118e-06 -1.6714559e-07 5.953979e-06 2.2071883e-06 -1.7473463e-05 -1.1425684e-06
3.945541e-06 -1.3540872e-06 5.841071e-06 4.191915e-06 -1.981942e-06 -6.139981e-07 3.0482458e-06 4.3180457e-06
-4.0199257e-07 1.0424858e-06 3.3013175e-06 -3.6878616e-06 -2.0133998e-08 1.7781733e-06 2.8619174e-06 -9.130219e-07
-5.139744e-06 -1.9679514e-06 -1.2359269e-05 1.0847489e-06 -5.240696e-07 -2.3228883e-06 -3.2863175e-06 -5.8607507e-06
-1.0253991e-07 8.5575647e-07 -3.0079207e-06 -1.3555506e-06 5.48625e-07 -1.0357787e-06 -1.8799343e-06 4.737505e-06
-1.7163159e-06 5.9758787e-07 -4.1294898e-06 -4.6681866e-06 -2.52156e-06 -2.4381748e-06 1.401776e-05 1.583885e-06
-6.704805e-06 3.3947797e-06 6.920828e-10 -2.3165703e-06 4.658523e-06 9.716e-07 -2.9972728e-06 -1.0559047e-05
1.1779881e-06 -9.644948e-07 -4.9507094e-06 2.0035834e-06 9.619326e-07 -4.4369654e-06 -1.539116e-06 1.0568411e-06
4.872824e-07 1.5578858e-06 -5.0641465e-06 1.8804641e-06 -2.2835359e-06 -2.9562702e-06 2.3620762e-06 1.0726812e-06
-8.9045164e-07 3.3714148e-06 1.2414945e-06 -2.7555056e-06 4.228218e-06 7.94765e-07 3.2451806e-07 -1.5643863e-06
-1.5359211e-06 1.4857796e-06 1.8847039e-06 1.7375478e-06 -8.0593526e-07 -1.4009282e-07 1.0441702e-06 4.5837164e-06
-2.3321095e-06 3.5268183e-06 -4.4773155e-06 -4.06385e-06 -1.2536368e-07 4.1955127e-06 9.223348e-07 -1.1530654e-05
4.0719838e-06 -6.525932e-07 -2.6109005e-06 -1.0426938e-06 3.118374e-06 -8.194703e-07 3.3348078e-06 2.9414725e-06
3.4894e-07 5.663588e-07 -4.2463392e-07 -2.7226696e-07 -6.463838e-07 -8.613066e-08 -9.872766e-08 8.754578e-07
7.2376864e-08 -1.7685753e-08 5.378773e-07 5.8485205e-07 1.1820006e-07 3.7056543e-07 4.0803917e-07 -8.0138517e-07
-1.0677704e-07 2.5575368e-08 7.141034e-07 9.290279e-07 -9.061435e-06 -5.7646184e-07 -6.9146213e-06 -9.851805e-07
-4.770296e-06 -3.2480218e-06 -1.1040026e-05 -5.7482453e-06 4.572768e-07 -5.370094e-07 -2.697809e-06 1.9544375e-06
-1.1431159e-06 2.058504e-07 -1.3120548e-06 5.34728e-06 -2.7110177e-06 6.6565997e-07 -4.144554e-06 -4.544685e-06
-2.3896519e-07 5.780875e-08 -2.2016828e-05 -1.1415331e-06 -3.998436e-06 3.6590939e-06 -8.868995e-06 6.8455125e-07
2.868577e-06 -2.2846327e-06 3.9563255e-07 -2.0775394e-06 -3.8161957e-06 2.1798442e-07 -1.2571624e-06 -1.5249022e-06
00000000: 021e d4b6 c7ab 0bb6 caf3 3cb6 4e59 5d36
00000010: 13d9 b5b6 ca73 25b4 550b eeb6 0104 ffb6
00000020: 11d7 0935 f714 5c36 e1d0 35b6 6568 28b7
00000030: d137 7136 4ed7 a9b5 729a 7ab6 3024 6936
00000040: cc82 3834 3824 55b4 c4e2 ffb5 f441 6835
00000050: 43ef 7fb6 2a54 1c35 73ff bab7 87b3 aa35
00000060: 399a b7b5 da87 b7b6 b6a9 5eb6 fdf4 14b7
00000070: da85 07b6 d616 2f36 5743 3cb5 750e a6b6
00000080: 55f3 4b36 8e35 dd34 0aeb 9eb4 7d9f 4736
00000090: 3e6d 3eb6 992e 4736 4c02 ccb5 b2a5 87b6
000000a0: 4b97 01b5 74a9 00b4 b385 e636 dc91 e035
000000b0: 2818 5836 a774 9535 dcd6 1bb7 6612 1f35
000000c0: 7151 a1b5 eb8e 2536 aaa5 2db4 c154 0ab6
000000d0: 0bd2 6c36 bdd3 7cb3 cb8d c1b4 1ec3 48b5
000000e0: 8877 a133 85bc 1435 a2ac 2435 232d 4036
000000f0: 0707 16b6 f7f5 56b5 c6df 05b8 b724 12b6
00000100: c3c9 c4b6 fc8b 4136 c7e9 f236 4452 9bb6
00000110: 1b37 7636 8d4d 62b6 0ded 52b5 be5f ed35
00000120: 84a3 80b6 f573 ddb3 92f2 d6b5 1261 bf35
00000130: 2f5d 1a36 15a7 68b6 1717 26b5 4359 c0b5
00000140: b504 6936 b72b dd35 f767 46b7 2daa ec34
00000150: f84a f732 3e98 f635 978e 2f36 d485 1735
00000160: 20ed 81b4 b360 e233 1461 3e36 3098 f3b5
00000170: 65e3 fdb4 eeaa 2235 f994 4035 f77b 4ab6
00000180: 45b5 1c36 5860 c6b4 923f 8636 a178 33b4
00000190: 4ac8 c736 351f 1436 fa93 92b7 5a5a 99b5
000001a0: f063 8436 15be b5b5 6bfe c336 47a8 8c36
000001b0: 8101 05b6 a1d1 24b5 7790 4c36 bbe3 9036
000001c0: 70d1 d7b4 8aeb 8b35 348c 5d36 fb7c 77b6
000001d0: 21f3 acb2 92a9 ee35 5e0f 4036 6316 75b5
000001e0: 1176 acb6 2611 04b6 a85a 4fb7 b097 9135
000001f0: caad 0cb5 ebe2 1bb6 818a 5cb6 77a7 c4b6
00000200: e933 dcb3 23b7 6535 afdb 49b6 5df0 b5b5
00000210: 3945 1335 1605 8bb5 0d52 fcb5 dcf6 9e36
00000220: 2a5c e6b5 ed69 2035 0c90 8ab6 6ba3 9cb6
00000230: 1238 29b6 869f 23b6 d22d 6b37 e095 d435
00000240: d6f9 e0b6 dfd1 6336 ff3c 3e30 6076 1bb6
00000250: 6850 9c36 ec67 8235 c124 49b6 c326 31b7
00000260: 5d1b 9e35 ca73 81b5 451e a6b6 4d75 0636
00000270: c11b 8135 3ee1 94b6 a093 ceb5 c9d8 8d35
00000280: cbcd 0235 8c18 d135 b0ec a9b6 4164 fc35
00000290: d93e 19b6 5664 46b6 2984 1e36 0cf9 8f35
000002a0: 5f07 6fb5 7740 6236 6da1 a635 3aeb 38b6
000002b0: 1ee0 8d36 d657 5535 6c39 ae34 e7f7 d1b5
000002c0: d925 ceb5 006b c735 eff5 fc35 b035 e935
000002d0: 7357 58b5 6c6c 16b4 6a25 8c35 d3cd 9936
000002e0: 5681 1cb6 47ae 6c36 d93b 96b6 355c 88b6
000002f0: b59b 06b4 2ec7 8c36 5d96 7735 c873 41b7
00000300: 13a2 8836 dd2d 2fb5 ee36 2fb6 b0f2 8bb5
00000310: 4245 5136 92f9 5bb5 90cb 5f36 1d66 4536
00000320: f355 bb34 e107 1835 3ef9 e3b4 162c 92b4
00000330: 2883 2db5 d5f6 b8b3 1b04 d4b3 0001 6b35
00000340: 9a6d 9b33 62eb 97b2 a662 1035 bafe 1c35
00000350: 2cd5 fd33 20f2 c634 7a10 db34 c51e 57b5
00000360: 4c4d e5b3 d4b0 db32 d0b0 3f35 5062 7935
00000370: 9106 18b7 28be 1ab5 2504 e8b6 8b3a 84b5
00000380: 8810 a0b6 97f8 59b6 8d38 39b7 0de1 c0b6
00000390: a57f f534 0127 10b5 010c 35b6 fb28 0336
000003a0: 2a6d 99b5 ba07 5d34 dc19 b0b5 c96c b336
000003b0: eeee 35b6 ceaf 3235 7311 8bb6 8c7e 98b6
000003c0: 204b 80b4 6549 7833 c7b0 b8b7 c736 99b5
000003d0: 4e2a 86b6 c18e 7536 0bcc 14b7 01c2 3735
000003e0: c781 4036 b151 19b6 5367 d434 db6b 0bb6
000003f0: df0c 80b6 1a0f 6a34 c5bb a8b5 3eab ccb5

exp_avg_sq f4 [20, 20]
4.5377048e-05 7.763249e-06 3.9560702e-05 1.0006576e-06 2.7985956e-05 6.209649e-08 0.00011594758 5.707856e-05
8.462749e-06 1.4219279e-07 1.500194e-05 2.773442e-05 1.3913922e-07 1.6556193e-06 1.7198423e-05 2.703978e-05
3.4901458e-08 5.3192803e-06 1.666857e-05 1.9042462e-05 8.648243e-06 1.5983958e-06 9.0455005e-06 4.583702e-07
3.292376e-06 1.16993796e-07 1.5587922e-05 1.16009e-05 7.7199485e-07 2.6340467e-07 3.138785e-06 4.985804e-06
3.682896e-07 3.8943796e-07 2.9466212e-06 5.968573e-06 1.01977875e-07 3.773666e-07 3.953726e-06 5.2139776e-06
2.9596618e-05 4.2947995e-06 2.4260846e-05 1.645862e-06 3.094352e-05 2.6667844e-06 0.00011031993 4.8740385e-05
8.908867e-06 2.8430432e-07 6.983579e-06 4.1877905e-05 1.8935573e-07 1.0002998e-06 1.5514961e-05 1.3192867e-05
1.1394419e-06 7.311622e-06 4.6129026e-06 7.725681e-06 5.5097524e-05 1.0074563e-05 5.068399e-05 6.078237e-07
3.1796295e-05 4.6064304e-08 0.00012207072 4.4098255e-05 1.4511889e-05 2.6689793e-06 2.25639e-05 4.796262e-06
3.9556494e-06 1.5133938e-06 1.5616313e-05 3.7375205e-05 1.0278043e-06 8.053893e-06 3.221923e-05 2.3870018e-05
4.1430332e-05 8.787284e-06 0.00015635934 5.28279e-07 1.6316957e-06 3.6427366e-05 2.472403e-06 2.399553e-05
4.3059333e-07 8.613864e-08 2.6750251e-05 2.2150069e-05 3.2155267e-09 1.5649816e-06 1.1001218e-06 5.5789933e-05
2.2889348e-05 3.6778415e-06 7.007682e-05 7.446539e-05 5.0021745e-06 6.937427e-07 5.15109e-06 4.6231477e-07
3.7290513e-06 9.786535e-08 1.9096062e-05 8.0704685e-06 8.3427057e-07 2.2334076e-07 1.178936e-06 6.2775284e-06
2.5150288e-07 1.8172979e-07 2.2380739e-06 2.3506561e-06 6.724432e-08 6.165359e-07 9.185511e-07 1.6862242e-06
2.9614192e-05 6.5419936e-06 9.560637e-05 1.45734375e-05 1.01439326e-07 2.3283303e-05 4.761469e-06 1.6736299e-06
1.3282217e-06 1.5320818e-05 2.4030245e-05 8.371747e-05 1.9183362e-05 4.2954602e-07 3.4185668e-08 4.16389e-05
2.251438e-05 1.3502319e-07 6.943062e-05 4.1498475e-05 1.6014914e-05 2.832131e-06 1.1971531e-05 1.721285e-07
1.2932208e-05 3.63543e-07 4.172734e-05 2.0383672e-05 4.542975e-06 1.3161966e-08 5.302333e-06 1.1270451e-05
4.4674266e-08 5.6089914e-07 6.907301e-06 9.197354e-06 2.8752304e-08 3.1961088e-06 5.4079906e-06 5.694762e-06
1.4523363e-05 2.5903632e-06 5.7862526e-06 4.6881876e-08 1.4214942e-05 8.414805e-07 4.2439577e-05 1.7091059e-05
5.436827e-06 1.3231696e-07 4.7827966e-06 1.05574345e-05 2.6977912e-07 4.7099653e-07 6.7372034e-06 7.728928e-06
9.553112e-08 4.026301e-06 4.4956937e-06 3.6303795e-06 6.503751e-06 1.9480133e-06 3.7285434e-05 1.0907598e-05
2.7997253e-06 1.6174425e-05 2.4783099e-06 9.818077e-07 3.1424243e-08 1.0269636e-05 9.085146e-06 7.4533535e-05
1.2605735e-05 5.144012e-08 8.409133e-07 1.5090337e-05 1.4898491e-05 8.2969876e-07 3.307304e-05 1.7073276e-05
2.0138972e-07 2.8628422e-08 2.5023166e-07 4.0533945e-07 3.009773e-07 7.440886e-08 9.2538363e-07 1.1841546e-06
1.22287345e-08 3.6576986e-07 1.2367666e-08 2.6398016e-06 4.735583e-07 2.2648281e-08 2.858123e-07 5.0570954e-08
1.0633161e-07 2.9239217e-08 1.598616e-08 7.583853e-08 2.5686911e-06 6.3290094e-07 1.9928693e-07 8.920209e-06
1.8192432e-07 2.847923e-06 2.4782437e-07 2.5528552e-06 8.2657436e-07 9.715312e-06 3.4089487e-06 4.0013667e-05
1.2482187e-05 2.128643e-09 3.9367765e-07 4.310343e-06 4.6864398e-06 6.3205746e-08 1.1926342e-05 1.5504306e-06
7.702334e-05 1.6763743e-05 0.00022206234 1.3528132e-05 9.112554e-07 6.108379e-05 9.799897e-06 1.7392038e-05
4.1720673e-07 1.2051506e-05 5.6182515e-05 0.00011182763 1.320619e-05 1.861554e-06 8.0170474e-07 0.000103956554
00000000: 3c53 3e38 e73e 0237 fbed 2538 554e 8635
00000010: 62c3 ea37 e859 8533 e228 f338 a367 6f38
00000020: 3bfb 0d37 a8ad 1834 d7b0 7b37 37a7 e837
00000030: 4c66 1534 a536 de35 5545 9037 7cd3 e237
00000040: 8fe6 1533 457c b236 7bd3 8b37 60bd 9f37
00000050: ec17 1137 7688 d635 21c2 1737 ec15 f634
00000060: 97f2 5c36 053e fb33 cfc2 8237 7ca1 4237
00000070: 153b 4f35 106a 8d34 eaa3 5236 bb4b a736
00000080: 56b9 c534 f213 d134 91be 4536 a745 c836
00000090: eefe da33 df98 ca34 3faa 8436 baf3 ae36
000000a0: 4146 f837 0c1c 9036 c583 cb37 63e7 dc35
000000b0: 5ac9 0138 02f7 3236 905b e738 976e 4c38
000000c0: 4b77 1537 7da2 9834 7d54 ea36 0fa6 2f38
000000d0: b551 4b34 0a42 8635 2026 8237 ef56 5d37
000000e0: edee 9835 5b56 f536 88c8 9a36 8c9d 0137
000000f0: 8418 6738 eb05 2937 8595 5438 5429 2335
00000100: 035d 0538 3dd8 4533 1c00 0039 24f6 3838
00000110: 1778 7337 b71c 3336 9b47 bd37 94ef a036
00000120: c5ba 8436 d11f cb35 c7ff 8237 52c3 1c38
00000130: 16f3 8935 351f 0737 2323 0738 793c c837
00000140: 7bc5 2d38 196d 1337 64f4 2339 0ecf 0d35
00000150: a300 db35 96c9 1838 8feb 2536 024a c937
00000160: 4c2c e734 38fb b833 ba65 e037 e9ce b937
00000170: 25f8 5c31 5c0c d235 e6a7 9335 fcff 6938
00000180: 8002 c037 d6d0 7636 35f6 9238 4d2a 9c38
00000190: 5ad8 a736 a339 3a35 87d7 ac36 0f34 f834
000001a0: 9d40 7a36 0c2a d233 7b30 a037 6666 0737
000001b0: a3f2 5f35 71cf 6f34 ef3b 9e35 8fa3 d236
000001c0: 4b06 8734 8121 4334 d131 1636 f7bf 1d36
000001d0: f567 9033 0680 2535 5a92 7635 3952 e235
000001e0: fe6b f837 4c83 db36 4780 c838 7080 7437
000001f0: dcd6 d933 8350 c337 b5c4 9f36 7ca1 e035
00000200: 5a45 b235 3585 8037 8f94 c937 7991 af38
00000210: f5eb a037 5b9c e634 8ad3 1233 6ea5 2e38
00000220: 43dd bc37 e4fa 1034 489b 9138 a60e 2e38
00000230: c457 8637 a40f 3e36 56d9 4837 52d2 3834
00000240: 69f7 5837 f82c c334 6404 2f38 9afd aa37
00000250: dc6f 9836 f01e 6232 b2ea b136 3816 3d37
00000260: e0df 3f33 b290 1635 44c5 e736 564e 1a37
00000270: fcfa f632 bb7c 5636 4976 b536 a215 bf36
00000280: 5ea9 7337 1ad6 2d36 8827 c236 2b5b 4933
00000290: b67c 6e37 1ae2 6135 2601 3238 c55e 8f37
000002a0: fd6d b636 0213 0e34 e97b a036 d61f 3137
000002b0: 29d6 9034 45dd fc34 2310 e236 7eab 0137
000002c0: ca26 cd33 aa19 8736 b7d9 9636 72a1 7336
000002d0: cc3a da36 9dba 0236 ee62 1c38 c7ff 3637
000002e0: eae2 3b36 50ae 8737 0a51 2636 a8c6 8335
000002f0: 52f7 0633 c04b 2c37 686c 1837 e34e 9c38
00000300: 387d 5337 03ef 5c33 1fbb 6135 812c 7d37
00000310: 88f4 7937 77b8 5e35 e8b7 0a38 9538 8f37
00000320: 963d 5834 91ea f532 9457 8634 6e9d d934
00000330: 0196 a134 b4ca 9f33 e167 7835 3eef 9e35
00000340: 8b16 5232 075f c434 9279 5432 7227 3136
00000350: 5b3d fe34 198c c232 be71 9934 5a33 5933
00000360: 6c58 e433 b829 fb32 f051 8932 acdc a233
00000370: c761 2c36 9fe4 2935 93fb 5534 02a8 1537
00000380: fa56 4334 f21e 3f36 b90c 8534 b851 2b36
00000390: c2e1 5d35 f3fe 2237 4bc5 6436 59d4 2738
000003a0: 966a 5137 7c47 1231 a55a d334 90a1 9036
000003b0: 3640 9d36 babb 8733 4017 4837 6418 d035
000003c0: 9787 a138 dd9f 8c37 68d9 6839 e2f6 6237
000003d0: ff9c 7435 1c1a 8038 3d6a 2437 1ee5 9137
000003e0: 75fc df34 d330 4a37 84a5 6b38 0085 ea38
000003f0: 2790 5d37 82da f935 bb34 5735 4003 da38

exp_avg f4 [20]
-2.2144543e-06 1.0556441e-06 -4.7481353e-07 -7.1561226e-07 -9.615364e-06 -1.5350338e-06 4.5841844e-06 -3.182096e-07
-2.6755272e-06 -1.4137614e-05 -2.3326787e-07 5.8421692e-06 -3.515402e-06 3.321008e-06 2.8253542e-06 -1.1447005e-06
-7.805068e-06 1.4419778e-05 7.1834927e-07 -8.676515e-06
00000000: 099c 14b6 a8af 8d35 e0e9 feb4 8018 40b5
00000010: ad51 21b7 5c07 ceb5 d8d1 9936 65d6 aab4
00000020: 358d 33b6 9730 6db7 2f78 7ab4 da07 c436
00000030: 26ea 6bb6 7cde 5e36 379b 3d36 9ca3 99b5
00000040: 83f2 02b7 7aec 7137 96d4 4035 5991 11b7

exp_avg_sq f4 [20]
7.7124005e-06 2.4231415e-06 3.562177e-06 6.0878367e-05 0.0002711749 4.4380556e-07 0.0004060723 1.846876e-06
1.4387616e-06 0.00024996948 2.1324936e-06 0.00011206244 0.0007631986 1.8047407e-05 6.65271e-05 0.00011985294
0.00011660896 6.364623e-05 0.00028269974 0.00014189351
00000000: 8264 0137 419d 2236 bc0d 6f36 a657 7f38
00000010: 7b2c 8e39 2c44 ee34 1ae6 d439 2de2 f735
00000020: 791b c135 560e 8339 f61b 0f36 1003 eb38
00000030: 6411 483a 8364 9737 7784 8b38 8f59 fb38
00000040: f58b f438 cf79 8538 5137 9439 40c9 1439

exp_avg f4 [1, 20]
5.23362e-07 -1.584986e-05 6.8393247e-06 -1.9611769e-05 2.0697451e-05 1.3179919e-05 -1.6311787e-05 1.1779058e-05
3.3638855e-06 -1.5353497e-05 4.0455034e-06 5.2733053e-06 2.4355439e-05 3.6626723e-05 -2.2807583e-06 8.84077e-06
7.5776456e-06 -1.5285534e-05 -6.2290824e-06 -1.6398742e-05
00000000: 2a7d 0c35 51f5 84b7 5a7d e536 f483 a4b7
00000010: 709f ad37 521f 5d37 4cd5 88b7 ab9e 4537
00000020: 1dbf 6136 62cb 80b7 9cbe 8736 59f1 b036
00000030: e84e cc37 a59f 1938 210f 19b6 d152 1437
00000040: 7b43 fe36 6f39 80b7 6903 d1b6 0890 89b7

exp_avg_sq f4 [1, 20]
8.685491e-05 0.00019546297 0.00031729127 0.00028769212 0.0005309998 0.0004913894 0.00013636096 7.580367e-05
2.4910156e-05 0.00020107254 3.6186862e-05 0.00019452238 0.0006627176 0.0002610446 1.280815e-05 4.738882e-05
0.0002970893 0.0006697583 0.00030818573 0.00024095114
00000000: e025 b638 31f5 4c39 1d5a a639 62d5 9639
00000010: cb32 0b3a 96d0 003a 1efc 0e39 c9f8 9e38
00000020: 27f6 d037 00d7 5239 59c7 1738 b4f8 4b39
00000030: 3aba 2d3a d0dc 8839 96e2 5637 5cc3 4638
00000040: a7c2 9b39 b892 2f3a fd93 a139 d4a7 7c39
