modelos/heat_40x1-20000.pt (torch, 7430 bytes, 9 tensors)

linears.0.weight f4 [40, 2]
000000 78 34 f1 be 48 19 f4 3d f5 a4 d2 3f 9a 72 13 bf
       -0.47110343 0.119188845 1.6456591 -0.57596743
000010 8c 7e cf 3d a1 af 43 c0 fc b2 61 bf d8 8e cc bf
       0.10131559 -3.0575945 -0.88163733 -1.5981092
000020 f2 70 ee 3d f5 83 b9 3e 8e 37 a2 bd c5 ef 31 40
       0.11642636 0.36233488 -0.079207525 2.7802594
000030 c6 f5 99 3e 3a 30 7b bd 87 78 03 c0 06 95 bb bf
       0.30070323 -0.06132529 -2.0542314 -1.4654853
000040 12 fd 9e 3f ae 9d 84 c0 02 cd 99 bf 75 1d c4 bf
       1.2420981 -4.144248 -1.2015688 -1.532149
000050 a7 6b de 3f 7f 0d 46 3f f1 54 82 bf c0 64 6c c0
       1.7376603 0.77364343 -1.0182172 -3.6936493
000060 cd 06 92 be cf 5e a6 bc fd d3 a3 3f 14 e2 85 bf
       -0.28520814 -0.02030888 1.2799069 -1.0459619
000070 03 89 83 3f bb 52 91 3e 38 5d ea 3e 79 55 23 3f
       1.0276188 0.2838343 0.45774245 0.63802296
000080 4c 0c b4 bf 06 88 d7 bf 89 8b 6d be 61 c5 a1 bd
       -1.4066253 -1.6838386 -0.2319776 -0.07898975
000090 f5 d3 8b bf 59 22 6c bf 3b 3e a8 be d4 67 c5 be
       -1.0924059 -0.9223991 -0.32859978 -0.38555777
0000a0 1b cc b3 3f 08 1f b4 3d 85 47 fa 3f 68 77 c5 bf
       1.4046663 0.08794981 1.9553076 -1.5427065
0000b0 2b fe 73 bc 41 55 8f c0 be 58 ad 3f 17 f0 2e 40
       -0.014892141 -4.479157 1.3542707 2.733404
0000c0 17 9f cf 3c 68 8c e7 be cf 68 42 bf a9 ce 9b bf
       0.025344415 -0.4522431 -0.75941175 -1.2172443
0000d0 03 3f 9f 3d 96 1d e2 be b5 f0 90 ba 85 a7 ce 3e
       0.077756904 -0.44163197 -0.0011058064 0.40362182
0000e0 44 bd d2 bf 0a 25 b7 c0 e8 07 58 3e 9a 01 1d bf
       -1.6464009 -5.7232714 0.21096766 -0.6133057
0000f0 c2 4d bb 3e ce 1e b4 3d ec 04 39 3d e7 c9 2c 3e
       0.36582762 0.08794938 0.04517071 0.16873895
000100 06 45 a3 3d a4 8c fb bc 71 86 d7 3e 45 db 26 3f
       0.079721496 -0.030706711 0.42094758 0.6517833
000110 68 e9 7f be 41 27 be bd 46 a4 96 bf 07 3a 2c 40
       -0.24991381 -0.09284831 -1.1768882 2.6910417
000120 db e7 d1 be 10 c0 2b 3d 61 1b 52 be 95 60 0e 3f
       -0.40997204 0.041931212 -0.20518257 0.5561612
000130 0c d2 f8 3d a8 72 95 3e 1d 10 36 3d 88 bc 77 be
       0.12149438 0.29189038 0.04444896 -0.24193013

linears.0.bias f4 [40]
000000 14 ff 01 3e 11 73 a3 bf 03 0a 29 3f 29 dc 91 3f
       0.12694961 -1.276949 0.660309 1.1395313
000010 a6 cc 4f be 0e ba c9 3c 39 6a 4f 3c 38 66 69 be
       -0.20292911 0.02462485 0.012659603 -0.227929
000020 e8 91 8b bf f8 57 37 3f fe 26 df be 2e 99 fb 3a
       -1.0903902 0.71618605 -0.43584436 0.0019195431
000030 b6 b4 34 3d 89 45 02 bf 77 e9 06 bf 49 e4 3d 3e
       0.044117652 -0.5088735 -0.5269999 0.18544115
000040 bb ee 6d 3f f7 02 f0 3d ca 7d 5e 3f 73 a8 96 be
       0.929424 0.117193155 0.8691069 -0.29425392
000050 71 26 b7 be e9 31 0d c0 2e f0 8c 3d bf 68 15 bf
       -0.35771516 -2.2061713 0.06881748 -0.58362955
000060 65 25 44 3c 21 29 1d 3e 94 a4 81 bd c7 b8 06 bd
       0.011971806 0.1534772 -0.06330219 -0.03289106
000070 33 fc 9a bf dc 89 87 be ba 79 b4 3d d8 2b 03 be
       -1.2108215 -0.26472366 0.0881228 -0.12809694
000080 d5 63 05 3e b5 72 9c 3e 75 f9 dc 3d 03 e1 ea 3e
       0.13026364 0.30556265 0.10789768 0.45874795
000090 8c c9 d5 3c 2e 0c 80 3e 76 44 3b be 58 68 5d 3d
       0.026097082 0.25009292 -0.18287835 0.054054588

linears.1.weight f4 [1, 40]
000000 6c 4b e9 ba 74 d8 90 bf 3d ed bf bf 64 66 c3 bf
       -0.0017798967 -1.1316056 -1.4994274 -1.5265622
000010 9a cb 19 3f 17 0a 51 3f 1e 65 62 be 11 7e a7 bf
       0.60076296 0.8165602 -0.22108886 -1.3085347
000020 9d fd 0d 40 42 22 3b 3f 02 1f 69 3f 36 40 2c 40
       2.2186043 0.7309915 0.9106294 2.6914191
000030 ab c7 47 be 9a 29 fa 3f 90 07 e4 be 01 6b c5 be
       -0.19509761 1.9543946 -0.4453702 -0.385582
000040 c3 71 1f 3f 75 a2 01 bf 2b a6 2f 40 c6 1b 97 3e
       0.6228296 -0.50638515 2.744517 0.29513377
000050 ce db 9c 3f 01 93 9f bf f8 51 15 c0 38 01 90 bf
       1.2254579 -1.2466737 -2.333128 -1.1250372
000060 59 d2 f2 be 2c 9d fc 3e cd bd 2f bf 23 c2 48 3f
       -0.47426108 0.49338663 -0.6864899 0.7842123
000070 3c e7 99 bf f4 e7 16 bf e3 f9 4d be 2d 10 88 3e
       -1.2023692 -0.5894768 -0.20114855 0.2657484
000080 2d e7 a0 bd 0b 89 80 be 66 50 02 bf 20 15 fe bf
       -0.07856593 -0.25104555 -0.5090393 -1.9850197
000090 74 52 18 3e d4 b8 48 3f a7 3f 93 3f a5 20 36 bd
       0.14875203 0.78407025 1.15038 -0.044464726

exp_avg f4 [40, 2]
000000 97 12 6c b1 47 0d 16 32 28 96 db 36 5f 3e 3c 39
       -3.4353087e-09 8.734168e-09 6.544189e-06 0.00017952312
000010 1e 85 ac 38 a9 05 4a 38 eb 69 6c 38 1a 80 84 b9
       8.226394e-05 4.8165824e-05 5.636543e-05 -0.00025272445
000020 21 06 9d b7 3b 9e f6 35 6c af c5 b7 85 43 41 b8
       -1.8718712e-05 1.8374479e-06 -2.3565917e-05 -4.607767e-05
000030 fb 1a e1 36 be 85 74 36 19 b8 0b 38 0c 66 2b 39
       6.7086635e-06 3.6436682e-06 3.3311637e-05 0.00016345846
000040 4c d2 95 38 ad b9 4b 38 87 4b 8b 38 15 85 90 38
       7.1440445e-05 4.8571896e-05 6.6421046e-05 6.8912435e-05
000050 2f 9f 33 b8 8d ae 5a b8 14 1b 4c 38 0d d1 aa 38
       -4.2825177e-05 -5.2137813e-05 4.866261e-05 8.1451704e-05
000060 51 f5 78 36 35 05 55 36 45 b9 0b b7 c8 b4 6c 39
       3.7097673e-06 3.1742504e-06 -8.328182e-06 0.0002257406
000070 c9 3b 4f b8 e9 c0 14 33 a0 2e 4b b7 19 e5 b5 b7
       -4.9408325e-05 3.4634386e-08 -1.2110599e-05 -2.1683563e-05
000080 e6 bb 77 38 83 56 de 38 e1 2a 48 37 e7 d9 57 37
       5.9064383e-05 0.00010601899 1.19309125e-05 1.2865733e-05
000090 b2 aa 9f b8 a6 6e 0f ba 0d 20 d0 36 4c 53 81 37
       -7.613505e-05 -0.0005471505 6.2026143e-06 1.5416786e-05
0000a0 74 f9 8c b9 64 05 4e 39 7a a0 86 36 63 e7 8c 38
       -0.00026888738 0.00019647699 4.012193e-06 6.718819e-05
0000b0 3b 9a 93 38 29 ec b3 38 20 1a dc b8 cd fd 3c b9
       7.038234e-05 8.5793734e-05 -0.00010495284 -0.00018023625
0000c0 4a 88 06 37 bc 6f 87 36 49 a0 e7 37 cf 31 cc 36
       8.018755e-06 4.036321e-06 2.7611984e-05 6.0854723e-06
0000d0 86 d2 1d 37 0d 2d 7c 37 b7 3f 9c b7 66 32 bf b6
       9.4069455e-06 1.503086e-05 -1.8626319e-05 -5.6981107e-06
0000e0 9e a8 37 34 a6 ea 95 37 7e 77 36 b7 2b 19 03 38
       1.7104546e-07 1.787145e-05 -1.0875867e-05 3.1256273e-05
0000f0 f4 43 85 b4 0f e0 99 b6 17 95 7f b7 66 a2 09 b7
       -2.4822623e-07 -4.585839e-06 -1.5233897e-05 -8.203648e-06
000100 bc 3d 9d 36 ca e8 22 36 cb 95 0f b7 da 12 31 b7
       4.6861514e-06 2.4275382e-06 -8.558341e-06 -1.0554411e-05
000110 dc ec 0d 37 6f 1c 26 37 ed 04 10 b8 05 92 d0 b8
       8.459403e-06 9.900991e-06 -3.4336863e-05 -9.945411e-05
000120 fb c9 c7 34 08 32 4e b3 ad 19 14 37 31 f7 26 b8
       3.72136e-07 -4.8008616e-08 8.8274655e-06 -3.98077e-05
000130 dd 10 29 b8 07 09 26 b7 b6 b7 27 36 fd 7b a9 35
       -4.0308445e-05 -9.896473e-06 2.4991873e-06 1.2627567e-06

exp_avg_sq f4 [40, 2]
000000 8b a8 8f 32 dc 1f 6f 33 c9 02 1e 37 66 b7 da 37
       1.6724035e-08 5.56755e-08 9.418182e-06 2.6073027e-05
000010 22 22 11 37 61 a3 01 37 17 65 3d 37 52 01 8a 38
       8.650621e-06 7.727039e-06 1.1288815e-05 6.580599e-05
000020 39 f9 e0 35 57 ac 36 37 58 1e 80 36 16 81 65 35
       1.6761834e-06 1.0888171e-05 3.8182297e-06 8.549699e-07
000030 bf d2 0f 35 47 f8 02 36 d9 67 12 37 ba b8 80 36
       5.357833e-07 1.9516026e-06 8.726457e-06 3.8362023e-06
000040 a4 76 3d 39 2d 19 0a 35 eb b3 3a 37 69 f8 ac 36
       0.00018068642 5.144564e-07 1.1128354e-05 5.154918e-06
000050 90 28 f6 37 27 9b 48 37 5a 4e ba 35 7c 71 10 35
       2.9344374e-05 1.1957053e-05 1.3880883e-06 5.380932e-07
000060 08 ff 83 34 e6 c0 8e 35 76 ab c4 38 97 22 fc 38
       2.458621e-07 1.0635965e-06 9.3779454e-05 0.00012022739
000070 cb 4d 9f 36 12 9f 0f 37 7f e7 a5 35 63 36 b4 35
       4.7476256e-06 8.560501e-06 1.2360832e-06 1.3426874e-06
000080 fd 58 1a 37 c5 66 9d 36 61 3a b5 35 8e ee 01 37
       9.1998345e-06 4.6909286e-06 1.3502541e-06 7.744542e-06
000090 c8 c2 18 39 57 7c b1 39 91 9a 2b 35 10 de 96 35
       0.00014568411 0.0003385271 6.392739e-07 1.12405e-06
0000a0 92 39 9c 38 e3 32 8f 38 0f 60 08 39 68 45 f6 35
       7.449383e-05 6.82825e-05 0.00013005755 1.8348628e-06
0000b0 49 dc 15 38 7c 7b 18 36 d0 46 26 37 3d 22 30 35
       3.5729525e-05 2.2721642e-06 9.910858e-06 6.561493e-07
0000c0 08 2c 6a 35 2d 0c c7 36 9a 40 28 36 5d dd 91 35
       8.7235867e-07 5.9320796e-06 2.5071554e-06 1.0867767e-06
0000d0 a6 69 dc 35 27 78 4a 37 08 e2 2b 36 c2 37 8f 37
       1.6422025e-06 1.2068113e-05 2.5612553e-06 1.7072893e-05
0000e0 e6 d4 53 31 76 ca 1e 31 a6 ec 61 35 10 78 c9 36
       3.082556e-09 2.3107112e-09 8.41634e-07 6.004244e-06
0000f0 48 05 0a 35 d7 29 a3 35 c4 b8 a4 34 4b c3 07 36
       5.141669e-07 1.2156623e-06 3.0681815e-07 2.0230243e-06
000100 ff bc 1e 33 1b ec 56 34 81 49 c8 34 6c 4e d4 34
       3.6959133e-08 2.0016198e-07 3.7306384e-07 3.9545137e-07
000110 85 b2 cb 35 17 d2 06 37 54 cd 24 38 5f 2c 2c 37
       1.5176635e-06 8.035938e-06 3.9291874e-05 1.026233e-05
000120 3f 43 b0 34 e5 e9 7d 35 b6 43 c9 35 28 06 46 37
       3.2831483e-07 9.4590206e-07 1.4995373e-06 1.1803153e-05
000130 e0 5f d2 36 a4 1d 2d 38 98 3d 07 32 1e ce 56 33
       6.269649e-06 4.127402e-05 7.872039e-09 5.001322e-08

exp_avg f4 [40]
000000 42 42 ed 2d 6a 4d 0e 39 1b 8c 4e 37 77 d4 13 b9
       2.6973205e-11 0.00013571014 1.2311178e-05 -0.00014098162
000010 6d 00 f1 37 42 9d 58 38 f5 e6 35 b6 a1 de b5 36
       2.8729637e-05 5.164487e-05 -2.7105536e-06 5.4201378e-06
000020 dd d5 c5 38 fd 33 ec b8 06 c0 37 b8 6c b9 67 39
       9.433527e-05 -0.000112630405 -4.3809436e-05 0.00022098952
000030 d8 b7 99 b6 a5 af c0 39 e9 78 bf 38 86 3d f6 b6
       -4.5811576e-06 0.0003675196 9.130111e-05 -7.3385336e-06
000040 59 97 5a b9 74 a0 84 b7 3e 4f ef b9 3c 33 2c 37
       -0.00020846481 -1.5810343e-05 -0.00045644672 1.0263928e-05
000050 6e 8a 8a 39 98 49 92 38 2d 27 03 39 ab a1 5b 39
       0.0002642455 6.9755304e-05 0.00012507728 0.00020945694
000060 ef 99 0d b7 f1 7d bb b7 ab e5 ad b6 4f eb a5 37
       -8.440095e-06 -2.2350783e-05 -5.1825386e-06 1.9779107e-05
000070 46 0b 43 38 fa 04 44 37 12 12 b1 b6 e6 85 ff 36
       4.6502122e-05 1.1683669e-05 -5.2771147e-06 7.61518e-06
000080 c2 9a f6 b5 ef 84 68 b6 a1 ee 8e b7 fd 1f 88 b8
       -1.8373469e-06 -3.4648072e-06 -1.703884e-05 -6.4909436e-05
000090 5b c4 c0 35 98 46 5e b7 1d 3d 56 38 da de 6a b5
       1.4362262e-06 -1.32486675e-05 5.1078492e-05 -8.7496085e-07

exp_avg_sq f4 [40]
000000 96 d1 26 33 5d 1c 8e 38 1f 9f aa 37 e1 7d e5 38
       3.8840504e-08 6.776371e-05 2.0339676e-05 0.00010943018
000010 d1 2c a7 36 0d 45 48 37 2d 66 89 35 a9 51 ba 38
       4.982205e-06 1.1937006e-05 1.0237032e-06 8.8843815e-05
000020 a0 c5 18 39 bf 88 21 37 cc 8c 8e 37 c1 79 57 39
       0.0001456947 9.6281865e-06 1.6993283e-05 0.00020549355
000030 95 86 0d 35 a7 e2 9b 39 a3 c9 57 37 9d 8f 12 35
       5.2722436e-07 0.00029732773 1.2861946e-05 5.4598223e-07
000040 5e 1c 5a 37 bd 01 76 36 69 5f 24 3a d2 42 ca 34
       1.3000417e-05 3.6657868e-06 0.0006270321 3.767405e-07
000050 98 0e e7 38 27 d1 8b 38 8a 8d 0d 39 cd 36 61 37
       0.00011017657 6.666994e-05 0.00013499535 1.3423804e-05
000060 c1 6c 23 36 2b f9 b1 35 6d e6 a3 36 35 71 ed 36
       2.4352196e-06 1.3260045e-06 4.8846036e-06 7.0763294e-06
000070 7a 9e 77 36 c5 2b 1f 36 5c e9 21 35 c8 95 6c 35
       3.6898114e-06 2.3718324e-06 6.0316756e-07 8.813481e-07
000080 4a 4c bc 33 54 a5 56 34 22 b1 81 36 03 86 49 38
       8.768309e-08 1.9990449e-07 3.8651206e-06 4.8046943e-05
000090 4a 43 16 35 e4 a2 9c 36 5e a0 9c 37 22 be ba 32
       5.5977273e-07 4.6681253e-06 1.8671326e-05 2.1739712e-08

exp_avg f4 [1, 40]
000000 97 f9 78 37 0c 35 90 38 13 df 56 39 22 c6 87 b8
       1.4840064e-05 6.876336e-05 0.00020491732 -6.474207e-05
000010 63 92 b1 b7 33 23 46 b9 9f d3 54 b7 80 7c b9 38
       -2.116821e-05 -0.00018895864 -1.2685457e-05 8.844677e-05
000020 36 f3 c9 b7 82 08 27 b9 63 b0 df b8 3c fe e0 b8
       -2.4074321e-05 -0.0001592953 -0.00010666323 -0.00010728507
000030 de f0 75 37 61 ac 1b b8 bd 24 b0 38 f2 17 c4 37
       1.4659219e-05 -3.711542e-05 8.399177e-05 2.3376171e-05
000040 19 5c 81 b9 66 fa 8c 37 b5 fa 8b b8 2e a4 10 b7
       -0.00024673415 1.6805901e-05 -6.674734e-05 -8.621295e-06
000050 66 82 82 37 e8 80 5a 39 42 59 8b 39 4d d3 54 39
       1.555793e-05 0.00020838121 0.00026578648 0.00020296611
000060 fd 04 36 37 bf 90 80 b8 bb fb 15 37 3a 92 3f b7
       1.0849207e-05 -6.130477e-05 8.939703e-06 -1.1418533e-05
000070 94 53 ca b7 ca 78 93 37 08 15 42 b7 73 ee 49 b7
       -2.4119196e-05 1.7580012e-05 -1.1568198e-05 -1.2036052e-05
000080 69 4f 04 b5 b6 33 d0 37 4a 1a 90 37 87 b7 12 39
       -4.928939e-07 2.4819612e-05 1.717838e-05 0.00013992014
000090 5b 7b 79 37 cc 4b 6f b7 19 88 a9 b7 67 99 ef 36
       1.48702775e-05 -1.4263158e-05 -2.0209745e-05 7.1406134e-06

exp_avg_sq f4 [1, 40]
000000 1a bd 0e 34 60 bd 82 38 81 40 ce 38 87 ba 0d 38
       1.3293575e-07 6.234157e-05 9.83486e-05 3.3790737e-05
000010 9e 6c 42 36 ca ce 94 38 11 74 9d 34 3c 0e b9 38
       2.8971476e-06 7.0957074e-05 2.9327978e-07 8.824139e-05
000020 e3 32 c0 38 10 d5 9d 38 e0 b0 d7 38 e7 ff 93 38
       9.164752e-05 7.5260294e-05 0.000102849444 7.057172e-05
000030 cb 01 ce 34 b7 dc e6 37 ce af bc 36 89 3c 9f 37
       3.8371795e-07 2.7520915e-05 5.623303e-06 1.8982466e-05
000040 5c 65 b0 38 b6 11 8e 34 76 fe a2 37 e0 b5 35 37
       8.411214e-05 2.6462448e-07 1.9430398e-05 1.0830787e-05
000050 0a 6e d9 37 05 8f ba 38 98 2b d4 38 0b ea f1 38
       2.5919657e-05 8.8958106e-05 0.00010117068 0.000115353694
000060 cd 5e c4 36 fa 69 44 38 75 11 c9 36 df 50 9b 36
       5.8522915e-06 4.682874e-05 5.992299e-06 4.6287746e-06
000070 29 5b a6 37 71 2e 4b 37 c3 42 3f 36 11 b8 ea 34
       1.9831192e-05 1.2110556e-05 2.8500078e-06 4.3719822e-07
000080 d9 34 b4 34 e3 d4 9c 37 e6 47 fb 34 a3 c2 d6 38
       3.3566064e-07 1.8695782e-05 4.6804706e-07 0.00010240569
000090 67 b4 17 35 56 fb 2d 37 fb ee f5 35 cc c5 a4 35
       5.6514403e-07 1.0370122e-05 1.8323475e-06 1.2276519e-06
