modelos/heat_20x4-20000.pt (torch, 28286 bytes, 27 tensors)

linears.0.weight f4 [20, 2]
-0.89110565 0.72272015 -0.15921599 0.47485596 0.1341242 0.4137165 0.3130624 0.15590464
-0.27972335 0.40752047 0.0063942247 0.33836028 -0.062776715 -0.25974914 -0.4354453 -0.988385
0.01904764 -0.40927896 0.29056895 -0.8116492 -0.28692433 -0.4043981 0.34358737 -0.13816905
-0.39464337 -0.68852 0.24246034 -0.110188454 0.11308765 -0.47137454 0.46168482 -0.13194129
0.2218629 0.33823854 -0.342319 -0.44423428 0.2191086 -0.54919875 -0.12990917 -0.16055116
00000000: 801f 64bf 3004 393f 8409 23be 5220 f33e
00000010: db57 093e a6d2 d33e b749 a03e 77a5 1f3e
00000020: e637 8fbe 86a6 d03e a586 d13b 8f3d ad3e
00000030: 1491 80bd d7fd 84be b0f2 debe cd06 7dbf
00000040: cc09 9c3c 038d d1be 74c5 943e 3ec8 4fbf
00000050: bfe7 92be 450d cfbe afea af3e 307c 0dbe
00000060: b20e cabe d942 30bf 8647 783e 7caa e1bd
00000070: 7f9a e73d 0158 f1be f461 ec3e 9e1b 07be
00000080: 0730 633e 9a2d ad3e 7044 afbe ad72 e3be
00000090: 015e 603e 4a98 0cbf e906 05be 8667 24be

linears.0.bias f4 [20]
0.037020832 -0.015592153 0.028555956 0.05529441 0.09992276 0.10145193 0.052560724 0.0033839757
-0.013082054 -0.18978833 -0.024697566 -0.16022529 -0.026921459 -0.041246627 -0.04862308 0.038931485
0.051993467 0.06480555 -0.0046766237 0.04903315
00000000: 28a3 173d 3b76 7fbc 2eee e93c 647c 623d
00000010: 4ea4 cc3d 08c6 cf3d ea49 573d b1c5 5d3b
00000020: 1d56 56bc df57 42be 8d52 cabc 1912 24be
00000030: 648a dcbc 39f2 28bd ff28 47bd 9f76 1f3d
00000040: 1af7 543d c6b8 843d 5d3e 99bb fcd6 483d

linears.1.weight f4 [20, 20]
0.5863971 -0.050892357 0.61612684 0.36163044 0.36947295 0.013587704 -0.50193465 0.07601418
-0.39924216 -0.14532991 -0.44606468 0.0347325 -0.17800425 0.1832051 -0.081858955 0.15273657
0.115492456 -0.4369015 -0.59870607 -0.2316057 0.18724728 0.15238513 0.16677904 0.46849802
0.21082544 0.3359363 -0.05769451 -0.13938293 -0.07442602 -0.16689493 -0.28033656 -0.10585519
-0.041121375 -0.12593779 -0.3272897 -0.1105308 0.6020875 -0.050553888 0.23312004 -0.013089394
-0.121014304 -0.24379508 0.14057305 0.042735327 -0.0038207688 -0.19918916 0.13968778 0.17506583
0.12627469 0.41340232 0.6805349 -0.2308153 0.17930552 -0.11794949 0.18416926 -0.15632577
-0.6040997 0.23117805 0.0048698536 0.358602 0.43684122 -0.24907716 0.26490685 0.16316481
-0.15439159 0.14579234 0.0314709 0.18424496 -0.3903617 0.11337574 0.047401834 0.41608512
-0.07837507 -0.037026905 -0.31026784 -0.1743711 0.40567636 -0.17941536 -0.09574812 0.1650193
-0.1423849 0.023533504 0.574019 -0.17636201 0.12836471 0.27154192 -0.06634196 -0.0066134455
-0.37840632 -0.29683408 -0.0020708293 -0.2759272 -0.06414157 0.15461896 0.05774868 -0.32667074
0.113064915 -0.27525386 -0.7098114 -0.049026985 -0.44784257 -0.32363927 -0.47520506 -0.055740826
0.20650811 -0.41218033 0.27108204 0.78622514 0.50324863 0.26730016 0.0005325965 0.12375097
0.23448497 0.11333017 0.28524143 0.19728884 -0.42401403 0.027622212 0.29542497 0.3970517
0.017759437 0.016343461 -0.28331465 -0.06426517 0.0992383 -0.021287633 -0.16818044 0.24635814
0.28826237 0.115577325 -0.023176042 -0.2917307 0.10308837 -0.016107885 0.06693989 0.20221181
-0.037314046 0.34986162 0.082769535 0.020440342 0.07022982 0.40934694 0.082331546 -0.23613359
0.5639711 -0.030821089 0.23414624 0.1446266 -0.4312407 -0.30194834 -0.064714715 -0.5713233
0.3704051 -0.09842994 -0.67882234 -0.5558344 -0.31031182 0.15567769 -0.48095486 0.16180421
0.19906823 -0.107750006 -0.051332638 0.074297056 0.32008886 0.35663915 0.12926468 -0.12864907
-0.20993786 0.07747095 -0.25481716 0.018051848 -0.2366243 -0.0053944355 0.17659363 0.26052964
0.09275261 -0.11942301 0.29515585 -0.116867125 -0.2600689 0.3841447 -0.0041222754 0.39476162
0.57728314 0.56812924 0.20551257 0.28294528 -0.063307874 -0.27283332 -0.16271123 0.0494103
-0.20432 -0.25067812 0.10949148 -0.48544094 0.1288506 0.07778519 -0.105873585 -0.019643389
0.062035996 0.20022151 -0.37611783 -0.54166776 -0.048850607 -0.89533097 0.25411084 0.20710249
0.4011184 0.38225046 0.14511187 -0.046680756 0.3185923 0.16400397 0.5190412 -0.2539084
-0.21629493 -0.106524825 0.39089614 -0.10441684 0.5968929 0.0109345475 0.06623451 0.20523386
-0.22890961 -0.19380863 0.5180099 -0.26562387 0.18562971 0.12473954 0.14892086 -0.15081
-0.46994224 0.7303457 0.37981156 0.04421988 0.01636028 -0.056523915 0.17041855 -0.17595038
0.16795176 0.16113661 0.030625502 0.16053534 -0.4481414 -0.24387754 -0.132463 -0.2506618
0.391233 0.11877547 -0.20826069 0.014753443 -0.122086294 0.73815566 0.395166 -0.46857378
00000000: 1f1e 163f 8174 50bd 7dba 1d3f a027 b93e
00000010: 8f2b bd3e f69e 5e3c ca7e 00bf 53ad 9b3d
00000020: 7869 ccbe 5dd1 14be 9762 e4be aa43 0e3d
00000030: bf46 36be 1e9a 3b3e aba5 a7bd fa66 1c3e
00000040: 4f87 ec3d 8eb1 dfbe cd44 19bf 0b2a 6dbe
00000050: c0bd 3f3e d90a 1c3e 20c8 2a3e f9de ef3e
00000060: a0e2 573e d8ff ab3e 1451 6cbd 66ba 0ebe
00000070: ab6c 98bd 81e6 2abe 4688 8fbe 9bca d8bd
00000080: e36e 28bd d6f5 00be 8492 a7be f95d e2bd
00000090: 6822 1a3f 9811 4fbd 05b7 6e3e e674 56bc
000000a0: 59d6 f7bd 6ba5 79be 62f2 0f3e 3d0b 2f3d
000000b0: dd65 7abb 3ef8 4bbe 500a 0f3e 7544 333e
000000c0: 274e 013e 78a9 d33e 8937 2e3f d95a 6cbe
000000d0: de9b 373e 818f f1bd de96 3c3e dd13 20be
000000e0: 47a6 1abf f0b9 6c3e 4b93 9f3b ae9a b73e
000000f0: a7a9 df3e 150e 7fbe dfa1 873e ad14 273e
00000100: d418 1ebe 964a 153e a1e7 003d b6aa 3c3e
00000110: 7ddd c7be 8a31 e83d 6d28 423d 1c09 d53e
00000120: 1c83 a0bd 86a9 17bd 6ddb 9ebe 568e 32be
00000130: d0b4 cf3e a9b8 37be 9717 c4bd d2fa 283e
00000140: 59cd 11be 56c9 c03c e9f2 123f 3e98 34be
00000150: 0a72 033e 8b07 8b3e 4bde 87bd 9ab5 d8bb
00000160: 79be c1be a3fa 97be c0b6 07bb 5446 8dbe
00000170: a85c 83bd 6f54 1e3e e189 6c3d 6341 a7be
00000180: 948e e73d 13ee 8cbe 33b6 35bf 85d0 48bd
00000190: 9f4b e5be 0cb4 a5be 144e f3be 7e50 64bd
000001a0: dd76 533e 4d09 d3be 44cb 8a3e 0d46 493f
000001b0: e7d4 003f 91db 883e f29d 0b3a 2671 fd3d
000001c0: d41c 703e a619 e83d 2a0b 923e 1606 4a3e
000001d0: 5e18 d9be fa47 e23c f141 973e 5c4a cb3e
000001e0: 3d7c 913c b9e2 853c 9e0e 91be 759d 83bd
000001f0: 733d cb3d 6763 aebc 7e37 2cbe 4f45 7c3e
00000200: 2097 933e ceb3 ec3d afdb bdbc ba5d 95be
00000210: ff1f d33d aff4 83bc c817 893d 9d10 4f3e
00000220: 9dd6 18bd 1021 b33e 1383 a93d 8172 a73c
00000230: a7d4 8f3d ec95 d13e 719d a83d 01cd 71be
00000240: 6960 103f 827c fcbc 08c4 6f3e ff18 143e
00000250: 95cb dcbe f998 9abe 2689 84bd 3e42 12bf
00000260: bda5 bd3e a395 c9bd 4dc7 2dbf 2a4b 0ebf
00000270: 31e1 9ebe f969 1f3e b73f f6be 01b0 253e
00000280: 8bd8 4b3e 09ac dcbd 2c42 52bd 0e29 983d
00000290: b0e2 a33e 6899 b63e f65d 043e 95bc 03be
000002a0: f3f9 56be 17a9 9e3d 6577 82be 78e1 933c
000002b0: a44d 72be cec3 b0bb f6d4 343e 2464 853e
000002c0: 15f5 bd3d 0d94 f4bd ab1e 973e 0858 efbd
000002d0: c027 85be 9dae c43e 2714 87bb 321e ca3e
000002e0: d4c8 133f eb70 113f e371 523e 34de 903e
000002f0: 8fa7 81bd cfb0 8bbe c69d 26be 7462 4a3d
00000300: 4339 51be e258 80be 123d e03d b78b f8be
00000310: 69f1 033e d74d 9f3d 40d4 d8bd 2ceb a0bc
00000320: 7519 7e3d de06 4d3e 8492 c0be bdaa 0abf
00000330: 9317 48bd 6934 65bf d11a 823e ad12 543e
00000340: 645f cd3e 55b6 c33e 3598 143e 5234 3fbd
00000350: 881e a33e a8f0 273e e2df 043f 4800 82be
00000360: 6b7c 5dbe b029 dabd 8a23 c83e 7fd8 d5bd
00000370: f9cd 183f d126 333c f5a5 873d d328 523e
00000380: 4867 6abe c575 46be 4c9c 043f daff 87be
00000390: b715 3e3e 7277 ff3d b67e 183e f06d 1abe
000003a0: 459c f0be f0f7 3a3f a976 c23e e81f 353d
000003b0: fe05 863c 9f85 67bd 3382 2e3e 562c 34be
000003c0: 8cfb 2b3e ff00 253e 55e2 fa3c 6063 243e
000003d0: ca72 e5be 09bb 79be 61a4 07be be56 80be
000003e0: b14f c83e 8e40 f33d 4a42 55be 6db8 713c
000003f0: 6108 fabd c5f7 3c3f 3353 ca3e e7e8 efbe

linears.1.bias f4 [20]
0.06588745 0.006582635 -0.008611029 -0.02797955 -0.0113727525 -0.03518939 -0.047659416 -0.033324614
0.15867917 0.060105942 -0.21658356 0.045580365 -0.018642478 -0.045716677 0.043546073 0.095191255
-0.028053774 -0.120648675 -0.027977565 0.02940481
00000000: 00f0 863d 25b3 d73b 4615 0dbc 5f35 e5bc
00000010: c854 3abc c022 10bd 8536 43bd 647f 08bd
00000020: cb7c 223e a631 763d 15c8 5dbe 7ab2 3a3d
00000030: 1cb8 98bc 6941 3bbd 5e5d 323d a2f3 c23d
00000040: 07d1 e5bc a716 f7bd 3531 e5bc 5be2 f03c

linears.2.weight f4 [20, 20]
0.31768548 0.37342316 -0.4295696 0.09598736 -0.47501296 -0.10085009 -0.31092 -0.050974797
0.23060171 -0.097745396 0.111586556 0.8408716 -0.09952056 0.13026103 0.432049 0.12442949
0.21013695 0.023215575 0.35201612 0.31901118 0.3097853 0.42206937 0.019768577 0.1554675
-0.2182564 -0.5942552 -0.086568825 0.25958213 0.5214302 -0.5402691 -0.01962335 0.29231074
0.4426563 -0.15686387 0.21331084 0.19146204 0.020857971 -0.015350172 0.15329681 0.22440219
-0.8021926 -0.21263652 0.41049278 -0.11516693 -0.0052869185 0.73387194 0.26594812 -0.20907943
-0.5749158 0.46594816 0.4594661 -0.54199135 0.16101721 0.03280964 -0.11017057 -0.3200318
-0.026403187 0.63291085 -0.6076944 -0.32268 -0.1959236 -0.33824453 0.44678158 -0.037823632
-0.54975355 0.39061284 0.382947 -0.06927946 -0.32885504 0.00349877 -0.12907894 -0.5542264
-0.6946781 -0.014482233 -0.15728463 -0.1702856 -0.4246963 0.23288143 -0.33184153 -0.17211193
-0.15813169 -0.1078145 0.06996094 0.031615373 -0.28725395 0.23750676 -0.34667188 0.25176278
-0.14585379 0.3871892 -0.26758334 0.2174962 0.14163324 0.0910972 -0.48822343 0.121624574
-0.22481254 0.2208206 0.33919808 -0.021848757 -0.27634394 -0.081200406 0.061611544 -0.16156596
0.03904687 0.14286728 0.06692399 -0.21716452 -0.2678975 -0.23567621 -0.16730678 0.16966388
-0.17690696 0.06856649 -0.1613994 0.7125518 0.045052487 0.051505163 -0.102726355 -0.29993308
-0.423634 -0.15375654 0.5837291 -0.027189372 0.23105076 0.59232646 0.093522385 -0.55120504
0.12308633 0.51498306 0.29629344 -0.57960135 -0.24740854 -0.075673774 -0.3593613 -0.3100824
-0.44628978 0.27880836 -0.47097325 -0.49991065 0.19302589 0.1922632 0.45076928 -0.18969892
0.4607788 -0.3633924 -0.010103754 -0.08689925 -0.3094667 0.28972328 -0.36727598 -0.005579232
-0.1034005 -0.5703754 -0.43521562 -0.046017982 -0.15168782 -0.15043744 -0.2472974 0.15270106
0.27660644 0.07929502 -0.23023087 0.2160127 0.25009233 -0.039239906 -0.33342353 0.028801525
-0.39089337 -0.36882424 0.16013542 0.32071227 0.5392491 0.21761365 0.039063737 -0.22034195
1.0534471 0.083652295 0.1584909 0.061245274 -0.0077839354 0.21710344 0.10542259 0.6063031
-0.25279903 -0.21386893 -0.43060175 0.09197996 0.04221443 0.21563442 0.33308706 0.015981786
-0.04130175 -0.49987632 -0.23937604 -0.12637842 -0.045491315 0.32043824 -0.09183828 -0.14013919
0.17763522 0.2512146 -0.79289 -0.12859665 0.10402054 -0.5506043 -0.65831673 -0.51514816
0.6028039 0.431062 -0.5972129 0.41260666 0.24506865 -0.17266844 0.56283754 0.22605151
0.16220436 -0.27081975 -0.37197757 0.20842707 -0.3836233 -0.2654355 -0.38607195 -0.0983345
-0.61592054 -0.18403243 -0.4210476 -0.34810987 -0.09403964 -0.34782338 0.7424437 0.17711738
0.71404356 0.47660184 0.108192235 -0.44081017 0.09709437 0.34387934 -0.14327462 0.058424164
0.6349418 0.2194877 -0.17048776 -0.09028826 0.46514034 -0.6022874 0.05059834 0.4171281
-0.37723732 0.28074622 -0.22082049 -0.5208712 -0.03880043 -0.3930061 0.29179507 0.93510205
00000000: aca7 a23e 5231 bf3e 8cf0 dbbe 0595 c43d
00000010: e634 f3be 7e8a cebd e830 9fbe f3ca 50bd
00000020: db22 6c3e bd2e c8bd 7e87 e43d 5c43 573f
00000030: 6fd1 cbbd 2663 053e 8735 dd3e e3d4 fe3d
00000040: 242e 573e 972e be3c 753b b43e 6f55 a33e
00000050: 2e9c 9e3e 7a19 d83e b6f1 a13c df32 1f3e
00000060: 9b7e 5fbe 1c21 18bf ff4a b1bd f3e7 843e
00000070: 737c 053f 134f 0abf 26c1 a0bc c1a9 953e
00000080: d9a3 e23e eca0 20be 286e 5a3e a00e 443e
00000090: 56de aa3c 4a7f 7bbc d7f9 1c3e b0c9 653e
000000a0: 7f5c 4dbf 63bd 59be 1c2c d23e a4dc ebbd
000000b0: e33d adbb 08df 3b3f 5a2a 883e eb18 56be
000000c0: af2d 13bf c290 ee3e 243f eb3e f2bf 0abf
000000d0: b2e1 243e 6763 063d 1ca1 e1bd 35db a3be
000000e0: 7f4b d8bc 7206 223f dc91 1bbf 5036 a5be
000000f0: 32a0 48be 632e adbe 8ec0 e43e f4ec 1abd
00000100: a6bc 0cbf 68fe c73e a111 c43e 64e2 8dbd
00000110: b05f a8be 9f4b 653b 452d 04be c8e1 0dbf
00000120: 6dd6 31bf e346 6dbc 390f 21be 595f 2ebe
00000130: cb71 d9be 7878 6e3e 22e7 a9be 1c3e 30be
00000140: 46ed 21be d9cd dcbd ae47 8f3d 1f7f 013d
00000150: f312 93be f934 733e fa7e b1be 0de7 803e
00000160: b25a 15be aa3d c63e af00 89be 53b7 5e3e
00000170: 4e08 113e 2b91 ba3d 6cf8 f9be 4e16 f93d
00000180: 4235 66be cc1e 623e 5fab ad3e 2afc b2bc
00000190: f47c 8dbe 664c a6bd 635c 7c3d 8c71 25be
000001a0: 9cef 1f3d cd4b 123e 720f 893d 6060 5ebe
000001b0: dc29 89be 1b55 71be 7852 2bbe 5ebc 2d3e
000001c0: 1927 35be 976c 8c3d e245 25be cb69 363f
000001d0: f588 383d 14f7 523d 3262 d2bd d490 99be
000001e0: 8ee6 d8be 5b72 1dbe 456f 153f 3fbc debc
000001f0: 9298 6c3e b5a2 173f aa88 bf3d c61b 0dbf
00000200: b014 fc3d eed5 033f c6b3 973e c160 14bf
00000210: aa58 7dbe dafa 9abd 34fe b7be 1fc3 9ebe
00000220: 1880 e4be f8bf 8e3e 6823 f1be 4af4 ffbe
00000230: 94a8 453e a5e0 443e 3bcb e63e 6f40 42be
00000240: 33eb eb3e 920e babe 378a 25bc 3cf8 b1bd
00000250: 6b72 9ebe 9c56 943e 990b bcbe fdd1 b6bb
00000260: a4c3 d3bd 1f04 12bf 95d4 debe 5a7d 3cbd
00000270: 0d54 1bbe 460c 1abe 883b 7dbe ab5d 1c3e
00000280: 5c9f 8d3e 6d65 a23d a4c1 6bbe 6f32 5d3e
00000290: 1a0c 803e 06ba 20bd 7db6 aabe 2df1 eb3c
000002a0: 2d23 c8be 88d6 bcbe 8afa 233e 6634 a43e
000002b0: 3b0c 0a3f 1dd6 5e3e 4c01 203d 52a1 61be
000002c0: 5bd7 863f e551 ab3d 704b 223e 53dc 7a3d
000002d0: 6210 ffbb 5d50 5e3e cde7 d73d ae36 1b3f
000002e0: e06e 81be 7500 5bbe d577 dcbe fd5f bc3d
000002f0: 0ae9 2c3d 45cf 5c3e 638a aa3e 3cec 823c
00000300: 062c 29bd caef ffbe fe1e 75be 5869 01be
00000310: 1a55 3abd 7b10 a43e b515 bcbd a680 0fbe
00000320: 02e6 353e 339f 803e d7fa 4abf d7ae 03be
00000330: b908 d53d 67f4 0cbf 7287 28bf c0e0 03bf
00000340: 5b51 1a3f 29b4 dc3e f2e2 18bf 2e41 d33e
00000350: 47f3 7a3e ffcf 30be 1f16 103f 0c7a 673e
00000360: e618 263e e3a8 8abe d873 bebe e86d 553e
00000370: 466a c4be 29e7 87be 39ab c5be 9963 c9bd
00000380: f8ac 1dbf ff72 3cbe 8d93 d7be 753b b2be
00000390: db97 c0bd e815 b2be ca10 3e3f 425e 353e
000003a0: 8fcb 363f 2805 f43e e493 dd3d dfb1 e1be
000003b0: 6ad9 c63d f410 b03e 95b6 12be 2d4e 6f3d
000003c0: 8c8b 223f 62c1 603e 5894 2ebe 0de9 b8bd
000003d0: e026 ee3e 822f 1abf 3440 4f3d d091 d53e
000003e0: 4025 c1be f8bd 8f3e c41e 62be d157 05bf
000003f0: 33ed 1ebd 1838 c9be 2a66 953e d962 6f3f

linears.2.bias f4 [20]
-0.0054307175 0.011157032 -0.076309934 -0.0048052967 0.025722966 -0.012357196 -0.082804725 0.015443862
-0.08254437 -0.011336198 0.102053516 -0.01985234 0.034132563 -0.0051242467 -0.020552767 -0.017069642
0.010445804 -0.0006207353 0.018687537 0.012521804
00000000: 29f4 b1bb fccb 363c 6248 9cbd c075 9dbb
00000010: f8b8 d23c d675 4abc 8695 a9bd 4108 7d3c
00000020: 060d a9bd 76bb 39bc 6f01 d13d 60a1 a2bc
00000030: 96ce 0b3d 4ce9 a7bb 475e a8bc a2d5 8bbc
00000040: e124 2b3c d7b8 22ba 9b16 993c 4128 4d3c

linears.3.weight f4 [20, 20]
0.12149 0.48236716 0.22256772 0.4278436 0.1017629 -0.23273468 -0.13337739 -0.1734174
0.26498327 -0.8626742 0.43418884 0.10330308 -0.37715513 0.11049119 0.21766916 -0.19337831
0.041446377 -0.7012486 -0.23213612 -0.34363806 -0.30142805 0.20834443 -0.08259233 0.0830099
-0.33095485 0.13929416 -0.06788337 0.6415567 0.027642658 0.13285172 0.20384656 -0.31560487
0.14764675 -0.08105462 0.30334398 0.022692662 0.27254486 0.007824245 0.14407511 -0.024306357
0.07310495 0.014676469 0.26902306 0.35244235 0.24692138 -0.15411617 -0.09935087 0.24953544
0.12526852 -0.2543621 -0.1283975 0.13858536 0.00089948415 -0.18375337 -0.0043265247 0.020372404
0.37812653 -0.48213065 0.19772804 0.10577671 0.1878632 0.2702261 -0.45413184 -0.38989785
0.049038567 -0.17528385 -0.3954781 -0.42185786 0.31699002 0.033018023 -0.2915516 -0.23023482
0.15548846 -0.038012434 0.20209941 -0.033594884 -0.31446198 0.07658719 -0.10611931 0.2515886
-0.1004579 -0.37313747 0.1878235 -0.16692579 -0.112830006 0.1619144 0.0017580728 0.15035915
0.1094356 -0.17691737 0.16565214 0.17430176 -0.4704344 -0.07832101 0.38558367 -0.17586549
0.34882292 -0.30900458 0.11756242 0.061118238 0.08228497 -0.025658924 0.3009611 -0.11357638
-0.39700186 -0.08576444 0.13293396 -0.026712982 -0.3057365 -0.27440614 -0.27048978 -0.23671487
0.059636492 -0.050437335 0.010727609 0.19362223 -0.51326853 0.44569716 -0.17705208 0.06866328
0.35702598 -0.057010278 0.2957426 0.2745879 -0.12049407 0.03488909 0.13741088 -0.10526478
0.51000524 -0.061121836 0.009604831 0.09972312 0.05805911 -0.022990437 -0.111139454 0.46320876
0.2376402 -0.7136746 0.5489157 0.24846266 -0.21556045 -0.3946519 -0.29515743 -0.10632846
0.58625394 0.21219018 0.09278539 -0.36707515 -0.31896737 0.1323038 -0.11078866 -0.2540095
0.3174642 0.30918375 -0.61430466 0.31571606 -0.0031765618 -0.4425007 -0.029845404 0.050588667
-0.13204324 -0.29855335 0.004901879 0.55207163 -0.06023018 -0.034992974 0.5279729 0.17081949
-1.0372277 0.5829068 0.36091784 -0.09300541 -0.099762626 -0.32304686 -0.6283069 -0.22374155
0.3164303 0.08719773 0.12875012 -0.0026321681 -0.06434912 0.35611984 -0.09597793 -0.4875412
0.254649 -0.045871478 -0.15831073 0.017433511 -0.123151384 -0.32141083 0.11448467 -0.32242316
0.7297692 0.41061115 0.266832 0.55837893 0.7043572 0.17048971 -0.37390575 -0.5068781
-0.36767495 -0.59567785 0.9430863 0.28243467 -0.17034842 0.037851878 0.8032146 0.05930982
0.09745715 0.20972997 0.22763057 0.4560828 -0.07550252 -0.120467715 -0.19674823 -0.13583148
0.12906557 0.34730098 -0.11336406 -0.59154296 -0.18245815 -0.08410205 0.13010626 0.03226568
-0.05016513 -0.24007654 -0.12653461 0.22368577 -0.079096034 0.39445883 0.19578066 0.3005002
0.39219087 0.015287601 0.037217006 0.064911425 0.28118786 -0.005536531 0.13787436 0.3694074
0.2571096 0.52737874 -0.48031488 -0.04240806 -0.021711823 0.35589746 -0.66068995 -0.09190356
0.44928098 0.28242135 -0.34309405 -0.05315441 -0.11851348 0.21219854 0.3113164 -0.004613045
00000000: c0cf f83d d4f8 f63e cbe8 633e 510e db3e
00000010: 1169 d03d 0052 6ebe 1594 08be 5594 31be
00000020: e3ab 873e 37d8 5cbf 004e de3e 9190 d33d
00000030: 7a1a c1be 3449 e23d aae4 5e3e f704 46be
00000040: adc3 293d 0785 33bf 17b5 6dbe 54f1 afbe
00000050: c754 9abe 3e58 553e 2b26 a9bd 1801 aa3d
00000060: ea72 a9be 21a3 0e3e 7006 8bbd 0f3d 243f
00000070: db72 e23c 480a 083e 27bd 503e f696 a1be
00000080: b630 173e f7ff a5bd e74f 9b3e f6e5 b93c
00000090: 008b 8b3e 4331 003c 6d88 133e 201e c7bc
000000a0: 0cb8 953d 9375 703c 64bd 893e 5373 b43e
000000b0: f5d8 7c3e a1d0 1dbe 7878 cbbd 3886 7f3e
000000c0: 6446 003e c03b 82be a27a 03be 52e9 0d3e
000000d0: 5ccb 6b3a d829 3cbe 85c5 8dbb 07e4 a63c
000000e0: cd99 c13e d4d9 f6be 3879 4a3e 76a1 d83d
000000f0: 365f 403e 135b 8a3e f883 e8be b1a0 c7be
00000100: aadc 483d 9c7d 33be 1b7c cabe c1fd d7be
00000110: 844c a23e e83d 073d 4046 95be adc2 6bbe
00000120: 5e38 1f3e edb2 1bbd 26f3 4e3e ca9a 09bd
00000130: 2901 a1be bfd9 9c3d 1555 d9bd 39d0 803e
00000140: dfbc cdbd e00b bfbe ce54 403e 98ee 2abe
00000150: 6b13 e7bd e3cc 253e 226f e63a c0f7 193e
00000160: c61f e03d d429 35be b7a0 293e 297c 323e
00000170: c7dc f0be c466 a0bd 396b c53e 1516 34be
00000180: eb98 b23e d935 9ebe 91c4 f03d 1e57 7a3d
00000190: 0685 a83d aa32 d2bc 9317 9a3e bc9a e8bd
000001a0: d443 cbbe 44a5 afbd d71f 083e 2fd5 dabc
000001b0: 7f89 9cbe f67e 8cbe a37d 8abe 6265 72be
000001c0: 6545 743d 6197 4ebd dac2 2f3c e844 463e
000001d0: 9165 03bf 6b32 e43e 244d 35be 559f 8c3d
000001e0: 1ccc b63e 9c83 69bd 936b 973e c996 8c3e
000001f0: 98c5 f6bd dde7 0e3d 70b5 0c3e 1095 d7bd
00000200: b48f 023f e45a 7abd 955d 1d3c a33b cc3d
00000210: 64cf 6d3d 7156 bcbc 159d e3bd b329 ed3e
00000220: f457 733e 61b3 36bf bd85 0c3f ff6c 7e3e
00000230: e1bb 5cbe d00f cabe e01e 97be bcc2 d9bd
00000240: bd14 163f 6248 593e 4406 be3d 46f1 bbbe
00000250: b14f a3be a67a 073e 2ae5 e2bd 880d 82be
00000260: ab8a a23e 554d 9e3e 1243 1dbf 89a5 a13e
00000270: dd2d 50bb 748f e2be 597e f4bc 1036 4f3d
00000280: 5836 07be fcdb 98be f19f a03b 9154 0d3f
00000290: ecb3 76bd cb54 0fbd 3b29 073f 4eeb 2e3e
000002a0: e1c3 84bf 6139 153f 39ca b83e 9f79 bebd
000002b0: 5950 ccbd 6666 a5be b9d8 20bf 811c 65be
000002c0: 2703 a23e b994 b23d 12d7 033e 7480 2cbb
000002d0: 79c9 83bd 5755 b63e 1490 c4bd 009f f9be
000002e0: 5b61 823e bbe3 3bbd 351c 22be b9d0 8e3c
000002f0: cb36 fcbd f68f a4be f076 ea3d a614 a5be
00000300: 27d2 3a3f a03b d23e 349e 883e ecf1 0e3f
00000310: c150 343f db94 2e3e 9370 bfbe c3c2 01bf
00000320: e43f bcbe 587e 18bf 1b6e 713f 479b 903e
00000330: d16f 2ebe 920a 1b3d 799f 4d3f dbee 723d
00000340: 9d97 c73d 74c3 563e fd17 693e af83 e93e
00000350: 11a1 9abd c7b7 f6bd 5e78 49be 6817 0bbe
00000360: c429 043e 6fd1 b13e 6b2b e8bd 5c6f 17bf
00000370: 4fd6 3abe b23d acbd 933a 053e 0529 043d
00000380: f479 4dbd a0d6 75be 4a92 01be e20d 653e
00000390: 1afd a1bd 82f6 c93e ba7a 483e 2adb 993e
000003a0: 3ecd c83e d978 7a3c dc70 183d 48f0 843d
000003b0: dbf7 8f3e ca6b b5bb f02e 0d3e f722 bd3e
000003c0: dfa3 833e 4b02 073f d5eb f5be 13b4 2dbd
000003d0: fedc b1bc 3138 b63e fa22 29bf ef37 bcbd
000003e0: 2808 e63e 8899 903e 06aa afbe 70b8 59bd
000003f0: 32b7 f2bd 934a 593e dd64 9f3e 0729 97bb

linears.3.bias f4 [20]
-0.0154937245 0.011208254 -0.13747059 0.0025082186 -0.031823564 0.017263476 -0.28626972 -0.030520082
-0.01960257 0.016657831 -0.03149383 0.0062220627 -0.0017469135 -0.0059824414 0.20777513 0.0020472752
0.102424994 -0.017422775 -0.04741882 0.019707503
00000000: 64d9 7dbc d3a2 373c 17c5 0cbe ed60 243b
00000010: 6d59 02bd 226c 8d3c f291 92be 4005 fabc
00000020: 9295 a0bc 0176 883c adff 00bd 72e2 cb3b
00000030: b1f8 e4ba 5b08 c4bb 01c3 543e 942b 063b
00000040: 32c4 d13d 35ba 8ebc 3d3a 42bd a171 a13c

linears.4.weight f4 [1, 20]
0.113724746 0.2746123 0.28879762 -0.4522888 0.07762484 -0.58225423 0.1297357 -0.2535737
0.5130478 -0.08474446 0.38421023 0.37267137 -0.5020784 0.31967834 -0.09968034 0.5559386
-0.23707025 -0.22389984 0.24892463 0.47076887
00000000: 85e8 e83d fc99 8c3e 48dd 933e 6692 e7be
00000010: c6f9 9e3d 9d0e 15bf 6fd9 043e 69d4 81be
00000020: 1a57 033f 818e adbd 34b7 c43e c8ce be3e
00000030: 3688 00bf e1ac a33e 3525 ccbd fe51 0e3f
00000040: 8bc2 72be 0046 65be 19e6 7e3e 9e08 f13e

exp_avg f4 [20, 2]
3.163431e-05 1.6181166e-05 2.3112395e-06 -4.906583e-06 -1.1720996e-05 -1.4251191e-05 -3.941618e-06 -5.835453e-07
-1.0550351e-05 -6.9074144e-06 -4.1221765e-06 -2.123932e-05 -2.7490946e-06 4.862973e-06 -1.43781335e-05 3.837845e-06
1.6987959e-05 2.0629113e-05 1.6561926e-05 1.1242055e-05 8.7887565e-06 4.7650494e-07 7.2813364e-06 3.9130523e-06
-1.163522e-05 1.118867e-05 -1.152594e-05 1.5069333e-05 5.193822e-07 2.4489986e-05 5.304994e-07 -2.561143e-06
-3.103273e-06 -8.696485e-06 -7.0976935e-06 8.9431105e-06 1.3141902e-06 1.1974936e-05 8.142884e-06 4.1286653e-06
00000000: 15af 0438 cabc 8737 cb1a 1b36 3aa3 a4b6
00000010: 4ba5 44b7 6618 6fb7 3e42 84b6 eda4 1cb5
00000020: 6a01 31b7 3dc6 e7b6 3a51 8ab6 182b b2b7
00000030: 167d 38b6 9f2c a336 9d39 71b7 d6c6 8036
00000040: 5d81 8e37 af0c ad37 77ee 8a37 429c 3c37
00000050: 6c73 1337 57d2 ff34 3452 f436 dd4c 8336
00000060: e434 43b7 f9b6 3b37 895f 41b7 4bd2 7c37
00000070: ac6b 0b35 d86f cd37 a467 0e35 1ae0 2bb6
00000080: d341 50b6 1ee7 11b7 b928 eeb6 5e0a 1637
00000090: 3b63 b035 f5e7 4837 6c9d 0837 f788 8a36

exp_avg_sq f4 [20, 2]
0.0017997435 0.0006583814 0.0004899304 4.9154432e-06 8.91885e-05 8.103646e-05 0.0004477455 5.5821318e-05
0.0008616111 3.0852734e-05 0.00081617694 2.8141349e-05 0.00033585663 9.043537e-07 0.001581975 8.84382e-05
0.00075360155 3.3261751e-06 0.0008069895 2.4722651e-06 0.0013803709 0.00015907196 0.00023154715 2.8478737e-06
0.00077182177 4.1932875e-05 0.0046242373 0.00031092772 0.0015267574 4.0875562e-05 0.00038883265 1.8140779e-06
0.00038000842 6.464849e-05 0.00023058105 1.4954745e-05 0.0011612311 1.0716588e-07 4.002414e-06 7.062931e-07
00000000: 5fe5 eb3a 3a97 2c3a ac6e 003a 56ef a436
00000010: b60a bb38 1ef2 a938 62bf ea39 af21 6a38
00000020: bedd 613a df67 0138 b5f4 553a 1611 ec37
00000030: ea15 b039 b7c2 7235 465a cf3a e677 b938
00000040: 588d 453a 4137 5f36 268c 533a 31e9 2536
00000050: 90ed b43a 8ecc 2639 77cb 7239 191e 3f36
00000060: 1554 4a3a 15e1 2f38 ea86 973b 0304 a339
00000070: 7a1d c83a cd71 2b38 3cdc cb39 3e7b f335
00000080: de3b c739 e593 8738 21c8 7139 24e6 7a37
00000090: 7334 983a 1123 e633 794c 8636 1898 3d35

exp_avg f4 [20]
-8.8477296e-05 1.5608479e-05 2.528226e-06 -1.8387904e-05 1.2913999e-05 2.5750822e-05 -2.0825573e-05 1.5634321e-05
-1.948653e-05 -1.144153e-06 3.9428298e-05 -7.2025928e-06 1.1594511e-05 -6.00314e-05 -3.4487188e-05 -1.5728403e-05
-1.0186859e-05 -2.260739e-07 -3.681218e-05 -1.0299162e-06
00000000: e38c b9b8 f4ee 8237 98aa 2936 b93f 9ab7
00000010: 34a9 5837 7803 d837 94b2 aeb7 7326 8337
00000020: 0177 a3b7 cc90 99b5 d05f 2538 cdad f1b6
00000030: 0c86 4237 3aca 7bb8 56a6 10b8 7df0 83b7
00000040: 3ae8 2ab7 b8be 72b4 c766 1ab8 a73b 8ab5

exp_avg_sq f4 [20]
0.0180659 0.00072335405 1.4068448e-05 0.00047525842 0.0014448342 0.005706476 0.0007209334 0.0025238309
0.0014133818 0.00037941028 0.0032633848 9.78086e-06 0.00022147257 0.0117866825 0.0037395018 0.00022067034
9.314307e-05 4.1789444e-06 0.0025257424 9.0976155e-06
00000000: f0fe 933c 789f 3d3a 8607 6c37 1b2c f939
00000010: 9760 bd3a 64fd ba3b 06fd 3c3a db66 253b
00000020: 3941 b93a 96eb c639 83de 553b 7918 2437
00000030: 173b 6839 ee1c 413c 6e12 753b be63 6739
00000040: ce55 c338 dc38 8c36 ed86 253b f6a1 1837

exp_avg f4 [20, 20]
-4.1294466e-06 1.2260201e-06 -1.9217202e-06 -2.3568841e-06 1.9736028e-06 -8.727275e-07 8.5530536e-07 1.7774826e-06
3.5416545e-07 -1.6725247e-06 2.4838548e-06 -2.4007054e-06 2.1074509e-06 -2.0337247e-06 -5.2006544e-07 -1.7524538e-06
-2.3536109e-06 2.5622373e-06 -1.6539477e-06 1.4217975e-06 2.2532793e-06 1.3437908e-06 -2.083037e-06 -3.3589176e-06
2.7194396e-06 -4.4717616e-08 1.1791524e-06 4.63255e-06 1.2020409e-07 -2.0075195e-06 3.8008236e-06 -4.0539044e-06
4.5778183e-06 -2.695294e-06 -9.963401e-07 -4.0632635e-06 -2.82742e-06 5.1259735e-06 -1.8694508e-06 1.8851969e-06
-9.518734e-07 -2.588233e-06 3.2599226e-07 2.4831431e-06 5.403029e-07 2.1902608e-06 2.0592224e-06 9.825037e-07
8.950647e-07 -8.2812744e-07 -9.2339036e-07 -3.0434257e-06 -7.3695867e-07 4.2097902e-08 5.0948995e-07 2.6527462e-06
1.659837e-06 1.6026089e-06 2.4888377e-06 1.3837866e-06 6.262986e-06 2.0660879e-07 -3.1462703e-06 -3.444288e-06
1.8095993e-06 -2.2133977e-06 1.6895431e-06 2.4839492e-06 1.67529e-06 -3.4830578e-07 3.450187e-06 -3.0266665e-06
2.9737057e-06 -2.4163592e-06 8.3761694e-07 -3.4348184e-06 -3.4593168e-06 3.168661e-06 -7.6863444e-07 2.0661487e-06
-9.814152e-07 -1.5960753e-06 -3.5003022e-06 -1.95502e-06 2.1875871e-06 -7.7478273e-07 3.3663646e-06 6.6710045e-06
2.4237681e-06 -1.301605e-06 3.6812655e-06 -5.106814e-06 4.5018937e-06 -2.4766578e-06 1.1311399e-06 -7.740165e-07
-2.923544e-06 5.317462e-06 1.0107988e-06 3.3263786e-06 1.5627158e-05 3.9983343e-06 1.7764146e-06 -2.105443e-06
2.312941e-06 6.4601306e-07 -2.4485485e-06 -6.903884e-07 -2.6734733e-06 -3.3554816e-06 -2.333403e-07 -1.5738522e-07
2.610683e-07 -1.1968459e-06 -2.7904573e-06 -5.578788e-06 1.14842756e-07 -1.3929467e-06 -4.4203452e-06 -1.4342496e-06
4.829156e-07 -1.6566142e-06 -2.9675167e-07 9.927766e-07 -1.2844605e-07 4.9287746e-07 1.1492684e-06 2.1701078e-06
8.7265533e-07 -1.0748236e-06 7.7545366e-08 -8.496835e-07 9.2050476e-07 3.9552765e-07 7.063522e-07 1.6707628e-06
3.3750555e-07 1.1303893e-06 1.5246882e-06 6.555192e-07 2.005441e-06 -7.4090514e-07 -8.927356e-07 -9.2913336e-07
-1.3391053e-06 -1.4168231e-06 2.7909758e-07 -2.653735e-06 9.0958923e-07 2.655849e-06 5.516013e-07 9.991122e-07
-7.718276e-07 1.5819448e-07 1.2267384e-06 -8.673489e-07 -9.2159803e-07 -1.5081166e-07 9.791688e-07 1.8085404e-07
1.3342178e-05 6.7419073e-06 -1.9118663e-06 -8.712756e-06 2.2309064e-06 -3.4761977e-06 -3.0692581e-06 2.1735132e-06
-2.1991514e-06 -4.6621167e-07 5.36614e-06 8.6917436e-07 5.78755e-06 -3.1960387e-06 -2.522268e-06 -1.19857805e-05
-5.5794994e-06 2.1047526e-06 -7.163415e-06 -9.1436254e-07 -6.0360144e-06 -6.1959113e-06 -1.6017948e-06 3.2817763e-06
-2.0977834e-06 6.009341e-07 3.929015e-06 1.2446852e-06 3.596472e-06 2.6906048e-06 -1.2529748e-07 -2.0111563e-06
-2.945462e-07 1.335406e-06 3.581942e-06 5.662547e-06 8.721109e-07 2.8287318e-06 6.4287406e-06 2.3183477e-06
1.2138693e-06 6.674533e-08 1.0022567e-06 1.328892e-06 1.1314643e-06 1.5541473e-06 2.4632533e-07 -2.1828935e-06
-5.5163974e-07 -2.3548723e-06 -1.2305443e-06 -1.5135483e-06 -1.9393456e-06 -2.2247964e-07 -8.683127e-07 9.2796506e-07
1.3573209e-06 -2.7199283e-07 -2.8710653e-07 2.0422208e-07 1.3982281e-05 8.766918e-06 -1.4332646e-06 -8.6350265e-06
5.35675e-06 -2.8349261e-06 -3.176498e-06 4.3193643e-07 -3.1201116e-06 -3.0368801e-06 4.2919714e-06 -1.9498884e-06
3.427396e-06 -5.2264445e-06 -4.1664366e-06 -1.2525031e-05 -5.1371208e-06 5.493204e-07 -9.623598e-06 -3.8191996e-07
-9.590054e-07 2.9929429e-06 3.2170135e-06 8.4614317e-07 -4.5303068e-07 1.8523541e-06 -3.3453748e-06 2.8070525e-07
-3.3423182e-06 -1.2565254e-06 -1.891321e-06 3.3513718e-06 -1.5980063e-07 1.3499426e-06 -2.7185251e-06 -3.4862782e-07
00000000: ad8f 8ab6 bb8d a435 e7f6 00b6 f62a 1eb6
00000010: 3d72 0436 6145 6ab5 2398 6535 d691 ee35
00000020: 2124 be34 837b e0b5 4db0 2636 ce1b 21b6
00000030: bb6d 0d36 207b 08b6 a09a 0bb5 db35 ebb5
00000040: baf2 1db6 e7f2 2b36 36fd ddb5 97d4 be35
00000050: 0b37 1736 4d5c b435 4eca 0bb6 c469 61b6
00000060: 9e7f 3636 8a0f 40b3 5e43 9e35 4d71 9b36
00000070: 7311 0134 ecb8 06b6 a711 7f36 c606 88b6
00000080: 299b 9936 cce0 34b6 fcb9 85b5 2b57 88b6
00000090: b5be 3db6 c7ff ab36 d7e9 fab5 df06 fd35
000000a0: 3e84 7fb5 81b1 2db6 0904 af34 13a4 2636
000000b0: 5509 1135 65fc 1236 2c31 0a36 92de 8335
000000c0: 6144 7035 7c4c 5eb5 e7de 77b5 a83d 4cb6
000000d0: 6ad3 45b5 22cf 3433 e2c3 0835 d505 3236
000000e0: 91c7 de35 3919 d735 e805 2736 8cba b935
000000f0: a426 d236 31d8 5d34 8324 53b6 6b24 67b6
00000100: 5ce1 f235 e289 14b6 42c4 e235 ecb1 2636
00000110: 87da e035 c8fe bab4 c389 6736 bc1d 4bb6
00000120: e08f 4736 bc28 22b6 99d8 6035 bb81 66b6
00000130: 9c26 68b6 2ea5 5436 2854 4eb5 2aa8 0a36
00000140: 2bb9 83b5 bb38 d6b5 bce6 6ab6 fd32 03b6
00000150: 76ce 1236 aafa 4fb5 b4e9 6136 7ed7 df36
00000160: 05a8 2236 cfb2 aeb5 a90b 7736 335b abb6
00000170: f90e 9736 a834 26b6 acd1 9735 02c6 4fb5
00000180: 1a32 44b6 a76c b236 c8aa 8735 c03a 5f36
00000190: 1117 8337 6e29 8636 246d ee35 3c4b 0db6
000001a0: 0638 1b36 ae69 2d35 be51 24b6 2153 39b5
000001b0: ec69 33b6 bc2e 61b6 188c 7ab4 b8fd 28b4
000001c0: f428 8c34 50a3 a0b5 b143 3bb6 6d31 bbb6
000001d0: 799f f633 49f5 bab5 7a52 94b6 7180 c0b5
000001e0: b5a1 0135 d558 deb5 3d51 9fb4 8b3f 8535
000001f0: fbea 09b4 484e 0435 9040 9a35 2ba2 1136
00000200: 6b40 6a35 a842 90b5 0487 a633 ce15 64b5
00000210: 9b18 7735 e858 d434 279c 3d35 f93e e035
00000220: 6932 b534 e1b7 9735 e3a3 cc35 f0f6 2f35
00000230: 3795 0636 9de2 46b5 53a4 6fb5 8f69 79b5
00000240: 4fbb b3b5 ac29 beb5 e1d6 9534 d216 32b6
00000250: 7f2a 7435 233b 3236 c111 1435 3c19 8635
00000260: 972f 4fb5 2bdc 2934 69a6 a435 c3d3 68b5
00000270: bc63 77b5 cbee 21b4 fc6b 8335 c830 4234
00000280: 38d8 5f37 8b38 e236 9d4d 00b6 012d 12b7
00000290: aeb6 1536 9f48 69b6 74f9 4db6 acdc 1136
000002a0: 2295 13b6 a54b fab4 cb0e b436 3551 6935
000002b0: ad32 c236 877b 56b6 3c44 29b6 8916 49b7
000002c0: 8937 bbb6 603f 0d36 445d f0b6 8472 75b5
000002d0: f888 cab6 79e6 cfb6 40fd d6b5 7d3c 5c36
000002e0: a5c7 0cb6 e04f 2135 fbd5 8336 0f0f a735
000002f0: eb5a 7136 3d90 3436 8289 06b4 67f7 06b6
00000300: 1f22 9eb4 333c b335 4c61 7036 e900 be36
00000310: 011b 6a35 3ed5 3d36 76b6 d736 e994 1b36
00000320: 3bec a235 a255 8f33 4785 8635 625c b235
00000330: d1dc 9735 1898 d035 b23e 8434 d37d 12b6
00000340: 6514 14b5 6608 1eb6 2e29 a5b5 2025 cbb5
00000350: b425 02b6 bde2 6eb4 ff15 69b5 4619 7935
00000360: 312d b635 6906 92b4 9f23 9ab4 2348 5b34
00000370: 7195 6a37 a015 1337 995e c0b5 28df 10b7
00000380: 22be b336 a93f 3eb6 d22b 55b6 e4e4 e734
00000390: 1c63 51b6 34cd 4bb6 c103 9036 d4da 02b6
000003a0: 3702 6636 d15e afb6 6bcd 8bb6 9922 52b7
000003b0: 885f acb6 0375 1335 0a75 21b7 ae0a cdb4
000003c0: 2db7 80b5 5eda 4836 dfe3 5736 8422 6335
000003d0: 1038 f3b4 679e f835 1a81 60b6 d6b3 9634
000003e0: 974c 60b6 e2a5 a8b5 4bd9 fdb5 21e8 6036
000003f0: aa95 2bb4 ad2f b535 e86f 36b6 0b2b bbb4

exp_avg_sq f4 [20, 20]
9.642338e-05 1.6198346e-05 4.63155e-07 1.11048275e-05 5.9027134e-06 4.0271811e-07 3.3506312e-06 3.1162374e-06
3.6061617e-06 6.5512186e-06 2.3621035e-06 7.6426886e-07 2.8298994e-06 3.6641145e-06 5.2346004e-06 3.071225e-05
2.8244986e-06 1.4291525e-06 2.036748e-05 5.570139e-07 2.5277704e-06 1.0589525e-06 1.0756747e-07 1.0037747e-06
4.409558e-07 1.4762388e-07 2.9664926e-07 1.0520372e-06 1.6127505e-07 3.331312e-07 4.803882e-07 5.067396e-07
7.628907e-07 3.7036446e-07 2.2746804e-07 1.7881616e-06 4.483483e-07 6.495268e-07 1.2717668e-06 1.3132538e-07
0.0004016489 6.99225e-05 5.616493e-07 6.375863e-05 3.520949e-05 2.2696618e-06 8.5183065e-06 2.7814294e-06
1.1608168e-05 3.5771438e-05 1.7634798e-05 8.232261e-06 1.8779803e-05 2.383157e-05 2.2011263e-05 0.00015504447
1.9630572e-05 2.1494138e-06 9.1488124e-05 1.0382303e-07 6.352727e-06 4.4033745e-06 6.467126e-07 5.491249e-07
6.0612496e-07 2.827752e-08 1.8985555e-06 5.4989036e-06 1.5956654e-06 1.2242015e-06 2.7832345e-07 4.16236e-07
1.3915595e-06 1.4197875e-07 1.5612942e-06 2.58342e-06 4.0728747e-08 2.5518827e-06 4.9901887e-06 7.06751e-07
0.00031703006 2.2344513e-05 2.0501058e-05 0.00010241259 8.869852e-06 2.0057178e-05 4.1109672e-07 0.000109826615
5.16024e-09 5.9842534e-07 6.78642e-05 5.2539085e-06 0.00011692924 1.982197e-05 7.9656127e-07 0.0001626084
6.085305e-05 3.4638033e-05 2.919515e-05 1.6194049e-06 7.253934e-06 3.1869746e-07 1.9145657e-06 3.47677e-06
1.4450284e-06 2.4189428e-06 5.6407412e-08 7.622974e-06 5.223652e-07 5.5982173e-06 3.5131027e-06 1.7119065e-06
6.3251227e-06 6.692508e-07 9.10035e-07 3.3872968e-06 3.2623095e-06 2.2305262e-06 6.2889904e-07 2.1435301e-07
0.00011958447 1.1823024e-05 1.3726816e-06 1.9807543e-05 1.0576315e-05 5.5563333e-07 2.946468e-07 1.0721106e-05
1.1010892e-06 9.504678e-06 9.891723e-06 7.117807e-06 1.491828e-05 8.274614e-06 3.7637274e-06 4.332767e-05
8.13245e-06 6.3726084e-06 1.6961068e-05 4.249102e-07 8.100709e-06 2.0162288e-06 8.2202305e-08 2.8621168e-06
7.8067046e-08 1.6392039e-06 1.1858623e-06 8.9601464e-08 1.8322005e-07 1.3537501e-06 5.5917644e-07 1.9983459e-06
5.6892935e-07 4.221367e-08 3.662812e-08 4.9913747e-06 1.2226174e-06 5.4091964e-07 1.8746389e-06 4.3952753e-07
0.0005743456 5.637589e-05 1.7622944e-05 0.00014540664 2.3710232e-05 2.0664454e-05 3.2113599e-06 9.2680995e-05
1.8777118e-06 3.5622224e-06 7.79001e-05 8.573777e-06 0.00012320827 3.3432065e-05 6.9420635e-06 0.0002628999
7.338369e-05 3.1129257e-05 7.336704e-05 8.1566225e-07 0.0009756398 0.0001307751 1.8111958e-05 0.00023662047
4.894633e-05 3.035399e-05 1.2854175e-05 8.603906e-05 9.385062e-06 1.5183639e-05 0.000104513 1.0496431e-05
0.00015036123 5.7068657e-05 2.1821977e-05 0.00045505425 0.00010675706 2.7279166e-05 0.00016654532 1.1062537e-07
5.2978172e-05 3.465975e-06 3.5313425e-07 5.2318665e-06 7.812746e-06 1.4676158e-07 5.5427705e-08 5.471e-06
4.3737217e-07 1.1239526e-05 3.309924e-06 8.920323e-06 5.43249e-06 4.4778003e-06 2.286582e-06 1.390369e-05
1.8646132e-06 5.1179836e-06 5.977672e-06 7.568929e-07 0.0013950366 0.0002052847 1.3059835e-05 0.00028733496
8.5293366e-05 2.6560427e-05 2.2668266e-05 6.241285e-05 2.1875187e-05 4.7656293e-05 0.000108954126 1.773668e-05
0.00014469704 7.991896e-05 4.521945e-05 0.00060109864 0.000114648086 2.2497261e-05 0.00026374764 9.5603045e-09
7.519703e-05 9.405399e-06 1.7069834e-06 1.8588351e-05 5.563856e-06 1.5953406e-06 4.4581788e-07 9.500872e-06
6.0985377e-07 3.0324804e-06 9.372892e-06 2.6962618e-06 1.3910557e-05 5.6460367e-06 1.9760032e-06 3.5633962e-05
00000000: e836 ca38 afe1 8737 8aa7 f834 df4e 3a37
00000010: ec0f c636 2835 d834 68db 6036 8d20 5136
00000020: 6301 7236 8ad2 db36 a184 1e36 2828 4d35
00000030: 4de9 3d36 02e5 7536 e0a4 af36 07d1 0038
00000040: 848c 3d36 4ed1 bf35 d5da aa37 b485 1535
00000050: c4a2 2936 5521 8e35 d8ff e633 70b9 8635
00000060: 81bc ec34 8b82 1e34 2a43 9f34 b933 8d35
00000070: f32a 2d34 34d9 b234 07f4 0035 e106 0835
00000080: 73c9 4c35 81d6 c634 f03d 7434 c400 f035
00000090: 85b4 f034 245b 2e35 93b1 aa35 7202 0d34
000000a0: 6794 d239 5ba3 9238 3fc4 1635 27b6 8538
000000b0: e7ad 1338 7e50 1836 d9e9 0e37 98a8 3a36
000000c0: b4c0 4237 4a09 1638 71ee 9337 4b1d 0a37
000000d0: 5289 9d37 e8e9 c737 d4a4 b837 6f93 2239
000000e0: 55ac a437 a63e 1036 50dd bf38 50f5 de33
000000f0: 8229 d536 b3c0 9336 c099 2d35 9367 1335
00000100: 97b4 2235 ede6 f232 dfd1 fe35 3983 b836
00000110: a52a d635 3e4f a435 7c6c 9534 0a77 df34
00000120: 9fc5 ba35 d272 1834 a98d d135 d15e 2d36
00000130: bbed 2e33 0341 2b36 6571 a736 8fb7 3d35
00000140: 0e37 a639 7a70 bb37 b0f9 ab37 57c6 d638
00000150: b9cf 1437 7640 a837 b4b4 dc34 b752 e638
00000160: f34d b131 7aa3 2035 5152 8e38 bb4a b036
00000170: e837 f538 5b47 a637 46d3 5535 dc81 2a39
00000180: 773c 7f38 4e48 1138 1be8 f437 545a d935
00000190: d266 f336 7219 ab34 fd7b 0036 7452 6936
000001a0: ccf2 c135 1f55 2236 9b44 7233 d9c8 ff36
000001b0: aa38 0c35 52d8 bb36 a5c2 6b36 a9c4 e535
000001c0: 643c d436 91a6 3335 2149 7435 5151 6336
000001d0: 0dee 5a36 26b0 1536 9dd1 2835 e828 6634
000001e0: 6cc9 fa38 805b 4637 fb3c b835 6028 a637
000001f0: ed70 3137 d526 1535 f32f 9e34 cdde 3337
00000200: 23c9 9335 4876 1f37 a0f4 2537 7fd5 ee36
00000210: 8649 7a37 32d3 0a37 5894 7c36 bbba 3538
00000220: 9b70 0837 4ad4 d536 9e47 8e37 371f e434
00000230: 48e8 0737 8c4e 0736 3287 b033 cb12 4036
00000240: d0a5 a733 9e02 dc35 eb29 9f35 ed6a c033
00000250: 25bb 4434 80b2 b535 501a 1635 521b 0636
00000260: 87b8 1835 6c4e 3533 0b51 1d33 957b a736
00000270: d018 a435 b733 1135 1a9c fb35 34f8 eb34
00000280: ae8f 163a 2775 6c38 fcd4 9337 4c78 1839
00000290: 56e5 c637 9458 ad37 be82 5736 bb5d c238
000002a0: b005 fc35 840e 6f36 4c5e a338 18d8 0f37
000002b0: 7831 0139 6839 0c38 dfef e836 d4d5 8939
000002c0: 92e5 9938 c990 0238 a1dc 9938 e2f3 5a35
000002d0: 14c2 7f3a ac20 0939 22ef 9737 531d 7839
000002e0: b94b 4d38 b2a0 fe37 43a8 5737 de6f b438
000002f0: 8974 1d37 3cbd 7e37 fd2d db38 d419 3037
00000300: 49aa 1d39 015d 6f38 570e b737 5994 ee39
00000310: c3e2 df38 90d5 e437 aba2 2e39 f190 ed33
00000320: e134 5e38 ff98 6836 6796 bd34 648d af36
00000330: 7d13 0337 8495 1d34 680f 6e33 8893 b736
00000340: f9cf ea34 6691 3c37 1020 5e36 7fa8 1537
00000350: bc48 b636 0340 9636 2e73 1936 e543 6937
00000360: 9f43 fa35 25bb ab36 d093 c836 492d 4b35
00000370: a9d9 b63a b141 5739 901b 5b37 72a5 9639
00000380: 87df b238 15ce de37 bb27 be37 a5e3 8238
00000390: 9b80 b737 8ee2 4738 4d7e e438 3bc9 9437
000003a0: d1b9 1739 2a9a a738 04aa 3d38 0c93 1d3a
000003b0: 396f f038 80b8 bc37 9c47 8a39 aa3e 2432
000003c0: 19b3 9d38 e2cb 1d37 811b e535 2eee 9b37
000003d0: 29b1 ba36 7c1f d635 be58 ef34 ef65 1f37
000003e0: d5b4 2335 9e81 4b36 4440 1d37 6df1 3436
000003f0: 6361 6937 1673 bd36 7a9b 0436 ad75 1538

exp_avg f4 [20]
-3.6431188e-06 4.031586e-06 3.1434953e-05 -6.83703e-06 1.5992204e-05 -1.6276124e-05 1.2637619e-05 -7.63204e-06
-5.321397e-05 3.6977257e-05 1.1841365e-05 -5.3263157e-05 -1.0312726e-05 -1.89755e-05 -3.240614e-05 -1.3193552e-05
-2.4568177e-05 -2.3415832e-06 -3.144203e-05 -1.3954671e-05
00000000: 4e7c 74b6 0f47 8736 06d9 0338 a469 e5b6
00000010: ff26 8637 b688 88b7 2906 5437 5d0b 00b7
00000020: 1132 5fb8 0718 1b38 47aa 4637 e166 5fb8
00000030: d204 2db7 932d 9fb7 d4eb 07b8 e059 5db7
00000040: c217 ceb7 1824 1db6 9fe0 03b8 db1e 6ab7

exp_avg_sq f4 [20]
0.0004330888 5.106435e-05 0.0016925174 0.00014056436 0.0018117263 9.791905e-05 0.00020352348 0.00029326897
0.002955126 0.0060239704 6.2577266e-07 0.007523595 0.00031884646 0.0018798526 0.0013853131 0.0007190879
0.0013744449 4.0135386e-05 0.0029706233 0.00080786546
00000000: 3210 e339 ee2d 5638 76d7 dd3a 7564 1339
00000010: 7277 ed3a e459 cd38 eb68 5539 e5c1 9939
00000020: caaa 413b ba64 c53b c5fa 2735 7d88 f63b
00000030: d92a a739 6365 f63a 6593 b53a 2c81 3c3a
00000040: b826 b43a 0b57 2838 caae 423b efc6 533a

exp_avg f4 [20, 20]
3.590092e-06 -7.627943e-08 -2.4476446e-07 -1.4149835e-07 2.3191003e-06 -9.825038e-06 1.6150684e-06 5.9816e-06
-2.495542e-06 1.5947896e-06 -1.4622276e-06 -1.1073486e-06 -2.1598116e-06 -5.986377e-06 -2.0226662e-06 4.2726692e-06
-1.3410411e-06 -3.7625764e-06 6.27842e-06 -1.9484653e-06 1.308026e-06 -8.947538e-07 8.247796e-07 4.6084e-07
2.388421e-06 -2.9616972e-06 1.1373878e-06 4.225785e-06 -3.3478468e-06 7.041779e-07 3.082263e-06 -1.5126827e-06
-1.2023936e-06 -1.7046278e-06 -2.1553867e-06 1.6795262e-06 -8.210215e-07 6.424607e-08 4.6277987e-06 -1.4508383e-06
1.2844334e-06 3.2828746e-06 -1.3697622e-06 -9.697112e-07 -2.1275803e-06 2.8464052e-07 -6.8863926e-07 4.117981e-06
6.627926e-06 1.6607542e-06 -9.089057e-06 3.2501705e-06 -3.6944743e-07 -1.2920018e-06 3.23389e-06 3.5321598e-06
-1.7852707e-07 -5.0501285e-06 1.16645e-06 1.3089586e-06 -1.1575805e-06 2.2568488e-06 -2.2571248e-06 -2.0363236e-06
-4.516022e-06 2.0029388e-06 -1.7401711e-06 -5.0981935e-06 6.8628815e-06 -6.0228604e-07 -8.261117e-06 3.5183768e-06
1.4749577e-06 3.4095916e-07 4.201952e-06 -2.1241053e-07 1.1697971e-06 -2.5573902e-06 -4.7174117e-06 2.2362267e-06
-5.712735e-07 2.1563435e-06 -4.8551055e-06 1.5004672e-06 1.931492e-06 3.1653105e-06 -3.08768e-06 -4.873414e-06
1.6307357e-06 1.3331045e-06 -2.0157174e-06 2.6354317e-07 4.0871927e-07 -7.546693e-08 4.4599738e-06 -9.2992667e-07
-2.6595133e-09 1.8290114e-06 2.3559066e-06 3.0171961e-06 9.453911e-06 5.375971e-06 -5.539526e-06 1.2598106e-06
4.9822665e-06 -1.3329521e-05 -4.316899e-06 -3.3465515e-06 3.5511296e-06 2.7104631e-06 -5.9881913e-06 1.7707216e-06
1.1213854e-06 -9.340229e-06 4.5507018e-06 2.548241e-06 1.8601425e-07 -9.24535e-06 -6.9029966e-06 3.7192317e-06
2.2051245e-06 2.9238286e-06 -1.4110292e-06 1.2450399e-06 -9.051314e-08 -9.62244e-07 -1.608328e-06 1.5604742e-06
4.2063857e-06 1.2629068e-06 -4.5389556e-06 1.9875033e-06 4.2038516e-07 -8.040171e-07 2.6291648e-06 1.3090321e-06
1.346428e-07 -3.7557195e-06 2.9232579e-06 2.028035e-06 -8.5438e-06 9.522684e-07 -1.3844017e-06 -3.0496892e-06
-3.9110805e-06 1.1541104e-05 -9.672539e-07 -8.432569e-06 7.7279965e-06 3.1937413e-06 -9.59047e-06 1.9208527e-07
-1.8587878e-06 1.8403326e-06 3.9666293e-06 -1.5881507e-06 -2.0039995e-06 2.872732e-06 -2.0014984e-07 1.0967772e-06
-2.99562e-07 1.8683764e-06 6.7964896e-07 1.0013185e-06 3.871926e-06 -2.0896603e-07 -1.5579772e-06 8.408332e-06
3.0970243e-06 5.753436e-06 -2.5449508e-06 -1.9319096e-07 -2.6488437e-06 -4.399434e-06 1.070038e-06 5.7317225e-06
-2.767415e-06 -1.4117638e-06 8.351797e-06 1.1289832e-06 6.9040067e-07 3.2971664e-07 -4.804834e-07 -7.431656e-07
7.1344255e-07 1.2171188e-06 2.2406718e-06 -9.583799e-07 -9.691089e-07 9.174062e-07 -2.3445903e-06 -2.2089243e-06
-1.868482e-06 8.960956e-07 -1.0373648e-06 -1.6739027e-06 -1.3880257e-06 -1.4205986e-06 -4.858622e-06 -2.1719559e-06
-5.3020453e-06 -3.9605216e-06 2.0559935e-06 -9.601747e-07 -3.8091137e-06 6.378846e-06 3.8823566e-07 -8.3628665e-06
-2.4926903e-06 -4.293971e-06 7.0852047e-06 -3.436085e-08 2.3857128e-06 6.0297025e-06 -1.3493188e-06 -4.7509434e-06
2.0531963e-06 6.815926e-06 -1.3088487e-05 -2.9509016e-07 -1.805573e-08 3.0628505e-06 -4.4576755e-06 6.1382224e-07
-4.2275637e-06 -6.2253105e-07 -3.886913e-06 -6.9268676e-06 7.2184707e-06 -2.4069425e-06 -8.327289e-06 4.1051912e-06
4.116517e-06 -1.6392362e-06 6.204079e-06 -5.1211255e-06 2.828962e-06 -2.5420854e-06 -5.3407293e-06 4.5716724e-06
-7.20333e-08 1.2506869e-06 -1.8441903e-06 -1.2213674e-06 -3.4684203e-07 -3.5871028e-09 -7.4204667e-07 -3.4178377e-06
2.6871774e-06 1.0856265e-06 -4.417097e-06 5.150046e-07 -3.6558106e-07 -1.1570851e-06 2.0399543e-06 5.2994193e-07
00000000: 50ed 7036 0fcf a3b3 2c68 83b4 c5ee 17b4
00000010: d7a1 1b36 38d6 24b7 54c5 d835 8eb5 c836
00000020: 1679 27b6 8e0c d635 c241 c4b5 35a0 94b5
00000030: 48f1 10b6 96de c8b6 24bd 07b6 f35d 8f36
00000040: d2fd b3b5 9280 7cb6 38ab d236 61c2 02b6
00000050: 6e8f af35 032f 70b5 6c66 5d35 5e69 f734
00000060: c348 2036 92c1 46b6 59a8 9835 37cb 8d36
00000070: 92ab 60b6 bd06 3d35 e0d8 4e36 6207 cbb5
00000080: ee61 a1b5 91ca e4b5 43a5 10b6 156c e135
00000090: 2b64 5cb5 a7f7 8933 7d48 9b36 6dba c2b5
000000a0: cc64 ac35 5b4f 5c36 acd8 b7b5 0627 82b5
000000b0: 8dc7 0eb6 b2d0 9834 eeda 38b5 302d 8a36
000000c0: 7365 de36 14e7 de35 347d 18b7 811d 5a36
000000d0: 7858 c6b4 d868 adb5 cf05 5936 0b0a 6d36
000000e0: 26b1 3fb4 4674 a9b6 eb8e 9c35 7aaf af35
000000f0: 2a5e 9bb5 5e74 1736 1c79 17b6 c6a7 08b6
00000100: 5588 97b6 3a6a 0636 d38f e9b5 2611 abb6
00000110: b447 e636 c8ac 21b5 3a99 0ab7 411d 6c36
00000120: 29f7 c535 120d b734 7efe 8c36 f612 64b4
00000130: ec01 9d35 a19f 2bb6 424a 9eb6 1512 1636
00000140: 9e59 19b5 b3b5 1036 0ae9 a2b6 a963 c935
00000150: c89e 0136 9f6b 5436 f035 4fb6 4f86 a3b6
00000160: a7df da35 1fed b235 c345 07b6 197d 8d34
00000170: f36d db34 6210 a2b3 e2a6 9536 13a0 79b5
00000180: a7c2 36b1 5a7c f535 2b1a 1e36 097b 4a36
00000190: 3d9c 1e37 3d63 b436 2ae0 b9b6 c316 a935
000001a0: 582d a736 dba1 5fb7 e1d9 90b6 5195 60b6
000001b0: f14f 6e36 67e5 3536 2cee c8b6 88a9 ed35
000001c0: 8282 9635 fab3 1cb7 3bb2 9836 7202 2b36
000001d0: 35bb 4734 7a1c 1bb7 4aa0 e7b6 ea97 7936
000001e0: c0fb 1336 fe36 4436 9862 bdb5 3f1b a735
000001f0: 2060 c2b3 7426 81b5 bbdd d7b5 7c71 d135
00000200: 9424 8d36 2681 a935 554d 98b6 0c61 0536
00000210: 4cb1 e134 a2d3 57b5 b570 3036 00b2 af35
00000220: 5592 1034 c50a 7cb6 302d 4436 6019 0836
00000230: 5757 0fb7 639f 7f35 aecf b9b5 43a9 4cb6
00000240: ed3b 83b6 aaa0 4137 97d2 81b5 9c79 0db7
00000250: 7ea7 0137 0f54 5636 c1e6 20b7 ff3f 4e34
00000260: 767b f9b5 5901 f735 1619 8536 7128 d5b5
00000270: 737c 06b6 29c9 4036 c5e8 56b4 fa34 9335
00000280: 7dd3 a0b4 edc4 fa35 1f71 3635 0b65 8635
00000290: 97eb 8136 2560 60b4 b01b d1b5 8311 0d37
000002a0: 79d6 4f36 a40d c136 ecc9 2ab6 ed6f 4fb4
000002b0: cac2 31b6 da9e 93b6 3a9e 8f35 1f53 c036
000002c0: d4b7 39b6 d67b bdb5 b21e 0c37 9187 9735
000002d0: f953 3935 e903 b134 91fa 00b5 f37d 47b5
000002e0: 6683 3f35 e25b a335 735e 1636 afa1 80b5
000002f0: 5412 82b5 ad43 7635 c157 1db6 083d 14b6
00000300: 8dc8 fab5 398b 7035 953b 8bb5 dcaa e0b5
00000310: 334c bab5 65ab beb5 3f07 a3b6 ebc1 11b6
00000320: 39e8 b1b6 9fe4 84b6 b3f9 0936 5adf 80b5
00000330: 13a0 7fb6 df09 d636 b46e d034 3d4e 0cb7
00000340: 1848 27b6 ee14 90b6 72bd ed36 2794 13b3
00000350: 3c1a 2036 c052 ca36 3e1a b5b5 4b6a 9fb6
00000360: a5c9 0936 5cb4 e436 a096 5bb7 e26c 9eb4
00000370: f818 9bb2 5f8b 4d36 2493 95b6 8bc5 2435
00000380: 7fda 8db6 021c 27b5 546c 82b6 576d e8b6
00000390: 3136 f236 f586 21b6 6fb5 0bb7 53bf 8936
000003a0: 9d20 8a36 ba03 dcb5 a22c d036 22d6 abb6
000003b0: 32d9 3d36 b298 2ab6 8434 b3b6 5e66 9936
000003c0: bab0 9ab3 46dd a735 e585 f7b5 dded a3b5
000003d0: 9b35 bab4 fb80 76b1 0f31 47b5 015e 65b6
000003e0: 5b55 3436 d8b5 9135 9336 94b6 d93e 0a35
000003f0: 1445 c4b4 244d 9bb5 26e6 0836 5541 0e35
