modelos/heat_40x4-20000.pt (torch, 73022 bytes, 27 tensors)

linears.0.weight f4 [40, 2]
0	0xbe35129a	-0.17682877
1	0x3ec84bda	0.3912037
2	0x3d220ba5	0.039561886
3	0xbec43019	-0.38317946
4	0xbe1b9db0	-0.15196872
5	0x3f3dbdf7	0.7411799
6	0x3dbcac4d	0.09212551
7	0xbef2833a	-0.47365743
8	0xbee5d153	-0.44886264
9	0x3ec782ae	0.38966888
10	0x3ddffdd0	0.10937083
11	0x3e951e1a	0.29124528
12	0xbe710198	-0.23535764
13	0xbdbd2b1a	-0.092367366
14	0xbe625a84	-0.22104841
15	0xbf1a5563	-0.6028654
16	0x3e869173	0.26282844
17	0xbd49a99f	-0.04923403
18	0x3e821368	0.2540543
19	0xbe836c8c	-0.25668752
20	0x3ebe1b6a	0.3713029
21	0xbf050c9a	-0.51972353
22	0x3f154adc	0.5831735
23	0xbe83666b	-0.25664076
24	0xbed8e4c3	-0.4236203
25	0xbee6979c	-0.45037544
26	0x3ec07f51	0.37597135
27	0xbe30a344	-0.17249781
28	0x3f247653	0.6424305
29	0xbea48b94	-0.3213774
30	0xbe9e8b01	-0.30965427
31	0x3e1cb1b2	0.1530216
32	0xbe2c7891	-0.16842867
33	0xbe6e8524	-0.23292977
34	0xbdb91e21	-0.0903895
35	0xbef44af5	-0.47713438
36	0x3d418bfb	0.047252636
37	0x3f048607	0.5176701
38	0x3df62996	0.12019651
39	0x3eca9339	0.39565447
40	0x3d980c9a	0.074242786
41	0xbd56b9af	-0.052423175
42	0x3ea2dbc5	0.31808296
43	0xbd402902	-0.046914108
44	0xbcae2ca5	-0.021261523
45	0xbdf9fbf6	-0.12206261
46	0xbe99f8c0	-0.30072594
47	0x3d9bc10a	0.07605179
48	0xbe3faad9	-0.18717517
49	0xbe298415	-0.16554292
50	0xbe2bc5bf	-0.16774653
51	0x3ea058d1	0.31317762
52	0xbe8eb024	-0.2786876
53	0xbda825fb	-0.08210369
54	0xbe32be08	-0.17455304
55	0x3f5d0b0a	0.8634497
56	0x3d9c33b5	0.0762705
57	0x3e2c8ad4	0.16849834
58	0x3e41020d	0.18848439
59	0x3eb499be	0.35273546
60	0x3c931a98	0.017957017
61	0x3e98f61f	0.29875275
62	0x3bce222b	0.0062906942
63	0x3ee0d64f	0.43913504
64	0xbe0a67e8	-0.135162
65	0xbd962a58	-0.07332295
66	0xbe314181	-0.17310144
67	0xbd841770	-0.06449783
68	0xbe2b7804	-0.16745001
69	0xbe298b27	-0.16556989
70	0x3e912bbf	0.28353688
71	0xbafedc66	-0.0019444346
72	0xbe560afd	-0.20902629
73	0xbd7de426	-0.061985157
74	0x3e9987e8	0.299865
75	0xbe68e61e	-0.22744033
76	0x3d04160d	0.03224759
77	0xbf103725	-0.56334144
78	0xbdf26065	-0.11834792
79	0xbcd37a88	-0.025815263

linears.0.bias f4 [40]
0	0x3b22a2e9	0.002481634
1	0xbd67caf0	-0.05659002
2	0x3e4da788	0.2008344
3	0xbd86691f	-0.06563019
4	0x3eb52ffc	0.35388172
5	0xbc26f09a	-0.0101892
6	0x3cb3683f	0.021900294
7	0x392d1d44	0.00016509468
8	0xbdd7fcf4	-0.10546294
9	0xbdc3409c	-0.09533808
10	0xbde45ba0	-0.111502886
11	0x3d24656b	0.040135782
12	0xbd35c52f	-0.044377502
13	0xbd54075b	-0.051764827
14	0x3d56e570	0.052464902
15	0x3d090f29	0.033461723
16	0xbd172d06	-0.036908172
17	0xbd325fb2	-0.043548293
18	0x3c7b81bd	0.015350756
19	0x3c7affdc	0.015319791
20	0xbd068f2e	-0.03285139
21	0xbd5374f4	-0.051625207
22	0xbc6f8bf9	-0.014620774
23	0xbb6a2bb1	-0.0035731609
24	0x3d34412c	0.044007465
25	0x3cf25be1	0.029584827
26	0x39b3ca79	0.00034292394
27	0x3e06af8a	0.131529
28	0x3cbaed37	0.022818191
29	0x3d17030a	0.036868133
30	0x3d267843	0.040642034
31	0x3cbf564d	0.023356581
32	0x3c2bc5e4	0.0104841925
33	0x3c8118d1	0.015758904
34	0xbc1d0846	-0.009584492
35	0xbc63ab4b	-0.01389582
36	0x3cd733e9	0.02626987
37	0xbd13c050	-0.036072075
38	0xbca8a71f	-0.020587502
39	0x3c5d87fc	0.013521191

linears.1.weight f4 [40, 40]
0	0x3d8d7edd	0.06908963
1	0x3e29f8ff	0.1659889
2	0xbe441fbd	-0.19152732
3	0xbe5d0345	-0.21583278
4	0xbd2ebb58	-0.042659134
5	0xbe6adc6d	-0.22935648
6	0x3caddf44	0.021224625
7	0x3dfdd8a4	0.123948365
8	0x3e6bd334	0.23029786
9	0xbdabcd5d	-0.08388779
10	0x3c7f6e79	0.015590304
11	0x3db35e71	0.08758248
12	0x3e701430	0.23445201
13	0x3c44728c	0.011990201
14	0xbe09700a	-0.13421646
15	0xbd6f72a2	-0.05845893
16	0x3d74e93b	0.05979274
17	0x3dcfa883	0.10139563
18	0xbe7e76cf	-0.2485001
19	0x38b9b608	8.8553934e-05
20	0x3d0ab013	0.033859324
21	0x3d64c408	0.055851012
22	0xbd9c0ecf	-0.07620012
23	0x3d611e3e	0.05496048
24	0x3d8afe86	0.06786828
25	0xbe8a1768	-0.26970983
26	0xbe3cece8	-0.18449748
27	0xbf0c5ace	-0.54826057
28	0xbe89b64f	-0.26896903
29	0x3cc7799e	0.024349984
30	0xbddbd400	-0.10733795
31	0xbc999c75	-0.018751362
32	0x3c233d99	0.0099634165
33	0x3d2db4c9	0.04240874
34	0x3e9f1650	0.3107171
35	0xbe549b24	-0.20762306
36	0x3dcc03ab	0.09961637
37	0x3dc05215	0.09390656
38	0x3e9c6e12	0.30552727
39	0x3dc603a2	0.09668662
40	0x3e495da6	0.1966463
41	0xbd9cb1b7	-0.07651084
42	0x3e06403e	0.13110444
43	0xbd743199	-0.059617613
44	0xbea97b00	-0.33101654
45	0x3e8370a5	0.25671878
46	0x3cb29f84	0.021804579
47	0xbe55bcb2	-0.20872763
48	0x3e518a3b	0.20462887
49	0x3dd6f9ec	0.104968876
50	0xbe96ac64	-0.294284
51	0x3d162d25	0.036664147
52	0x3e5fa53a	0.21840373
53	0x3e5f318a	0.21796241
54	0xbe7f4c6f	-0.24931501
55	0x3d834886	0.06410317
56	0xbea148af	-0.31500766
57	0xbe3f632c	-0.18690175
58	0xbdb0dca9	-0.086358376
59	0x3e106a55	0.14103062
60	0x3e492171	0.19641663
61	0x3e8891a8	0.26673627
62	0xbcac16be	-0.021006938
63	0x3e714752	0.23562363
64	0x3d1cb62e	0.038259678
65	0xbd8697dc	-0.065719336
66	0xbe539115	-0.20660813
67	0xbe58441a	-0.21119729
68	0x3dd2a7ee	0.10285936
69	0xbdc11f4d	-0.09429798
70	0xbc14a0ec	-0.00907157
71	0x3da9b673	0.082867526
72	0x3d6db3db	0.05803285
73	0xbd33d912	-0.043908186
74	0xbdda3df0	-0.10656345
75	0xbde65fb9	-0.112487264
76	0xbc8880ff	-0.016663073
77	0x3e02a0bc	0.12756628
78	0xbe3e8513	-0.18605451
79	0x3e57b4e2	0.21065095
80	0xbe989d74	-0.29807627
81	0xbe64481c	-0.22293133
82	0xbcc9e78d	-0.024646545
83	0xbdbbd424	-0.09171322
84	0xbe65d2b0	-0.22443652
85	0x3e0b9c37	0.1363381
86	0x3d0062a9	0.03134409
87	0xbe488ea1	-0.19585659
88	0x3e7a91ff	0.24469756
89	0x3c1a5a84	0.009420995
90	0x3e38c4a5	0.18043764
91	0xbecf8bcb	-0.4053634
92	0xbebd2edb	-0.3694981
93	0x3da91cd8	0.08257455
94	0xbdb47cee	-0.08812891
95	0xbdac1f5e	-0.0840442
96	0xbce33d41	-0.02773917
97	0x3dc522b4	0.0962576
98	0xbe90685f	-0.2820463
99	0x3c20c1bc	0.009811815
100	0x3df571e4	0.119846135
101	0x3dc6e331	0.09711302
102	0x3e394ac1	0.18094923
103	0xbde7dea4	-0.11321762
104	0xbe5a940d	-0.2134554
105	0x3e0e313a	0.13885966
106	0x3dd7b699	0.105328746
107	0xbdc922f5	-0.09821121
108	0xbd53490a	-0.051583327
109	0x3e3391e6	0.17536125
110	0x3cdccb1b	0.026952317
111	0x3ca6e889	0.020374553
112	0x3e11c003	0.14233403
113	0x3dd474cc	0.1037384
114	0x3eb5fb4e	0.35543293
115	0x3dd5801f	0.10424828
116	0xbe728d6d	-0.23686762
117	0x3de2e3b1	0.11078585
118	0x3da6f3b1	0.08151949
119	0x3e8c366a	0.27385265
120	0xbe225a59	-0.15854777
121	0xbe8ee1b9	-0.27906588
122	0xbd172118	-0.036896795
123	0x3d9b73a0	0.07590413
124	0x3d833347	0.06406265
125	0xbd94c18c	-0.07263479
126	0xbd7dccb0	-0.061962783
127	0xbe3afd05	-0.18260582
128	0xbd1242c4	-0.035708204
129	0x3e980416	0.29690617
130	0x3d72586c	0.059166357
131	0xbda193bf	-0.078895085
132	0xbd868ecb	-0.06570204
133	0xbdb77cc8	-0.08959347
134	0x3def1779	0.11674399
135	0xbe96b730	-0.29436636
136	0xbe720fc4	-0.23638827
137	0xbe92ed01	-0.28696445
138	0x3de5d099	0.112214275
139	0x3eed753b	0.46378502
140	0x3e8adb93	0.27120647
141	0xbc8c7301	-0.017144682
142	0x3b1b3c9e	0.0023687254
143	0x3ea972ce	0.33095402
144	0x3ca761c6	0.020432364
145	0xbd33468d	-0.043768454
146	0xbd92cfff	-0.07168578
147	0x3e1f4d42	0.15556815
148	0x3e43938a	0.1909925
149	0xbcc94a5a	-0.024571586
150	0x3e46338b	0.193556
151	0xbdd6964a	-0.10477884
152	0xbe305d39	-0.17223062
153	0xbe5e86d2	-0.21731117
154	0xbd9ba48d	-0.07599745
155	0x3e0ce819	0.13760413
156	0x3d0a3101	0.03373814
157	0x3e22daeb	0.15903823
158	0xbdfd3a6c	-0.12364659
159	0x3e5ba555	0.21449788
160	0x3e7b9187	0.24567233
161	0x3e61d6dc	0.22054619
162	0xbe63451f	-0.22194336
163	0xbe01f433	-0.12690811
164	0xbda59e6f	-0.080868594
165	0xbdc5e72b	-0.096632324
166	0x3d0529a9	0.032510433
167	0x3e7cbe4a	0.24681965
168	0xbe2814ef	-0.16414236
169	0xbe6ebd6d	-0.23314448
170	0x3dd06eb5	0.10177366
171	0xbd9bff29	-0.07617027
172	0x3e042d9a	0.1290802
173	0x3e8545ae	0.26029724
174	0xbe505798	-0.20345914
175	0xbd61f662	-0.05516661
176	0x3da78500	0.081796646
177	0xbe29aa0b	-0.16568772
178	0x3e4d34b0	0.2003963
179	0x3d8f426e	0.06995092
180	0x3dcd4548	0.1002298
181	0xbe044b8d	-0.12919445
182	0x3da37c89	0.079827376
183	0xbd9cdb45	-0.0765901
184	0x3e1ad928	0.15121901
185	0xbe0ac83e	-0.13552949
186	0x3ea8b97b	0.3295401
187	0x3d877aea	0.06615241
188	0x3d86c134	0.06579819
189	0x3d9392df	0.07205748
190	0x3de3c566	0.11121635
191	0xbea2c9fd	-0.3179473
192	0x3dc963f2	0.09833516
193	0x3e04ea83	0.12980084
194	0xbd16bb69	-0.036799822
195	0x3e435adc	0.19077629
196	0xbd94644e	-0.07245694
197	0x3eb1b504	0.34708416
198	0xbd3ff6a7	-0.046866085
199	0x3d13f6ca	0.03612403
200	0x3d39b3f7	0.045337643
201	0x3e617cd4	0.22020274
202	0xbc3858dc	-0.0112516545
203	0x3e991625	0.29899707
204	0xbe359be7	-0.17735253
205	0xbdc1ba92	-0.094594136
206	0x3b371d74	0.002794114
207	0x3e0c4161	0.13696815
208	0xbe342bb7	-0.17594801
209	0x3d8ceff7	0.06881707
210	0x3e1bea2f	0.15226053
211	0xbe0bf721	-0.13668491
212	0x3c8ace58	0.016944095
213	0xbd15ae73	-0.03654332
214	0xbe8cfe1a	-0.27537614
215	0xbdc51eac	-0.09624991
216	0xbe413ebe	-0.1887159
217	0x3ca9f782	0.020747904
218	0xbe814821	-0.25250342
219	0xbe1f5c60	-0.15562582
220	0xbe78c27f	-0.24292944
221	0x3e0c6de6	0.13713798
222	0xbe519152	-0.20465592
223	0x3e43b15c	0.19110626
224	0x3e6884e1	0.2270694
225	0x3dd9a896	0.10627858
226	0xbe9b0ff9	-0.30285624
227	0xbe280d1c	-0.16411251
228	0x3dc023a2	0.093817964
229	0x3e5f9201	0.2183304
230	0x3ccfda53	0.02537266
231	0xbecfa941	-0.40558818
232	0xbe1c5db7	-0.15270124
233	0x3deed5c0	0.11661863
234	0xbe0c6413	-0.1371005
235	0xbe177109	-0.14789213
236	0xbe90a968	-0.28254247
237	0xbd8a432f	-0.067510955
238	0x3ea2b765	0.31780544
239	0x3eaab5dd	0.33341876
240	0xbdab3dad	-0.08361373
241	0x3c495545	0.012288396
242	0x3cd71058	0.02625291
243	0xbc94d679	-0.018168675
244	0x3cd02b54	0.025411285
245	0x3e32bc37	0.17454611
246	0xbebfed69	-0.37485817
247	0xbe5cc417	-0.21559177
248	0x3daaf7d6	0.08348052
249	0xbcb6b7e5	-0.022304485
250	0x3e8e8b02	0.2784043
251	0x3c3382c4	0.01095647
252	0xbe348d7b	-0.17632096
253	0xbdfb7d04	-0.12279704
254	0x3e37f3e7	0.17964135
255	0xbd0a5ee3	-0.033781897

linears.1.bias f4 [40]
0	0xbcfe384d	-0.031032706
1	0x3c83e4db	0.016100338
2	0xbc70943e	-0.014683781
3	0x3c225569	0.009908059
4	0x3d4a7bee	0.049434595
5	0xbc89ddc0	-0.016829371
6	0x3c9052bc	0.017617576
7	0x3d2881f7	0.04113957
8	0x3c2bd55d	0.0104878815
9	0xbc008d59	-0.0078462
10	0xbcfecbf8	-0.03110312
11	0x3b92e393	0.0044826954
12	0xbd109296	-0.035296045
13	0xbc2db0d9	-0.010601246
14	0xbc778000	-0.015106201
15	0x3ce74ce1	0.0282349
16	0x3c8c6a66	0.017140578
17	0xbc5fe19e	-0.013664631
18	0x3d4b366e	0.049612455
19	0xbab8d052	-0.001410017
20	0xbcba0dee	-0.02271172
21	0xbd2321bb	-0.03982709
22	0x3cff8381	0.031190636
23	0xbc49bc7f	-0.012313007
24	0xbc441de8	-0.011970021
25	0xbd518889	-0.0511556
26	0x3c204436	0.009781888
27	0xbe027558	-0.12740076
28	0x3c7f2db0	0.015574858
29	0x3cad8849	0.02118315
30	0xbb8f6ec2	-0.004377217
31	0xbd3255d5	-0.043538887
32	0xbbf29a30	-0.0074036345
33	0xbd2b4849	-0.041816983
34	0x3d5ac5a4	0.05341114
35	0xbb168538	-0.0022967588
36	0xbbc0a3f9	-0.005878922
37	0x3c638042	0.0138855595
38	0x3c946c02	0.018117908
39	0x3bd13032	0.006383919

linears.2.weight f4 [40, 40]
0	0x3e307402	0.17231753
1	0xbe0a7dd7	-0.13524567
2	0x3d9282e5	0.071538724
3	0x3e03d4a9	0.12874092
4	0x3e1d281d	0.15347333
5	0x3e84058f	0.2578549
6	0xbc8d566f	-0.017253129
7	0xbe202dbb	-0.15642445
8	0xbe43b521	-0.19112064
9	0xbe801928	-0.25019193
10	0x3d87e1b5	0.06634847
11	0xbe14fb55	-0.14549
12	0x3e2398b6	0.15976223
13	0xbdff8937	-0.124773435
14	0xbeaeeefd	-0.3416671
15	0x3dd74ff5	0.105132975
16	0xbd99fff6	-0.07519524
17	0x3e404e7e	0.18779942
18	0x3e0fd6ac	0.14046735
19	0xbc8e3b76	-0.017362338
20	0xbe522223	-0.20520835
21	0x3e94715e	0.28992742
22	0xbd12b625	-0.035818238
23	0xbcef8823	-0.02923972
24	0x3e3d9ec9	0.18517603
25	0x3e46142b	0.19343631
26	0x3e08acfe	0.13347241
27	0x3cf9e358	0.030503914
28	0xbe0f9678	-0.14022243
29	0xbe136d48	-0.14397156
30	0xbda34bb9	-0.07973427
31	0x3ea9f948	0.33198
32	0x3e31e063	0.17370753
33	0x3eb161d5	0.34644952
34	0xbe8c5274	-0.27406657
35	0xbdac5c97	-0.084160976
36	0x3dc3ef04	0.09567073
37	0x3d9b8557	0.07593792
38	0x3ca7b7ca	0.02047338
39	0xbd8c57be	-0.06852673
40	0x3d8a74c8	0.067605555
41	0xbd3aa6cd	-0.04556923
42	0x3dd528d1	0.10408176
43	0x3dc17afb	0.09447285
44	0xbe25eb34	-0.16203004
45	0x3dc0280d	0.09382639
46	0x3d833044	0.0640569
47	0x3c914c09	0.017736452
48	0xbe333f17	-0.17504536
49	0x3d0b3608	0.033987075
50	0x3e0aed63	0.13567118
51	0x3d4c2483	0.049839508
52	0x3e000f1b	0.12505762
53	0xbe382474	-0.17982656
54	0x3efb5316	0.49086827
55	0xbe1c27e5	-0.15249594
56	0x3e2e1545	0.17000301
57	0x3de16042	0.11004688
58	0x3c3c375e	0.01148781
59	0x3ddcf86b	0.107895695
60	0xbe8424e7	-0.25809404
61	0x3e3d049b	0.18458788
62	0x3e73bae3	0.2380176
63	0xbdc73509	-0.097269125
64	0x3dfcc7cf	0.12342798
65	0x3ddc5194	0.10757747
66	0xbea28033	-0.31738433
67	0xbe40c3e1	-0.18824722
68	0x3ebc2c31	0.36752465
69	0xbe817f62	-0.25292498
70	0xbcaad05b	-0.020851305
71	0x3e3addc8	0.18248665
72	0x3ca27f65	0.019836137
73	0x3dcc2ce5	0.099695005
74	0xbe3f1af5	-0.18662627
75	0x3d9c5cab	0.076348625
76	0x3e6703d8	0.2256006
77	0x3ddfcf14	0.10928169
78	0x3eace9b3	0.33772048
79	0xbe6c85a0	-0.23097849
80	0x3d704fdc	0.05866991
81	0x3dd2d183	0.102938674
82	0x3ea2c157	0.31788132
83	0x3c0c501c	0.008564021
84	0x3e52f05e	0.20599505
85	0xbdc23139	-0.09482045
86	0xbe0baa1d	-0.13639112
87	0x3d13da79	0.036097024
88	0xbdf4cfd3	-0.11953702
89	0xbd24d91b	-0.04024611
90	0xbdf38850	-0.11891234
91	0xbdd29993	-0.10283198
92	0x3d597001	0.05308533
93	0x3e6a6a6e	0.22892162
94	0xbec27d7c	-0.37986362
95	0xbc0c3cc7	-0.008559412
96	0x3e7415f4	0.238365
97	0x3df5e47b	0.1200647
98	0x3e81f0b0	0.25378942
99	0xbeaa6282	-0.3327828
100	0x3e86328c	0.2621044
101	0xbe4f859e	-0.20265815
102	0x3d9be75c	0.07612488
103	0xbe9b54f8	-0.30338264
104	0xbd069b1b	-0.032862764
105	0x3d44759a	0.047963716
106	0x3b3cf4bb	0.0028832394
107	0x3cc3c406	0.023897182
108	0xbe0f82d7	-0.14014755
109	0x3e6c4eb2	0.23076895
110	0xbccaa928	-0.024738863
111	0x3de7417f	0.11291789
112	0x3cc135bc	0.023585193
113	0x3ca296a8	0.01984723
114	0x3eb80dba	0.35947973
115	0x3e4281f9	0.18994893
116	0xbe7f7ba7	-0.24949513
117	0x3dede9a5	0.1161683
118	0x3e955384	0.2916528
119	0x3d6ce203	0.05783273
120	0xbea8efb9	-0.32995394
121	0x3cc2dc13	0.02378658
122	0x3ec9a52d	0.39383832
123	0xbe271f81	-0.16320612
124	0x3e1bfee1	0.15233947
125	0x3e1d168f	0.15340637
126	0xbd8edd37	-0.06975787
127	0x3eb8c9c7	0.36091444
128	0x3d9bcf43	0.076078914
129	0xbe94963b	-0.29020867
130	0xbeabec0f	-0.33578536
131	0xbdab2adf	-0.083577864
132	0xbe7e8279	-0.24854459
133	0xbc9358e0	-0.017986715
134	0xbe1bdc08	-0.15220654
135	0xbcf5efa5	-0.030021498
136	0xbe9f34e9	-0.31095055
137	0xbbaa74fb	-0.0052019334
138	0x3e1c2052	0.15246704
139	0x3e507169	0.20355763
140	0x3c663364	0.014050338
141	0x3ed8769d	0.42277995
142	0x3dbaa6af	0.091138236
143	0x3f348e06	0.7052921
144	0xbeb12250	-0.3459649
145	0xbe492db6	-0.19646344
146	0xbe9441af	-0.28956363
147	0xbf2a2ac5	-0.6647151
148	0x3e8fb3e2	0.28066927
149	0x3cdd2a39	0.026997672
150	0xbea3a145	-0.31958976
151	0xbe2e8678	-0.17043483
152	0xbd94cd2c	-0.07265696
153	0xbd94fd5d	-0.07274888
154	0x3f18164c	0.5940902
155	0xbe04b2fa	-0.12958899
156	0xbc41ce09	-0.011828908
157	0x3cb609f9	0.022221552
158	0xbd7e0889	-0.06201986
159	0x3d09e37c	0.03366421
160	0x3dc99602	0.09843065
161	0x3db6b7bc	0.08921763
162	0x3d035b2e	0.032069378
163	0xbd834f8d	-0.064116575
164	0xbe9743bd	-0.29543868
165	0x3d05e3c8	0.032687932
166	0x3dcd1f93	0.10015788
167	0xbcb35cd2	-0.021894846
168	0x3df68271	0.120365985
169	0xbd13afb3	-0.03605623
170	0x3bfede1f	0.0077779437
171	0x3e26d6c0	0.16292858
172	0x3e9e1098	0.30872035
173	0xbe969cf9	-0.29416636
174	0x3ee6368e	0.44963497
175	0x3e1e6e33	0.15471725
176	0x3e8c555d	0.27408877
177	0x3cafee87	0.021476043
178	0xbe358efb	-0.17730324
179	0xbe267950	-0.16257215
180	0x3e7360ef	0.23767446
181	0xbe9cc204	-0.30616772
182	0xbb98069f	-0.004639461
183	0xbdf7e758	-0.12104672
184	0xbe00d2b8	-0.12580383
185	0x3df211be	0.1181979
186	0x3e444f44	0.19170862
187	0xbcabc517	-0.020968003
188	0xbed85b11	-0.42256978
189	0x3e87dd2d	0.2653593
190	0xbd92878f	-0.07154762
191	0xbd98145c	-0.07425758
192	0xbe87397a	-0.2641104
193	0xbd09cd3d	-0.033642996
194	0xbead1d9e	-0.3381166
195	0x3c30e6df	0.010797231
196	0x3cb119c3	0.02161873
197	0xbe9ae0d5	-0.30249658
198	0xbe00429f	-0.12525414
199	0xbdc9faa4	-0.09862259
200	0x3e702672	0.23452166
201	0xbecb6cbd	-0.39731398
202	0x3e4a1956	0.19736227
203	0xbeadf3eb	-0.33975157
204	0x3e31fda6	0.17381915
205	0x3de10629	0.10987503
206	0x3e925899	0.2858322
207	0xbe433d03	-0.19066243
208	0xbe41fc55	-0.18943913
209	0x3d064e72	0.032789655
210	0x3f06bdb0	0.5263319
211	0x3de45cf4	0.11150542
212	0x3f11d892	0.56971085
213	0xbd782c5d	-0.060589183
214	0x3e4ecfc1	0.2019644
215	0xbe442d8c	-0.19158
216	0x3e98b5d5	0.29826227
217	0xbe3a2d82	-0.18181422
218	0x3d4281bf	0.047487017
219	0xbeee0278	-0.46486259
220	0x3dd6d767	0.104903035
221	0xbc2f7860	-0.010709852
222	0x3a731259	0.00092724484
223	0x3dbe0009	0.092773505
224	0xbe10ed19	-0.14152946
225	0x3d44179f	0.04787409
226	0x3ed95175	0.4244496
227	0xbe0fc4e2	-0.14039949
228	0xbefef127	-0.4979336
229	0xbd8b4415	-0.06800095
230	0x3e2bda0b	0.16782396
231	0xbe493117	-0.19647633
232	0xbe0e011c	-0.1386761
233	0xbddf1b3b	-0.10893866
234	0xbec582fe	-0.38576502
235	0x3e467a77	0.19382654
236	0x3dff3147	0.12460571
237	0xbe5c1d89	-0.21495642
238	0x3e5100fd	0.20410533
239	0xbe68cd11	-0.22734477
240	0x3d1ffe32	0.03906078
241	0xbdf6ec8d	-0.12056837
242	0xbe0c7770	-0.13717437
243	0xbdb32aec	-0.08748421
244	0xbdee7e01	-0.11645127
245	0x3d9a2884	0.07527259
246	0xbd9fc7bf	-0.078017704
247	0x3ec4d3d8	0.38442874
248	0x3e11355d	0.14180513
249	0x3cf23b8d	0.029569412
250	0xbbf228f9	-0.007390138
251	0x3b0a8e0c	0.0021141795
252	0x3e2f1921	0.1709943
253	0xbe8c3ec9	-0.2739165
254	0x3e293980	0.16525841
255	0x3d43ba52	0.04778511

linears.2.bias f4 [40]
0	0xbca0df6e	-0.01963779
1	0xbbc337ed	-0.0059575946
2	0xbce174ab	-0.027521452
3	0x3d7edf59	0.06222472
4	0xbc39200d	-0.011299145
5	0xbc78ab60	-0.015177578
6	0x3caf64f6	0.021410447
7	0xbb55ea11	-0.0032640735
8	0x3d181e75	0.03713842
9	0x3cd0c3b8	0.025483951
10	0x3c4096f2	0.011754738
11	0xbcc76669	-0.024340825
12	0xbbc599ab	-0.0060302815
13	0xbc25107a	-0.010074729
14	0x3b0050bc	0.0019579371
15	0xbd306d16	-0.043072782
16	0x3c766730	0.01503925
17	0xba99be4f	-0.001172969
18	0x3bc6b882	0.0060644755
19	0xbcfacf9f	-0.03061658
20	0x3cc72d2a	0.024313528
21	0xbcb540c8	-0.022125617
22	0xbba97e65	-0.005172538
23	0x3c33c4bf	0.010972201
24	0xbd90cf23	-0.07070758
25	0x3c90fb8b	0.01769807
26	0xbabbd826	-0.0014331385
27	0xbbe90937	-0.007111694
28	0xbd55de14	-0.052213743
29	0x3d4a8729	0.049445305
30	0xbc7a30f3	-0.0152704595
31	0x3adb087d	0.0016710904
32	0x3c4e6190	0.012596503
33	0xbb4f9c92	-0.0031679017
34	0x3c88c38d	0.016694808
35	0xbc0d4ec2	-0.008624734
36	0xbc172c39	-0.009226852
37	0xba9e5413	-0.00120795
38	0x3c421385	0.011845474
39	0x3d2d1381	0.04225493

linears.3.weight f4 [40, 40]
0	0x3d53fea4	0.051756516
1	0x3e3a6f96	0.18206629
2	0xbe849c93	-0.25900707
3	0x3d91ecc6	0.07125239
4	0xbe41c40b	-0.1892244
5	0x3cc997bc	0.024608485
6	0x3e78fc01	0.24314882
7	0x3d27f65f	0.041006442
8	0xbd556e3e	-0.05210709
9	0x3d7076bd	0.058706988
10	0x3dbcd7b4	0.092208296
11	0x3cbd3623	0.023097103
12	0x3db38b84	0.08766845
13	0x3e26890b	0.16263215
14	0x3e1bb12a	0.15204301
15	0x3ca49910	0.020092517
16	0xbea6cfaa	-0.3258031
17	0xbe4bed1b	-0.19914667
18	0x3e533954	0.20627338
19	0x3dc0c983	0.09413435
20	0x3d925fbc	0.07147166
21	0xba110bba	-0.00055330584
22	0x3d72b20f	0.05925184
23	0xbd672194	-0.056428507
24	0xbe9508b6	-0.29108208
25	0xbe426aff	-0.18986128
26	0x3dfec487	0.12439828
27	0x3e39742d	0.18110724
28	0xbde110ee	-0.10989557
29	0xbe3901b0	-0.1806705
30	0x3c9209e2	0.017826978
31	0x3c59f780	0.0133036375
32	0x3e086d86	0.1332303
33	0xbe12c122	-0.14331487
34	0xbe3df61c	-0.18550915
35	0xbcba60dd	-0.022751266
36	0x3ec87797	0.3915374
37	0xbdf07406	-0.1174088
38	0x3e53555a	0.20638028
39	0x3bde5067	0.006784487
40	0x3e02eabc	0.12784857
41	0x3e2604c3	0.16212754
42	0xbd8dba9c	-0.069203585
43	0x3e8b9d50	0.27268457
44	0xbb798171	-0.0038071538
45	0x3cabf735	0.020991901
46	0x3e21c6f3	0.1579855
47	0x3e47cf94	0.19512779
48	0xbde597ec	-0.112106174
49	0xbdcd0fc0	-0.1001277
50	0xbe8236b6	-0.25432366
51	0xbda08d09	-0.078394
52	0x3da0da22	0.078541055
53	0xbd8828b1	-0.06648386
54	0xbd4404f8	-0.0478563
55	0xbbf09dac	-0.0073430147
56	0xbd9c6018	-0.07635516
57	0x3d6fc012	0.058532782
58	0xbdabcf89	-0.083891936
59	0xbd8a5edd	-0.06756375
60	0x3d01aa24	0.0316564
61	0xbdf2f48d	-0.118630506
62	0xbdde0236	-0.108402655
63	0xbd7646a1	-0.06012595
64	0x3da7b5b1	0.08188952
65	0x3e46499c	0.19364017
66	0xbed3ae6b	-0.41344008
67	0x3ca945ce	0.020663168
68	0x3d550f96	0.052016817
69	0xbdcb6402	-0.09931184
70	0x3e08e1d8	0.13367403
71	0x3e10c7fe	0.14138791
72	0xbe13423b	-0.14380734
73	0x3afdb36d	0.0019355841
74	0x3d6ad44b	0.057331365
75	0x3b018728	0.0019764397
76	0x3d4c46f8	0.04987237
77	0xbe5d7a79	-0.21628751
78	0xbe170f7b	-0.14751999
79	0xbe7869ca	-0.24259105
80	0x3eafec2f	0.3435988
81	0x3e2deb3a	0.16984263
82	0xbd6b58c0	-0.057457685
83	0xbd978f43	-0.07400372
84	0x3e74aec1	0.23894788
85	0xbe2ed157	-0.17072044
86	0x3e501bfa	0.20323172
87	0xbeebc30e	-0.46047252
88	0x3cedc765	0.029025743
89	0xbe905d53	-0.281962
90	0x3eacd3d1	0.33755353
91	0x3e34e839	0.17666711
92	0x3e83e833	0.2576309
93	0x3d11bfb0	0.035583198
94	0x3e2bb834	0.16769487
95	0x3eabe3d5	0.3357226
96	0x3c2eed8a	0.010676751
97	0x3c0d3898	0.00861945
98	0x3d5c4236	0.05377408
99	0xbdbe4085	-0.0928965
100	0xbdbe2222	-0.09283854
101	0x3e8ceca9	0.27524307
102	0xbdedf278	-0.11618513
103	0x3e296568	0.1654259
104	0xbd31032c	-0.043215916
105	0xbcdbce32	-0.02683172
106	0x3e10166b	0.14071052
107	0xbdb6b192	-0.089205876
108	0x3e047db4	0.12938577
109	0xbe94f62d	-0.29094067
110	0xbd8cebca	-0.06880911
111	0xbe2f3666	-0.17110595
112	0xbda026f8	-0.07819933
113	0x3dea3d13	0.1143743
114	0xbd7a62d6	-0.061129414
115	0x3c439da0	0.011939436
116	0x3d215bf9	0.039394353
117	0x3e379a66	0.17929992
118	0x3d066fa1	0.0328213
119	0x3ec520b1	0.38501504
120	0xbd67a6c9	-0.056555543
121	0xbe339234	-0.17536241
122	0xbc89e0e8	-0.016830876
123	0xbca2f412	-0.019891772
124	0x3d0bca5d	0.034128536
125	0xbe0ec1eb	-0.13941161
126	0xbe42b64d	-0.19014855
127	0xbc739ba0	-0.014868647
128	0xbe363dc6	-0.17797002
129	0xbea32a83	-0.3186837
130	0xbd46228d	-0.048372794
131	0x3c89df1f	0.016830025
132	0x3e105c02	0.14097598
133	0x3e6004b4	0.21876794
134	0x3d99187b	0.074753724
135	0x3db09cd4	0.086236626
136	0x3cd6cc9c	0.026220612
137	0xbe1072fd	-0.14106365
138	0x3e8fe49b	0.281041
139	0xbcfc9287	-0.030831588
140	0xbd81dcb4	-0.06340924
141	0xbdc237fa	-0.09483333
142	0xbe20f0dc	-0.1571688
143	0xbe6085c3	-0.21926026
144	0x3bfcd009	0.0077152294
145	0x3ea6e9aa	0.32600147
146	0xbdf42fa6	-0.11923151
147	0xbd4ee118	-0.050507635
148	0x3eafe807	0.3435671
149	0xbe5f20da	-0.21789876
150	0x3e25428a	0.16138664
151	0xbe9d9636	-0.30778664
152	0xbe3f034a	-0.18653598
153	0x3cf98811	0.03046039
154	0xbeac6ee0	-0.3367834
155	0xbb83fe4e	-0.004028118
156	0xbd20e91e	-0.039284818
157	0x3e7d07e9	0.24710049
158	0x3e2f1de5	0.17101248
159	0xbe2bcb8f	-0.1677687
160	0x3e3c6ea3	0.1840158
161	0x3eac4dc3	0.33653077
162	0x3d976fc0	0.073943615
163	0x3e23aadd	0.15983148
164	0xbdfb5a44	-0.12273076
165	0x3dccfab4	0.10008755
166	0x3e9076b8	0.28215575
167	0x3e2cba15	0.1686786
168	0xbe874cf3	-0.26425895
169	0x3e8d7ee1	0.27635863
170	0xbd981ff8	-0.074279726
171	0x3d29ad2f	0.041424926
172	0x3ebff778	0.3749349
173	0xbd6e2d4f	-0.05814868
174	0x3ce8324b	0.028344294
175	0xbc1ae2f9	-0.009453529
176	0xbe79c912	-0.24393108
177	0x3dcaebcf	0.09908258
178	0x3e0b6dd2	0.13616112
179	0xbe2a896b	-0.16653983
180	0xbe9ab19d	-0.30213633
181	0x3aaf484a	0.0013372984
182	0x3c976ca1	0.018484415
183	0x3e846b31	0.2586303
184	0x3f3d0827	0.73840564
185	0x3e1e1aa0	0.15439844
186	0x3d03eb3c	0.03220676
187	0x3dfe8e47	0.12429481
188	0x3e2f29e0	0.17105818
189	0x3da99d54	0.08281961
190	0x3c21b8a6	0.009870684
191	0xbe74727b	-0.23871796
192	0xbd7a670b	-0.061133426
193	0x3e8576ee	0.260673
194	0xbd9785e8	-0.073985875
195	0xbea17a39	-0.3153856
196	0xbf017ee2	-0.5058423
197	0xbde4e3a1	-0.11176229
198	0xbe9f946a	-0.31167918
199	0xbe8fd82c	-0.28094614
200	0x3e430596	0.190451
201	0xbf045f9e	-0.517084
202	0xbdb3ce7f	-0.087796204
203	0xbe7a07d9	-0.24417056
204	0x3e9ea159	0.30982473
205	0xbc75fe5c	-0.015014257
206	0xbe11f4dd	-0.14253564
207	0xbe25ea1a	-0.16202584
208	0x3ea6d47a	0.32583982
209	0x3e4b0598	0.19826353
210	0xbd828bab	-0.06374296
211	0xbea2bc33	-0.3178421
212	0xbd587388	-0.052844554
213	0xbccf8ea9	-0.02533658
214	0xbeb3fbad	-0.3515295
215	0x3e0bb3b1	0.13642766
216	0x3e9c4ee7	0.30528948
217	0x3edd5d64	0.43235314
218	0x3d90df9b	0.07073899
219	0x3e38e30e	0.18055364
220	0x3df74507	0.12073713
221	0x3e5344dd	0.20631738
222	0xbe8988b0	-0.26862097
223	0x3dc87487	0.09787851
224	0x3e5e108e	0.21686003
225	0xbcb6aeb0	-0.022300094
226	0x3cb16a08	0.021657005
227	0x3e1641d8	0.14673555
228	0x3e514462	0.20436242
229	0x3ed7673c	0.4207095
230	0x3db0fe8d	0.08642302
231	0x3d9ff343	0.0781007
232	0xbeb41876	-0.35174912
233	0xbcbd0bb1	-0.023076864
234	0x3e0802f6	0.1328238
235	0xbe15ea7b	-0.14640228
236	0xbe23f543	-0.16011529
237	0xbe8862fe	-0.26638025
238	0x3e46f4ad	0.19429274
239	0x3c6efc12	0.014586465
240	0xbdf94348	-0.12171036
241	0x3de6aa41	0.11262942
242	0xbe5d529b	-0.21613543
243	0x3e995099	0.29944304
244	0xbdf124f1	-0.11774624
245	0x3c7d3c5c	0.015456285
246	0x3e5fd905	0.2186013
247	0xbe72bbf1	-0.23704506
248	0xbe525e67	-0.20543824
249	0x3c744ced	0.014910919
250	0x3e038c77	0.12846552
251	0x3dbff910	0.09373677
252	0xbd08e646	-0.03342273
253	0x3e882939	0.2659395
254	0xbcfe15d6	-0.031016272
255	0x3d1060e6	0.03524866

linears.3.bias f4 [40]
0	0x3cc58670	0.024111956
1	0xbb7bd9c8	-0.0038429368
2	0xbd28b7a3	-0.041190755
3	0x3cb9ba89	0.022671955
4	0x3b6cf198	0.0036154743
5	0x3c3db105	0.011577849
6	0x3c70937b	0.0146836
7	0xbd9aa6fa	-0.075513795
8	0xbdada6a8	-0.08479053
9	0xbc5fb88a	-0.013654837
10	0xbd976626	-0.0739253
11	0xbb9d5b66	-0.0048021553
12	0x38cea18f	9.852938e-05
13	0x3a7196ca	0.000921589
14	0xbcf670b6	-0.030083042
15	0x3bb0f95a	0.005400819
16	0x3c97b1cd	0.0185174
17	0x3bfb97f8	0.007678028
18	0x3a257567	0.0006311745
19	0x3c1ba010	0.009498611
20	0xbd09df9c	-0.033660516
21	0xbd983c1a	-0.074333385
22	0xbd16832c	-0.03674619
23	0xbd4d3cec	-0.050106928
24	0xbca60cb6	-0.020269733
25	0x3ce9a24a	0.028519768
26	0xbb8b877a	-0.0042580934
27	0x3c09f03b	0.008419092
28	0x3c94babb	0.018155446
29	0x3dbe17e4	0.092819005
30	0x3ba95654	0.005167762
31	0x3bedc65d	0.0072563128
32	0x3d1fc019	0.039001558
33	0xbb383f13	-0.0028113767
34	0x3cce9c28	0.025220945
35	0xbd719b1b	-0.05898581
36	0x3d16eb0f	0.036845263
37	0xbdb2c6ed	-0.08729348
38	0xbb16b0ef	-0.0022993644
39	0xbc9c2ef9	-0.019065367

linears.4.weight f4 [1, 40]
0	0xbe760651	-0.24025847
1	0xbec933e9	-0.39297417
2	0x3f0d1cd0	0.5512209
3	0xbe94b784	-0.2904626
4	0xbdcfe694	-0.10151401
5	0x3e679de7	0.22618829
6	0xbe7ed9b0	-0.24887729
7	0xbe2795be	-0.16365716
8	0x3dc1167d	0.094281174
9	0xbcb03d9e	-0.021513756
10	0x3bb47c4b	0.005507981
11	0x3eb253c7	0.34829542
12	0xbeb5d7d7	-0.35516235
13	0xbe31df7f	-0.17370413
14	0x3dab6664	0.08369139
15	0x3cfcf966	0.030880641
16	0x3e358845	0.17727764
17	0xbe8d2514	-0.2756735
18	0x3ef2449b	0.47317967
19	0x3e561eef	0.20910238
20	0x3d7d27eb	0.061805647
21	0x3da2e39b	0.079535685
22	0x3dc37b63	0.095450185
23	0x3e6cde24	0.23131615
24	0xbe6c3865	-0.23068388
25	0xbda46883	-0.080277465
26	0xbe1b2205	-0.15149696
27	0xbdc3d45d	-0.095619895
28	0xbe9cf854	-0.3065821
29	0x3e287ef4	0.16454679
30	0xbe9b1247	-0.30287382
31	0x3ea346c7	0.31889936
32	0xbe6b9f83	-0.23010068
33	0xbe0586bb	-0.13039677
34	0x3eda2900	0.42609406
35	0x3d773eb9	0.06036255
36	0xbdcd5e22	-0.1002772
37	0x3dfd1c73	0.12358942
38	0xbeb5e5dc	-0.3552693
39	0xbe31b68a	-0.1735479

exp_avg f4 [40, 2]
0	0xb972f510	-0.00023170211
1	0xb811178f	-3.4592635e-05
2	0x39068c17	0.00012831423
3	0x382db565	4.141535e-05
4	0xb936435d	-0.00017381967
5	0xb7a99a58	-2.0218242e-05
6	0x384f97e0	4.949409e-05
7	0x38141fa4	3.5315417e-05
8	0xb9494e32	-0.00019197984
9	0x38509a9d	4.973506e-05
10	0x38a8f0a8	8.05569e-05
11	0xb8aa0a4c	-8.1081496e-05
12	0xb9696440	-0.00022257958
13	0x3892b28e	6.995081e-05
14	0xb95dfdcf	-0.00021170753
15	0x38a793d1	7.9907135e-05
16	0x39509330	0.00019891257
17	0xb768d8ae	-1.3878727e-05
18	0x38d76e6d	0.00010272567
19	0xb7367b75	-1.087679e-05
20	0x395986c1	0.00020744932
21	0x37f4fd33	2.9204972e-05
22	0xb891882f	-6.939505e-05
23	0x3875ed58	5.8633595e-05
24	0xb8894ca2	-6.546943e-05
25	0xb6fc6f19	-7.5231187e-06
26	0x386da4d0	5.6658697e-05
27	0x36ae9bb4	5.2037303e-06
28	0xb90501a1	-0.00012684475
29	0x38f8d42a	0.0001186508
30	0xb94a9c7d	-0.00019322518
31	0xb80c6451	-3.3472028e-05
32	0xb967b3e5	-0.00022096893
33	0x38daf59c	0.00010440798
34	0xb803911d	-3.136798e-05
35	0x38f55a77	0.00011699361
36	0x3743be83	1.1667263e-05
37	0xb8881b82	-6.490109e-05
38	0x38514a2a	4.9898554e-05
39	0xb8a24184	-7.736965e-05
40	0x38aa1809	8.1107086e-05
41	0xb4fc7a47	-4.7027626e-07
42	0x391caf1a	0.0001494255
43	0xb74f417a	-1.2353406e-05
44	0x38938ff0	7.036317e-05
45	0x37d62bd1	2.5531192e-05
46	0xb857b67d	-5.142995e-05
47	0xb75c01ae	-1.3113413e-05
48	0xb93943ce	-0.00017668234
49	0x38b93980	8.832198e-05
50	0xb95499a8	-0.00020275137
51	0xb83ed3df	-4.549685e-05
52	0xb9a3fa20	-0.0003127614
53	0x38146808	3.5382836e-05
54	0xb92a9787	-0.00016268912
55	0xb806aa95	-3.2106956e-05
56	0x393b04e5	0.00017835533
57	0xb8899265	-6.559937e-05
58	0x38ec73aa	0.00011274901
59	0xb7ed1c78	-2.8265858e-05
60	0xb82d4ca9	-4.131781e-05
61	0xb81b645e	-3.7048354e-05
62	0xb8df85ed	-0.00010658414
63	0xb80888ab	-3.255221e-05
64	0xb9134bc7	-0.00014047242
65	0x38313374	4.2248008e-05
66	0xb9323d12	-0.00016998153
67	0x3782f14e	1.5609574e-05
68	0xb911f79d	-0.0001392052
69	0x388aedaa	6.624621e-05
70	0x39413fb8	0.00018429651
71	0xb7817114	-1.5430654e-05
72	0xb992edae	-0.00028024375
73	0x38bc9942	8.993085e-05
74	0x3943d19c	0.00018674735
75	0xb753e377	-1.2629541e-05
76	0x391b26b2	0.00014796367
77	0x3831b482	4.23682e-05
78	0xb912ddf3	-0.00014006328
79	0xb6ac121e	-5.1281086e-06

exp_avg_sq f4 [40, 2]
0	0x39ce075b	0.00039296862
1	0x3729eb24	1.0127933e-05
2	0x3a0fda3b	0.0005487536
3	0x371c3b94	9.312196e-06
4	0x3a0eeded	0.0005452324
5	0x361e3059	2.3571977e-06
6	0x39876451	0.00025823948
7	0x37128e58	8.73542e-06
8	0x39413379	0.0001842509
9	0x379c0cb5	1.8602566e-05
10	0x391d8bb5	0.00015024732
11	0x38826976	6.218527e-05
12	0x3a4b6159	0.00077583414
13	0x380a78a1	3.301411e-05
14	0x3a7331ca	0.00092771335
15	0x382fb1d2	4.188886e-05
16	0x3981639a	0.00024679006
17	0x35981aef	1.1332721e-06
18	0x38686cfe	5.5414617e-05
19	0x359795bc	1.1293955e-06
20	0x398e72d3	0.000271699
21	0x377118c3	1.4370485e-05
22	0x37bf3abd	2.2796326e-05
23	0x38301afa	4.1986794e-05
24	0x39718c07	0.00023035715
25	0x37092254	8.173829e-06
26	0x3786d9ab	1.6075404e-05
27	0x3620f744	2.3985785e-06
28	0x38993947	7.306277e-05
29	0x392c06fe	0.00016405803
30	0x3976ad30	0.00023524906
31	0x3794c9a2	1.7736867e-05
32	0x3a8a9b6e	0.0010574886
33	0x38ac34be	8.211423e-05
34	0x3aaeb82c	0.0013330034
35	0x38c95948	9.601057e-05
36	0x39d9afd7	0.00041520476
37	0x37e59821	2.7369768e-05
38	0x3a2ff8d5	0.0006712799
39	0x381adb82	3.6920894e-05
40	0x38f0bb7a	0.00011479012
41	0x3489fc1a	2.5701667e-07
42	0x391c2705	0.00014891855
43	0x35cdf1a0	1.5344012e-06
44	0x397f2c7b	0.00024335265
45	0x367638e2	3.6689967e-06
46	0x384c4ec7	4.8710757e-05
47	0x36e32706	6.76967e-06
48	0x3968ee81	0.00022214094
49	0x3891bf81	6.949809e-05
50	0x39ce9409	0.00039401677
51	0x3792fafb	1.7521428e-05
52	0x3a42e4ae	0.00074345886
53	0x3719d39d	9.168781e-06
54	0x3a455d7f	0.00075288856
55	0x36900e73	4.2932165e-06
56	0x3a645c87	0.00087112974
57	0x37ff0cbd	3.04043e-05
58	0x393b15b2	0.00017841792
59	0x36d32fe1	6.293864e-06
60	0x39e0b71b	0.00042861034
61	0x36e15830	6.715789e-06
62	0x3a0ee1df	0.00054505275
63	0x367a6ef1	3.731748e-06
64	0x397e59f2	0.00024256835
65	0x374a8f20	1.2073462e-05
66	0x39a659ff	0.0003172904
67	0x3627e560	2.5018453e-06
68	0x3a062496	0.0005117146
69	0x380c8340	3.3500837e-05
70	0x39b1bf9b	0.00033902828
71	0x3630c429	2.6340224e-06
72	0x3a11b431	0.00055581616
73	0x3897e41d	7.2427305e-05
74	0x395f4c99	0.00021295472
75	0x35f8fa18	1.8550227e-06
76	0x39d362c6	0.00040318648
77	0x373d73bc	1.1292224e-05
78	0x391a8e06	0.00014739492
79	0x3614558e	2.2103518e-06

exp_avg f4 [40]
0	0xb92dcd5d	-0.0001657507
1	0x388387c3	6.271854e-05
2	0xb8bd5196	-9.027419e-05
3	0xb84aebdf	-4.8380225e-05
4	0xb97a0a14	-0.00023845612
5	0x39beffac	0.00036430114
6	0xb96f9dcd	-0.00022851602
7	0xb9799f24	-0.00023805775
8	0x3940bb07	0.0001838022
9	0x38368d6f	4.35239e-05
10	0xb88cc5e2	-6.712579e-05
11	0xb9cde27e	-0.00039269397
12	0x394b349e	0.0001937919
13	0xb8875a20	-6.454089e-05
14	0xba203187	-0.0006110896
15	0x38211bd2	3.84113e-05
16	0xb9967eb5	-0.00028704634
17	0xb8c56594	-9.4126124e-05
18	0x38400e46	4.578966e-05
19	0x388351cb	6.261802e-05
20	0x38129ee8	3.4957106e-05
21	0x3944e377	0.00018776754
22	0xb710f4d2	-8.6400705e-06
23	0x3947c7a0	0.00019052485
24	0xb9d86f9b	-0.00041281883
25	0xb891e677	-6.957066e-05
26	0xb948c25b	-0.0001914589
27	0xb8cfd97c	-9.911039e-05
28	0x38f737cc	0.00011788271
29	0x39192e8f	0.00014608561
30	0xb5e5ddc1	-1.7126368e-06
31	0xb93c05c0	-0.00017931219
32	0xb8d93cdd	-0.00010358703
33	0xb8bff936	-9.154009e-05
34	0xb98ef8cc	-0.0002726972
35	0x390f1eeb	0.0001364906
36	0xb9f26d00	-0.00046239048
37	0x38e80db7	0.00011065177
38	0x38c2ee21	9.294996e-05
39	0xb7a1a140	-1.9267784e-05

exp_avg_sq f4 [40]
0	0x39b11483	0.00033775353
1	0x384ab733	4.833117e-05
2	0x38993795	7.3059615e-05
3	0x3860b8c1	5.3577827e-05
4	0x39a71487	0.00031868016
5	0x3a38da88	0.00070516067
6	0x39dc597c	0.0004202834
7	0x397b8b7a	0.00023989184
8	0x394ba453	0.00019420804
9	0x36dab58e	6.518042e-06
10	0x37e94eff	2.781255e-05
11	0x3a9114ba	0.0011068799
12	0x399ffb0a	0.00030513882
13	0x38100c27	3.4343593e-05
14	0x3b0a1b45	0.0021073383
15	0x370ac9ae	8.272398e-06
16	0x39d689b2	0.00040919852
17	0x381b6ceb	3.7056318e-05
18	0x373bd13b	1.1194784e-05
19	0x38bacfdf	8.90789e-05
20	0x36eb75f5	7.0172778e-06
21	0x39557cb9	0.00020359726
22	0x365ead14	3.3181323e-06
23	0x3981ad75	0.00024734033
24	0x3a70830b	0.00091748004
25	0x389ec73a	7.571136e-05
26	0x3959d1e3	0.00020772922
27	0x389e20e3	7.540153e-05
28	0x389a86e8	7.3684205e-05
29	0x39658fbf	0.00021892691
30	0x37ca7f2e	2.41395e-05
31	0x39afd02b	0.00033533698
32	0x38531c7d	5.0332852e-05
33	0x38805772	6.1198036e-05
34	0x3a04c843	0.0005065242
35	0x394a9581	0.00019319916
36	0x3aabffc8	0.0013122493
37	0x38c12b5c	9.2110335e-05
38	0x3921af57	0.00015419476
39	0x3705210b	7.935111e-06

exp_avg f4 [40, 40]
0	0xb600de77	-1.9202978e-06
1	0xb659f16a	-3.2476041e-06
2	0x3720ae42	9.577316e-06
3	0xb64aef35	-3.0239582e-06
4	0x372fa885	1.0470049e-05
5	0x3607a4d3	2.0212508e-06
6	0xb63e65bc	-2.8371423e-06
7	0xb6a4f37b	-4.9159257e-06
8	0xb5ae1ae5	-1.2971838e-06
9	0xb5b93623	-1.379933e-06
10	0xb5963fdf	-1.119446e-06
11	0x36dfae1f	6.6661883e-06
12	0xb70adaf2	-8.276418e-06
13	0x362084f3	2.3919245e-06
14	0x36e08cd7	6.692116e-06
15	0xb630c89f	-2.634282e-06
16	0xb6b0c1cf	-5.267771e-06
17	0xb6a7d242	-5.001465e-06
18	0x364137da	2.879175e-06
19	0x367e589c	3.7900527e-06
20	0xb51c7287	-5.828119e-07
21	0x360c9270	2.0946864e-06
22	0xb5c0a53d	-1.4353205e-06
23	0xb6973f7b	-4.507541e-06
24	0xb59f3159	-1.1860785e-06
25	0xb5115ac6	-5.41488e-07
26	0xb694ef8e	-4.4386315e-06
27	0x36c51ed6	5.8746473e-06
28	0x36457f47	2.9429373e-06
29	0x36c2f900	5.810638e-06
30	0x365686db	3.1966981e-06
31	0x36211e7a	2.400861e-06
32	0xb600ac4e	-1.917378e-06
33	0xb613cf49	-2.2025363e-06
34	0xb676807f	-3.673165e-06
35	0x3673bcd2	3.631973e-06
36	0xb612f579	-2.189858e-06
37	0x361746f6	2.2542058e-06
38	0xb5fbf1f1	-1.8771372e-06
39	0xb5b7603d	-1.3662572e-06
40	0xb739c448	-1.107256e-05
41	0x36fe0a82	7.571013e-06
42	0xb3ccd7ff	-9.53878e-08
43	0x3711897c	8.674684e-06
44	0x3826e06c	3.9786493e-05
45	0xb78a4df7	-1.6487187e-05
46	0x375a2920	1.3003388e-05
47	0x37fe7fb9	3.0338635e-05
48	0xb79ced0e	-1.8707036e-05
49	0xb70f1cba	-8.530153e-06
50	0xb6452b98	-2.9380662e-06
51	0x35b378e5	1.3371724e-06
52	0x37b3f764	2.1453663e-05
53	0xb71f9eeb	-9.5141395e-06
54	0x368a3ba7	4.119665e-06
55	0x36d4305b	6.3237217e-06
56	0x371c4365	9.314016e-06
57	0x3789f1e0	1.6444304e-05
58	0xb7ae89a6	-2.0806514e-05
59	0xb79438da	-1.7669448e-05
60	0xb68a4218	-4.120415e-06
61	0xb75d6730	-1.3196652e-05
62	0x368001fb	3.814928e-06
63	0x36935547	4.390869e-06
64	0x3794beb5	1.773178e-05
65	0xb69ac4a7	-4.612451e-06
66	0x37348ee5	1.0762106e-05
67	0xb7633129	-1.35417e-05
68	0xb6cf3740	-6.1755127e-06
69	0xb7756576	-1.4626761e-05
70	0xb70151a0	-7.708004e-06
71	0xb781d1cc	-1.5475693e-05
72	0x370875cb	8.1336575e-06
73	0x371ed7dc	9.467793e-06
74	0x372a9513	1.0167499e-05
75	0xb71b4bf1	-9.256401e-06
76	0x3743ad80	1.1663302e-05
77	0xb65f0146	-3.323033e-06
78	0x37a6e700	1.989631e-05
79	0x36cd1c6d	6.1127853e-06
80	0xb85a2e0f	-5.2018146e-05
81	0x37209ced	9.57328e-06
82	0xb5ee0fb3	-1.7736951e-06
83	0x37b03404	2.1005057e-05
84	0x3730fb96	1.0548994e-05
85	0x35317071	6.610126e-07
86	0xb7f9f4b1	-2.9797056e-05
87	0xb6e4e086	-6.8210675e-06
88	0x3784131f	1.574453e-05
89	0x37f0b069	2.8692377e-05
90	0x38703607	5.7270776e-05
91	0x38ef8e11	0.0001142287
92	0xb87e776e	-6.0669547e-05
93	0x3871750f	5.7567897e-05
94	0x390441d2	0.00012613021
95	0xb858a0cb	-5.1648163e-05
96	0xb7f76f26	-2.9496452e-05
97	0xb69fc182	-4.7610965e-06
98	0xb7734e56	-1.4502168e-05
99	0x36aee149	5.2118307e-06
100	0x36be6ade	5.6748822e-06
101	0x382f4eeb	4.179675e-05
102	0xb604c01d	-1.9781357e-06
103	0xb870f3dd	-5.7447574e-05
104	0xb72ebdf8	-1.0415439e-05
105	0xb81db983	-3.7604488e-05
106	0xb83a0049	-4.434612e-05
107	0xb813be20	-3.52246e-05
108	0x374b8784	1.2131295e-05
109	0x37de7f00	2.6523601e-05
110	0x3497dc01	2.8286016e-07
111	0xb77e2230	-1.514754e-05
112	0xb78ee642	-1.7034941e-05
113	0xb7bcd3f3	-2.2510043e-05
114	0xb7cad3b4	-2.4178858e-05
115	0x383e879b	4.5425822e-05
116	0xb7d64ffe	-2.5548037e-05
117	0x385faeb0	5.3330034e-05
118	0x37f9c8a9	2.9776553e-05
119	0xb783168d	-1.5626918e-05
120	0xb69e5faa	-4.7199037e-06
121	0x36d887f5	6.453129e-06
122	0xb7a64844	-1.9822393e-05
123	0x370bf17f	8.341273e-06
124	0xb8028e9b	-3.1127227e-05
125	0x355fa874	8.3319105e-07
126	0xb6988107	-4.5449738e-06
127	0xb4340ddc	-1.6768848e-07
128	0x373e17ab	1.1330393e-05
129	0x3741b773	1.1546409e-05
130	0x378321f2	1.5632224e-05
131	0x36eca3a3	7.052398e-06
132	0xb5a96f9b	-1.2623963e-06
133	0x37272051	9.9615e-06
134	0x36f51de8	7.3050505e-06
135	0xb70023a9	-7.637697e-06
136	0x35a4c84b	1.2277245e-06
137	0x368b9d22	4.1608155e-06
138	0xb64e7553	-3.0764684e-06
139	0xb5afb327	-1.3090656e-06
140	0x36725353	3.6109311e-06
141	0x370e4fe6	8.482462e-06
142	0x35af1233	1.3043813e-06
143	0xb69a65c1	-4.6014034e-06
144	0xb6a6b879	-4.968661e-06
145	0xb6cbbf6c	-6.072156e-06
146	0xb67cac05	-3.7651055e-06
147	0xb7887a19	-1.626932e-05
148	0xb5af67c2	-1.3068714e-06
149	0xb5ce4c02	-1.5370317e-06
150	0xb6886d71	-4.0658565e-06
151	0xb67e06e8	-3.785297e-06
152	0xb61dcbbe	-2.3513417e-06
153	0xb65f28a1	-3.3253239e-06
154	0xb584693a	-9.865391e-07
155	0x36adb76b	5.1771544e-06
156	0xb69a2671	-4.594033e-06
157	0x37067509	8.014272e-06
158	0x36a29ca9	4.846214e-06
159	0xb62b0237	-2.5482275e-06
160	0xb5b5d4f4	-1.3547528e-06
161	0x367f4ba7	3.8041997e-06
162	0xb7021614	-7.753744e-06
163	0x368ac30c	4.135427e-06
164	0xb6ad73c6	-5.1692796e-06
165	0xb6635991	-3.387777e-06
166	0x3648d739	2.9927598e-06
167	0x36e1777a	6.7194314e-06
168	0xb50ea1a8	-5.3134363e-07
169	0x3595b673	1.1154465e-06
170	0x360d4b29	2.1054386e-06
171	0xb6dcb251	-6.5772697e-06
172	0x37137979	8.790165e-06
173	0xb60c7d2d	-2.0934488e-06
174	0xb6f7f7bd	-7.390014e-06
175	0x35e620f8	1.714593e-06
176	0x3694a648	4.4301014e-06
177	0x36b88530	5.4991324e-06
178	0xb6a417b1	-4.890339e-06
179	0xb69eb80d	-4.7301933e-06
180	0x3486b05e	2.508777e-07
181	0xb61c4119	-2.3283703e-06
182	0x35cfb497	1.547526e-06
183	0x3647541c	2.970227e-06
184	0x362ea65e	2.602486e-06
185	0xb5b3433f	-1.335611e-06
186	0x36813308	3.8504404e-06
187	0xb6f1322a	-7.1881996e-06
188	0xb6345fd2	-2.6877865e-06
189	0xb6b7ed82	-5.4814745e-06
190	0xb66679d6	-3.4343589e-06
191	0xb688f8ff	-4.082103e-06
192	0x3601944e	1.9308823e-06
193	0x3611f6cb	2.1750336e-06
194	0x36642026	3.399336e-06
195	0xb648bfbc	-2.9913926e-06
196	0x361ed748	2.3669145e-06
197	0xb5790ba6	-9.277668e-07
198	0x369956f6	4.569879e-06
199	0x35abc092	1.2796538e-06
200	0xb7512438	-1.2465804e-05
201	0xb5f78438	-1.8441415e-06
202	0x372149d2	9.613535e-06
203	0x354d0086	7.636921e-07
204	0x3731ade0	1.0590506e-05
205	0x366aec81	3.500638e-06
206	0xb730c39f	-1.0535964e-05
207	0xb716df23	-8.99265e-06
208	0x3671faa2	3.6057686e-06
209	0x36b9ce32	5.537434e-06
210	0x374537f9	1.1755147e-05
211	0x380f0a9b	3.4103734e-05
212	0xb7ccaf04	-2.4400193e-05
213	0x3788158f	1.6222502e-05
214	0x381c517e	3.7269194e-05
215	0xb77730cd	-1.473371e-05
216	0xb7536754	-1.2600638e-05
217	0xb6f99be7	-7.4389277e-06
218	0x35bd9974	1.4126258e-06
219	0x36d69ae6	6.3957295e-06
220	0x357fa27d	9.5231354e-07
221	0x37528936	1.2548922e-05
222	0xb6139c02	-2.1995515e-06
223	0xb79564ef	-1.7809185e-05
224	0xb6a46c45	-4.900185e-06
225	0xb70cdaf2	-8.395627e-06
226	0xb780534e	-1.529758e-05
227	0xb4e24d1f	-4.2151893e-07
228	0x36cdb1a0	6.1301544e-06
229	0x37595518	1.295402e-05
230	0x368428e0	3.938665e-06
231	0x34c7d859	3.7224052e-07
232	0xb6d3d804	-6.3134376e-06
233	0xb7052d9a	-7.938035e-06
234	0xb7258a26	-9.866932e-06
235	0x3774bdb5	1.4587703e-05
236	0xb71377ef	-8.789807e-06
237	0x377213f1	1.4428967e-05
238	0x36489db8	2.9894127e-06
239	0xb6b14a21	-5.283641e-06
240	0xb7a362b4	-1.9477076e-05
241	0x36f8efe4	7.418903e-06
242	0xb752c309	-1.2562386e-05
243	0x374b2f45	1.2110749e-05
244	0xb757bd50	-1.2859076e-05
245	0xb52791bf	-6.2424436e-07
246	0xb732c3e0	-1.06552325e-05
247	0x34a5022b	3.0735222e-07
248	0x372a02b8	1.0133423e-05
249	0x377be805	1.5014787e-05
250	0x37df57e2	2.6624595e-05
251	0x38207f74	3.8265673e-05
252	0xb78df0ce	-1.6920643e-05
253	0x37bd42d6	2.2561679e-05
254	0x383083ea	4.2084524e-05
255	0xb7a4e20f	-1.965559e-05

exp_avg_sq f4 [40, 40]
0	0x35545a02	7.9107133e-07
1	0x3335e214	4.2347963e-08
2	0x35056195	4.968836e-07
3	0x33cf8795	9.663851e-08
4	0x36799043	3.7187863e-06
5	0x351acb2d	5.766513e-07
6	0x36030dac	1.952848e-06
7	0x3624d896	2.4563974e-06
8	0x35fa4fe1	1.8649699e-06
9	0x35cfcfd2	1.5483186e-06
10	0x36546691	3.1650163e-06
11	0x373312b7	1.0673589e-05
12	0x36f82d3b	7.3962415e-06
13	0x368d16d4	4.204785e-06
14	0x3752dc05	1.2568203e-05
15	0x36434604	2.9098019e-06
16	0x35bcc22e	1.4063605e-06
17	0x3541c9d0	7.219178e-07
18	0x34977c09	2.821619e-07
19	0x35644e15	8.5050243e-07
20	0x3411c236	1.3574831e-07
21	0x36524163	3.1330499e-06
22	0x334ea7ab	4.8115606e-08
23	0x364f7fd6	3.0919814e-06
24	0x35a480ad	1.2256402e-06
25	0x35324e16	6.64238e-07
26	0x363e6746	2.837232e-06
27	0x34be88a2	3.548967e-07
28	0x34b78b7a	3.418789e-07
29	0x35f55620	1.8278988e-06
30	0x3404b323	1.2358628e-07
31	0x33b01ba9	8.20067e-08
32	0x3535070d	6.7438015e-07
33	0x358e38df	1.0596376e-06
34	0x35a008ad	1.1923454e-06
35	0x3637c003	2.738089e-06
36	0x35c8c546	1.4958575e-06
37	0x362efb0a	2.6074144e-06
38	0x32823e50	1.5162328e-08
39	0x3501b8ee	4.8325353e-07
40	0x3628ef28	2.5173158e-06
41	0x35a5caf3	1.2352524e-06
42	0x363cb228	2.8117884e-06
43	0x360ab8d2	2.0671182e-06
44	0x36f07eb9	7.16731e-06
45	0x35f5546f	1.8278496e-06
46	0x35ad5c45	1.2916358e-06
47	0x36e1eadb	6.7328633e-06
48	0x3600450e	1.9113681e-06
49	0x35b551df	1.3509379e-06
50	0x367dc104	3.7812288e-06
51	0x36909263	4.308576e-06
52	0x3698fed3	4.5596184e-06
53	0x36196578	2.285784e-06
54	0x36abf8d2	5.1251636e-06
55	0x35d0cb74	1.555642e-06
56	0x3579edea	9.310594e-07
57	0x3631edf1	2.6513555e-06
58	0x36843253	3.939765e-06
59	0x3624ac80	2.4538313e-06
60	0x34053305	1.2405151e-07
61	0x35f02bd8	1.7894154e-06
62	0x342a6432	1.5868935e-07
63	0x35b2574a	1.3287438e-06
64	0x35ec130b	1.7588912e-06
65	0x35b4616f	1.3439402e-06
66	0x35b51309	1.3491091e-06
67	0x36d27b29	6.2728254e-06
68	0x34c6c327	3.7022366e-07
69	0x36017452	1.9290205e-06
70	0x355be006	8.1909855e-07
71	0x3624a712	2.4535152e-06
72	0x34fed97a	4.7469422e-07
73	0x353a1606	6.932245e-07
74	0x3566bae8	8.595366e-07
75	0x35aab92f	1.2719883e-06
76	0x35870ab8	1.0061403e-06
77	0x35e11c69	1.6772075e-06
78	0x368e4a25	4.2405613e-06
79	0x349c7d54	2.9148453e-07
80	0x37abcd13	2.0480284e-05
81	0x3597f77c	1.1322404e-06
82	0x35d1e88d	1.5639395e-06
83	0x36931542	4.383416e-06
84	0x362d007e	2.5779295e-06
85	0x33a15bec	7.513867e-08
86	0x36ba6f11	5.556162e-06
87	0x34ac9d1d	3.2151812e-07
88	0x35d140ac	1.5590535e-06
89	0x36c6df8c	5.926884e-06
90	0x37d1e716	2.502235e-05
91	0x38c08326	9.179702e-05
92	0x37c1de44	2.3110893e-05
93	0x37bfc265	2.2859496e-05
94	0x38eba075	0.00011235561
95	0x379ab760	1.8443621e-05
96	0x36b6214f	5.4279003e-06
97	0x34a17fa8	3.008147e-07
98	0x363d76ab	2.8232269e-06
99	0x345567d8	1.9874949e-07
100	0x344d689d	1.9130171e-07
101	0x3744ff1e	1.17419095e-05
102	0x330c86a4	3.2718745e-08
103	0x37bf22b5	2.2785136e-05
104	0x350b7803	5.1956175e-07
105	0x37312beb	1.0560248e-05
106	0x37568ed7	1.27886515e-05
107	0x374a74f4	1.20673685e-05
108	0x3572d0bb	9.045577e-07
109	0x368c4717	4.180601e-06
110	0x34204ebd	1.4929806e-07
111	0x3622941b	2.422609e-06
112	0x35fb1e95	1.8709858e-06
113	0x3652efde	3.143206e-06
114	0x3672a9a9	3.6159565e-06
115	0x3767f57c	1.3825829e-05
116	0x368ab7ce	4.134118e-06
117	0x37a9b64c	2.0231259e-05
118	0x3705d2b0	7.976472e-06
119	0x35dee44d	1.6606733e-06
120	0x3560b17f	8.3704793e-07
121	0x34ac2493	3.2064108e-07
122	0x36850f11	3.965463e-06
123	0x353c51b8	7.0154374e-07
124	0x379491f8	1.7710947e-05
125	0x3525820d	6.165654e-07
126	0x3616a9af	2.245051e-06
127	0x36177c40	2.2573076e-06
128	0x368ce752	4.1992544e-06
129	0x36734c51	3.6254244e-06
130	0x36dc3cf5	6.5636073e-06
131	0x371a770f	9.206836e-06
132	0x36c05c8f	5.732821e-06
133	0x36bd3453	5.6387303e-06
134	0x37329877	1.0645125e-05
135	0x36736149	3.626645e-06
136	0x3568eadd	8.6768506e-07
137	0x34dbc44c	4.0934754e-07
138	0x34775b8f	2.3036976e-07
139	0x352b1c48	6.374362e-07
140	0x34c0c5e7	3.590678e-07
141	0x3690580a	4.3017835e-06
142	0x32dd2f4d	2.5749296e-08
143	0x36424400	2.8947834e-06
144	0x35f4dd14	1.8243759e-06
145	0x358ff4cd	1.0725577e-06
146	0x36351e72	2.6988823e-06
147	0x36353725	2.70032e-06
148	0x344e8352	1.9233019e-07
149	0x35a0383d	1.1937296e-06
150	0x33e4d99e	1.0656662e-07
151	0x33c637db	9.2302535e-08
152	0x35442791	7.3073267e-07
153	0x35a2d738	1.2132577e-06
154	0x358422b7	9.84487e-07
155	0x3642f35a	2.9049902e-06
156	0x35f6e84d	1.8396037e-06
157	0x3662a5fb	3.3773238e-06
158	0x33f63e70	1.1466625e-07
159	0x3518dd71	5.694665e-07
160	0x333f7344	4.4575486e-08
161	0x33e3dd14	1.0610725e-07
162	0x3530461d	6.566714e-07
163	0x33d8d139	1.0096341e-07
164	0x354f4f75	7.7229134e-07
165	0x33f127b7	1.1229661e-07
166	0x34213b71	1.5015918e-07
167	0x350a4dd0	5.152224e-07
168	0x3379e849	5.8186092e-08
169	0x32affb6a	2.0487011e-08
170	0x32c7dcd3	2.3267068e-08
171	0x35969439	1.1219009e-06
172	0x359dd415	1.1759136e-06
173	0x34338ba3	1.6721474e-07
174	0x35bb696c	1.3963268e-06
175	0x34068f05	1.2531753e-07
176	0x34937fda	2.7473908e-07
177	0x34a18636	3.0086238e-07
178	0x3448e02d	1.8708006e-07
179	0x3471cefb	2.2520173e-07
180	0x31853f0a	3.877976e-09
181	0x341706d4	1.4065455e-07
182	0x32bfd38c	2.2331527e-08
183	0x3484fada	2.4769435e-07
184	0x33ce2ea3	9.601106e-08
185	0x3245183d	1.147242e-08
186	0x349098f9	2.6933392e-07
187	0x34c4278e	3.6536625e-07
188	0x33b7c8e5	8.558144e-08
189	0x34ce4192	3.84182e-07
190	0x33dd67e3	1.0310011e-07
191	0x33fe10c1	1.1830844e-07
192	0x3378cf63	5.7930617e-08
193	0x33aa029e	7.916718e-08
194	0x342e79df	1.6249349e-07
195	0x3454b70f	1.9810635e-07
196	0x33d57697	9.940157e-08
197	0x33bc4e11	8.7686324e-08
198	0x34115f87	1.353893e-07
199	0x33070d31	3.1444134e-08
200	0x35964d0a	1.1198292e-06
201	0x334a3f18	4.7089173e-08
202	0x35cc379b	1.5215368e-06
203	0x33f105ad	1.12234694e-07
204	0x36e50801	6.8256636e-06
205	0x3449a7e6	1.8780665e-07
206	0x356fe14a	8.9362277e-07
207	0x35475b2f	7.4265967e-07
208	0x3592331a	1.089272e-06
209	0x356e5290	8.8782053e-07
210	0x35fc29e6	1.8787657e-06
211	0x36f9dad9	7.4462555e-06
212	0x3673e248	3.6341535e-06
213	0x3614e059	2.2184306e-06
214	0x371488b5	8.853317e-06
215	0x35e0a3d4	1.6736981e-06
216	0x3569d820	8.711377e-07
217	0x3480a432	2.3961326e-07
218	0x33c699f9	9.248101e-08
219	0x34887de3	2.542357e-07
220	0x33c3b4cf	9.113284e-08
221	0x35ca5d6f	1.5077366e-06
222	0x32b313e1	2.0847382e-08
223	0x360b8710	2.079123e-06
224	0x350ab830	5.1677034e-07
225	0x3519463f	5.7099163e-07
226	0x35ceb4f2	1.5400858e-06
227	0x34dea948	4.147389e-07
228	0x34545136	1.9773583e-07
229	0x35752a55	9.1331214e-07
230	0x3381d393	6.045516e-08
231	0x32ac467f	2.0055493e-08
232	0x34a87cd2	3.1383257e-07
233	0x3504a13f	4.9408476e-07
234	0x3520a899	5.9849987e-07
235	0x35ca1d84	1.5058763e-06
236	0x353753a1	6.829451e-07
237	0x35d9ab33	1.6217585e-06
238	0x34295c6d	1.5772976e-07
239	0x347eebaa	2.3741327e-07
240	0x365ec5c4	3.3195693e-06
241	0x3533ee0d	6.7029106e-07
242	0x363aba2b	2.7824524e-06
243	0x35e02699	1.6700534e-06
244	0x36ad4c6d	5.164699e-06
245	0x334519e8	4.58912e-08
246	0x35a64485	1.2387906e-06
247	0x342b0cce	1.5930274e-07
248	0x35e2fab9	1.6911282e-06
249	0x363dbb73	2.8272304e-06
250	0x37051af3	7.933692e-06
251	0x375a8973	1.3025815e-05
252	0x362f7904	2.6147472e-06
253	0x36b3b592	5.3557533e-06
254	0x37834286	1.5647394e-05
255	0x3682206a	3.8780754e-06

exp_avg f4 [40]
0	0x386274e5	5.3991465e-05
1	0x3907d992	0.00012955655
2	0x39ab08f2	0.00032622326
3	0xb8912681	-6.921311e-05
4	0xb7a09ed5	-1.9147448e-05
5	0x38f32f31	0.00011595933
6	0x388c3bf8	6.68689e-05
7	0x38e662fc	0.00010985692
8	0x37368e48	1.0881173e-05
9	0x38523e32	5.0125826e-05
10	0xb84274c9	-4.636197e-05
11	0x37a69809	1.9859539e-05
12	0x39837481	0.0002507307
13	0xb847c6b5	-4.7630358e-05
14	0x39d8c834	0.00041347893
15	0xb806e340	-3.2159733e-05
16	0x38de7506	0.00010607582
17	0xb70cdc5f	-8.395959e-06
18	0xb863df62	-5.432906e-05
19	0x3961f2f4	0.00021548179
20	0xb847745c	-4.7553665e-05
21	0x3992c970	0.00027997373
22	0xb9825375	-0.00024857713
23	0x39f63121	0.0004695738
24	0xb91aed5a	-0.00014775005
25	0xb6820319	-3.8746625e-06
26	0x39c0b248	0.00036753924
27	0xb9b51c21	-0.00034543968
28	0x399666f9	0.0002868695
29	0x37ac5b9d	2.0546659e-05
30	0xb89f8d81	-7.608068e-05
31	0x3696c620	4.493413e-06
32	0x36608756	3.3457377e-06
33	0xb8f185e2	-0.00011516713
34	0xb925cfed	-0.00015813085
35	0x3805bbc4	3.188454e-05
36	0x39cb3b0b	0.00038763168
37	0xb8389f59	-4.4017423e-05
38	0x397c4fd1	0.00024062327
39	0x38734897	5.800332e-05
