modelos/heat_10x2-20000.pt (torch, 9198 bytes, 15 tensors)

linears.0.weight f4 [10, 2]
00000000: 5095 8cbd 42a9 13bf 3d7a 6d3e c338 68bf
00000010: a048 ecbe b28b c23d 1136 603f b620 383f
00000020: 76b8 363e feaa 923f 88e1 553f be02 803f
00000030: 95e0 17be e53c 07c0 a4cb 943f bff6 343f
00000040: d7ef a53f 548f 0bc0 04b0 073f c8bc f13f
-0.068644166 -0.5768014 0.23191161 -0.9071161 -0.46149158 0.09499301 0.875825 0.7192491
0.17843804 1.1458433 0.8354726 1.0000837 -0.14831765 -2.1130917 1.1624646 0.70689005
1.2963818 -2.180623 0.53002954 1.8885736

linears.0.bias f4 [10]
00000000: b95e 513e 477b 9abd 0b8a b23e 8b20 0e3f
00000010: f862 aa3d 402e 1a3d 9cc0 a33c bf3c 83bf
00000020: 6370 08bf 70d3 4e3e
0.2044629 -0.075430445 0.34870943 0.55518407 0.08319658 0.037641764 0.019989304 -1.0252913
-0.5329649 0.20197845

linears.1.weight f4 [10, 10]
00000000: 0552 083f cb83 7b3f bd2f 2abf c79d b6be
00000010: 925b 13bf 7824 dd3e e4d4 1b40 7aa2 093f
00000020: 9611 68bf 296c 22be 74bb 473c 3f51 45bf
00000030: abc7 8d3f 46b7 1fbe b9d9 9a3d 4941 ae3e
00000040: 549e b13e ed92 8f3f 3af9 2fbf 70e4 083f
00000050: 9eff 53be 7f8c 9a3e b441 033f f97a 54be
00000060: 9628 27bf 48ab 8bbf a249 973f d92c d1bf
00000070: fd48 1c40 3a90 89bf 9872 92bd 6ecb 91be
00000080: ef9b e2be 1290 8d3e 0fd3 2cbf 1bf3 cf3e
00000090: 51b3 9fbe a089 33be 08b8 41be 16f7 bbbe
000000a0: 4e48 7fbe 112f 0f3f 8d97 b33e 54d4 9c3e
000000b0: dab9 c3be 99e3 82bf 2d63 6abe fc59 b2bf
000000c0: e209 d53f 1876 13bf dbef 23bf 4382 d9bf
000000d0: 58d2 153f 91a9 4f3e a8f0 133f 7178 693e
000000e0: c41b 67c0 2993 8cbf 8858 193f 7444 e33e
000000f0: 32c8 4c3f e9b3 543e 6b11 24be bc27 393e
00000100: 21b1 4f3f 39bd 58bf c666 c2bf 207e 1c3e
00000110: 7775 86bf bde9 16be 5017 be3e 3372 8c3c
00000120: dcf6 92bd 6877 45bf 102e 26bf a5d7 5e3e
00000130: e724 ce3e 25ca 81be 3128 8bbf 6f15 4abf
00000140: 2153 aabd 3d20 943f c561 13bf bc54 37bf
00000150: 616d 35bf 8213 9b3e f15d 7840 c499 62bf
00000160: 31b6 5fbe 5491 a1bf b6c9 1c3f 8657 723e
00000170: f532 e03e 4093 d0bd 7023 4cbf bca8 803d
00000180: 8e26 cb3f e354 e23e 0532 483e 573c ee3c
0.5325015 0.98247975 -0.6647909 -0.3566725 -0.575616 0.43191886 2.4348688 0.53763545
-0.90651834 -0.15861572 0.012190688 -0.77077097 1.1076559 -0.15597257 0.075610586 0.34034184
0.34691107 1.1216713 -0.68739665 0.5347357 -0.20702979 0.30185315 0.5127213 -0.20750035
-0.65296304 -1.0911646 1.1819346 -1.6341811 2.4419549 -1.074714 -0.07150763 -0.28475517
-0.44259593 0.2764898 -0.6750955 0.40615162 -0.31191495 -0.17532969 -0.18917859 -0.3671195
-0.24929926 0.5593119 0.35076562 0.30630744 -0.3822773 -1.0225707 -0.22889395 -1.3933711
1.6643641 -0.5760207 -0.64037865 -1.6992878 0.58524084 0.20279528 0.5778909 0.22799851
-3.6110697 -1.098241 0.5990071 0.44388163 0.79992974 0.20771755 -0.1602227 0.18081564
0.8112965 -0.8466373 -1.5187614 0.15282488 -1.0504597 -0.14737602 0.3712716 0.017144298
-0.07175991 -0.77135324 -0.64914036 0.2176195 0.4026253 -0.25349537 -1.087164 -0.78938955
-0.08316637 1.1572338 -0.5757106 -0.7161367 -0.70870024 0.3028832 3.8807337 -0.8851588
-0.21846844 -1.2622476 0.61245286 0.236662 0.43788877 -0.10184336 -0.79741573 0.062821835
1.5871141 0.44205388 0.19550331 0.029081507

linears.1.bias f4 [10]
00000000: fc4a 1b3d ed5f de3e f9b9 25bf 10c4 61bf
00000010: d487 c3be cc56 82bd 14bb b83e 27e1 bcbe
00000020: 881b 5abf b799 493c
0.037913308 0.4343256 -0.64736897 -0.8818979 -0.38189566 -0.063642114 0.3608023 -0.36890528
-0.8519826 0.012304715

linears.2.weight f4 [1, 10]
00000000: f5cf a9bf b43b 9cbf 213f d53f b640 c43e
00000010: 9f90 ef3f 750e 473f ec12 343f 7775 5ebf
00000020: 487f 4fbf 8794 5ebf
-1.3266588 -1.220572 1.665989 0.3833062 1.871601 0.77756435 0.7034137 -0.8689799
-0.8105359 -0.86945385

exp_avg f4 [10, 2]
00000000: ab9d 70b7 40d3 7237 e4ff 1637 6b27 1b37
00000010: d48e cb36 3497 ab35 4717 9936 a480 5e36
00000020: eb3b c5b6 f81e d335 cc46 b1b7 2bda fdb7
00000030: 964b 9336 28c1 0b38 d29b 4d37 3bc1 9f37
00000040: 5322 4738 69a3 1b38 d402 87b5 ad33 25b7
-1.4341825e-05 1.44735095e-05 9.000276e-06 9.247898e-06 6.066499e-06 1.2784499e-06 4.562465e-06 3.3155457e-06
-5.878033e-06 1.5729738e-06 -2.1133012e-05 -3.0261543e-05 4.3897408e-06 3.3320073e-05 1.2255232e-05 1.9044257e-05
4.7477264e-05 3.7107067e-05 -1.0059107e-06 -9.846798e-06

exp_avg_sq f4 [10, 2]
00000000: 1cd1 b638 a549 f236 bca2 4937 be35 d635
00000010: c6de 1938 a256 db35 fa17 6536 f47a c235
00000020: 3c32 6837 c6f5 da35 33ee 3739 5750 0438
00000030: ec6f 183b bbc7 0839 a6cf 073b a78e d438
00000040: 550a 3f3a 8632 fc38 9f3f 3439 da6b 0237
8.717386e-05 7.2207354e-06 1.2018423e-05 1.5959884e-06 3.6685517e-05 1.6341985e-06 3.4137615e-06 1.448991e-06
1.3839974e-05 1.6313795e-06 0.00017540976 3.1546075e-05 0.002326007 0.00013044376 0.0020723133 0.00010135519
0.00072876114 0.00012025707 0.00017189838 7.773715e-06

exp_avg f4 [10]
00000000: 1a0d 2cb8 5789 8fb7 815d 14b7 271c f436
00000010: 1f1f 9c37 dfe6 0538 5fe0 09b8 f4ee 1439
00000020: afd6 c238 7c9e ba36
-4.1020197e-05 -1.7110882e-05 -8.843258e-06 7.275044e-06 1.8611141e-05 3.1924686e-05 -3.2872307e-05 0.00014203397
9.290629e-05 5.561682e-06

exp_avg_sq f4 [10]
00000000: 92dd 833a 502e 9f39 98c5 333a 7221 ae39
00000010: 62de 2f39 8839 7e3b 9995 8a3c 353c 833b
00000020: a10c 033c 032a 423a
0.001006054 0.0003036135 0.0006857752 0.00033212785 0.00016772145 0.0038791616 0.016917037 0.00400498
0.007998616 0.0007406773

exp_avg f4 [10, 10]
00000000: fd1c 6db5 3fbb 6936 7db8 34b6 84d9 a537
00000010: 7cac fa36 efab a637 2858 27b6 de15 22b8
00000020: 344b 8cb5 cef8 0137 29f8 2e35 0afe 3637
00000030: eb86 1ab7 80e5 4437 3240 d4b5 47f8 ba36
00000040: 0e2e aa37 c4ff 0ab8 692a ccb7 21cf cab6
00000050: 1b1f 98b6 40b9 beb5 8854 76b6 b394 a437
00000060: 15f9 0b37 7545 bb37 7112 5fb7 286e 5db7
00000070: b587 85b5 e0a9 9537 de89 7fb5 e860 10b7
00000080: 4437 bfb5 bd1d 1cb6 b647 2f35 1864 ffb6
00000090: c5e9 ed36 0e06 92b3 a4cc 7eb6 b732 2bb6
000000a0: 0f05 cc35 892a 8837 34b4 63b7 8c0f d937
000000b0: 84a6 9035 f16f 3d37 cba9 d537 6a4b bb36
000000c0: 20f8 4cb8 3dd0 c036 6bc9 cd36 e3ab 8636
000000d0: e335 6636 b070 7d37 bd13 88b6 affc 0937
000000e0: f37f 3f37 84e7 c736 6fe8 0137 71a2 2b36
000000f0: 2893 96b6 8ab0 43b7 76cb c336 df12 fab6
00000100: 64c6 20b6 1450 8437 6fdb c3b6 504c cab5
00000110: 19e6 ce37 5296 9636 5131 93b6 8a67 6cb6
00000120: 71bf c7b6 9e7c b034 e6ef 9c36 f35f 00b7
00000130: 1416 d4b6 99db a837 0fb9 d2b7 feb6 2635
00000140: 2d0e 7035 5c51 e4b6 912a e436 7a41 20b7
00000150: 99a0 2536 d974 f9b6 da50 b2b6 6ddc 49b5
00000160: 1b83 28b5 7d07 4435 f6d4 4fb7 badd 2bb6
00000170: 7fb1 67b7 bea5 e4b7 4b30 d636 d7b3 a2b7
00000180: 8251 83b7 78e0 6db5 3084 26b8 952f 62b7
-8.8331564e-07 3.4828697e-06 -2.6929476e-06 1.9770821e-05 7.4706604e-06 1.9868805e-05 -2.4936253e-06 -3.8644175e-05
-1.04527e-06 7.7469285e-06 6.518117e-07 1.0907193e-05 -9.210528e-06 1.1735945e-05 -1.5813914e-06 5.5721353e-06
2.0287025e-05 -3.3139964e-05 -2.4338444e-05 -6.044182e-06 -4.533574e-06 -1.4210018e-06 -3.670606e-06 1.9619567e-05
8.34304e-06 2.232448e-05 -1.32961295e-05 -1.3198274e-05 -9.948768e-07 1.7841288e-05 -9.5195526e-07 -8.605632e-06
-1.4246693e-06 -2.3263121e-06 6.5296933e-07 -7.6112447e-06 7.0903648e-06 -6.799756e-08 -3.7968066e-06 -2.5510506e-06
1.5200657e-06 1.623227e-05 -1.3572211e-05 2.5875655e-05 1.0777298e-06 1.1291341e-05 2.5470645e-05 5.5818136e-06
-4.8868475e-05 5.746288e-06 6.132924e-06 4.0135214e-06 3.4304037e-06 1.5106212e-05 -4.0554137e-06 8.224669e-06
1.1414278e-05 5.957614e-06 7.743117e-06 2.557554e-06 -4.4874796e-06 -1.1664009e-05 5.835139e-06 -7.4527775e-06
-2.3957336e-06 1.5772916e-05 -5.8369983e-06 -1.5072383e-06 2.4664261e-05 4.487848e-06 -4.3866826e-06 -3.5227008e-06
-5.952949e-06 3.2873226e-07 4.67709e-06 -7.651734e-06 -6.3206626e-06 2.0129419e-05 -2.5120125e-05 6.210611e-07
8.9427596e-07 -6.804401e-06 6.799885e-06 -9.551988e-06 2.4680396e-06 -7.434381e-06 -5.3142257e-06 -7.5199097e-07
-6.277566e-07 7.3026587e-07 -1.2387745e-05 -2.5610047e-06 -1.38099995e-05 -2.7256898e-05 6.383319e-06 -1.939565e-05
-1.5654372e-05 -8.8616025e-07 -3.9700593e-05 -1.3481728e-05

exp_avg_sq f4 [10, 10]
00000000: ebe1 a337 6521 6436 1f2d 1d37 ba28 0339
00000010: 93eb 1e35 57f9 4437 0fe5 2737 4af2 9c38
00000020: 5335 0337 84e5 7d37 48ec 5037 d234 2437
00000030: 319a 1435 fc37 2838 7c15 9435 de5b ee35
00000040: 2a47 d737 df2b 4d37 3af8 6138 780c a534
00000050: 3fb2 f037 b418 a035 3d08 ba37 98ac a739
00000060: 81e0 1337 41a6 6538 0a81 9935 d623 3f39
00000070: 02a8 2434 374a 9638 60fc cf34 8b53 7c35
00000080: e68c 7e32 469a 6535 d1e4 ca35 f9f6 fc35
00000090: e599 9636 03a2 d132 d1d5 9236 fc8f 3e36
000000a0: db80 2138 89c4 4237 661d 5337 398e 4139
000000b0: 3906 ac32 a8e0 3937 dc46 2038 d299 e538
000000c0: 3287 2838 8102 4637 ba23 a936 8700 fb34
000000d0: 6f24 2c36 4edb 8238 15eb 0a36 fe64 5e37
000000e0: 40ea d933 6b69 bb37 36ad 9e35 d188 8437
000000f0: 4252 3836 2e32 7536 c47a 2334 fb4a b837
00000100: 2308 7132 641d c836 990e 7436 2da0 5734
00000110: ab07 f037 0730 2c36 a588 4036 50a3 0e34
00000120: 316a 0b37 a7e4 4d34 17ef 6f35 ad71 1137
00000130: 5e38 9436 6628 1538 10b2 3b37 2565 1736
00000140: 2abb 0b36 e039 c033 736f 9436 fd3d 6137
00000150: 7fb9 9934 7d46 8b34 f35d ed33 296d cf37
00000160: ebf5 c436 dac2 0536 eab7 1637 3903 8a36
00000170: af12 ae35 5563 6038 3270 3533 4da7 d836
00000180: 5b73 0637 e4f1 8337 79dc ab37 96a1 b136
1.9536315e-05 3.3994086e-06 9.368435e-06 0.00012508305 5.920239e-07 1.1740564e-05 1.00073075e-05 7.4837895e-05
7.820624e-06 1.5133413e-05 1.245278e-05 9.78746e-06 5.5358674e-07 4.010646e-05 1.1033112e-06 1.7759119e-06
2.5663136e-05 1.2229167e-05 5.387536e-05 3.0742717e-07 2.8693232e-05 1.1928119e-06 2.2176764e-05 0.00031981315
8.814154e-06 5.475269e-05 1.1436944e-06 0.0001822853 1.5334811e-07 7.166381e-05 3.8740382e-07 9.3998887e-07
1.48167825e-08 8.5533645e-07 1.5116767e-06 1.8847342e-06 4.488264e-06 2.4404477e-08 4.3760306e-06 2.8396016e-06
3.8505397e-05 1.16090605e-05 1.2583425e-05 0.00018458896 2.0026265e-08 1.1079166e-05 3.8212966e-05 0.00010948222
4.018023e-05 1.1802303e-05 5.0407516e-06 4.6752777e-07 2.5651204e-06 6.239732e-05 2.0700438e-06 1.3255745e-05
1.014746e-07 2.2341226e-05 1.1822328e-06 1.5799336e-05 2.7466017e-06 3.6537053e-06 1.522522e-07 2.1969425e-05
1.4029896e-08 5.963886e-06 3.636733e-06 2.0081707e-07 2.86138e-05 2.5657953e-06 2.8689767e-06 1.3284193e-07
8.30977e-06 1.9175296e-07 8.938236e-07 8.669141e-06 4.4173057e-06 3.5561992e-05 1.1187527e-05 2.2559627e-06
2.0821558e-06 8.951224e-08 4.423718e-06 1.3425478e-05 2.8633437e-07 2.5942055e-07 1.1053262e-07 2.4727155e-05
5.869884e-06 1.9931963e-06 8.983518e-06 4.1130957e-06 1.2969448e-06 5.3498272e-05 4.2244388e-08 6.456778e-06
8.013881e-06 1.5729056e-05 2.0487454e-05 5.293822e-06

exp_avg f4 [10]
00000000: 4f88 9337 a032 3a37 72ef 5bb6 422a 9f36
00000010: c1bc 9d37 bcb9 7a37 b2ac d4b7 6c68 99b5
00000020: 12d9 2237 f498 e8b7
1.758724e-05 1.1098251e-05 -3.2772919e-06 4.7434887e-06 1.8803754e-05 1.4944406e-05 -2.5352787e-05 -1.1429779e-06
9.706493e-06 -2.772778e-05

exp_avg_sq f4 [10]
00000000: 0833 c239 8008 1239 327d 453a c9fa 0533
00000010: 9b43 1f3a 3efb 1239 ed19 3a38 3524 de37
00000020: 207a 4e38 e84a 1e39
0.00037040585 0.00013926812 0.0007533609 3.1194563e-08 0.00060754427 0.0001401724 4.437e-05 2.6481322e-05
4.9227965e-05 0.00015095959

exp_avg f4 [1, 10]
00000000: aeb9 93b5 c50c f237 7a49 5bb8 039a 10b7
00000010: d9b5 0fb8 3cdf d2b7 9ff5 6eb8 9afa 8c38
00000020: 3dea a036 c18a 0c38
-1.1006393e-06 2.8854594e-05 -5.22821e-05 -8.6189275e-06 -3.4263216e-05 -2.5137902e-05 -5.6972374e-05 6.7223984e-05
4.7956405e-06 3.3507826e-05

exp_avg_sq f4 [1, 10]
00000000: 8d65 bb38 2b01 6c38 517f 7c38 d9e9 4737
00000010: 099e 6c39 50fb 3738 5ed6 3839 4cc2 2738
00000020: 0805 b236 1d0d 4239
8.93577e-05 5.6267872e-05 6.0200055e-05 1.1915771e-05 0.00022565587 4.3864653e-05 0.00017627465 3.9996856e-05
5.305399e-06 0.00018506167
