modelos/heat_10x5-20000.pt (torch, 19686 bytes, 33 tensors)

linears.0.weight f4 [10, 2]
000000 ff f8 40 3d 06 9c c4 3e f1 e1 98 3e 98 97 65 3f
       0.04711246 0.38400286 0.2985988 0.8968444
000010 d7 eb 31 3f 5e 4b a3 bf f4 4d 79 be ef b8 b4 3e
       0.6950049 -1.2757375 -0.24346143 0.35297343
000020 5e bf c4 3e a9 84 97 3e 74 63 c4 bd 96 a4 5e 3f
       0.38427252 0.295934 -0.09589282 0.8696989
000030 58 7f c2 3e 00 17 23 3f 59 7b 07 bf d2 91 fb be
       0.3798778 0.6370697 -0.5292259 -0.4913469
000040 a5 7e 71 3f 20 83 d9 be b9 09 0a be 21 87 db be
       0.9433387 -0.42482853 -0.13480271 -0.42876533

linears.0.bias f4 [10]
000000 7e 20 48 3d 9f 42 81 3c 2f 74 a0 bd 3b 5d 64 3d
       0.048859112 0.015778838 -0.0783466 0.055752974
000010 d2 f5 f5 bc 3d eb 7b bc 29 c8 94 3c b7 a4 c1 bd
       -0.030024443 -0.015375909 0.01816185 -0.09455245
000020 a6 c4 41 3c e7 1f b3 3c
       0.01182667 0.021865798

linears.1.weight f4 [10, 10]
000000 ea cb de bd 69 f4 be 3e 28 36 b1 bc ef 01 b5 be
       -0.10878737 0.37295845 -0.021632269 -0.35353038
000010 28 38 40 3f 89 a3 d3 3c 51 ab 0a 3f 4e 59 1f 3e
       0.7508569 0.025834816 0.5416766 0.15561411
000020 28 4b d6 be 2f ef a2 be 00 12 62 3e 17 6a 20 bf
       -0.41854215 -0.31823108 0.22077179 -0.6266188
000030 60 22 d0 3d b9 d3 ac 3e c2 a1 a2 3e 91 1a 4f 3c
       0.101628065 0.33755282 0.31764036 0.012640611
000040 4e 08 9b be 0c 93 e7 3d 61 e8 54 3b de ee 8e be
       -0.30279773 0.11307344 0.0032487141 -0.27916616
000050 85 62 8b 3e c4 2e 94 be 99 96 a7 be d1 b4 f7 be
       0.27223602 -0.2894193 -0.32732084 -0.4838014
000060 9c 34 83 3e 2f 29 d9 be 35 84 86 be 55 8d 86 be
       0.25626075 -0.42414233 -0.2627274 -0.26279703
000070 16 d3 ab 39 83 7b 82 3e 01 8b 40 bf 57 29 d5 be
       0.00032772933 0.25484857 -0.75212103 -0.41633102
000080 ec dc 0c be f1 73 fe be 0c a5 48 be 0e 9e d4 be
       -0.1375615 -0.4969783 -0.1959421 -0.41526836
000090 0e 64 80 3d 4f 10 73 be e4 e6 27 3e 9d 41 57 3d
       0.06269084 -0.2373669 0.16396672 0.052552808
0000a0 af 67 ce 3d e5 a8 49 3e e8 e9 af 3e 4a 1c d6 3e
       0.1007837 0.19693334 0.34358144 0.41818458
0000b0 8f 5b 40 3e 69 f2 40 be 76 3d a1 3e 56 13 af bd
       0.18784927 -0.18842472 0.31492203 -0.0854861
0000c0 44 58 07 3f 5e ab 04 bd 12 f1 8b be 43 62 3a bf
       0.5286906 -0.03238999 -0.2733236 -0.72806185
0000d0 62 2d e9 3c 7d e5 6e 3e 92 71 c5 be c5 0c 0f bd
       0.028464023 0.2332973 -0.3856321 -0.034924287
0000e0 38 49 19 bf 33 0a 26 3f 14 6c 2a bf 6b e8 c8 3b
       -0.5987735 0.6485931 -0.66571164 0.006131222
0000f0 04 68 dc 3e 82 e5 b1 3e 1c fc bc be ab 2f b6 be
       0.43048108 0.34745413 -0.36911094 -0.35583243
000100 c6 ca a9 3e a8 fd dc be 85 a0 d2 3b 4b ed f0 be
       0.33162516 -0.43162274 0.006427827 -0.4705604
000110 c1 d3 15 bf 96 eb aa 3d 0c 0b 73 3e a6 e1 4f bd
       -0.58526236 0.08345716 0.23734683 -0.050752304
000120 ea ed 1e bf 2e 81 a2 3e 6d f4 3a 3d 1e e9 bd 3e
       -0.6208178 0.3173918 0.04564326 0.37091917
000130 9f a2 b6 3d 43 b2 e4 bd 8a 67 c3 3e df 07 76 3e
       0.08917736 -0.11166813 0.38164932 0.2402644
000140 6d 71 6b be 04 d6 30 3e e7 08 21 3e d9 0b 20 be
       -0.22992487 0.1726914 0.15726052 -0.1562952
000150 6d 1d 24 3e 9f bd af be 91 67 31 3e 3e 51 8d 3e
       0.1602685 -0.34324357 0.17324664 0.27601045
000160 b9 45 b4 3d c9 3e 89 bd 46 7a f7 3e 82 d0 8b 3e
       0.08802361 -0.067014284 0.48335475 0.27307516
000170 a1 ad 3c bf 69 c4 85 bd a9 c1 ad 3e 49 0e 97 bc
       -0.73702437 -0.06531603 0.33936813 -0.018439429
000180 5c 44 5e 3e 75 73 b6 be 8a e9 42 bd b8 54 32 bf
       0.21705765 -0.35634962 -0.047586 -0.6966052

linears.1.bias f4 [10]
000000 7c 81 73 3d b3 78 dd bc f9 a7 df bc 05 d4 aa 3b
       0.059449658 -0.027035093 -0.027301775 0.005213263
000010 65 0d d5 3c 54 b6 c3 bd 54 2b 93 3d 3e f7 85 3e
       0.026007364 -0.09556261 0.071859986 0.26165193
000020 a3 e2 d0 3c 43 20 81 bc
       0.025498694 -0.015762454

linears.2.weight f4 [10, 10]
000000 44 4d 9d be 86 11 ec 3e da 92 45 3f e4 b0 c4 be
       -0.30723011 0.4610712 0.771772 -0.38416207
000010 08 13 8e 3e 13 9f 07 3f 61 01 75 be b4 62 eb bc
       0.27748895 0.52977103 -0.23926307 -0.028733589
000020 f9 c8 85 be 44 3c 7d 3d d8 1e 95 3b 3e 41 b1 3e
       -0.26129892 0.061825052 0.004550796 0.34620088
000030 14 d2 c0 3e a5 c4 27 3c 8b b3 0e bf 49 1a b1 3e
       0.37660277 0.010239755 -0.5574271 0.34590366
000040 b2 9c f3 be 14 c6 82 be 22 38 c4 be c7 be 67 3e
       -0.47580487 -0.25541747 -0.38324076 0.2263137
000050 11 ea de 3e be 39 2f 3e b1 88 cb 3e e4 c2 50 3e
       0.43537953 0.1711187 0.39752725 0.20386845
000060 76 10 ba bc 49 e4 b4 3e 70 16 43 3e 9e c7 86 3f
       -0.022712927 0.35330418 0.19051528 1.0529668
000070 59 e5 15 3e 58 cb cc bd e9 6b c7 3e d7 d7 06 be
       0.1463827 -0.09999722 0.38949516 -0.13168274
000080 fb 7f 94 3e 5c 82 21 3e 6e 9a e2 be ce 23 ab 3d
       0.2900389 0.15772384 -0.44258446 0.083564386
000090 1c ff 68 3f 30 fc f9 bd c5 36 c9 3c 62 6e 2c 3f
       0.91014266 -0.12206304 0.024562249 0.6735593
0000a0 b3 bf b8 be 96 eb f7 3e 2f ac ad be 6e ff 53 be
       -0.36083755 0.48421925 -0.33920428 -0.20702907
0000b0 c2 ac f5 be 3f 6f 27 bf 85 5a d7 bd f4 60 bf 3e
       -0.47983366 -0.65404123 -0.10515312 0.37378657
0000c0 06 ef 5e bf 74 0e f1 3d 20 88 c2 be c2 03 f6 bc
       -0.8708347 0.11770335 -0.3799448 -0.030031089
0000d0 b9 c6 2a 3f 65 32 92 3f fd f7 37 be 25 6b 30 be
       0.66709477 1.1421629 -0.17965694 -0.17228372
0000e0 b0 bb e3 3e 91 45 8b be ce 27 8a 3e a9 f0 3e bf
       0.44479132 -0.27201512 0.26983494 -0.7458597
0000f0 ff 43 0c 3f 64 a5 03 bf bc 51 e8 be 7b 14 1a 3e
       0.54791254 -0.5142424 -0.45374858 0.15046875
000100 3a 1d ad 3e 19 4e 26 bf e7 7b e1 bd 08 a4 5e bd
       0.3381136 -0.6496292 -0.110099606 -0.05435565
000110 35 17 41 3e ec da 28 bf e9 21 4c 3f ba b3 1c be
       0.18856509 -0.6595905 0.7973924 -0.15302935
000120 8b b2 e7 3e 73 b2 d0 3e 17 62 3c be b4 52 a4 3e
       0.45253405 0.40761146 -0.18396793 0.32094347
000130 05 37 55 3f 9e 8e 00 bd 96 02 8a 3e 9f 95 d1 3e
       0.8328708 -0.03138601 0.26955098 0.40934464
000140 75 b6 3c bf e6 87 5f 3e 6c d9 f2 be 6e fa f6 3e
       -0.7371591 0.21829185 -0.47431505 0.48237938
000150 47 cd fc 3d da f6 b3 3d f6 06 e1 be b8 e6 4b bf
       0.12343841 0.087873176 -0.43950623 -0.79648924
000160 b6 76 07 3f 11 b6 e2 be 07 61 5e bf 7c 64 81 3e
       0.52915514 -0.4427953 -0.868668 0.25271976
000170 84 31 08 bf 5e 83 87 be 55 63 14 3d 76 41 29 be
       -0.53200555 -0.26467413 0.036227543 -0.16528878
000180 43 b8 98 3c dc 72 c0 3e 9a 5f eb bd 33 38 cb be
       0.01864255 0.3758763 -0.11492844 -0.39691314

linears.2.bias f4 [10]
000000 32 08 64 3e 0c 56 a7 bd de 41 2f bb 2e 7f 44 3e
       0.22268751 -0.08170709 -0.002674214 0.1918914
000010 67 35 1a 3d d0 a9 8d bd 5c 4d 4b 3d 97 53 91 3d
       0.037648585 -0.06917155 0.049634323 0.070960216
000020 08 c9 f9 bd 72 48 23 3d
       -0.12196547 0.03986401

linears.3.weight f4 [10, 10]
000000 f0 ab 6e be 5a 58 f1 3e 36 3b 5c 3d b7 a4 ed be
       -0.23307776 0.4713772 0.053767405 -0.4641473
000010 21 16 9c be 06 49 29 3f e7 85 cb 3e 99 28 eb be
       -0.30485633 0.6612705 0.39750597 -0.4592941
000020 35 cf c8 3e 29 9c 18 bf d0 a1 f9 3e ab 1a 1f 3f
       0.39220586 -0.5961328 0.48756266 0.6215007
000030 14 75 a5 bb 9a e0 4a be cd 74 77 3e 80 b9 7d 3e
       -0.005049357 -0.19812241 0.2416565 0.24777794
000040 0a 44 4f bf d4 aa c4 be 44 ba 90 3e 82 33 c7 3e
       -0.80963194 -0.38411582 0.2826711 0.38906485
000050 21 c5 54 3e 7a 42 5d be b9 bd 4b 3d 1a 01 18 bf
       0.20778324 -0.2160739 0.04974148 -0.5937668
000060 da 00 cc 3e f5 3d 98 be 3b 7c e1 3d 37 be ef be
       0.398444 -0.2973477 0.11010023 -0.4682481
000070 51 2f 49 bd ab 18 91 3f c7 8f 03 3f 44 88 01 bd
       -0.04911739 1.1335653 0.5139126 -0.031624094
000080 d3 99 f4 3b 97 1c d1 bc b7 07 0b 3e 72 ad 5c 3f
       0.0074646263 -0.025526328 0.13577162 0.86202157
000090 be 64 e8 b9 4a 45 5b 3f e5 22 ae 3e 33 56 d1 be
       -0.00044325547 0.856526 0.34010997 -0.40886077
0000a0 f7 cf ab bc 72 59 2a bf 5f 6a 50 3f 0c f7 0c 3f
       -0.020973189 -0.6654273 0.8141231 0.55064464
0000b0 ce 38 61 be de e9 05 3e f1 de 08 be ba ec 10 3f
       -0.21994326 0.13077495 -0.13366295 0.56611216
0000c0 e4 7e 72 be 4c 33 72 be 96 fd c6 be 9f 58 1b 3e
       -0.23681217 -0.2365238 -0.38865346 0.15170525
0000d0 68 c2 79 3d df 29 d7 bd c2 58 03 3e d5 0e f8 3d
       0.060976416 -0.10506033 0.12826827 0.12112204
0000e0 d1 dd ea 3d cc 7c 18 bf 90 b8 ec 3e 16 82 85 3e
       0.11468089 -0.59565425 0.4623456 0.2607581
0000f0 82 ae e2 3d 11 81 43 be 34 58 de be 32 10 c4 be
       0.11068441 -0.19092204 -0.4342667 -0.38293606
000100 ac e4 de 3e 32 b9 16 3f d1 83 59 3d 17 cc 7d bf
       0.43533838 0.58876336 0.053104226 -0.9913954
000110 f9 9b 3d 3f eb 4c bf 3e 91 eb ce 3e ad ec 1c be
       0.7406612 0.3736337 0.40414098 -0.1532466
000120 6d b6 7e 3e 16 41 80 be c9 95 ef bd 6d f6 2e be
       0.24874277 -0.25049657 -0.11698491 -0.17086191
000130 e7 60 4f 3d 53 b5 68 bf 9b 87 0d 3e 3b 0a 74 3f
       0.050629523 -0.9090168 0.1382126 0.9532811
000140 16 f0 4a 3e 46 52 d6 be 98 c2 d3 3e c1 47 15 bf
       0.19818148 -0.41859645 0.413594 -0.5831261
000150 5d 62 11 3d d0 60 c4 3e da 3b 65 be 61 27 5d be
       0.035494197 0.38355112 -0.22386113 -0.21597053
000160 47 d2 18 3f b0 db cc 3d e6 8c 15 3e d2 fc 27 3e
       0.5969586 0.100028396 0.1460453 0.16405037
000170 2c dc 3d be ce 66 17 bd 0b ef c5 3e 3b 1f 94 bf
       -0.1854102 -0.036963277 0.38658938 -1.1572031
000180 df 71 a0 3e 67 93 87 be 7e 27 9f be 6a e9 ee 3d
       0.31336877 -0.26479647 -0.31084818 0.11665614

linears.3.bias f4 [10]
000000 d0 d9 c2 bd 06 af 96 bd 5c fc a6 3d ce 73 1a bd
       -0.09514201 -0.07357602 0.081536025 -0.037708096
000010 31 eb 25 bc 59 7c f3 3b a7 9d 54 bd a1 68 36 3c
       -0.010126875 0.007430595 -0.05190816 0.011133344
000020 6c df 8f bd 9d 12 98 3d
       -0.07025036 0.07425425

linears.4.weight f4 [10, 10]
000000 28 78 4f 3e 8d b1 3b be bf 4b 14 3f a2 e3 0e 3e
       0.2026068 -0.18329449 0.5792808 0.13954023
000010 0b 81 ae be a9 64 33 3e 4e a2 b9 3e ae 46 c7 3e
       -0.34082827 0.17518868 0.3625664 0.38921112
000020 f7 f4 96 3d 80 df ab 3e 88 28 5c 3f f8 48 c2 be
       0.07370942 0.33568954 0.85999346 -0.37946296
000030 8b 3f 0c 3f 41 78 ab be 6f d0 7e bf d1 43 ba 3e
       0.5478446 -0.33490184 -0.99536794 0.36379865
000040 60 a1 ee bc ed 64 c5 3e f2 34 3c 3e 08 c9 7d 3e
       -0.029129684 0.38553563 0.18379572 0.24783719
000050 e0 25 bd 3e 2d 6f 9f 3e 4b dd e6 be 01 52 0e 3f
       0.3694296 0.31139508 -0.45090708 0.5559388
000060 4e f1 f7 3e 08 69 31 3e d6 83 c7 3e cf 16 f7 be
       0.48426288 0.17325222 0.3896777 -0.4825959
000070 e8 ea b5 3e a0 ad c9 bf 22 2b cb be 34 14 b5 be
       0.35530782 -1.5756111 -0.39681345 -0.35366976
000080 c3 c4 97 3e 30 91 dc be 81 7d cb be 02 ef e9 3d
       0.29642305 -0.4307952 -0.3974419 0.1142254
000090 f0 d1 ee be 33 bd 32 3e d8 97 b2 3e f4 e0 e8 be
       -0.46644545 0.17454986 0.34881473 -0.45484126
0000a0 bd 90 56 bf ff 57 2d bf 22 35 54 3f 5e 87 e8 bd
       -0.83814603 -0.67712396 0.82893574 -0.11353944
0000b0 1d 54 d0 be a7 4e 10 be d5 04 f9 3d 87 17 94 be
       -0.40689173 -0.14092503 0.12159125 -0.289242
0000c0 cc f2 f7 3c 84 98 ae 3f 0b 07 35 3f d6 fa c5 bb
       0.030267142 1.3640294 0.7071387 -0.006041865
0000d0 88 23 6d bd da 60 d8 3e 3f c3 eb bd 09 5b ce 3e
       -0.057895213 0.42261392 -0.115118496 0.4030383
0000e0 3a a5 e7 be 71 47 4d bd 9f 17 d9 bd 3d 58 a9 be
       -0.45243245 -0.05011696 -0.106002085 -0.33075133
0000f0 99 45 78 3f c1 68 6c bd 2c d9 5b 3e 56 80 f2 be
       0.969812 -0.05771709 0.21469563 -0.47363538
000100 48 53 39 bf 2d 87 0e 3f f9 08 90 3f ed 3e cd 3e
       -0.723927 0.5567501 1.1252738 0.4008707
000110 52 24 6a 3e 66 cb 17 bd bb 31 74 3e 93 48 1f 3e
       0.22865418 -0.03705921 0.23847096 0.15555029
000120 3b 83 2e bf e0 0d 65 3d 54 19 0a bf 04 58 12 bf
       -0.6816899 0.055921435 -0.539449 -0.5716555
000130 64 b4 5d 3c 21 90 26 be 45 d2 c6 bd 6e c7 07 3e
       0.013531778 -0.16265918 -0.097080745 0.1325967
000140 e8 08 28 3f df 25 a3 3e c6 29 35 3e 44 a4 12 3f
       0.6563859 0.3186483 0.17691717 0.572819
000150 d2 13 0c 3f 56 90 64 be ab fd cc bd 3b 96 58 be
       0.54717743 -0.22320685 -0.10009321 -0.21151058
000160 c0 71 4e 3e b4 e8 19 bf ac 6a 17 bf 9a a5 a0 3e
       0.2016058 -0.601207 -0.59147143 0.31376344
000170 b7 ff b5 bf 10 36 09 3e 57 26 1c 3e 79 d0 99 3d
       -1.4218663 0.1339953 0.15249 0.07510466
000180 31 a6 26 bf bf af c1 be 60 5c 08 3e c2 05 3a bf
       -0.6509734 -0.37829396 0.13316488 -0.72665036

linears.4.bias f4 [10]
000000 2b a0 45 bd bc 14 06 bc 77 ab ce bd d9 5e 70 3c
       -0.04824845 -0.008183654 -0.10091298 0.014671051
000010 09 eb 67 3c 43 01 e5 3b e1 08 97 ba 88 98 d7 bd
       0.014155158 0.006988676 -0.0011523032 -0.1052714
000020 11 6f 25 bc 65 6e 88 be
       -0.010097281 -0.26646724

linears.5.weight f4 [1, 10]
000000 09 6e 73 3f 10 f6 26 3f 62 38 aa be 32 20 05 bf
       0.95089775 0.6521921 -0.33246142 -0.5200225
000010 4d 44 30 3f 99 d0 69 bf a4 f4 1e 3f b6 37 36 3f
       0.6885422 -0.9133392 0.6209204 0.7117876
000020 14 5e 4a bf 77 f0 8b be
       -0.790498 -0.27331898

exp_avg f4 [10, 2]
000000 02 b4 d3 3a 20 bd bd b8 25 d0 25 bb 4f 7d 38 3a
       0.0016151669 -9.0474496e-05 -0.0025301066 0.00070377154
000010 ac aa cb 3b cd 82 07 bb 45 50 8b 3c 47 10 70 bb
       0.006215414 -0.0020677329 0.017006049 -0.0036630796
000020 0b dd 1c bc 99 54 19 3b 3d 73 5b 3c 01 36 29 bb
       -0.009574185 0.0023396371 0.013394174 -0.0025819542
000030 41 55 68 bb 12 70 60 3a 69 3e aa 3b 04 b6 91 ba
       -0.0035451206 0.00085616217 0.005195428 -0.0011116867
000040 09 ab 86 3b dc 77 ea ba e7 14 13 b8 24 68 e7 b9
       0.0041097444 -0.0017888504 -3.5066998e-05 -0.00044137344

exp_avg_sq f4 [10, 2]
000000 6e 8e 77 3a 47 76 d5 36 83 58 11 3b 24 28 2e 39
       0.0009443526 6.361664e-06 0.0022178001 0.00016608887
000010 99 59 6d 3c 85 99 ca 3a db b5 cb 3d f8 26 95 3b
       0.014486694 0.0015457129 0.099467956 0.0045517646
000020 df 40 01 3d 30 7a f4 3a 3d d5 7a 3d 47 b0 13 3b
       0.031556007 0.0018652137 0.061238516 0.002253549
000030 60 87 8f 3b 17 08 85 39 e8 d3 18 3c 1b 13 df 39
       0.0043801516 0.00025373764 0.009327866 0.0004254811
000040 11 db b8 3b 55 a2 96 3a 95 f3 9f 35 30 76 8b 38
       0.005641349 0.001149247 1.1917315e-06 6.650051e-05

exp_avg f4 [10]
000000 7f 22 45 3b 86 15 88 ba 6d 14 6d 3c c7 a9 f9 3c
       0.0030080376 -0.0010382391 0.014470202 0.030476464
000010 3d a4 88 bc a5 24 c7 3c c4 bc 6d bb a5 51 18 3c
       -0.016679877 0.024309466 -0.0036275843 0.009296809
000020 47 21 55 3c 6d 1d 13 38
       0.013008422 3.5074936e-05

exp_avg_sq f4 [10]
000000 b4 83 78 3b cd a4 9b 39 ec a3 96 3d 5d d1 a7 3e
       0.0037920298 0.0002968669 0.07355484 0.3277692
000010 fb 63 c5 3d 98 e3 54 3e f9 57 94 3b cb f0 f8 3c
       0.096382104 0.20789945 0.0045270887 0.030388257
000020 b4 d3 6d 3d 79 79 12 35
       0.058063224 5.4566004e-07

exp_avg f4 [10, 10]
000000 3d 66 9f b9 38 98 63 ba 3b 97 d8 bb ff f7 00 3b
       -0.00030403017 -0.0008682045 -0.006609825 0.0019679067
000010 11 b9 09 bb 8d 3b 3a 3b b2 af 06 bb 87 a0 8f 3b
       -0.002101485 0.0028416843 -0.00205515 0.00438315
000020 a2 9f ea bb e5 c8 97 b8 da c6 be 38 9f 1e a8 39
       -0.007160143 -7.2376606e-05 9.096945e-05 0.00032066272
000030 6a c1 0c 3b f3 9c 2e ba f9 6e 3d 3a 41 02 69 ba
       0.0021477588 -0.00066609605 0.0007226314 -0.00088885805
000040 11 26 36 3a 2b f4 b6 ba 12 f2 13 3b 13 7a 38 b7
       0.00069484214 -0.0013958266 0.0022574705 -1.0995677e-05
000050 6f 19 2a ba 5b 0b c4 ba 61 fc de bb 69 63 02 3b
       -0.0006488775 -0.0014956997 -0.0068049883 0.001989568
000060 76 75 25 bb dd d3 39 3b d5 2e 32 bb 92 98 b0 3b
       -0.0025247014 0.002835504 -0.0027188559 0.0053892815
000070 ff 86 00 bc a6 fc f8 38 be be 1e ba 16 89 bf ba
       -0.007844686 0.00011872621 -0.00060556445 -0.0014612998
000080 03 81 c4 bb 40 a5 ec 3a e1 4f 19 bb de 9f 1f 3b
       -0.0059968247 0.001805462 -0.0023393559 0.0024356763
000090 c7 da 24 bb a8 fe 9c 3b 29 f6 dd bb d8 f8 46 39
       -0.0025154816 0.0047910996 -0.0067737293 0.00018975453
0000a0 63 24 c8 37 54 ef 12 b8 85 76 63 3a d4 1f 67 b9
       2.3858802e-05 -3.5032004e-05 0.00086770236 -0.00022041734
0000b0 bb 1b 20 39 03 5d ff b9 32 ff 17 39 7b bd 07 ba
       0.0001526912 -0.0004870669 0.0001449555 -0.0005178076
0000c0 f1 e4 64 3a 97 ac df 38 5b d5 13 b9 b4 aa de b6
       0.00087316247 0.00010665616 -0.00014098494 -6.635988e-06
0000d0 81 82 3c ba 47 34 ba 38 32 3d b7 b8 18 69 07 3a
       -0.00071910775 8.8789086e-05 -8.7375185e-05 0.00051655015
0000e0 8a 23 4a b9 4f 75 43 3a 4b 0c 76 ba 44 5f 21 b9
       -0.0001927746 0.000745614 -0.0009385987 -0.00015389646
0000f0 ae 07 1b ba aa 82 be ba 49 d4 f0 bb 9f 1c 0e 3b
       -0.0005913925 -0.001453479 -0.007349525 0.002168454
000100 96 8d 2c bb 16 30 48 3b d2 2d 35 bb 72 88 b5 3b
       -0.002632951 0.003054624 -0.002764572 0.005539947
000110 60 d8 08 bc b4 5e ba 38 9b a8 35 b7 0d 35 54 b7
       -0.008352369 8.886811e-05 -1.0827697e-05 -1.26485365e-05
000120 41 66 9f 38 55 2a 4f b8 63 2d bb 37 2d 0c a1 b8
       7.600757e-05 -4.939207e-05 2.2313272e-05 -7.679346e-05
000130 0a a7 cd 36 b2 60 08 b7 6e 56 91 b8 86 b4 3e 37
       6.128922e-06 -8.128745e-06 -6.9302376e-05 1.1366914e-05
000140 55 6c 93 b9 48 8d 35 ba 18 e0 5f bb a4 87 86 3a
       -0.0002811874 -0.00069256546 -0.003416067 0.0010263813
000150 17 0b a2 ba 23 79 bb 3a c8 d2 a9 ba e0 62 27 3b
       -0.0012362924 0.0014303069 -0.0012956494 0.0025541112
000160 83 a8 74 bb 36 11 55 38 72 00 99 37 6d 8a 6e 38
       -0.0037331886 5.0799186e-05 1.8239229e-05 5.687254e-05
000170 3b b1 09 bb 28 a8 1a 3a b5 f4 e2 b9 3f 2c 8a 3a
       -0.0021010179 0.0005899691 -0.000432884 0.0010541751
000180 01 0e b9 b9 12 43 92 3a 9d dd 0d bb 78 69 44 b9
       -0.00035296383 0.0011158905 -0.0021646984 -0.00018731307

exp_avg_sq f4 [10, 10]
000000 10 a7 04 38 ca 38 8c 39 21 d2 78 3c 30 7e ad 3a
       3.162684e-05 0.00026745192 0.015186817 0.0013236459
000010 59 f1 c7 3a 75 1e 34 3b f8 d2 c1 3a d2 52 da 3b
       0.0015254422 0.0027483974 0.0014787605 0.006662705
000020 ac 9e 91 3c b4 61 02 36 30 a9 43 36 4e e1 18 38
       0.017775856 1.942838e-06 2.9155744e-06 3.6449455e-05
000030 07 08 d4 3a ee 03 21 39 56 21 3f 39 0f 3d 8e 39
       0.0016176709 0.0001535562 0.00018227598 0.00027129843
000040 05 51 32 39 08 ea 32 3a 3c a0 eb 3a 21 e4 cb 33
       0.00017005585 0.00068250345 0.0017976831 9.4944205e-08
000050 81 3c 1a 39 c3 c0 4d 3a 89 1d 82 3c 4e dd ae 3a
       0.00014709124 0.0007848853 0.015883224 0.00133411
000060 08 9f 0e 3b 8d e9 32 3b 74 a3 28 3b a6 e8 24 3c
       0.002176227 0.0027299852 0.0025732191 0.010065233
000070 f3 b4 ad 3c d6 3d ac 36 3e 3c 04 39 4c 2f 3e 3a
       0.021204447 5.133198e-06 0.00012610943 0.00072549726
000080 08 46 4a 3c f3 2c 90 3a 8d d0 f2 3a 8d be 06 3b
       0.012345798 0.0010999724 0.0018525288 0.0020560354
000090 f8 ad 0e 3b ad 42 02 3c a1 8a 81 3c 5c 83 37 37
       0.0021771174 0.007950467 0.015813174 1.09382345e-05
0000a0 40 f9 51 34 f7 89 f4 34 c6 b4 86 39 57 62 87 37
       1.9555318e-07 4.5548924e-07 0.00025693158 1.6139047e-05
0000b0 91 33 fe 36 c4 24 ac 38 dd 71 f2 36 6e 68 c2 38
       7.575793e-06 8.208447e-05 7.2254174e-06 9.2700924e-05
0000c0 c7 40 85 39 4d c1 8c 36 70 aa d7 36 8d 5b 53 32
       0.00025416 4.1948283e-06 6.427341e-06 1.2302633e-08
0000d0 3f f8 31 39 68 4d 29 36 cd 5c 14 36 16 ee c1 38
       0.00016972514 2.5228019e-06 2.2107736e-06 9.247304e-05
0000e0 c1 ad 4c 37 a9 61 44 39 d3 21 98 39 47 14 18 37
       1.2199803e-05 0.00018728398 0.000290169 9.064627e-06
0000f0 4e f0 f8 38 cb 9d 3e 3a f7 d4 96 3c 08 70 ce 3a
       0.00011870322 0.0007271438 0.018412096 0.0015749941
000100 f0 11 1a 3b 29 95 4d 3b ed 13 2c 3b 46 f9 2b 3c
       0.0023509227 0.0031369424 0.0026256994 0.010496443
000110 28 74 c3 3c f7 d2 52 36 92 8a 9c 32 04 0a ec 33
       0.023859099 3.1415236e-06 1.8223805e-08 1.0991428e-07
000120 b5 62 16 36 3a bb 55 35 29 ea 25 34 6c 82 f8 35
       2.2409197e-06 7.9621134e-07 1.545201e-07 1.8515398e-06
000130 78 d8 4b 33 fb bf a8 33 3f 05 25 36 d0 0b 2a 33
       4.7461498e-08 7.858031e-08 2.458997e-06 3.9591953e-08
000140 f5 d1 de 37 a7 a1 27 39 20 d7 82 3b b4 bb ba 39
       2.6562231e-05 0.00015986581 0.00399293 0.00035616534
000150 70 a6 07 3a e0 2b 39 3a f2 3e 16 3a d0 0b 13 3b
       0.00051746424 0.0007063728 0.00057314255 0.002243746
000160 51 26 9d 3b 53 69 52 35 36 98 ac 33 c7 39 0e 35
       0.0047958274 7.8384363e-07 8.037061e-08 5.29832e-07
000170 c5 6d d6 3a a3 82 03 39 a3 57 99 38 b1 2e c9 39
       0.0016359618 0.000125418 7.311932e-05 0.00038372495
000180 0a cf 55 38 d5 57 f1 39 97 1c e2 3a 04 ec 36 37
       5.0975978e-05 0.00046032542 0.0017250952 1.0902997e-05

exp_avg f4 [10]
000000 1b ab 6b bc 64 8b 88 3b 09 5e 96 bc c6 d8 81 bc
       -0.014384056 0.0041670073 -0.018355386 -0.015850436
000010 7d 74 34 3b 31 5b a6 bb a3 85 96 bc dc 33 27 39
       0.0027535253 -0.005076789 -0.01837427 0.0001594568
000020 39 e0 0c bc c5 bc 93 bb
       -0.008598381 -0.004508587

exp_avg_sq f4 [10]
000000 a1 3c 93 3d 61 0c c9 3b 85 29 f3 3d 5a b4 b7 3d
       0.071892984 0.006135509 0.118731536 0.08969946
000010 cb 4b 31 3b 86 59 12 3c 0d 54 ee 3d 92 dd 74 37
       0.0027053233 0.008932477 0.11637125 1.4595122e-05
000020 40 24 d5 3c c6 c1 e9 3b
       0.026018262 0.0071336953

exp_avg f4 [10, 10]
000000 a8 87 e6 b8 7d 38 9a 38 b9 af 89 38 56 c0 3d 39
       -0.000109925226 7.353814e-05 6.5654e-05 0.00018096095
000010 be 77 35 b8 7d c2 a7 39 e7 fc 13 b9 88 75 8f b9
       -4.326528e-05 0.00031997627 -0.00014113226 -0.00027362653
000020 fd 13 e1 38 38 c5 a7 b9 91 e8 67 38 e2 a9 cb b8
       0.00010732559 -0.00031999662 5.5291286e-05 -9.7114375e-05
000030 ed fe 93 37 d3 d3 00 39 5b 1f d0 39 d1 ca 0a ba
       1.7642475e-05 0.00012285942 0.00039696213 -0.0005294504
000040 4b 69 65 37 5a fc 40 39 cb fa 1b 39 46 d3 92 b8
       1.3673979e-05 0.00018404555 0.0001487538 -7.001175e-05
000050 87 6a c8 b9 1e dd 05 3a 59 94 e9 b8 b0 5c 28 ba
       -0.00038226342 0.00051064964 -0.00011137938 -0.0006422503
000060 0e 61 03 bb 44 ad 25 3b a0 e9 57 b8 dc 37 3d ba
       -0.0020046863 0.0025280276 -5.1477575e-05 -0.00072181015
000070 76 14 57 ba 16 62 a0 39 78 f6 1e b9 4e bd c1 39
       -0.0008204648 0.00030590658 -0.00015159871 0.00036952872
000080 c2 11 3d b9 60 d0 48 ba 7d 40 f2 ba c3 49 17 3b
       -0.0001803106 -0.0007660445 -0.0018482354 0.0023084737
000090 db dd f8 38 fe 5b f8 b9 fa 09 50 ba 07 50 1f 3a
       0.00011866885 -0.00047370786 -0.0007936057 0.00060772937
0000a0 f3 db b3 39 36 9d e3 b9 db 1d d9 38 54 82 0e 3a
       0.00034305415 -0.00043413945 0.00010352927 0.00054362905
0000b0 55 c3 d7 3a 2b 2e 06 bb 73 cf 9c 38 cc e2 1d 3a
       0.0016461412 -0.0020474296 7.4773e-05 0.000602287
0000c0 f9 60 34 3a 05 1b 82 b9 73 75 60 ba 75 20 6c 3a
       0.0006880905 -0.00024815663 -0.0008562423 0.0009007522
0000d0 f6 e3 d4 b8 9c bc 3b ba 06 74 37 bb 92 c0 64 3b
       -0.00010151409 -0.0007161589 -0.002799274 0.003490482
0000e0 17 92 f0 b9 47 03 c2 ba ba c6 91 ba fe 11 76 b7
       -0.00045885213 -0.0014802002 -0.0011121847 -1.4666932e-05
0000f0 4f 1c a8 b8 26 25 87 b8 22 75 99 38 ab 9e 55 39
       -8.016137e-05 -6.444221e-05 7.317426e-05 0.00020372371
000100 44 a0 9c 39 38 04 b7 b9 ca ed d1 38 2b e5 e8 39
       0.00029874046 -0.00034907623 0.00010010188 0.00044421232
000110 19 ae 09 39 54 27 5a b9 a5 ff 19 ba 93 f4 82 3a
       0.00013130195 -0.00020804751 -0.0005874581 0.0009991102
000120 56 43 af b9 e7 d7 d0 ba 02 e2 8e bb ac 67 b4 3b
       -0.0003342877 -0.0015933485 -0.0043604383 0.0055055227
000130 39 39 42 38 0d e5 bd ba 95 e2 ec ba 73 4c 87 3a
       4.6306497e-05 -0.0014487818 -0.0018072898 0.0010322466
000140 e4 6d 93 37 db 03 f8 b8 df 70 1d 38 d1 79 66 39
       1.7574937e-05 -0.0001182628 3.7536836e-05 0.0002197989
000150 46 f2 36 3a 71 0e 8b ba a1 67 b7 b8 65 83 43 39
       0.00069788506 -0.0010609162 -8.7454224e-05 0.00018645597
000160 a8 0c 71 39 eb bd 28 b9 ea e9 1d 39 32 24 d8 b9
       0.00022988266 -0.00016092478 0.00015059827 -0.00041225698
000170 e8 19 8f 39 84 b0 8a 3a 36 92 0b 3b 73 7b 18 bb
       0.00027294387 0.001058117 0.0021296865 -0.002326694
000180 d6 95 2f b9 3d 92 e4 39 04 06 89 3a ae b4 77 ba
       -0.00016745119 0.00043596505 0.0010454063 -0.00094492256

exp_avg_sq f4 [10, 10]
000000 42 f6 8e 36 ad 3b fe 35 09 63 de 35 16 5b 47 37
       4.260598e-06 1.8941843e-06 1.6569112e-06 1.1882532e-05
000010 b8 76 cc 34 d5 07 fc 37 97 ff e7 36 fc b1 d2 37
       3.808434e-07 3.0044388e-05 6.914091e-06 2.5116831e-05
000020 39 d0 86 36 60 a5 1d 38 94 83 6b 35 27 90 59 36
       4.0177515e-06 3.7585734e-05 8.7735793e-07 3.2419427e-06
000030 89 a0 68 34 58 21 cb 36 9b 19 6a 38 32 12 d5 38
       2.1665086e-07 6.053753e-06 5.5813794e-05 0.000101600206
000040 67 fc 4b 33 e5 fe 4a 37 db 63 08 37 d6 a4 00 36
       4.749418e-08 1.20994855e-05 8.129481e-06 1.9169433e-06
000050 40 99 50 38 a2 cb bf 38 a6 63 94 36 bc 23 16 39
       4.973379e-05 9.145519e-05 4.4223443e-06 0.00014318427
000060 ce cd b4 3a 6a 99 12 3b 04 b8 8e 35 10 83 4b 39
       0.0013794245 0.0022369274 1.063338e-06 0.00019408413
000070 0e 26 71 39 4f 66 0a 38 54 af 0e 37 2f d2 4b 38
       0.00022997728 3.2997046e-05 8.504681e-06 4.859472e-05
000080 77 88 23 37 02 24 52 39 a9 06 9b 3a 17 20 ef 3a
       9.74733e-06 0.00020040575 0.0011827546 0.0018243816
000090 83 9f c9 36 6a a7 a8 38 6c 01 6b 39 71 56 0a 39
       6.0088364e-06 8.0420476e-05 0.00022411876 0.00013192907
0000a0 40 5e 24 38 2c 2d 87 38 65 e6 5c 36 f9 99 ce 38
       3.9188424e-05 6.4457156e-05 3.2916662e-06 9.851525e-05
0000b0 1a 87 6f 3a 83 e2 b9 3a 71 81 dc 35 10 1e 07 39
       0.0009137258 0.0014181886 1.642895e-06 0.00012885802
0000c0 1c 43 28 39 db af b6 37 e4 78 80 39 56 7e 95 39
       0.00016046729 2.177798e-05 0.00024504133 0.00028513622
0000d0 8f be 80 36 70 12 3d 39 d8 d2 30 3b 5c 86 8c 3b
       3.836881e-06 0.00018031313 0.0026981141 0.004288478
0000e0 1f ae a3 38 68 8c 58 3a 51 6d df 39 2f 43 a4 34
       7.804878e-05 0.0008260668 0.00042615322 3.0596263e-07
0000f0 1f 5e 0e 36 69 e7 ce 35 ce fc 06 36 e9 01 72 37
       2.1214435e-06 1.5415545e-06 2.0114708e-06 1.4424769e-05
000100 46 0d fa 37 a2 b0 2c 38 ce 52 83 36 56 f9 93 38
       2.9808503e-05 4.1172498e-05 3.913744e-06 7.055949e-05
000110 fe 83 c3 36 3a 95 7a 37 9c 50 f9 38 5b 0f b9 39
       5.826819e-06 1.4935906e-05 0.0001188826 0.0003529739
000120 7d 95 14 38 04 86 63 3a 3b b5 d6 3b 62 7f 2b 3c
       3.542517e-05 0.00086793327 0.006552366 0.010467382
000130 8d cf 81 35 c0 0a 4c 3a d7 30 95 3a 64 29 c4 39
       9.671654e-07 0.00077835843 0.0011382353 0.00037414872
000140 e8 df d2 34 5e 1d bd 36 c7 e3 95 34 bf 7b 7b 37
       3.927846e-07 5.6360577e-06 2.7919143e-07 1.4989578e-05
000150 62 65 38 39 d1 bc cf 39 a1 a3 39 36 14 90 5b 37
       0.00017585375 0.00039622796 2.7662393e-06 1.3086963e-05
000160 13 bc 9c 37 aa 99 e0 36 23 5c 0c 37 9c a5 80 38
       1.8684228e-05 6.693609e-06 8.3661025e-06 6.134363e-05
000170 78 66 c7 37 79 15 c8 39 22 03 cd 3a 45 ac f4 3a
       2.3770364e-05 0.0003816297 0.0015641192 0.0018667063
000180 10 15 1d 37 81 c3 9f 38 23 55 ca 39 f8 df a6 39
       9.362833e-06 7.618126e-05 0.00038591874 0.00031828857

exp_avg f4 [10]
000000 9a 3b 31 b9 c3 54 88 3a c1 ac 9a bb cf b6 87 bb
       -0.00016902239 0.0010401238 -0.004720301 -0.0041416655
000010 06 15 83 3b 08 e3 ff bb ab d9 0a 3b 05 aa 28 bc
       0.004000309 -0.0078090467 0.002118687 -0.010294442
000020 ef a6 9b 3a da ac aa 3b
       0.0011875312 0.005208594

exp_avg_sq f4 [10]
000000 b2 1e 04 37 be 50 c6 39 aa ee fe 3b c8 f1 c2 3b
       7.87496e-06 0.0003782566 0.007779916 0.0059492327
000010 0d 5d b1 3b ef 55 b3 3c 5e d6 cd 3a c0 b9 17 3d
       0.005412704 0.021891562 0.0015704145 0.03704238
000020 25 49 f4 39 4f 31 1f 3c
       0.00046593804 0.009716346

exp_avg f4 [10, 10]
000000 0e d6 15 38 8f 9d bc b8 4c e6 c1 b8 15 68 82 b9
       3.5723722e-05 -8.993886e-05 -9.245853e-05 -0.0002487308
000010 b0 12 d2 b7 29 d4 b9 39 e3 28 40 39 bb d6 66 b9
       -2.5042653e-05 0.0003544402 0.00018325778 -0.00022014503
000020 2d b2 81 39 19 07 10 39 c6 16 ad b8 fd f6 95 39
       0.0002473755 0.00013735554 -8.253525e-05 0.00028603515
000030 41 8f 5a b9 82 43 2b b9 76 cd 07 b9 ff b3 be 37
       -0.00020843466 -0.0001633298 -0.00012951143 2.2733582e-05
000040 e1 64 1a b9 d3 f3 a5 b8 f5 30 ad 39 5d 80 0f b9
       -0.00014724165 -7.913229e-05 0.00033033607 -0.00013685362
000050 a8 df 25 39 4f 2b 61 b9 6c e1 87 b8 8a ad a9 b9
       0.00015818945 -0.00021473806 -6.47929e-05 -0.0003236349
000060 e7 97 c3 b9 c4 d4 3d 3a d3 ad 7a 39 24 10 2a b9
       -0.00037306474 0.00072414824 0.00023906612 -0.00016218476
000070 0e 7c b4 39 03 b2 f7 38 91 73 a4 39 1f a2 b5 3a
       0.00034424703 0.00011811035 0.0003136662 0.001385752
000080 1b d5 53 b9 36 b9 38 b9 1d 0c 76 b8 58 c1 51 b8
       -0.00020201916 -0.00017616604 -5.8662252e-05 -5.000955e-05
000090 f9 17 aa ba 76 f7 ed b8 f8 29 4f 3a 15 cb f4 b8
       -0.0012977115 -0.00011347134 0.0007902677 -0.000116726536
0000a0 15 a4 84 39 24 c4 d8 3a 65 2b f0 b8 5f 48 2c 39
       0.00025299253 0.0016537947 -0.00011452175 0.00016430159
0000b0 94 df e2 38 6c ea 21 ba 5e d3 d7 ba d5 89 0d 39
       0.000108181644 -0.0006176594 -0.001646619 0.00013498154
0000c0 77 91 03 3a 0d 3d 94 b9 2b 95 76 b9 45 da ef b9
       0.00050189294 -0.00028274246 -0.00023515958 -0.00045748256
0000d0 ea 43 33 38 a1 a6 9e 38 cd 2b b4 39 21 6e 61 b9
       4.2740176e-05 7.565064e-05 0.0003436491 -0.00021498698
0000e0 2f 94 05 3a b8 47 56 b8 a6 a5 a2 b9 bc 1b be 38
       0.00050956284 -5.108837e-05 -0.00031022466 9.065072e-05
0000f0 d1 44 c0 b9 c4 03 fa ba 8b 63 fe 38 81 ce 04 b9
       -0.00036672366 -0.0019074609 0.00012130205 -0.0001266543
000100 a4 0c 61 b8 5e 4f 11 3a 62 09 fc 3a d3 8e 02 b9
       -5.3655953e-05 0.00055431377 0.001922887 -0.00012450972
000110 77 dd 2b ba 43 21 94 39 30 c8 c9 38 a3 d0 da b9
       -0.0006556133 0.00028253542 9.621715e-05 -0.00041735647
000120 77 f6 b7 b7 e1 e5 9b b9 83 b9 88 b9 20 0c 28 3a
       -2.193007e-05 -0.00029735177 -0.00026078158 0.0006410498
000130 a0 38 e1 39 dc 70 3b b9 0a 36 4b 39 5f 19 31 39
       0.00042957533 -0.00017875753 0.0001937972 0.00016889487
000140 92 77 b8 b8 0a 2d 8d b8 18 75 52 b8 d9 6f 3b b8
       -8.7960754e-05 -6.731793e-05 -5.0176954e-05 -4.468844e-05
000150 2b 57 9a 38 71 3e 25 b8 9f e9 08 39 fb 44 84 b8
       7.3595285e-05 -3.939722e-05 0.00013057001 -6.307099e-05
000160 25 03 14 37 19 91 f7 36 e2 3f b9 b9 49 9e 24 bb
       8.82222e-06 7.378065e-06 -0.00035333546 -0.002511876
000170 26 0d f5 39 6c d2 ab 39 94 7c 5e b9 57 75 d6 39
       0.00046739838 0.00032772438 -0.00021217979 0.00040904686
000180 15 13 11 3b 0c b2 a9 39 e2 2c b4 ba cc 99 59 39
       0.0022136618 0.00032366847 -0.0013746286 0.00020752026

exp_avg_sq f4 [10, 10]
000000 95 5e b3 34 bf 4e 18 36 da 13 52 36 06 9b c3 37
       3.3410166e-07 2.2695601e-06 3.1303994e-06 2.3318e-05
000010 95 6f b8 34 26 4c 1d 38 4f e4 2e 37 7a 2b 92 37
       3.4353857e-07 3.7502636e-05 1.0424365e-05 1.7424802e-05
000020 c7 2a b2 37 0c 96 cc 36 89 75 22 36 a0 54 f7 37
       2.1239173e-05 6.0971415e-06 2.4208296e-06 2.9484101e-05
000030 ea 68 83 37 02 16 20 37 4a 45 c7 36 be 6a 46 34
       1.5665271e-05 9.541867e-06 5.9387285e-06 1.847902e-07
000040 39 e6 fa 36 d2 fa 1a 36 f8 04 21 38 7e f9 d9 36
       7.477382e-06 2.3093785e-06 3.839002e-05 6.4961487e-06
000050 ba b6 12 37 6b 21 8b 37 da f8 73 35 49 b5 1a 38
       8.7448225e-06 1.6585653e-05 9.088668e-07 3.6885296e-05
000060 ad 5e 51 38 9d 6b 38 39 f3 cb a2 37 0c a2 0e 37
       4.9917657e-05 0.00017587696 1.9406876e-05 8.501589e-06
000070 67 72 25 38 a1 02 a2 36 d7 28 09 38 39 22 33 3a
       3.944561e-05 4.8282823e-06 3.270138e-05 0.00068334077
000080 93 c9 90 37 bc af 3b 37 c8 36 be 35 81 2f 8c 35
       1.7260003e-05 1.1186985e-05 1.4172047e-06 1.0444638e-06
000090 b3 d1 1a 3a 0c 31 9b 36 c9 b4 6d 39 34 24 b7 36
       0.00059058814 4.62507e-06 0.00022669429 5.4580396e-06
0000a0 06 e4 b5 37 f5 e4 79 3a dd 59 c8 36 07 12 1a 37
       2.1683063e-05 0.00095327134 5.970926e-06 9.183313e-06
0000b0 29 97 8d 36 e6 32 07 39 9b bf 76 3a 9e ec cb 36
       4.219725e-06 0.00012893564 0.0009412707 6.0774173e-06
0000c0 d1 4a c2 38 ca ab ef 37 58 1a 88 37 89 10 8c 38
       9.2645765e-05 2.8571016e-05 1.622473e-05 6.6788e-05
0000d0 24 b9 0b 35 5d 6d f0 35 5b a8 07 38 2e ea 81 37
       5.205095e-07 1.7913222e-06 3.23433e-05 1.5487047e-05
0000e0 3c 7d a9 38 24 d3 74 35 6f b4 0e 38 08 2e 27 36
       8.081875e-05 9.1204333e-07 3.402348e-05 2.4911733e-06
0000f0 e1 3e 55 38 3e 92 a7 3a d8 a6 d4 36 49 d8 b8 36
       5.0841718e-05 0.0012784672 6.3375155e-06 5.508806e-06
000100 31 2e 32 35 36 4e c5 38 05 d7 a9 3a 94 e7 b4 36
       6.6377385e-07 9.40826e-05 0.0012957758 5.3913773e-06
000110 d3 44 29 39 ce 03 e7 37 a8 49 5a 36 d5 e3 84 38
       0.00016142735 2.7539118e-05 3.2527405e-06 6.3366875e-05
000120 f1 a2 bc 33 ba 14 01 38 61 7b c8 37 b5 e5 18 39
       8.784071e-08 3.07753e-05 2.389931e-05 0.00014581422
000130 3f 61 8e 38 83 9b 3a 37 ec 73 48 37 98 29 34 37
       6.789201e-05 1.1122672e-05 1.1947919e-05 1.073852e-05
000140 11 a8 3f 36 de 35 c6 35 e6 68 8a 35 4b 00 39 35
       2.8559045e-06 1.4767827e-06 1.0312331e-06 6.8918297e-07
000150 ee f0 d9 35 9e 95 26 35 25 88 c6 36 15 7c b5 35
       1.623788e-06 6.205754e-07 5.916709e-06 1.3521664e-06
000160 3e 28 f0 32 65 68 ee 31 c3 28 2f 38 ba 47 12 3b
       2.7957977e-08 6.93858e-09 4.1761214e-05 0.0022320584
000170 31 8f b6 38 18 c5 1b 38 e1 b4 30 37 4a 39 73 38
       8.705108e-05 3.7138438e-05 1.0532532e-05 5.798907e-05
000180 2a 03 e2 3a a6 e6 0d 38 7f fa 31 3a d3 fe 9d 37
       0.0017243375 3.3831828e-05 0.0006789341 1.883452e-05

exp_avg f4 [10]
000000 6e 5f 0f 39 2a 60 71 ba 3d 6f 50 3a 9e 3f 2b bb
       0.00013673093 -0.000920775 0.0007951146 -0.0026130448
000010 0f d1 53 bb 63 19 e6 39 8a 24 68 3b a3 74 93 3a
       -0.0032320654 0.00043887933 0.003542217 0.001124997
000020 28 43 ed b8 70 77 b0 3b
       -0.000113135495 0.005385332

exp_avg_sq f4 [10]
000000 b8 a6 90 36 51 64 9d 39 ca 08 7b 39 af 67 1f 3b
       4.310943e-06 0.00030020115 0.000239405 0.0024323275
000010 f4 54 6d 3b 2d 03 90 38 8d 7b 8d 3b 2b f1 f0 39
       0.0036213966 6.8670466e-05 0.004317707 0.0004595605
000020 e7 cd a0 36 9e 46 25 3c
       4.7923418e-06 0.010087637

exp_avg f4 [10, 10]
000000 07 ed 89 3a 71 45 35 3a cb 59 81 38 1f cb 80 3a
       0.001052291 0.00069149496 6.1679246e-05 0.000982616
000010 6a 3c 02 ba c1 ac 16 3a d0 32 b1 3a d7 b8 42 3a
       -0.0004968109 0.0005747788 0.0013519172 0.0007428056
000020 07 a7 92 3a e1 05 a2 ba fa 58 e6 39 01 8e 42 b9
       0.0011188694 -0.0012361371 0.0004393531 -0.00018554182
000030 f2 19 76 39 78 2b 96 39 62 85 cd b8 5a 49 ac 39
       0.00023470054 0.00028642616 -9.800006e-05 0.00032861048
000040 ca 32 38 3a 1f fe d3 39 ad 6b f8 39 e7 9a e5 b9
       0.0007026611 0.0004043439 0.0004738247 -0.00043793695
000050 b7 77 1b 39 21 15 9c 39 89 b9 95 b8 f1 11 bd 38
       0.00014826549 0.0002977038 -7.139432e-05 9.015564e-05
000060 28 05 5d b9 4c 4d 9b 38 ec 3c 18 39 4e 08 da 37
       -0.00021078123 7.4053736e-05 0.00014518545 2.5991492e-05
000070 9b 52 f2 38 f6 77 fb b8 7c 0c e1 b9 3e 15 92 b9
       0.00011554846 -0.00011990957 -0.00042924646 -0.00027863117
000080 31 95 17 38 f9 07 03 ba 56 86 ce 38 c4 34 49 b9
       3.614015e-05 -0.00049984414 9.8478675e-05 -0.0001918851
000090 04 d5 02 ba 93 02 ad b9 91 62 f6 b9 0b 12 19 3a
       -0.0004990848 -0.0003299905 -0.00046994214 0.00058391754
0000a0 35 7f ac b9 fa 70 08 ba 5b a0 03 39 84 be 23 b9
       -0.00032901173 -0.0005204823 0.0001255287 -0.00015615864
0000b0 56 76 e2 39 47 c1 38 b9 fc 48 aa b9 03 b6 5d b8
       0.00043194246 -0.00017619609 -0.00032479304 -5.2860018e-05
0000c0 fc 6b 78 b9 b2 ca 75 39 e6 a1 33 b9 4f 2a e4 39
       -0.0002369135 0.0002344053 -0.00017131082 0.0004351907
0000d0 c2 02 f1 b8 73 af ad b9 4f 18 bb b9 1c 83 8b b8
       -0.00011492289 -0.0003312785 -0.0003568553 -6.6524575e-05
0000e0 07 ef 8f b9 7d d3 90 b9 e5 c7 8d b9 c6 07 c4 39
       -0.00027453175 -0.0002762339 -0.0002704255 0.00037389825
0000f0 94 ce d6 b9 72 9d 8d ba 6d 44 00 3a 82 c2 b9 b9
       -0.00040971173 -0.0010804369 0.0004893009 -0.0003543087
000100 30 42 0c 3a 27 5d 87 b8 58 5b 25 b9 06 03 10 39
       0.0005350439 -6.4546526e-05 -0.00015769654 0.00013734036
000110 bd 2d 7b b9 2b a6 d2 39 eb ab 07 3a 4b ef c8 39
       -0.00023954264 0.00040178126 0.0005175459 0.0003832526
000120 71 4b 28 b9 c5 c5 1d 3a 54 f1 e8 b8 2f 22 41 39
       -0.00016049833 0.00060185447 -0.00011107573 0.00018418649
000130 aa aa 03 3a 50 30 9c 39 ac cb 05 3a 51 12 36 ba
       0.00050226843 0.00029790634 0.0005103897 -0.00069454784
000140 5a 6c b0 39 86 47 39 3a 9d 7b 7d b9 32 70 23 b8
       0.00033650064 0.0007067848 -0.0002417401 -3.896672e-05
000150 46 e5 30 ba ac 21 3f 39 56 f4 69 39 d2 fe 1e b9
       -0.00067480316 0.00018227723 0.00022311634 -0.00015162982
000160 16 47 d3 38 c7 3e 72 b8 19 b8 9f b9 19 df ba b9
       0.00010074505 -5.7755762e-05 -0.00030464007 -0.00035642905
000170 8c 36 21 39 de db b7 b9 60 cf 11 39 fd c5 c4 b8
       0.00015374477 -0.00035068294 0.00013905531 -9.3828865e-05
000180 5f 50 7a b9 74 9a f2 b8 89 ae 8e b9 10 8e d0 39
       -0.00023871798 -0.000115682284 -0.0002721439 0.00039778696

exp_avg_sq f4 [10, 10]
000000 61 0b c9 39 9b 3f 1a 39 4d f3 dc 35 3d 0d a9 39
       0.00038346185 0.0001471028 1.6462087e-06 0.00032244055
000010 23 5c aa 38 3b c3 f9 38 aa 5a 20 3a 30 9f 45 39
       8.1233935e-05 0.0001190961 0.00061170256 0.00018846686
000020 6f a1 da 39 76 42 04 3a 3b d7 83 38 3a e9 97 37
       0.00041700478 0.0005045304 6.2866566e-05 1.8109207e-05
000030 9f 99 9f 37 bf dc de 37 cf 71 d2 35 4b ae 0f 38
       1.9025812e-05 2.6567255e-05 1.5679342e-06 3.425618e-05
000040 f3 45 1f 39 89 ff 5f 38 b1 37 98 38 38 bf 7e 38
       0.0001518948 5.340533e-05 7.258298e-05 6.0736405e-05
000050 1d 79 16 37 f0 b8 03 38 5b fb 0f 36 bc 7f 46 36
       8.968896e-06 3.140507e-05 2.1454969e-06 2.957865e-06
000060 9a 7e 8b 37 98 89 11 36 a2 89 08 37 eb 35 2d 34
       1.6629045e-05 2.1686774e-06 8.138277e-06 1.6131496e-07
000070 ba 33 92 36 b3 c5 b8 36 15 8e 87 38 7a 6d b6 37
       4.357161e-06 5.5066425e-06 6.4637665e-05 2.174707e-05
000080 01 41 10 34 b3 2f b3 38 7b d2 4e 36 78 74 69 37
       1.3434693e-07 8.54427e-05 3.0818908e-06 1.3915e-05
000090 f2 b7 b2 38 f1 04 14 38 8a 24 a1 38 77 73 ef 38
       8.521964e-05 3.529055e-05 7.683884e-05 0.00011417915
0000a0 07 ae 1b 38 a8 8f c9 38 89 3b d1 36 11 24 0c 37
       3.7116955e-05 9.611185e-05 6.235616e-06 8.353048e-06
0000b0 ae 17 85 38 ff 3c 2c 37 28 1d 13 38 75 7d 3a 35
       6.346345e-05 1.0266201e-05 3.5074685e-05 6.9472964e-07
0000c0 4a 74 8a 37 cd f1 9c 37 ec f3 51 37 98 be 96 38
       1.6505033e-05 1.8709246e-05 1.2514163e-05 7.188058e-05
0000d0 a0 36 f0 36 4c 81 1d 38 c2 cf 36 38 e4 4e 26 36
       7.1589166e-06 3.7552134e-05 4.358567e-05 2.4781848e-06
0000e0 af 78 f1 37 3c ec ee 37 bc 66 fc 37 bd 49 4a 38
       2.8785636e-05 2.8481816e-05 3.008858e-05 4.8229227e-05
0000f0 bc 2a 6f 38 98 d6 ca 39 ba 6a aa 38 c8 b2 38 38
       5.702184e-05 0.00038688327 8.126111e-05 4.403552e-05
000100 e0 e4 cd 38 a2 4c dc 35 84 ad 2e 37 27 a8 d4 36
       9.817793e-05 1.641358e-06 1.0411608e-05 6.337668e-06
000110 9b fe 8c 37 d2 b8 6d 38 9a 0b bd 38 24 9d 2b 38
       1.680786e-05 5.667733e-05 9.014383e-05 4.0915926e-05
000120 64 60 bc 36 63 b6 fc 38 00 22 87 36 d4 27 5b 37
       5.614058e-06 0.000120502686 4.0272716e-06 1.306269e-05
000130 93 17 b4 38 fa 7d ee 37 6d 34 ba 38 bd ad 24 39
       8.58746e-05 2.8430473e-05 8.878936e-05 0.00015704981
000140 44 80 1b 38 48 89 3e 39 87 b2 bb 37 72 39 21 35
       3.7074336e-05 0.00018170953 2.237527e-05 6.006077e-07
000150 8b 7f 29 39 8d 2d 3b 37 59 14 91 37 b2 aa fa 36
       0.0001616461 1.1156674e-05 1.7294822e-05 7.470452e-06
000160 40 ab 10 36 47 b6 93 35 e9 dd fc 37 8c 84 4b 38
       2.1557353e-06 1.1005403e-06 3.0144076e-05 4.8522415e-05
000170 cd 6a f7 36 a2 56 2f 38 92 19 dc 36 a9 ab 47 36
       7.373607e-06 4.1803934e-05 6.5594877e-06 2.975323e-06
000180 8b 34 aa 37 ba b3 8f 36 5b bb d5 37 f4 4c 5a 38
       2.0290046e-05 4.282655e-06 2.5478823e-05 5.204692e-05

exp_avg f4 [10]
000000 91 9e b8 39 7a 92 27 3a f7 e5 e1 b9 bf cf de b9
       0.00035213356 0.0006392371 -0.0004308668 -0.00042497923
000010 33 c4 5e 3a 3b 97 bb ba d4 ec b4 3a ff ee ce 39
       0.0008497864 -0.0014312038 0.001380349 0.00039469448
000020 8c 3c e3 ba c4 49 8c 38
       -0.001733677 6.68946e-05

exp_avg_sq f4 [10]
000000 0f f3 41 38 ef a4 21 39 66 54 8f 38 94 95 81 38
       4.624115e-05 0.00015415599 6.834492e-05 6.1790604e-05
000010 a3 2e 81 39 fa c8 39 3a 7d 66 28 3a df 14 58 38
       0.00024639544 0.0007087138 0.00064239634 5.151785e-05
000020 74 2d 89 3a 79 4d b0 35
       0.0010465817 1.3135569e-06

exp_avg f4 [1, 10]
000000 23 bc 6a 3a 64 b3 96 3a cc 04 29 39 62 79 db b9
       0.0008954426 0.0011497554 0.00016118883 -0.00041861372
000010 28 0a 04 b9 7c e7 62 3a 29 a7 5f 3a b7 f1 fc 37
       -0.00012592284 0.00086557097 0.00085316837 3.0153298e-05
000020 b6 5b 9c 3a 93 c8 c6 39
       0.0011929187 0.00037914942

exp_avg_sq f4 [1, 10]
000000 5b 56 99 39 aa 44 fc 39 26 1e 4e 37 49 d2 6d 38
       0.00029246774 0.00048116344 1.2285576e-05 5.6701047e-05
000010 c0 e8 d6 36 e4 4e 8e 39 7f 6f 85 39 af c9 0b 33
       6.4047927e-06 0.0002714313 0.00025450808 3.254689e-08
000020 4b 95 06 3a de 45 19 38
       0.0005133941 3.654311e-05
