modelos/heat_40x2-20000.pt (torch, 29166 bytes, 15 tensors)

linears.0.weight f4 [40, 2]
000000 5d 7d 9e 3e f3 76 d2 be ca 3e 79 be b3 0d bd 3e
       0.3095502 -0.41106376 -0.24340358 0.36924514
000010 91 5a e9 3e f0 f1 6d 3f 21 45 8c bf a2 bc 55 3f
       0.4557691 0.9294729 -1.0958596 0.83490956
000020 a7 83 e9 3c 7a 7e 48 3f 8f 65 d9 be 0c bd 8d 3c
       0.02850516 0.7831799 -0.42460296 0.017302059
000030 a8 63 bb 3e 12 37 dc 3e 7b b6 8a bf ff 8c 00 3f
       0.3659947 0.43010765 -1.0836939 0.5021514
000040 cd e3 93 be 7e 2f 49 bf 48 03 e8 bc 56 c0 93 bf
       -0.28884736 -0.7858809 -0.028321877 -1.1543071
000050 01 77 5b bc 92 7c 3f bf 41 26 68 be 2b 81 01 c0
       -0.013395072 -0.74799454 -0.22670843 -2.0235088
000060 2b bf b3 be fb 66 0e bf e7 6c 4b bf 07 ad 52 3f
       -0.35106787 -0.55625886 -0.79463047 0.8229527
000070 11 1c 9f be dd 89 cc 3e aa fd 8a be 6d 7e 2e bd
       -0.310761 0.3994893 -0.27146655 -0.042601038
000080 5c 56 96 3e 82 84 90 3f 30 f8 b3 bf 84 68 03 3f
       0.29362762 1.1290438 -1.4060116 0.51331353
000090 bb dc 4d be 49 13 c8 bf 9c f0 cb 3e 41 b2 d4 3d
       -0.20103733 -1.5630885 0.39832008 0.10385562
0000a0 a4 65 5a bc 80 1e 9b bf 67 6d 1c 3e ec 8c 8e 3f
       -0.013329897 -1.2118683 0.15276109 1.1136756
0000b0 2f 34 72 3e 1d 85 8a 3e 43 31 fe 3e 49 f0 34 be
       0.23652719 0.27054682 0.4964696 -0.17669787
0000c0 be 8f 89 bb 48 74 ec 3e 1d 1d 8d bd 88 e5 3e bf
       -0.0041980436 0.46182466 -0.068903185 -0.74568987
0000d0 a5 65 2d 3f 6f 55 93 bd 24 6a 98 be db 1b 8e be
       0.6773322 -0.071940295 -0.2976848 -0.27755627
0000e0 f8 bf be be fa 0b ab bf 11 b3 95 bf 73 09 88 bc
       -0.37255836 -1.336303 -1.1695272 -0.016606068
0000f0 86 dd 90 be 76 68 ee be 39 01 98 be a8 d3 87 bf
       -0.2829401 -0.46564072 -0.29688433 -1.0611467
000100 8d d1 f9 3d a8 a1 3e 3f 0d c6 bd be 86 dd 9a 3d
       0.12198172 0.7446542 -0.37065163 0.075617835
000110 65 05 b0 3e 24 d3 73 bd d0 c4 9d bd 10 19 2a 3f
       0.34379116 -0.05952753 -0.07703555 0.6644449
000120 60 9e cf 3e 15 b4 9c 3f 30 59 e9 3e 3a b4 13 be
       0.40550518 1.2242457 0.45575857 -0.1442422
000130 ba 48 cb 3e a4 41 07 3e 98 a1 02 be ba 2e 8c bf
       0.39703923 0.13208634 -0.12756956 -1.095176

linears.0.bias f4 [40]
000000 a3 80 3d be 33 21 fa bd b2 95 da 3d cf 63 49 3e
       -0.18506102 -0.122133635 0.10673083 0.1966698
000010 6b ad fe 3d 16 79 47 3d 4a 62 34 be 9e f1 c2 3d
       0.124354206 0.04869946 -0.1761562 0.09518741
000020 29 a3 35 be 4a a7 81 bd af 08 97 bc 0f 28 e7 3d
       -0.17738022 -0.06330736 -0.018436758 0.112869374
000030 90 a3 79 bd c3 3b 0d 3e f3 bd a1 bd bc b9 c7 bc
       -0.060947 0.13792329 -0.07897558 -0.024380557
000040 3c 22 85 bd 67 51 4f 3e 67 83 1d be 10 b2 bc bd
       -0.0650067 0.20245896 -0.15382157 -0.0921365
000050 cc a6 0b be 9f 40 2c bd 1a 26 24 be 75 9c cc be
       -0.13637847 -0.042053815 -0.1603016 -0.39963117
000060 e8 73 88 bc 70 81 3e bd dc e6 ef 3d 53 a6 cd bd
       -0.01665683 -0.04651016 0.11713955 -0.100414895
000070 31 6d bd bc 3e 35 0e be 9e a8 a1 bd 66 c1 4d be
       -0.023123356 -0.13887498 -0.07893489 -0.20093307
000080 0f 9c 2b 3d 6b 35 bf 3d ba 36 05 be 63 90 ee 3d
       0.041896876 0.093363605 -0.13009158 0.11648633
000090 6d db c0 be 39 2a 78 bd 8f 1c 01 be 53 fe 2e be
       -0.3766741 -0.06058714 -0.1260855 -0.17089204

linears.1.weight f4 [40, 40]
000000 03 57 b1 bd 32 8f c9 3d 4f 7f bc 3e c4 be 05 bd
       -0.08659174 0.098417655 0.3681588 -0.03265263
000010 28 e5 2d bd f8 60 78 3e 69 30 33 3e eb c3 6d bd
       -0.04245487 0.2425574 0.17498936 -0.05804817
000020 78 ac 94 bd 55 87 48 be da e0 8e be 78 e8 30 be
       -0.07259458 -0.19582875 -0.27905923 -0.1727618
000030 91 bd ac bd 88 aa 16 3e a8 d0 72 3e d6 39 e6 3d
       -0.084345944 0.1471349 0.23712409 0.112415
000040 a9 c0 9c 3c 60 25 83 3e b1 b8 a5 3e 7f 71 28 bd
       0.019134836 0.25614452 0.3236747 -0.041123863
000050 c6 17 5c 3d ab b9 34 bd ad 98 3e 3e ee c1 25 3e
       0.05373361 -0.04412238 0.18612929 0.1618726
000060 8b f6 e7 3d 9a 98 1c 3d 86 0b c5 3d eb d4 03 bd
       0.11326321 0.03823147 0.096213385 -0.032185476
000070 10 1d dd bd 81 3b 16 be c8 d8 5f be 3b 46 14 bc
       -0.10796559 -0.14671136 -0.21860039 -0.009049947
000080 72 d9 93 3e 61 d9 57 bc c0 2d 5d be b2 f9 14 bd
       0.28876835 -0.013174386 -0.21599483 -0.03637094
000090 de 57 c9 3e 70 e6 fa 3d 8a a4 bd bd 77 52 32 bd
       0.3932485 0.12250984 -0.09259899 -0.043535676
0000a0 92 8f 45 be 9c 78 a5 3e fb 6d cc 3e 56 9d 80 3e
       -0.19293049 0.3231858 0.39927658 0.25120038
0000b0 aa 00 fd 3e e7 65 14 3f 63 c6 62 be fd d6 c3 3e
       0.4941457 0.5796799 -0.22145991 0.3824996
0000c0 40 08 07 bf 1b 0a 1f be 47 31 ac be 18 4f 83 be
       -0.52746964 -0.15531199 -0.33631346 -0.2564628
0000d0 0d c5 ae be c5 75 a9 3e 2e 64 49 3b b7 68 ee bb
       -0.34134713 0.33097664 0.0030729878 -0.0072756666
0000e0 43 b5 9d 3d 94 db 36 3c 98 69 4c be ef c2 f4 bd
       0.077005886 0.01116075 -0.19962156 -0.11951243
0000f0 61 f8 78 be bb 4a 6d 3e d5 7a 34 3d 6b 7b a6 be
       -0.24313499 0.23173039 0.044062454 -0.32516035
000100 1b 80 8d be 47 f7 2a bf b5 dd b4 be e6 6e d2 3d
       -0.276368 -0.66783565 -0.353254 0.102750584
000110 53 e9 30 bf ab 45 66 3e 3a 38 b9 be 8a e5 96 be
       -0.69106025 0.22487514 -0.3617571 -0.29472
000120 f6 b8 a3 3e 77 7f 76 3e 42 ea 07 bf 34 89 0c 3f
       0.31977051 0.24072061 -0.53091824 0.54896855
000130 21 3a 97 be d9 3f e8 be d3 e3 17 be 70 7a c8 be
       -0.29536536 -0.45361212 -0.14833002 -0.39155912
000140 26 15 b1 be 8d 7b 01 3f 50 79 0f be 80 aa bb 3d
       -0.34586447 0.5057915 -0.14011121 0.0916338
000150 39 d4 52 3e 1d 91 3d 3e c8 8a 49 bd 60 2a 25 3e
       0.20588769 0.18512388 -0.049204618 0.16129446
000160 83 32 74 be 81 bb 25 bd 7f bc 7f be d8 00 da bd
       -0.23847394 -0.04046202 -0.2497425 -0.10644692
000170 f9 c9 ef 3d df 3f 91 3d a6 36 c2 3d ac 35 a9 bd
       0.11708445 0.070922606 0.094830796 -0.0826219
000180 c3 fa c3 3e 1b b0 98 be 60 a7 4b be 6b 5d 88 3c
       0.38277254 -0.29821858 -0.19888067 0.016646108
000190 7b 40 39 be eb a6 36 be 35 a5 ed bd d6 8e a1 be
       -0.18091004 -0.17837112 -0.11603776 -0.31554288
0001a0 43 46 25 be be e3 18 bf ad c8 0b be ed 22 06 be
       -0.16140084 -0.59722507 -0.1365077 -0.1309926
0001b0 a3 01 61 be 86 09 41 be 6c 16 28 3d 9a 5c 38 bd
       -0.2197328 -0.18851289 0.04103701 -0.045010187
0001c0 99 96 29 3e 0a c5 c6 3e c7 7d 83 be cc 04 96 3e
       0.16561355 0.38822204 -0.25681898 0.29300535
0001d0 6e f9 7c 3d 28 ab 8a 3d 4a d6 f4 3d 9e a0 80 be
       0.061761312 0.06770927 0.11954935 -0.2512254
0001e0 3d 5e 96 3e 21 84 a8 be 7e 0a 86 be f7 2c 99 bd
       0.29368773 -0.32913306 -0.2617988 -0.074792795
0001f0 d6 d6 1c bd d1 1c 8e be 93 a0 86 be 79 2d eb 3d
       -0.03829082 -0.2775636 -0.26294383 0.114832826
000200 e1 38 da 3d 34 77 c2 3d 40 83 9c 3e 07 c0 e0 3d
       0.1065538 0.094953924 0.30568886 0.10974126
000210 e5 e1 3f be 15 ea 21 be 41 54 18 bd eb 59 d2 be
       -0.18738516 -0.15811951 -0.037189726 -0.41084227
000220 45 ce 22 be b7 11 78 3e 1e a4 17 3f d8 53 fa 3d
       -0.15898998 0.24225508 0.592348 0.12223023
000230 49 ee 97 3d 26 d9 5c be 2d 7a 71 3d 41 8c 88 3e
       0.07418496 -0.2156721 0.058954407 0.26669505
000240 b6 45 8c be 1b b6 de 3d 00 c8 10 3e 44 23 79 be
       -0.27396935 0.108745776 0.14138794 -0.24329859
000250 23 36 9f 3e e2 99 6c bd be c9 4a be fc 45 2a 3e
       0.3109599 -0.05776394 -0.19803521 0.1662826
000260 c3 35 9a be 0b 89 6c be 66 3d e2 3e a1 b7 a4 be
       -0.30119142 -0.23099153 0.44187468 -0.32171348
000270 7c 28 5e be 53 a6 29 3e c8 72 3f 3e 84 8f 84 3e
       -0.21695131 0.16567354 0.1869613 0.25890744
000280 ae a9 13 be 1a 88 54 be 91 e4 4c bd 13 b6 5c be
       -0.14420196 -0.20755044 -0.050022665 -0.21553831
000290 63 50 fd bd b6 d8 84 3e 68 92 4b be e7 d3 9f 3e
       -0.12368848 0.25946587 -0.19880068 0.31216356
0002a0 28 db 32 3e 81 d6 62 3d d0 a3 1c 3e f0 ed d8 3e
       0.17466414 0.055380348 0.15296865 0.42369032
0002b0 6d bb 51 3e cb 8e b0 3d 9b 15 ae be c7 28 ad 3d
       0.20481654 0.086209856 -0.3400086 0.08455043
0002c0 f6 c0 cd bc 2c f2 38 3e f2 23 68 3d 3c 9c 2b 3d
       -0.025116425 0.18061131 0.056674905 0.041897044
0002d0 c0 e4 4e be 0b d7 01 be 72 98 d4 be b0 4d f5 be
       -0.20204449 -0.12679689 -0.41522557 -0.47910833
0002e0 18 78 f6 3c f1 8d cf bc 23 c0 2c bb 83 b9 d2 bd
       0.030086562 -0.025336238 -0.002635964 -0.1028929
0002f0 c3 7e 29 3e e3 94 9a be 08 30 d3 bd 88 6f 8b 3e
       0.16552262 -0.30191717 -0.103118956 0.2723353
000300 dd 9d 5f bc bc d7 d5 3e bf c4 7c bf 02 1d 85 3e
       -0.013648477 0.41766155 -0.9873771 0.25998694
000310 33 92 b5 be 96 43 41 be 79 3a ab be 45 bc 35 3e
       -0.35463104 -0.18873438 -0.3344305 0.177476
000320 41 11 2f be 91 9d 01 bd e7 69 84 bc 66 bb a9 be
       -0.17096426 -0.031644408 -0.01616378 -0.33150786
000330 29 3c eb be 44 50 44 3c bb 82 c7 be 21 53 b9 3c
       -0.45944336 0.011982027 -0.38966927 0.022622647
000340 72 99 9d 3e 44 24 c3 3d d2 5a 01 be a6 7e cb 3d
       0.30781132 0.095284015 -0.12632301 0.09936266
000350 a0 40 10 3d e3 5d 3e be a5 2d 86 3e 54 57 52 3e
       0.03521788 -0.18590502 0.262067 0.20541126
000360 de fc 8d be 71 22 8f bd ec cd f3 3e 30 8c db 3c
       -0.27731985 -0.06988991 0.47618043 0.026800245
000370 a9 fc 0f 3f dc df 80 be 07 9c 68 be 9b 9f a5 be
       0.56244904 -0.2517079 -0.2271577 -0.32348332
000380 e9 ef 80 bd d3 0a 25 3e e7 b8 a4 be 7d b0 6d 3e
       -0.06295759 0.1611741 -0.3217232 0.23211856
000390 46 db c6 3c f9 f3 ff be fa 37 ba 3e f9 0b 85 3d
       0.02427448 -0.49990824 0.36370832 0.06496424
0003a0 74 e8 4e be ff b1 c0 3e 8c f2 78 be b6 14 07 be
       -0.20205861 0.376358 -0.24311274 -0.13191494
0003b0 ac 4b 1b be 83 46 0b 3d 80 06 79 be 5e a5 2c bd
       -0.15165585 0.034002792 -0.24318886 -0.042149894
0003c0 d6 49 13 3e e7 07 09 3e 90 6d 4b bc c5 06 0c 3e
       0.14383635 0.13381921 -0.012416258 0.13674457
0003d0 9e a8 bb 3c c3 1d 23 bd 42 03 f7 3d 9e fe 47 3d
       0.022907551 -0.039823305 0.12061168 0.048826806
0003e0 24 02 f0 3d 51 d4 15 bd 84 77 e5 be f3 c7 9f bd
       0.11719158 -0.036579434 -0.44817746 -0.07801809
0003f0 11 54 c8 bd b8 da b1 3d 9e f2 87 be 9d c7 0e 3e
       -0.097816594 0.086842954 -0.2655229 0.13943334

linears.1.bias f4 [40]
000000 dc 7e 4f 3b 17 af 09 3e cf d8 81 bc 35 47 28 3d
       0.0031661307 0.13445698 -0.015850453 0.041083533
000010 51 72 ee 3d 28 b5 89 3b 6d cd 65 bd 44 9b cb bc
       0.11642898 0.0042025037 -0.056104112 -0.02485431
000020 5c 1c e8 3c 4c 9e 1a 3d be 17 85 be 65 79 a0 bd
       0.028333835 0.03774862 -0.25994676 -0.07835654
000030 14 bd 9f bd d2 35 46 3d 20 15 9a 3d 3d 0d b8 3c
       -0.07799736 0.04839117 0.075235605 0.02246725
000040 57 6c 5e bd 89 96 c1 3c 35 3d 0a be b3 15 22 be
       -0.05430254 0.023631351 -0.13499911 -0.1582859
000050 45 53 fb bc 7a cb 11 bd 01 4a 4f 3e 05 9e f6 bd
       -0.030679354 -0.03559444 0.20243074 -0.120418586
000060 b2 52 59 3d 39 83 cc bb 01 dc 57 bc 4a 46 3e 3d
       0.05305738 -0.006241229 -0.013175012 0.04645375
000070 57 f9 5c bc f4 6f a8 3d 3f 47 35 be ad d4 96 bc
       -0.013487182 0.08224478 -0.1770296 -0.018411959
000080 d3 6d 36 bd 02 32 02 3e e9 13 a7 ba c1 99 0e bc
       -0.04453833 0.12714389 -0.0012747023 -0.00870365
000090 fd 18 23 3e 3c 2f 82 3e c9 11 ab bd f4 64 89 bc
       0.15927501 0.25426662 -0.083530016 -0.016771771

linears.2.weight f4 [1, 40]
000000 a2 ae e9 3d 85 0c 3a bf d0 4f e3 3e a3 91 06 be
       0.11410262 -0.72675353 0.4439683 -0.13141493
000010 21 e1 76 3e 06 8d 87 3e b8 4a 8d 3e f2 a2 4a 3e
       0.24109317 0.2647478 0.27596068 0.19788721
000020 94 86 cc 3e 2d 37 04 bd 53 11 f5 3e 58 43 0a bf
       0.39946425 -0.032279182 0.4786478 -0.5400901
000030 af 70 e2 3d c8 f4 32 be 1c 2b 28 3d 47 a9 2c be
       0.11056649 -0.17476189 0.041056737 -0.16861449
000040 cc 7a fc be 65 22 d1 3e ec e8 5f 3f 9b e9 30 be
       -0.49312437 0.40846553 0.87464786 -0.17276613
000050 49 28 01 bf 7d 0c bf 3b 52 7f 40 3f f7 8e 93 3e
       -0.50452095 0.005830346 0.75194275 0.2882001
000060 b6 a9 1e 3f 5c 83 3a bf 2e d2 d0 be 35 ca 81 be
       0.6197771 -0.7285669 -0.40785354 -0.25349584
000070 c5 56 97 3d 83 96 f2 be fc f5 29 3f 92 0d fe be
       0.07389597 -0.47380456 0.6639097 -0.49619728
000080 94 be 95 bd a1 00 cd 3e 98 5f b4 be fd 32 0f 3f
       -0.073117405 0.40039542 -0.35229182 0.55937177
000090 bc 58 9a be 53 2c 4b be 61 07 06 3f 28 2e a3 3e
       -0.30145824 -0.19841127 0.5235501 0.31871152

exp_avg f4 [40, 2]
000000 08 80 b4 37 33 e9 ea b6 8a c5 fb b7 c6 69 88 36
       2.1517291e-05 -7.0008914e-06 -3.0013518e-05 4.0654295e-06
000010 fa 03 f8 37 30 09 94 b5 00 5c c3 b6 63 75 49 b8
       2.9565756e-05 -1.1029533e-06 -5.822163e-06 -4.803146e-05
000020 a3 fd 80 b7 fd 95 be 35 5e 79 84 b7 f2 ff 57 37
       -1.5376898e-05 1.4199755e-06 -1.5792142e-05 1.28745905e-05
000030 9c f5 ad 37 1c 7c 93 b6 2b 66 0c 37 cb 31 47 b7
       2.0737578e-05 -4.3953896e-06 8.368438e-06 -1.1872918e-05
000040 ff 13 79 b8 b2 ce e8 37 4f e5 bb 37 34 56 bb 36
       -5.938485e-05 2.7752805e-05 2.2398917e-05 5.5830697e-06
000050 1d 9a 0e 38 53 67 6a b6 bc 4f 82 37 4f 6f fc 36
       3.3998967e-05 -3.492886e-06 1.5534337e-05 7.5231433e-06
000060 48 83 10 b8 d7 6c a8 37 f3 84 c9 37 af 3f 92 b7
       -3.445454e-05 2.0077843e-05 2.4022977e-05 -1.7434211e-05
000070 53 3f 49 b7 ce 77 8c 36 0a c7 1f b8 08 02 02 37
       -1.1995277e-05 4.1862722e-06 -3.8093924e-05 7.749077e-06
000080 71 b1 61 37 e9 3f a4 b6 83 4f 65 37 89 dd bc b7
       1.3452359e-05 -4.895021e-06 1.3667976e-05 -2.2514507e-05
000090 d4 07 c2 b6 89 7e 3f 37 d3 6e a0 37 44 44 63 b7
       -5.782562e-06 1.1413948e-05 1.9125093e-05 -1.3546149e-05
0000a0 da 29 39 37 b1 0a dd 36 90 e4 58 b7 ff 8d dd b5
       1.1036604e-05 6.587558e-06 -1.292782e-05 -1.6507109e-06
0000b0 8f fc bd b7 d0 78 02 b7 bf c9 ea 37 b2 d7 2e b7
       -2.2648162e-05 -7.776733e-06 2.798892e-05 -1.0421429e-05
0000c0 c6 87 14 b8 6e 70 5d 36 6c 7e b5 37 5b ea 11 35
       -3.54124e-05 3.299701e-06 2.1635751e-05 5.435774e-07
0000d0 d9 cc 20 36 8f 8f 3f 37 c2 cf 93 b7 21 c8 42 35
       2.3961095e-06 1.1417912e-05 -1.762051e-05 7.256186e-07
0000e0 ff 88 6e b8 5d 96 8d 37 84 67 15 37 cb b7 82 b7
       -5.687121e-05 1.6878528e-05 8.905194e-06 -1.5582793e-05
0000f0 9d ea 0b b8 f2 43 f1 36 7c f7 18 b8 38 6e a1 37
       -3.3358683e-05 7.1902696e-06 -3.647011e-05 1.924402e-05
000100 bd d1 0d b7 49 f6 b1 36 2d 86 d3 b7 3e c6 be 37
       -8.453088e-06 5.3036824e-06 -2.521564e-05 2.2742079e-05
000110 e0 08 5c 37 0c f5 09 b8 f9 50 a4 b7 d1 e9 e0 36
       1.3115088e-05 -3.2891563e-05 -1.958803e-05 6.70294e-06
000120 3f 9b 0b b8 8c 86 01 b6 b5 38 c1 36 25 84 82 b6
       -3.3284767e-05 -1.9300815e-06 5.75845e-06 -3.8896856e-06
000130 9c 11 94 37 a3 3c 93 b7 46 d0 72 b7 50 23 23 37
       1.7651175e-05 -1.7552002e-05 -1.44728165e-05 9.723779e-06

exp_avg_sq f4 [40, 2]
000000 e6 d5 4e 39 67 50 20 38 01 28 13 39 b4 b9 13 37
       0.00019725374 3.8221853e-05 0.00014033915 8.80512e-06
000010 3f f8 f5 38 d8 a1 23 35 79 15 16 38 35 31 fb 38
       0.0001172875 6.0957746e-07 3.5782785e-05 0.00011977778
000020 8d 2b 81 37 96 4a e6 36 48 7c 22 38 57 ec 02 38
       1.5398278e-05 6.863217e-06 3.8739556e-05 3.1214524e-05
000030 08 98 a7 38 24 62 3d 36 cf 64 cd 37 c5 ff 7b 37
       7.9914986e-05 2.822032e-06 2.4484847e-05 1.5020317e-05
000040 b0 ba f7 39 77 ce a3 38 bd ce 87 38 e6 9d 66 34
       0.00047250604 7.810903e-05 6.47581e-05 2.1477862e-07
000050 f5 f7 71 39 4b 62 d0 37 c3 51 fd 37 66 e3 0f 34
       0.00023075922 2.4841303e-05 3.0198024e-05 1.340064e-07
000060 37 22 64 39 8f 59 36 38 5b 04 11 38 e8 c1 16 38
       0.0002175652 4.347559e-05 3.457475e-05 3.5943376e-05
000070 9e 26 21 38 69 0a aa 36 02 6f 74 39 d4 2c aa 37
       3.8421356e-05 5.0676067e-06 0.00023311007 2.0286454e-05
000080 73 93 e4 37 e1 a9 89 33 38 ff b9 37 8c e6 dc 37
       2.724838e-05 6.4104604e-08 2.2172564e-05 2.63334e-05
000090 27 11 c9 35 64 d4 80 35 45 15 d1 38 59 29 af 37
       1.4980659e-06 9.598557e-07 9.9698584e-05 2.088088e-05
0000a0 49 a9 e3 37 c1 92 57 34 7a eb 27 38 a5 81 7b 35
       2.7139338e-05 2.0076824e-07 4.0035207e-05 9.3693444e-07
0000b0 8c f9 f9 37 89 14 b5 36 5c 8e b7 39 62 99 a4 38
       2.9799317e-05 5.396611e-06 0.00035010546 7.848699e-05
0000c0 d9 fc ab 39 6d 5e 7b 37 72 a9 43 38 b2 fa 5b 36
       0.00032804048 1.4982751e-05 4.664943e-05 3.2779467e-06
0000d0 e1 45 15 37 41 e7 54 37 72 27 f7 37 ea 30 e3 34
       8.897362e-06 1.2690028e-05 2.9463063e-05 4.2317635e-07
0000e0 dd ab 00 3a e4 8d d4 37 2e 19 96 36 6b ac e7 37
       0.0004908422 2.5338442e-05 4.4732797e-06 2.7617634e-05
0000f0 ca 7b 42 39 fc c5 05 37 a9 67 30 39 7b 26 fd 37
       0.00018547397 7.973515e-06 0.00016823284 3.017787e-05
000100 1a 55 75 36 cf cd 29 37 67 60 16 39 ab 4f c9 38
       3.655738e-06 1.01211035e-05 0.00014341027 9.599266e-05
000110 46 28 d9 38 06 93 62 39 a1 53 52 38 d5 9a 8d 37
       0.00010354868 0.0002160781 5.0145787e-05 1.688061e-05
000120 7a 9e a8 38 6b bb 4c 34 2c be a3 37 8b c9 c5 36
       8.040383e-05 1.9067163e-07 1.951967e-05 5.89452e-06
000130 5e b7 d7 38 29 5d 41 38 49 57 af 37 28 f1 12 36
       0.00010286154 4.6101548e-05 2.0902271e-05 2.1896067e-06

exp_avg f4 [40]
000000 17 b4 8a 38 a5 92 98 b8 50 5f 07 38 d7 91 43 38
       6.613897e-05 -7.2752395e-05 3.2275275e-05 4.6627447e-05
000010 2e 1b 4f b8 38 c6 82 b8 30 a4 94 38 a7 8d 70 38
       -4.937796e-05 -6.235804e-05 7.087772e-05 5.7352383e-05
000020 93 40 e0 b8 4e a0 7b 38 ec 96 94 38 11 ff 42 38
       -0.0001069318 5.999236e-05 7.085301e-05 4.6490753e-05
000030 c2 f1 67 b8 4f 33 67 38 76 1b 5f b8 72 77 a8 b8
       -5.5299846e-05 5.5122477e-05 -5.3192918e-05 -8.033113e-05
000040 6d f6 17 38 4f bd c0 38 b5 c4 c7 b4 7e 34 8f 38
       3.6230707e-05 9.190535e-05 -3.7209762e-07 6.828549e-05
000050 30 0e 39 38 b2 e9 36 b8 46 9e 0f b8 1c ef cd 38
       4.412065e-05 -4.3609827e-05 -3.424126e-05 9.819699e-05
000060 8b 98 d1 b8 a4 bd 56 38 47 41 b7 37 8e c3 fb b7
       -9.99431e-05 5.1198193e-05 2.1845697e-05 -3.0012594e-05
000070 47 e1 77 b8 09 b1 9a 38 02 29 5d b8 62 6e 51 b8
       -5.9099195e-05 7.3762676e-05 -5.2728697e-05 -4.9932285e-05
000080 c7 6a 1c b8 af de bc b8 a6 d8 99 38 a7 c9 89 b8
       -3.7292742e-05 -9.0060166e-05 7.3359624e-05 -6.57023e-05
000090 5f bd 02 b8 14 24 07 38 d8 04 6c 38 87 48 ad b6
       -3.117078e-05 3.222011e-05 5.6271296e-05 -5.164245e-06

exp_avg_sq f4 [40]
000000 1e 17 83 3a 8f b2 3e 3a 18 77 97 39 29 c8 a1 3a
       0.0010001396 0.0007274532 0.00028889696 0.0012342978
000010 6a bb c7 39 32 4b f6 39 28 f7 53 3a 4a c9 67 3a
       0.00038095872 0.000469768 0.00080858404 0.0008841945
000020 ee 4e 11 3b ac f3 eb 39 53 b3 80 3a 5b 93 84 39
       0.002217229 0.00045004243 0.0009819068 0.0002528679
000030 32 0d 2e 3a 6e eb 23 3a e5 f7 00 3a 5d 2d a1 3a
       0.00066395395 0.00062530383 0.00049197517 0.0012296845
000040 86 8b 39 39 62 29 9e 3a 04 ff b7 33 ec 40 6f 3a
       0.00017694951 0.0012066776 8.5679886e-08 0.00091268006
000050 af b0 9c 39 d9 38 8f 39 c7 70 d5 38 77 0f 9a 3a
       0.00029886278 0.0002731744 0.00010177638 0.0011753876
000060 68 83 e6 3a 89 e9 a6 39 7e a3 2b 38 ea 1d 05 39
       0.001758677 0.00031835985 4.092184e-05 0.00012695012
000070 8e db 93 3a 33 40 60 3a f3 0f 1f 3a 29 b3 0f 3a
       0.0011280642 0.00085544883 0.0006067745 0.0005481714
000080 a8 c1 1f 39 fc 3a a7 3a 37 bf 8e 3a a4 be 18 3a
       0.00015235564 0.0012758668 0.0010890727 0.00058267475
000090 60 a5 ba 38 b9 85 1d 39 2c a2 14 3a 8e 05 a6 37
       8.899975e-05 0.00015022502 0.00056699174 1.9791329e-05

exp_avg f4 [40, 40]
000000 31 ba 8d b5 1f 8b c0 35 d1 9a 8a 35 bf ac 93 35
       -1.0559507e-06 1.4345604e-06 1.0326859e-06 1.1002629e-06
000010 0a dd a1 35 66 5e 05 35 f2 2b 3c 35 4e 24 e0 34
       1.2059766e-06 4.968373e-07 7.0099406e-07 4.1749666e-07
000020 9f 67 3a b5 83 7d 05 b6 c9 95 c4 b5 16 37 66 b6
       -6.944119e-07 -1.9891602e-06 -1.4646731e-06 -3.4304735e-06
000030 39 c7 0c b5 5d 89 04 36 76 f1 c7 35 fa da d3 34
       -5.244397e-07 1.9749489e-06 1.489693e-06 3.946114e-07
000040 02 78 02 36 74 1a 56 b5 f0 df 02 b6 6b d5 28 b4
       1.9441363e-06 -7.9759707e-07 -1.9501858e-06 -1.572386e-07
000050 02 71 f9 b5 f3 08 08 36 56 e9 00 35 18 0e e3 b4
       -1.8584835e-06 2.0270788e-06 4.8023264e-07 -4.22923e-07
000060 68 d3 89 35 f5 45 ab b5 a1 17 39 b5 cc aa 8b 33
       1.0268823e-06 -1.2760853e-06 -6.8952255e-07 6.50376e-08
000070 54 a8 03 b6 d0 3e 2b b4 02 ab c1 b4 9a 9f 8b b5
       -1.96185e-06 -1.5948467e-07 -3.6073476e-07 -1.0402757e-06
000080 1d d2 9f 35 25 e6 10 35 76 95 e4 b4 1a fe a6 35
       1.1907574e-06 5.3979085e-07 -4.2577057e-07 1.2441917e-06
000090 71 b2 32 36 88 fa 4d b5 28 be 38 b3 3a 3e b9 b5
       2.6627933e-06 -7.673302e-07 -4.3013785e-08 -1.3801684e-06
0000a0 8d 53 87 36 8a a2 20 b7 32 f5 4f 37 34 56 e5 b7
       4.03304e-06 -9.574587e-06 1.239525e-05 -2.7339069e-05
0000b0 b5 a4 16 36 b8 ed 2b b7 bb 09 a0 36 21 b8 d0 b7
       2.2447614e-06 -1.02477425e-05 4.7695044e-06 -2.4881274e-05
0000c0 42 e3 26 b7 54 61 90 34 81 78 20 35 b1 72 08 36
       -9.947284e-06 2.6892906e-07 5.978e-07 2.0332338e-06
0000d0 0a 4d 21 b7 18 3b ab b7 dc 64 2d b7 e9 f2 fe b6
       -9.614285e-06 -2.0412306e-05 -1.0335087e-05 -7.5980684e-06
0000e0 fd ee 78 36 f1 e0 ad b7 24 62 a9 b6 c1 a6 0b 37
       3.709399e-06 -2.0727954e-05 -5.0480176e-06 8.323871e-06
0000f0 90 a0 78 b5 95 25 e8 34 1e 83 e8 35 20 5c 78 36
       -9.262085e-07 4.3240712e-07 1.7323507e-06 3.7008504e-06
000100 d5 6a ae b5 7c 90 c3 b5 5a 1b a2 37 15 51 21 b7
       -1.2995102e-06 -1.4570683e-06 1.9324641e-05 -9.615226e-06
000110 55 20 fb b6 7b df ad b7 bb e0 0c b7 ae f5 26 b7
       -7.484147e-06 -2.0727273e-05 -8.396974e-06 -9.951573e-06
000120 5c 59 34 36 70 64 01 b7 77 d5 c9 36 56 67 77 b4
       2.6874104e-06 -7.712384e-06 6.0151174e-06 -2.3041261e-07
000130 43 00 6b b5 57 13 39 37 77 6e f9 36 0f 75 a5 b6
       -8.7544703e-07 1.1031362e-05 7.433638e-06 -4.9310106e-06
000140 14 44 ac b5 26 92 ea 36 ce c1 99 b6 19 b2 2c 37
       -1.2834812e-06 6.9907574e-06 -4.582317e-06 1.02934655e-05
000150 9a eb a0 b5 ff cc 92 36 d6 e8 b5 34 dd c6 20 37
       -1.1989498e-06 4.3750038e-06 3.3883288e-07 9.583045e-06
000160 82 17 ae 36 ec bb a8 b5 b7 23 b1 b5 e2 17 d6 b6
       5.1883408e-06 -1.2571668e-06 -1.3197922e-06 -6.3804773e-06
000170 79 b1 87 36 17 24 16 37 42 3d e9 36 90 1a 8a 36
       4.043974e-06 8.9490995e-06 6.9510725e-06 4.1158128e-06
000180 6f dd 9b 35 9f 9a 13 37 20 bb aa 35 61 d6 3d b6
       1.1612846e-06 8.797883e-06 1.2720448e-06 -2.828798e-06
000190 7f 59 35 33 68 82 09 36 5e 23 86 35 ef d7 cd 35
       4.2223743e-08 2.0490497e-06 9.994071e-07 1.5336535e-06
0001a0 75 62 da 35 77 49 78 33 c3 30 1e b7 bf b4 b0 36
       1.627092e-06 5.7808816e-08 -9.428887e-06 5.2662504e-06
0001b0 b4 e1 41 35 f0 a5 33 37 27 fc 88 36 18 fd a3 36
       7.2226544e-07 1.0707867e-05 4.0824702e-06 4.8872425e-06
0001c0 dc eb 26 b5 05 4d 4f 36 a8 5b 03 b6 52 fd f5 33
       -6.218304e-07 3.0890235e-06 -1.9573872e-06 1.145478e-07
0001d0 28 9b e2 36 2c b3 a2 b6 6f 85 07 b6 8f ca 26 36
       6.7533874e-06 -4.8488346e-06 -2.0194236e-06 2.4853832e-06
0001e0 e3 e2 6c 34 3d 42 eb b5 7b 21 56 35 32 98 47 b6
       2.2061754e-07 -1.7528142e-06 7.9769933e-07 -2.97419e-06
0001f0 d7 3e da 33 e4 6d 7d b5 52 40 d9 b4 d9 f0 2d b6
       1.01628466e-07 -9.4409756e-07 -4.04662e-07 -2.59192e-06
000200 bb a1 89 b5 b7 29 34 35 31 5d 0e 35 d5 77 2b 36
       -1.0254365e-06 6.711593e-07 5.3034734e-07 2.5550737e-06
000210 86 81 49 b5 f1 75 20 b6 eb d9 e6 b5 f5 13 74 b5
       -7.5066816e-07 -2.3910509e-06 -1.7199758e-06 -9.0926125e-07
000220 12 1c 59 b5 45 63 26 b6 8f fb 83 34 4e da 08 35
       -8.0879647e-07 -2.479371e-06 2.4583684e-07 5.0981623e-07
000230 e6 a3 b8 34 16 6f 80 b5 70 22 00 b5 57 56 2b b5
       3.4391923e-07 -9.569073e-07 -4.773383e-07 -6.3828105e-07
000240 b0 94 0b b5 b5 81 66 34 ac 80 1b 36 5f b7 9b b5
       -5.1997904e-07 2.1467606e-07 2.3171697e-06 -1.1601768e-06
000250 ee bf c9 34 51 95 2c b6 55 21 58 b5 5a 42 6a b5
       3.7578815e-07 -2.571691e-06 -8.0514775e-07 -8.726835e-07
000260 f7 ff e0 b3 54 8a 26 b5 b0 a9 ad 34 f5 18 05 b4
       -1.04773726e-07 -6.2041113e-07 3.2347225e-07 -1.239567e-07
000270 3d 48 20 b6 ec 48 92 35 1d e3 99 34 40 ed 91 b4
       -2.3883906e-06 1.0899071e-06 2.8663717e-07 -2.7180977e-07
000280 7b cc 2e b6 91 7f 23 b4 06 c3 b8 36 e8 b7 98 36
       -2.6047044e-06 -1.5226966e-07 5.506331e-06 4.5513625e-06
000290 d3 9c a0 36 67 7f 9e b5 a4 57 db 35 fd 48 a9 35
       4.7866283e-06 -1.1808996e-06 1.6342278e-06 1.2612724e-06
0002a0 c6 55 b4 b6 7a 90 d9 b6 90 75 78 b6 f9 1a 56 b7
       -5.3744034e-06 -6.4839232e-06 -3.702331e-06 -1.2761674e-05
0002b0 d3 d8 77 b6 47 1d 6a 36 b0 72 40 34 d5 54 c0 b5
       -3.6932076e-06 3.4885759e-06 1.7923117e-07 -1.4329804e-06
0002c0 ba 26 ac 36 d4 cd c9 36 ea 7d 29 b7 72 d7 ab 35
       5.130508e-06 6.0142283e-06 -1.0102502e-05 1.2803196e-06
0002d0 a8 df f7 b6 cb 29 b2 36 8a 77 4a 35 e2 ae 24 b6
       -7.3872106e-06 5.3096787e-06 7.5424816e-07 -2.45397e-06
0002e0 5e 66 05 36 43 73 86 b6 9c c0 64 36 13 63 4a b6
       1.987813e-06 -4.0069294e-06 3.408676e-06 -3.0158014e-06
0002f0 88 b9 ff b6 a3 33 f1 b6 2a 72 66 b6 35 9a eb b6
       -7.621191e-06 -7.188371e-06 -3.4339123e-06 -7.021498e-06
000300 95 f5 86 36 32 5f 90 b4 89 e4 9c b3 2b 92 84 36
       4.0221007e-06 -2.6891354e-07 -7.3058864e-08 3.9509227e-06
000310 c2 2b 98 35 21 1f 0e 35 66 e1 96 35 f8 e3 e9 b6
       1.1337618e-06 5.294442e-07 1.124147e-06 -6.97048e-06
000320 16 72 0b 35 69 5f 29 36 9b 26 ff 34 83 4c 51 34
       5.194755e-07 2.5238498e-06 4.752554e-07 1.9492477e-07
000330 d6 bd 18 35 fe a5 bc 32 64 e0 2a 36 2e 5d c3 34
       5.690066e-07 2.1961565e-08 2.5462587e-06 3.6389378e-07
000340 fc 3e e4 34 e8 12 11 b6 fc 8c e3 b5 63 6a c6 b6
       4.2514137e-07 -2.1617689e-06 -1.695385e-06 -5.913245e-06
000350 9c ef 99 b4 a6 6b ae 35 cd ea 14 36 eb 59 03 35
       -2.867281e-07 1.299534e-06 2.219039e-06 4.893215e-07
000360 b1 ca 54 36 ee 08 91 b5 b8 1e e4 b5 26 77 50 35
       3.1708444e-06 -1.0805941e-06 -1.6996264e-06 7.765942e-07
000370 6d 7f c5 b5 97 4d 4e 36 6c 5d 0e 36 45 c4 4a 36
       -1.471473e-06 3.0741555e-06 2.1214028e-06 3.021459e-06
000380 52 f7 b8 35 24 03 ae b5 6d 50 04 b6 e5 c8 4a 35
       1.3781048e-06 -1.2964924e-06 -1.9716347e-06 7.5543204e-07
000390 69 3c 28 b6 4f 48 f8 35 d2 f2 48 33 0c 10 fb 33
       -2.5069114e-06 1.8498484e-06 4.6786973e-08 1.1691017e-07
0003a0 cb 5d aa 35 0c 9d bd b4 d2 5a 5a 35 c4 dd 0d 35
       1.2693284e-06 -3.531826e-07 8.134349e-07 5.2849305e-07
0003b0 8c 25 d8 36 e7 fb 86 b4 b5 87 a2 35 12 7c 1f b5
       6.4416727e-06 -2.5142728e-07 1.2109437e-06 -5.941266e-07
0003c0 7d 14 78 b6 c4 71 41 36 e4 1c b8 36 ca 6e 1f 36
       -3.6966806e-06 2.8825461e-06 5.4869906e-06 2.3757334e-06
0003d0 a1 68 ae 36 a5 c4 96 34 db c5 21 36 5e 28 be b3
       5.1977845e-06 2.8082755e-07 2.4106037e-06 -8.854907e-08
0003e0 7a b8 98 b6 cf 94 ff b6 26 38 ad b6 4d e4 50 b7
       -4.551429e-06 -7.616916e-06 -5.1623383e-06 -1.24509215e-05
0003f0 83 38 60 b6 e6 aa 9d 36 49 4f 52 36 5b 83 80 b3
       -3.3411495e-06 4.69886e-06 3.1338589e-06 -5.984358e-08

exp_avg_sq f4 [40, 40]
000000 c3 f8 ae 33 00 5f 85 34 f6 ec 82 34 90 37 8b 34
       8.147756e-08 2.4842302e-07 2.43868e-07 2.5931195e-07
000010 2b 90 6c 34 c5 1b 92 32 9c ac 18 34 e0 9c 88 33
       2.2031661e-07 1.7009265e-08 1.4218898e-07 6.361529e-08
000020 f1 59 0b 34 b5 e0 28 35 64 68 aa 34 88 aa 13 36
       1.2978104e-07 6.291187e-07 3.1740922e-07 2.200397e-06
000030 3c 59 c2 33 3f d3 f1 34 80 1a 84 34 11 df 85 32
       9.0500606e-08 4.504345e-07 2.4606197e-07 1.5584677e-08
000040 ee ff 30 35 ac 3e 81 33 85 46 41 35 7a f1 c7 31
       6.5937536e-07 6.0184306e-08 7.200072e-07 5.819115e-09
000050 b0 30 16 35 34 74 3b 35 15 6f a5 33 ba 83 fb 31
       5.5950204e-07 6.9832026e-07 7.703617e-08 7.320037e-09
000060 ba 36 20 34 0e 5e 8a 34 49 59 9e 33 a2 9a cc 32
       1.492107e-07 2.5772937e-07 7.373689e-08 2.3819045e-08
000070 ae 3d 38 35 c6 de 29 34 1e 20 6f 33 d6 fb 7c 34
       6.86351e-07 1.5820396e-07 5.5675734e-08 2.3560946e-07
000080 b8 0f 82 34 b9 e4 5f 32 df ff 72 31 d5 45 50 34
       2.4225824e-07 1.3032314e-08 3.536108e-09 1.9396914e-07
000090 93 fd ac 35 17 ac 3b 33 33 cd 29 32 f1 a7 b5 34
       1.2888798e-06 4.3695845e-08 9.883752e-09 3.383607e-07
0000a0 f8 65 5e 36 b8 6c 0d 38 02 ad 2b 38 f4 c2 d8 38
       3.3139931e-06 3.3718272e-05 4.0930703e-05 0.000103359955
0000b0 f1 e5 49 36 91 3c d1 37 86 3e 41 36 92 0b e8 38
       3.0085178e-06 2.4942945e-05 2.8795635e-06 0.00011064777
0000c0 74 45 0d 38 a5 ae 87 35 7f 34 1f 35 36 54 95 36
       3.3681703e-05 1.0109112e-06 5.930851e-07 4.4503495e-06
0000d0 b5 36 d6 37 12 97 9c 38 27 e1 17 38 29 88 8f 37
       2.5536263e-05 7.466799e-05 3.6210895e-05 1.7110333e-05
0000e0 c6 2e 69 36 ae ac fc 38 66 82 56 37 f8 56 78 37
       3.4746931e-06 0.000120484605 1.2785755e-05 1.4802201e-05
0000f0 8d 47 16 36 df 53 7b 35 76 a9 19 34 4f 09 d5 34
       2.239339e-06 9.3626835e-07 1.4310885e-07 3.9681115e-07
000100 19 84 82 35 26 15 9f 35 57 ba c0 38 71 42 f1 37
       9.7242e-07 1.1852578e-06 9.189982e-05 2.8760378e-05
000110 f7 d9 79 37 65 cb 16 39 5f 6c b3 37 a5 bd 13 38
       1.4892305e-05 0.00014380885 2.1388927e-05 3.522415e-05
000120 ef 9c 38 36 c1 25 66 37 d1 10 fa 36 77 9b c3 34
       2.7509484e-06 1.3717859e-05 7.4525383e-06 3.6434696e-07
000130 f3 91 b0 36 09 5e f0 37 81 7b 32 37 de c8 47 37
       5.2621995e-06 2.8654018e-05 1.0638382e-05 1.1908092e-05
000140 7b 9a 21 35 f1 28 1a 37 01 5a 71 36 19 33 84 37
       6.020197e-07 9.188648e-06 3.5964188e-06 1.575942e-05
000150 4a ce 9e 34 1f c0 64 36 75 8f 46 34 e2 fc 6b 37
       2.9579888e-07 3.4086477e-06 1.8492376e-07 1.406597e-05
000160 04 ca 88 36 58 45 e2 35 0f f2 9b 35 9c 90 2e 37
       4.0766336e-06 1.6858494e-06 1.1618848e-06 1.0404878e-05
000170 17 f2 27 36 be ae 75 37 c8 9d 19 37 be 28 38 36
       2.5025854e-06 1.4643823e-05 9.156247e-06 2.7441852e-06
000180 15 c2 9f 35 d7 4d 38 37 95 d4 8c 35 4b 3c b7 35
       1.1902908e-06 1.0985378e-05 1.0492682e-06 1.365211e-06
000190 00 41 6a 35 e1 62 19 36 e5 5b d2 34 99 82 42 34
       8.726638e-07 2.2856332e-06 3.918241e-07 1.8115169e-07
0001a0 5d 0c 81 35 52 e0 d0 34 aa f4 77 37 a1 db 91 36
       9.614847e-07 3.8906234e-07 1.4779313e-05 4.346905e-06
0001b0 72 0b 5f 35 39 93 84 37 19 13 23 36 69 0e 7e 36
       8.309063e-07 1.5804182e-05 2.430001e-06 3.7857337e-06
0001c0 f3 8b 95 34 74 2e e9 35 d8 48 3a 35 1c 1b c3 34
       2.785524e-07 1.7373372e-06 6.93964e-07 3.6341305e-07
0001d0 05 8c 2a 37 21 6d 93 36 7e d4 39 35 65 1a 81 35
       1.016539e-05 4.3936457e-06 6.922709e-07 9.618931e-07
0001e0 09 a9 7c 33 6d d1 48 35 07 ab a6 34 8f 74 af 35
       5.882706e-08 7.481056e-07 3.1044348e-07 1.3072439e-06
0001f0 af d3 30 33 c0 ef 99 34 d7 fe c4 32 a3 06 9b 35
       4.117072e-08 2.8672912e-07 2.293329e-08 1.1550331e-06
000200 df 91 b4 34 ad b7 43 34 fc ba f4 33 8c 65 85 35
       3.3633748e-07 1.8227611e-07 1.1396148e-07 9.938826e-07
000210 a0 b4 65 34 41 b6 a4 35 f7 83 49 35 db 3e 73 34
       2.1392998e-07 1.2271995e-06 7.507037e-07 2.2654005e-07
000220 1b ba 18 34 bb c8 74 35 b3 0b 1f 34 71 cc 00 34
       1.4223808e-07 9.1189185e-07 1.4812285e-07 1.1995304e-07
000230 70 76 f8 33 43 bf 75 34 aa f9 08 33 8a 64 12 32
       1.15699436e-07 2.2886984e-07 3.1892036e-08 8.521178e-09
000240 e8 20 b7 33 13 67 57 33 4f 6f a0 35 2e 29 be 34
       8.527587e-08 5.0152334e-08 1.1953324e-06 3.542022e-07
000250 9a 72 07 34 99 58 aa 35 3f d9 5a 34 f4 c0 ab 34
       1.2614547e-07 1.2691772e-06 2.0381866e-07 3.1991624e-07
000260 bb 84 30 33 45 d0 20 34 2a c4 86 33 47 fa 3c 33
       4.109891e-08 1.4976929e-07 6.275543e-08 4.3999787e-08
000270 58 b3 61 35 69 1d c6 34 03 b2 8a 33 2b 80 e2 33
       8.408001e-07 3.6901773e-07 6.458506e-08 1.0547259e-07
000280 08 a9 53 35 f3 ce b8 32 10 17 c8 36 05 9f 2d 34
       7.88496e-07 2.1514529e-08 5.9631493e-06 1.6169732e-07
000290 80 c4 58 36 93 6c 6e 34 01 d8 3b 35 ea 0c e6 34
       3.2300886e-06 2.2204976e-07 6.9977256e-07 4.2850235e-07
0002a0 19 59 a0 36 5f 62 aa 36 1f 45 0e 36 37 88 40 37
       4.778744e-06 5.0778467e-06 2.1199883e-06 1.1475807e-05
0002b0 f5 87 3a 36 c9 a4 13 35 42 a3 78 32 df d7 a9 34
       2.7795297e-06 5.500156e-07 1.447262e-08 3.163577e-07
0002c0 15 58 a4 36 63 ad 3b 35 28 e9 22 37 96 3f 91 34
       4.897835e-06 6.991524e-07 9.710238e-06 2.705462e-07
0002d0 9c ca cd 36 2b 51 93 36 60 0b 27 34 36 ff 4b 35
       6.133063e-06 4.3903906e-06 1.5557225e-07 7.5994774e-07
0002e0 15 d2 32 35 69 c0 29 36 74 90 ec 35 09 d8 ca 35
       6.6615877e-07 2.529496e-06 1.7625412e-06 1.5113047e-06
0002f0 ed 95 01 37 77 cc c1 36 aa 99 11 36 50 b3 e3 36
       7.7239065e-06 5.775651e-06 2.1696128e-06 6.786002e-06
000300 ec 67 35 36 62 9d 9b 32 ac 8e 50 31 66 13 0e 36
       2.7031592e-06 1.8115944e-08 3.0349083e-09 2.117094e-06
000310 bc 17 48 36 3b 7e 83 33 c7 44 6d 34 d5 d4 cb 36
       2.9816138e-06 6.123124e-08 2.2097366e-07 6.0746484e-06
000320 6d 96 d8 33 a1 34 93 35 34 09 33 34 a9 65 df 32
       1.0085646e-07 1.096767e-06 1.6674022e-07 2.6006846e-08
000330 eb 4c a2 33 ae e4 33 32 aa 1c 84 35 25 69 69 33
       7.557704e-08 1.0471167e-08 9.843109e-07 5.434517e-08
000340 4a 17 9b 34 86 bc 15 35 1d 01 c1 34 46 9d 9f 36
       2.8887945e-07 5.5781163e-07 3.594986e-07 4.7568783e-06
000350 7d ad a0 33 0d cd 41 34 e8 ca 59 35 cb 4f 9c 33
       7.482138e-08 1.8049123e-07 8.1134067e-07 7.27883e-08
000360 65 9f af 35 b1 f3 68 34 70 5f db 34 f9 8a c4 33
       1.3084906e-06 2.1695338e-07 4.086137e-07 9.15224e-08
000370 63 10 8e 34 04 86 a8 35 42 de 45 35 ad 3f df 35
       2.6461484e-07 1.2555979e-06 7.3711647e-07 1.6633327e-06
000380 b8 57 8a 34 0c 48 56 34 0b de 34 35 b3 5f 71 34
       2.5768327e-07 1.9956514e-07 6.737834e-07 2.2479689e-07
000390 e7 05 51 35 a3 ab d4 34 8c 89 b1 33 24 33 9e 34
       7.7867156e-07 3.961296e-07 8.2672244e-08 2.9467003e-07
0003a0 e6 1d 50 34 dd ba c3 32 19 ef fb 33 bb 42 51 33
       1.9382387e-07 2.2785963e-08 1.173159e-07 4.8722296e-08
0003b0 b5 86 d9 36 4f 15 82 32 2c 11 72 34 82 6f 25 34
       6.482786e-06 1.5143682e-08 2.2544253e-07 1.5407389e-07
0003c0 b6 e4 9e 35 cc 96 a3 35 51 b3 91 36 21 b0 03 36
       1.1838481e-06 1.2188334e-06 4.342212e-06 1.9623042e-06
0003d0 57 ba 5f 36 47 95 14 33 0b 4e bc 35 5b 40 6f 34
       3.3338054e-06 3.4594702e-08 1.4029805e-06 2.2282022e-07
0003e0 59 94 37 36 9b 19 f8 36 cd a6 73 36 34 3f b0 37
       2.7355475e-06 7.393957e-06 3.6306913e-06 2.1010266e-05
0003f0 5e da f2 35 61 aa 78 36 72 de b0 35 b0 24 17 33
       1.8093958e-06 3.7054053e-06 1.3177762e-06 3.5190794e-08

exp_avg f4 [40]
000000 0c b5 0e b6 ef 20 d2 37 00 22 c1 b7 a6 26 ca 36
       -2.1265032e-06 2.5049287e-05 -2.3023225e-05 6.0245684e-06
000010 2d 04 0e 37 e3 fe 35 b7 27 e8 37 35 dd b0 be 35
       8.464832e-06 -1.0847786e-05 6.851064e-07 1.4207577e-06
000020 26 48 ca b7 3d 3c 4d b5 d1 33 09 b8 6d 20 20 38
       -2.4113873e-05 -7.645611e-07 -3.2711603e-05 3.817717e-05
000030 61 d3 51 35 64 b8 05 37 74 7d b1 b5 d1 5c e4 35
       7.8166164e-07 7.9703495e-06 -1.3224039e-06 1.7014337e-06
000040 08 8b 21 37 33 e0 18 b7 d8 91 64 b8 80 1a 6f 33
       9.6287185e-06 -9.112106e-06 -5.4495264e-05 5.5670625e-08
000050 97 8a b7 37 89 6e b4 b2 15 a4 8d b7 89 3c f9 b7
       2.1879836e-05 -2.1005023e-08 -1.6884916e-05 -2.9711302e-05
000060 33 44 51 b7 29 ca 12 37 47 15 8e b7 fb 3a 18 37
       -1.247325e-05 8.749347e-06 -1.6937627e-05 9.0736385e-06
000070 6d 83 45 b6 aa ec d1 35 c9 2f 28 b8 74 db f5 37
       -2.9431787e-06 1.5640592e-06 -4.0098825e-05 2.9308467e-05
000080 4d 1e 65 36 9b ed 8b 37 dd 7a de b6 d9 3d fb b7
       3.4141297e-06 1.6680735e-05 -6.6304187e-06 -2.9950332e-05
000090 da 4d 8d 36 b1 cb 28 b6 30 b2 f9 b7 b2 db 58 b6
       4.2111906e-06 -2.5152515e-06 -2.9766088e-05 -3.2314388e-06

exp_avg_sq f4 [40]
000000 ae 11 b5 35 81 50 9a 39 b5 5e bd 38 2d 73 ed 36
       1.3490696e-06 0.0002943315 9.029863e-05 7.0765586e-06
000010 ee b5 1c 37 33 e0 ca 37 bc 02 e2 35 ee cb 55 35
       9.340683e-06 2.4184677e-05 1.6839108e-06 7.964544e-07
000020 b9 b2 dc 38 87 90 17 34 69 30 1f 39 a9 ed 14 39
       0.00010523707 1.411555e-07 0.00015181456 0.00014202915
000030 36 6d f7 33 a3 43 50 37 79 62 13 35 dd c1 c5 35
       1.1521699e-07 1.2413514e-05 5.4905064e-07 1.4734065e-06
000040 ef d5 17 38 41 2e 01 38 64 88 c9 39 43 90 e8 35
       3.6200447e-05 3.0799074e-05 0.00038439326 1.7327333e-06
000050 ac 6a f9 38 e4 1b 1b 30 23 14 76 38 c3 3b b3 38
       0.000118931144 5.6428306e-10 5.8669724e-05 8.5465166e-05
000060 0f 57 66 38 b3 52 48 38 82 22 09 38 54 36 9c 37
       5.4917353e-05 4.7760735e-05 3.2695483e-05 1.8621948e-05
000070 84 19 ec 35 12 c9 23 37 e8 a8 b7 39 58 c8 dc 38
       1.7590796e-06 9.762372e-06 0.00035030325 0.000105277344
000080 29 bf 29 35 8b ef bf 37 16 bb 5c 36 74 1a 2d 39
       6.323558e-07 2.288052e-05 3.2891453e-06 0.0001650842
000090 c3 26 2a 37 8d 8c 88 36 d4 66 1d 39 09 7e 2e 36
       1.01418145e-05 4.069478e-06 0.00015010993 2.6001383e-06

exp_avg f4 [1, 40]
000000 94 27 34 38 0d c8 ab 38 3c 95 60 38 46 8c 95 b8
       4.2952204e-05 8.191178e-05 5.3544747e-05 -7.1310016e-05
000010 df 32 8f b8 76 51 6d b8 9b 34 95 37 bb 12 80 37
       -6.828247e-05 -5.658107e-05 1.778668e-05 1.5267511e-05
000020 16 95 52 b8 95 09 15 b7 74 47 5d b8 8c 5f 03 b8
       -5.020675e-05 -8.883323e-06 -5.2757052e-05 -3.132182e-05
000030 87 00 2d 36 33 20 76 b8 b4 ac ac b6 67 6b 76 b7
       2.5779316e-06 -5.868096e-05 -5.1461047e-06 -1.4687749e-05
000040 82 34 97 38 bf a3 8a b8 28 50 40 b8 0b 7a 36 37
       7.2100214e-05 -6.610853e-05 -4.585102e-05 1.0876461e-05
000050 4b 5c 91 38 2c bf 30 b6 c4 0a 11 37 70 b3 a3 38
       6.93133e-05 -2.633732e-06 8.64518e-06 7.8058685e-05
000060 fa a6 a0 b8 53 f1 aa 38 af 02 82 37 d7 6a 8b b8
       -7.660496e-05 8.151182e-05 1.5498457e-05 -6.647937e-05
000070 fb ef 15 b8 ec b0 8c b8 c1 8f a8 37 c3 55 44 b8
       -3.5747868e-05 -6.7086745e-05 2.0094101e-05 -4.6809913e-05
000080 35 f9 fa b7 3d 65 8f b8 c6 33 9f 37 ff 7c 93 38
       -2.9918368e-05 -6.8376285e-05 1.8978386e-05 7.0327886e-05
000090 53 a4 a6 b8 21 46 96 b8 e2 a6 b3 38 5c cb 2b 38
       -7.9461046e-05 -7.16562e-05 8.5664695e-05 4.095897e-05

exp_avg_sq f4 [1, 40]
000000 58 47 a4 39 c8 e6 6d 3a 8c 64 ec 39 6e b5 5b 3a
       0.00031333673 0.00090752216 0.0004508834 0.0008381222
000010 fb 73 f1 39 10 ce f8 39 1b 55 b6 38 7b 6d 2c 38
       0.00046053514 0.00047455775 8.6942884e-05 4.1109957e-05
000020 ee 13 b0 39 a7 08 a0 37 a0 6f 94 39 db af c6 39
       0.00033584185 1.9077515e-05 0.00028311927 0.00037896525
000030 72 95 5a 37 ad 14 12 3a 7b 18 29 37 ff cd 2c 38
       1.3028608e-05 0.0005572539 1.0078885e-05 4.1199844e-05
000040 da 31 50 3a 95 49 2c 3a 88 f1 22 39 f2 8e 4e 36
       0.0007941999 0.0006572244 0.00015539501 3.0779597e-06
000050 e8 02 1d 3a 22 ac e5 35 0a 7c fe 37 05 fb 87 3a
       0.0005989508 1.7111927e-06 3.033692e-05 0.0010374492
000060 10 33 5a 3a ed fa 66 3a 7b 7a 71 38 34 f3 46 3a
       0.0008323649 0.00088111946 5.7572946e-05 0.00075893407
000070 d6 fd 52 39 8a d2 58 3a 15 34 8b 39 c2 5d 03 3a
       0.00020121722 0.0008271119 0.0002655095 0.00050112244
000080 5f 95 ad 39 d4 89 05 3a 8b 20 ae 38 74 3c 58 3a
       0.00033108421 0.00050940854 8.303028e-05 0.00082487543
000090 e6 7b ad 3a ef e6 71 3a e6 f4 99 3a 28 95 be 39
       0.0013235777 0.0009227832 0.0011745959 0.00036350754
