modelos/heat_20x5-20000.pt (torch, 35622 bytes, 33 tensors)

linears.0.weight f4 [20, 2]
000000 98 65 21 bc ee dc 72 be 1a de e6 be 04 4c 83 be
       -0.009850882 -0.2371709 -0.45091325 -0.25643933
000010 a5 31 54 3f a6 83 b3 be 7d cd 1c 3e 33 59 77 3f
       0.8288825 -0.35061377 0.15312763 0.9662048
000020 c2 f5 24 be ec 80 c0 be f2 58 92 be c5 08 97 3d
       -0.16109374 -0.3759836 -0.28583485 0.073747195
000030 63 7a 35 be 8b b2 3d 3e 54 87 32 be 7c 4e ce bd
       -0.17722468 0.1852514 -0.17434436 -0.100735635
000040 56 0d 52 be 6e 9a af 3e cc e1 06 3d 43 26 e6 3e
       -0.205129 0.34297508 0.03293018 0.44951066
000050 09 4a e2 3e 96 d6 c5 3e 3e ca 63 be 52 b4 2e be
       0.4419711 0.3864028 -0.22245118 -0.17060974
000060 1f d4 44 3d d6 0d 15 bf a4 98 d3 3d 9e 14 91 be
       0.048053857 -0.58224237 0.10331848 -0.28336042
000070 96 1b 1e bf 6e f5 a0 3e ee b2 8e 3e 5b e4 1a be
       -0.6176084 0.31437248 0.27870888 -0.15126173
000080 90 e7 e3 3e b6 2c a5 3e 77 36 b8 be b0 ec bb be
       0.44512606 0.32260674 -0.35979053 -0.36704016
000090 24 d1 15 be db 33 a3 3e e3 9c 37 3e f8 96 c0 be
       -0.14630562 0.318755 0.17930941 -0.3761518

linears.0.bias f4 [20]
000000 ae f1 fa bc 94 56 ae bc 8b cc da b9 db 65 20 3d
       -0.03063282 -0.021281518 -0.00041732597 0.039159637
000010 08 19 c4 bd f2 86 c6 3b d9 ed 39 bc 09 ce 41 3d
       -0.09575087 0.006058567 -0.011348211 0.04731563
000020 51 87 00 bd 5a 9b 2f 3d 23 9b 9d 3c 7a 1e 1c bd
       -0.031379048 0.042872764 0.019239014 -0.038115002
000030 ea 11 68 bc c2 4b 2a bd f3 8f 9d bb b5 74 a5 bd
       -0.014164427 -0.041576155 -0.00480842 -0.08078901
000040 f6 ae ca bd f7 2c bc 3c d0 12 c8 3d 2a b3 5d bd
       -0.098966524 0.02297066 0.09769213 -0.054125942

linears.1.weight f4 [20, 20]
000000 1b a4 ed bd 93 fb c3 be f6 df 8b be cb fb d1 3d
       -0.11603566 -0.38277873 -0.27319306 0.10253104
000010 ba 78 0b be 6b c2 d8 bd 49 f1 e8 3d 0d 9f 18 3e
       -0.13620272 -0.10583957 0.113741465 0.14904423
000020 9d d2 8a be e3 03 94 3e a2 01 61 3e b7 ac c1 be
       -0.2711381 0.28909215 0.21973279 -0.37827083
000030 4b ba 01 3e fc ae 99 be 82 44 9d bc 72 a3 8b bd
       0.12668721 -0.30016315 -0.019197706 -0.06818284
000040 ae f7 52 3e 56 09 e4 bd bf c5 b4 3e a1 5e d9 bd
       0.20602295 -0.11134593 0.35307118 -0.10613752
000050 9f fd 2b 3c 2c e7 ab 3d f7 e1 cb 3e 44 b1 90 be
       0.01049748 0.08393702 0.39820835 -0.28260243
000060 c3 77 e0 bd bc a3 00 3e 14 14 6d 3e a9 44 e0 3e
       -0.10960343 0.1256246 0.2315219 0.43802384
000070 92 d9 d8 bc b3 23 95 3e ad 5d dc be b1 d9 7d 3e
       -0.026470933 0.291288 -0.4304022 0.24790074
000080 d1 20 06 3e 6b eb 8b be 7e bb ae bd fe 62 18 be
       0.13098456 -0.27328047 -0.08531855 -0.14881513
000090 be 7a b6 be ac 79 49 3e 16 86 6d 3e ab 6b ad bd
       -0.3564052 0.1967532 0.23195681 -0.08467802
0000a0 9a 42 b0 3d d4 27 ad 3e a6 1e 00 3e ac 2c 04 3f
       0.08606453 0.3381945 0.12511691 0.51630664
0000b0 fd 93 08 bd de 39 e4 bc 4c 54 19 3f 30 09 3a bd
       -0.033344258 -0.027859624 0.5989425 -0.045418918
0000c0 a0 fb 5b be d5 c6 6f 3d 09 6f a6 3e 61 3a cd be
       -0.21482706 0.05853923 0.32506588 -0.40083602
0000d0 df 94 94 bd 73 ee 54 be 67 c2 b3 3e f1 73 cf 3d
       -0.072549574 -0.20794086 0.35109255 0.10129536
0000e0 0b e3 3b 3e fe 21 e7 bd 66 37 ae 3e da 7c 08 3d
       0.18348329 -0.1128578 0.3402664 0.033322193
0000f0 7d f7 02 3d 8c 7e b7 bd 2c da 47 be 80 2d 65 be
       0.031974304 -0.08959684 -0.1951682 -0.22380638
000100 dc 5e 29 bf 15 ed 92 3e 39 97 c2 be 77 fe 97 3d
       -0.6616037 0.28696504 -0.38006 0.07421582
000110 58 27 0a 3e 14 14 90 bc ee 60 72 bc df a1 fa bb
       0.13491571 -0.017587699 -0.014793618 -0.007648691
000120 a7 44 9e be 97 b7 44 3e ce d2 61 3e 62 3d 14 3e
       -0.30911753 0.19210659 0.22053072 0.1447654
000130 f9 79 04 be ae 4c c0 3c f1 d5 44 3e 0c dc 38 bd
       -0.12937154 0.023474064 0.19222237 -0.045131728
000140 cd 63 1c be a9 5f b1 3e bc 62 7e be bb e0 0b 3c
       -0.15272446 0.34643295 -0.24842352 0.008537467
000150 78 65 aa be e2 59 ce 3d f9 b1 88 3e 56 bb a2 bb
       -0.3328054 0.100757375 0.26698282 -0.00496618
000160 48 d2 2b 3e 3d 8c ec 3d 2b 12 8e be ea fa 12 3d
       0.16779435 0.11550186 -0.27748236 0.03588382
000170 b4 a9 04 bf e4 d2 90 bd e8 3a b7 be bb 1e 02 be
       -0.51821446 -0.07071474 -0.3578713 -0.12707035
000180 58 a0 0c 3d 34 8b 85 be 54 ce b2 3d 1a 62 f3 3d
       0.034332603 -0.26082766 0.0873076 0.11883946
000190 ca 6b c3 3e 96 cd f8 bd 63 c5 1f 3e 0b ab 0c bf
       0.38168174 -0.121485874 0.15602641 -0.5494849
0001a0 50 b8 a6 3e 91 c1 74 3d ad ec 8f 3d e8 a0 1c 3e
       0.32562494 0.05975491 0.07027564 0.15295756
0001b0 33 e7 00 3d 38 c8 39 bf 91 9f d8 3d 6c 72 cf 3e
       0.03147049 -0.72571135 0.1057731 0.40516984
0001c0 ab 89 bc 3e 36 f9 38 3e 5d 86 1f be b7 2e 1e be
       0.36823782 0.18063816 -0.155786 -0.15447508
0001d0 30 d8 af be b8 6e 1d 3e c9 c0 9d be 7f 4a ed 3e
       -0.34344625 0.15374267 -0.30811146 0.46345899
0001e0 37 ca 2b 3e 2c f5 da bc 98 c0 04 be 49 16 8a 3e
       0.16776358 -0.026728235 -0.12964094 0.26970127
0001f0 5f db 1c be c6 b6 5f 3c 66 0b 1a bd 58 e1 b5 be
       -0.15318058 0.013654416 -0.037608527 -0.35523486
000200 d3 b6 e5 ba 71 4a 70 3e dd e8 19 be 8a e8 2e be
       -0.0017525799 0.23465897 -0.15030237 -0.17080894
000210 23 d9 03 be 69 75 35 be 9f c5 2e bc 9b 0a 4b 3d
       -0.128758 -0.1772057 -0.010667234 0.04957066
000220 b6 98 57 3e e3 7d db be a2 ca 18 be 17 95 7e be
       0.21054348 -0.4286948 -0.14921048 -0.24861561
000230 34 f2 f2 bd 98 13 88 3e 6b 47 b4 3e e1 28 ad 3e
       -0.11862603 0.2657745 0.35210738 0.3382025
000240 94 c2 6a be 03 85 a0 3c 91 72 a2 3e 9d 71 bc 3d
       -0.22925788 0.019594675 0.31728032 0.092013575
000250 7e bd ca bc f2 a2 a3 3d b1 be 63 bd 39 6d 8c 3e
       -0.02474856 0.07990064 -0.05560178 0.2742708
000260 66 e1 aa be 48 18 ad bd 27 52 33 3e 63 50 2d be
       -0.3337509 -0.08451897 0.17511807 -0.16925196
000270 a9 d8 54 be 6e 2c 2e bd aa e8 a7 3d aa 09 b3 be
       -0.20785774 -0.04252284 0.08198674 -0.3496831
000280 69 d0 a7 3d dc 1b c8 3d 49 50 ff bd d0 39 a0 be
       0.08194048 0.09770939 -0.12466485 -0.31294107
000290 c3 e4 b1 bd e0 cf fa bd db 1d c4 3b 68 45 b2 be
       -0.08686211 -0.1224668 0.0059850044 -0.34818578
0002a0 a2 f9 cd 3e 3d b1 be bb d4 da 97 be e4 4f a0 3e
       0.40229517 -0.0058194683 -0.2965914 0.31310952
0002b0 e9 5f c1 be 04 a4 78 bd 58 be 20 be e9 7a 50 3e
       -0.37768486 -0.060703292 -0.1569761 0.20359387
0002c0 7a 94 fb 3d a3 4a a0 be d6 f8 ad bd ae 37 8a bc
       0.12284179 -0.31306943 -0.08494727 -0.016872253
0002d0 02 8b 54 be 54 d5 4c bd 33 4b 29 bf d2 7a 07 3e
       -0.20756152 -0.050008133 -0.6613037 0.13230446
0002e0 10 8c e1 be f4 88 85 3c 6a 1b eb bd 34 2f 82 bd
       -0.44052172 0.016300656 -0.11479838 -0.063566595
0002f0 68 fe 99 be 12 13 87 3e 9a 02 81 3e 97 de c7 3e
       -0.3007691 0.26381737 0.25197297 0.3903701
000300 4d 2c b6 be bc c9 31 be bf 51 b8 3e 10 f8 5c 3c
       -0.35580674 -0.17362112 0.35999867 0.013486877
000310 99 68 e1 bd 91 8f 08 be df d0 f7 3e 08 f7 ae be
       -0.110062785 -0.13336016 0.48401543 -0.34172845
000320 78 a5 c7 3e 67 ea 1b 3c 10 48 21 3e ef b9 06 be
       0.3899343 0.009516335 0.15750146 -0.13156866
000330 11 1f a8 3e b7 7e 50 bd d1 74 86 3d d2 1e be bd
       0.32836202 -0.050902095 0.0656525 -0.09283222
000340 09 05 07 3f e5 56 84 3e b7 f9 14 3e 05 34 a5 bc
       0.5274206 0.25847545 0.14548384 -0.020166406
000350 d7 50 d6 3d 6c 2f 52 3e aa da da bd 90 be d9 3d
       0.10464638 0.20525903 -0.10686238 0.1063205
000360 88 fa d6 3e 6a 29 45 be 6b a9 a3 be 52 ad a2 be
       0.41988015 -0.1925408 -0.31965193 -0.31772858
000370 16 f9 49 bd 79 2f fc bd 01 9e 22 3b 1e 06 38 3e
       -0.049309812 -0.12313742 0.0024813416 0.17971084
000380 89 fd 46 bd b5 3c a6 bd c1 b4 a3 bc d3 d5 fe be
       -0.048581634 -0.08117048 -0.019983651 -0.4977251
000390 11 da 14 3d 18 9a c8 bd e7 ca 23 3e a0 61 33 3e
       0.036340777 -0.09795016 0.1599537 0.1751771
0003a0 df 03 14 3d 91 aa ae 3e 04 ef 1b 3e 4c 26 10 3e
       0.036136504 0.34114507 0.15227896 0.14077109
0003b0 67 2e b5 bd a2 df b2 3b 40 45 0d be 46 00 04 3f
       -0.08846741 0.005458788 -0.13795948 0.5156292
0003c0 e3 63 85 3d 56 4e 2c be b8 17 12 3e b4 36 b1 bd
       0.065131925 -0.16826758 0.1426686 -0.08653012
0003d0 10 af 3b 3e c0 1c d8 3d c6 b5 9a 3d 3f 44 bb 3e
       0.183285 0.105523586 0.07554202 0.36575505
0003e0 ae 21 80 bd 6d f6 a6 bd c0 6c d5 bd 16 6f 25 3e
       -0.06256424 -0.08152471 -0.10421133 0.16155657
0003f0 30 19 04 be 73 2a 82 be 0c 1d 44 3c e2 d5 cd bd
       -0.12900233 -0.2542301 0.011969816 -0.100505605

linears.1.bias f4 [20]
000000 88 f1 70 3d 29 0f 0c 3d c8 94 a9 3c ed c1 b2 3d
       0.058824092 0.034194145 0.020700827 0.08728395
000010 02 b9 f7 bc 5d 67 0a bd 8d 0b 33 3c 30 11 e2 bb
       -0.030239586 -0.03378998 0.010928047 -0.0068990216
000020 c4 7e 4c bc ba 87 89 3d ba 7c 63 bc 58 cf bf bc
       -0.012481395 0.06715341 -0.013884718 -0.023414299
000030 b7 c8 21 bb 71 55 3c 3d d8 38 c2 3c bb 13 3c 3d
       -0.0024686286 0.04597992 0.023708746 0.045917254
000040 de d5 a8 bc 88 66 7d 3c 94 f7 29 3d 97 a3 11 3e
       -0.020609792 0.01546634 0.041495875 0.14222561

linears.2.weight f4 [20, 20]
000000 5b a1 d2 be 41 54 1d be ee c7 ec 3d ab a8 81 3e
       -0.4113873 -0.15364172 0.11561571 0.25323996
000010 24 ff 96 be af d3 cb be 31 65 a7 3c 1f 22 a7 be
       -0.29491532 -0.3980994 0.020433994 -0.3264322
000020 91 b0 13 3e d9 f6 90 3d a1 ea 23 be d9 71 1a 3e
       0.14422823 0.070783325 -0.16007473 0.15082492
000030 fb ba 72 be fc 50 03 3d d1 cb c5 bc 7f 35 1a be
       -0.2370414 0.032059655 -0.024145039 -0.1505947
000040 a7 57 c9 3e 65 bf 5b be 79 88 a8 be 44 9d 32 3e
       0.39324686 -0.2145973 -0.3291662 0.17442805
000050 88 ff a5 be b0 54 36 be 78 d1 5d 3d 1c 95 0e be
       -0.32421517 -0.17805743 0.054154843 -0.13924068
000060 4a f1 20 3d 8d c2 21 3e aa 37 a3 bd 9b 76 c6 3d
       0.03929261 0.15796871 -0.079696015 0.09690591
000070 e8 33 1b 3e bb 51 86 be 65 b1 c8 3e 91 7d 5d 3d
       0.1515652 -0.2623423 0.3919784 0.054074828
000080 90 59 64 be ac 13 cf bd cb f2 cf be 76 36 e0 bd
       -0.2229979 -0.10111174 -0.40614924 -0.109478876
000090 68 72 58 3e a5 e9 81 3e da 40 30 be 9a 1f 95 bd
       0.21137393 0.2537357 -0.17212239 -0.07281418
0000a0 f4 7a e6 3d db 12 19 3d 27 ea 3a 3e 9e fd 0e bd
       0.1125392 0.037371498 0.18253385 -0.034909837
0000b0 59 e9 e2 be 7f 82 9f 3d 90 26 8e bc 44 5b 97 be
       -0.44318655 0.07788562 -0.017352372 -0.29561818
0000c0 37 4c 92 3e 4f 20 23 3e dd ea bc 3d 7d 39 14 bd
       0.28573772 0.15930294 0.09224484 -0.036187638
0000d0 31 a2 9a 3d 19 f1 a0 be 21 0f 20 be 16 90 81 bc
       0.07550467 -0.31433943 -0.15630771 -0.015815776
0000e0 42 b8 15 be 1e 33 14 be 7a 9b b5 be 1d e6 d4 bd
       -0.1462107 -0.14472625 -0.35470182 -0.10395453
0000f0 64 0a 09 3e 3c ad b1 be bc 5d 82 bd 3d 63 b4 bd
       0.1338287 -0.3470248 -0.06365535 -0.08807991
000100 d0 56 0d bf 6e a1 33 be 6d c7 2f bd 96 dc d8 be
       -0.5521059 -0.1754205 -0.042914797 -0.42355794
000110 2b 62 37 3e 96 61 97 3e 27 b2 26 bd 18 7c b6 bd
       0.17908542 0.2956664 -0.040697243 -0.08910388
000120 0b 89 45 3e 39 5f 8c 3e ff 0c 93 be fc 19 83 3e
       0.19290559 0.274164 -0.28720853 0.25605762
000130 47 4e 83 3d 5e 4b 66 3e 2f 28 5a 3e 8f f6 07 be
       0.064114146 0.22489688 0.21304391 -0.13277648
000140 86 0c 1e 3d f9 63 1d 3e 79 e8 81 3e 27 b6 51 3e
       0.038586162 0.15370168 0.25372675 0.20479642
000150 c0 0e 52 be c9 dd 20 bf 8a 4a e7 be dc 76 c7 3e
       -0.20513439 -0.6283842 -0.45174056 0.3895787
000160 ae b1 a7 3d 46 0e 29 bd 0d 17 71 be 0f a2 11 bf
       0.081881866 -0.041273378 -0.2354395 -0.56887907
000170 1c b4 44 be 34 1a 94 be be 45 fe 3c 41 b8 3f 3e
       -0.19209331 -0.2892624 0.031039115 0.18722631
000180 eb e1 b7 bd 92 81 96 3e c7 53 8a be f7 95 51 3f
       -0.08978637 0.2939573 -0.27017042 0.81869453
000190 23 dd 63 bd f2 f5 23 bf 5b 64 2d be 7d 40 48 3d
       -0.055630814 -0.6404716 -0.16932814 0.048889626
0001a0 32 7d 8e bd 20 87 50 bd d7 68 5f 3d ab 83 d1 be
       -0.06957473 -0.050910115 0.054543342 -0.40920767
0001b0 20 da ce bc a7 50 82 3e 98 85 8e be 72 d1 c4 3e
       -0.025250494 0.25452158 -0.278363 0.38441044
0001c0 fc 12 d0 3d f4 25 6d 3e 58 3a 0f bd 92 64 4d be
       0.10159871 0.23159009 -0.03496775 -0.20057896
0001d0 76 bc 82 3e df cd 83 be 0e fd b7 3d 73 04 df 3c
       0.2553441 -0.25743005 0.08983813 0.027223801
0001e0 7a d1 7a be 3b 89 dc 3e 53 6a 4a 3e 29 9e 0f 3e
       -0.24493971 0.4307345 0.19767122 0.14025177
0001f0 94 75 95 3e ed c0 0b bd 41 67 92 be 44 4a 49 3f
       0.29191267 -0.034119535 -0.285944 0.78628945
000200 9e 0f b9 3e 43 f3 29 ba cc 22 e8 bc 39 57 d6 3d
       0.36144727 -0.0006483087 -0.028336905 0.10465855
000210 62 6d 40 be 58 2f f5 3d 00 36 bb 3e b5 94 d5 3e
       -0.18791726 0.11971921 0.36564636 0.41715017
000220 fc 3c c3 be 4a ad 18 3f b0 88 02 be b3 76 ad 3d
       -0.38132465 0.5963942 -0.12747455 0.08469906
000230 43 53 62 be 0f ce a8 bd e7 0b 95 be cc 76 d0 3c
       -0.22102074 -0.082424276 -0.29110643 0.025447272
000240 b1 ee 2f bf d2 52 af 3e 98 8d be be 2c 6a 68 be
       -0.6872359 0.34242874 -0.37217402 -0.22696751
000250 dd d0 bf 3e f0 af 00 3e e5 88 91 be 16 23 cb 3e
       0.37464038 0.12567115 -0.28424755 0.39675206
000260 01 2e fc 3d fc fb c7 3d 88 8d c0 bb fb a4 d2 3d
       0.12313462 0.09764859 -0.005876247 0.10285374
000270 a5 d0 1a 3e cc f3 1b bf 53 57 9e 3d 30 89 15 3e
       0.15118654 -0.6091888 0.077314995 0.14603114
000280 5e d7 2f be e5 49 2c 3e 39 04 e7 be 5b 70 8d bd
       -0.17172 0.16825064 -0.4512041 -0.06906196
000290 13 2c f9 3d 28 e3 1c 3e 7e 7c 14 be c6 dc 8e 3e
       0.121666096 0.15321028 -0.14500615 0.27902812
0002a0 f4 7d 8c be 4b 3c 85 be 84 4a f2 bd 40 16 98 3c
       -0.27439845 -0.26022562 -0.11830619 0.018565297
0002b0 c8 4c ee 3e 49 8a 55 bf c8 68 04 3e fe 11 c2 bd
       0.46542954 -0.8341413 0.12930596 -0.09476088
0002c0 e2 54 07 be b7 9c 01 be 70 2e 2d 3e 34 be c2 be
       -0.13215974 -0.12657438 0.16912246 -0.38035738
0002d0 fd f2 b1 be b6 71 16 3d b3 36 79 be 2d 17 8c be
       -0.34755698 0.036729537 -0.24337272 -0.27361432
0002e0 24 0f 9d bd 0c 7d 9e 3e fd d8 af 3c 0e 6c 5e be
       -0.076689035 0.30954778 0.021465773 -0.21720907
0002f0 2c 81 ed bd 6f 1d 84 be 2d 51 86 bd 5d 66 0a be
       -0.11596903 -0.25803706 -0.06558452 -0.13515611
000300 be 9c b4 3d 6f 12 08 3c ce 7b 1b be 40 cc 7d bc
       0.08818959 0.008305176 -0.15183946 -0.0154905915
000310 cb c7 4d bd 9a 24 a4 be 36 1a d1 bd f2 a3 8b be
       -0.050239366 -0.32059175 -0.102100775 -0.27273518
000320 4f 84 7f 3e 0c 37 ac 3e ea 3a 6c be 13 77 bd 3e
       0.24952815 0.33635747 -0.23069349 0.3700491
000330 d2 8b 7b bd 03 7d 79 3c 69 49 10 3b 6f 68 02 3e
       -0.06141264 0.015227559 0.0022016412 0.12735151
000340 5c 6b 5e 3b fa 00 9b bd 7c 2c c8 bd 92 3c 4a 3d
       0.0033938503 -0.07568546 -0.0977411 0.04937417
000350 8e 03 b1 be a8 16 9e be e6 d7 a7 be ee 3f 83 3d
       -0.34573025 -0.3087666 -0.32781905 0.06408678
000360 0e 19 e0 bd ca 6e 4e bc 43 72 06 3e 8f f6 40 be
       -0.10942279 -0.012599656 0.13129525 -0.18844055
000370 4d 19 a1 be d0 53 9f 3e 4d 32 de be 56 d5 44 3e
       -0.31464615 0.3111863 -0.4339775 0.19222006
000380 8a 1f f5 3e f2 84 03 3e 47 42 8e be 88 c9 47 be
       0.47875625 0.12843683 -0.2778494 -0.19510472
000390 e3 5f 93 bd 23 80 21 bd 05 9b 32 3e b8 dd 2f 3e
       -0.07196023 -0.03942884 0.17441948 0.17174423
0003a0 71 51 28 be f0 47 ed be a1 4d 5e 3e e2 0e 6c be
       -0.16437317 -0.46343946 0.217093 -0.23052552
0003b0 23 9c a6 3d 6d 94 4c be d7 67 91 3c 8b 17 0a be
       0.081352495 -0.19978495 0.01774971 -0.13485543
0003c0 76 d7 8f 3e a3 0d 66 3e 53 9f e6 be 11 d8 fd 3e
       0.2809407 0.2246614 -0.4504343 0.49578908
0003d0 f4 cf cd be 88 1a 2f 3f 86 9c 91 be 81 8c 43 3e
       -0.40197718 0.6839986 -0.2843973 0.19096567
0003e0 1c d5 39 be 3d af 41 be 0e 80 a7 bd a2 59 2f be
       -0.18147701 -0.18914504 -0.08178721 -0.17124036
0003f0 af 2f 2d 3f bb 5d 5f be c3 2f 12 3e 8b e2 d8 3e
       0.67650884 -0.21813099 0.14276032 0.4236034

linears.2.bias f4 [20]
000000 04 3e 63 bb c4 48 7d bd d7 42 bd bb 2a 3a 26 3d
       -0.0034674415 -0.061836973 -0.00577579 0.040582813
000010 9f 78 10 3d 31 ed 0c 3d d6 69 82 ba 8e 6b 32 bd
       0.035271283 0.03440589 -0.0009949754 -0.043559603
000020 70 04 a3 bd 31 f2 8a bb 45 62 87 3d fb 8e 0b 3c
       -0.07959831 -0.0042402972 0.0661054 0.008517976
000030 04 6f 40 3b da 81 67 3d fb 45 73 bd 6a c4 e0 bc
       0.0029363045 0.05652032 -0.05939291 -0.027437408
000040 b1 c0 9b 3c a0 98 0e 3d 1b 71 3e bd b5 88 02 3c
       0.01901278 0.034813523 -0.046494585 0.007967164

linears.3.weight f4 [20, 20]
000000 e1 1e d6 3e 65 6c e9 be 64 11 95 3a 20 cc 74 3e
       0.41820434 -0.4559051 0.0011372981 0.23905993
000010 b6 fb 4c 3e e1 03 34 3e 1b b3 78 bb b8 cd 9d 3c
       0.20017895 0.17579605 -0.0037948552 0.019263133
000020 ee 68 05 bf db 5d 29 be 95 5e 2b 3e fd 78 02 bf
       -0.52113235 -0.1653971 0.16735299 -0.50965863
000030 62 3d 21 be 04 b1 8c 3e 20 b4 a8 be 62 84 c8 be
       -0.15746072 0.27478802 -0.32949924 -0.391635
000040 3b b7 e5 be c4 9f 4e bd dd 32 05 bf d3 53 a9 3e
       -0.44866356 -0.050445333 -0.52030736 0.33071765
000050 03 75 10 bf d7 6f 58 be 01 91 43 be 1e a1 e2 3d
       -0.56428546 -0.21136414 -0.19098283 0.11065887
000060 dd 2c 13 3e ab 63 43 3d f2 90 0d be 2c 95 ed be
       0.14372583 0.047702473 -0.13824823 -0.46402872
000070 2d a6 d7 be e5 00 ec bd 61 71 97 3c 70 95 48 bd
       -0.4211897 -0.11523608 0.01848668 -0.04897064
000080 cb 2b 8a 3e 34 f1 60 3e 86 b1 cd 3c b0 3a 1d 3b
       0.26986536 0.21967012 0.025109064 0.002399128
000090 4d 8b 3f 3f 1d 2b 8a 3d f4 c7 9b be b9 02 72 3d
       0.7482193 0.067465045 -0.3042599 0.059084628
0000a0 7e 91 bc be 64 09 62 bd 01 14 5a be f3 9d ef 3d
       -0.36829752 -0.055184737 -0.21296693 0.11700048
0000b0 a0 6a 5e 3e 74 20 12 be 0a 1b c7 3e 37 fc 56 3b
       0.21720362 -0.14270192 0.38887817 0.003280414
0000c0 45 72 02 bd 3f 25 14 3e 98 79 14 39 ab 52 3e 3e
       -0.031847257 0.14467333 0.00014159677 0.18586223
0000d0 02 38 b5 3e 3e 4b d4 3d 88 23 24 3e 53 53 bf bd
       0.35394293 0.10365914 0.16029179 -0.09342065
0000e0 86 d7 15 3f c5 47 8a bb 23 cb 85 be 8a 10 04 bd
       0.5853199 -0.0042199814 -0.26131544 -0.032242335
0000f0 fa 69 31 be 7c e6 ce 3e 67 a1 ec 3e 13 2f f7 bd
       -0.17325583 0.4041022 0.4621689 -0.120695256
000100 ca a5 70 bd 15 40 6a be 37 cf 21 3c 31 46 12 bd
       -0.05875186 -0.22876008 0.009876064 -0.03571147
000110 5a de 09 3e b2 32 27 3f 52 f9 8c be e0 ee 72 3e
       0.13463727 0.6531173 -0.27533966 0.23723936
000120 b5 e5 4b 3e 22 7a 7e 3e 4b 77 82 3e b3 a4 64 3d
       0.19911845 0.24851277 0.25481638 0.055821132
000130 d3 6f 09 bf 48 c5 94 bd bf 26 ad 3e 8f 9b e2 bd
       -0.53686255 -0.07264191 0.33818623 -0.11064827
000140 89 20 30 be b2 5f 41 be b8 cf ae 3d 39 d3 d8 3e
       -0.17199911 -0.18884161 0.08535713 0.4234865
000150 ee 56 d7 3d 93 ef 03 3e ed 90 28 bd 8f 40 44 bc
       0.105146274 0.12884359 -0.041153837 -0.011978283
000160 b4 ec b1 3d d8 f9 aa 3d 26 47 90 be 70 8f ee 3d
       0.08687726 0.08348435 -0.28179282 0.11648452
000170 c0 9d 92 be f5 f9 dd bd 7f 5d 13 bf 4a 3d f2 bd
       -0.2863598 -0.10838691 -0.5756454 -0.11828096
000180 49 b3 da 3e ec 35 18 bc 20 31 79 be 6e 03 80 3e
       0.4271491 -0.0092902 -0.24335146 0.25002617
000190 59 a5 65 3d b9 c8 40 bd 14 25 6d 3d ac 2b 9b 3d
       0.05606589 -0.047066424 0.05789669 0.07576689
0001a0 7c 0e 91 3e f4 2f 5e 3e 32 fd 5d 3d 72 8b 38 3e
       0.28331363 0.2169798 0.054196544 0.18021944
0001b0 07 e2 8f bc 08 ab cd 3e e3 0d 17 3f da 97 0d ba
       -0.017563833 0.4016955 0.59005564 -0.0005401351
0001c0 e0 48 af b9 ff fa cd be 7c a0 d0 bd dd f8 f8 3d
       -0.00033432897 -0.40230557 -0.1018686 0.12156842
0001d0 c8 b5 81 3e d9 75 c6 bd a9 23 5e be 3f 30 e3 3d
       0.25334 -0.096904464 -0.21693291 0.110931866
0001e0 c1 e2 aa be ce be 1d 3d 44 91 96 bd ca 3c 3a be
       -0.33376125 0.038512044 -0.07351926 -0.18187252
0001f0 35 75 32 3d 2b 49 f5 be 7e 87 0e 3f 50 ae 58 be
       0.04356881 -0.47907385 0.55675495 -0.21160245
000200 db aa 35 3e f5 a2 84 bd c5 15 90 3e e9 c8 d4 3d
       0.17740957 -0.06476394 0.2814161 0.10389883
000210 27 db e7 3e a2 cb 85 3e e0 9f 00 3f e0 a4 f8 3e
       0.45284387 0.26131922 0.5024395 0.4856329
000220 dc a5 95 be 03 d0 d1 3e db c9 cf 3e bd c8 82 3e
       -0.29228103 0.40979013 0.4058369 0.25543776
000230 1b 6c 84 bd 9a 78 c4 bd a3 77 4f bd 47 c9 30 bd
       -0.06465932 -0.095933154 -0.050651204 -0.043160703
000240 55 da 06 3e 77 c4 81 3d 26 fc a1 3c 7d f5 c8 3e
       0.13169225 0.06336301 0.019773554 0.39249793
000250 8e 60 89 3e 77 30 f3 bc f4 20 04 3c 7c 26 93 3e
       0.26831478 -0.029686196 0.008064497 0.287403
000260 96 70 aa 3e 9d 5b 80 be a1 2e 31 3e 2d db 00 3e
       0.3328902 -0.25069895 0.17302944 0.12583609
000270 5c 54 4b be bc 8a 68 be e1 d8 c5 3e c0 ef 75 3e
       -0.198564 -0.22709173 0.38642028 0.24017239
000280 ba 42 8d 3e ca e5 8f 3c a7 a5 83 3e ae 07 70 3e
       0.2758997 0.017565627 0.2571232 0.2344043
000290 ca aa 08 bf 46 c0 31 bd a4 e7 39 bf bd ba ea 3e
       -0.53385603 -0.043396257 -0.7261908 0.45845595
0002a0 27 45 25 be d4 83 be 3e 85 06 76 3e 4b 36 f7 bd
       -0.16139661 0.37209952 0.24025925 -0.120709024
0002b0 cd 9e 1e 3e b7 61 72 3e e4 9d 9e 3c 74 a4 68 3e
       0.15490265 0.23670088 0.019362397 0.22718984
0002c0 15 b6 3c bd f2 d4 18 3e 8b 27 83 bb b1 2d f5 be
       -0.046072084 0.14924982 -0.0040025166 -0.47886422
0002d0 cb 34 15 3e 5d 3c 37 be 02 9b d2 3e bf eb a0 be
       0.1457092 -0.1789412 0.41133887 -0.3142986
0002e0 16 80 66 bf 11 21 0a 3f a8 2e a0 be ec 7e 85 3e
       -0.90039194 0.53956705 -0.31285596 0.26073396
0002f0 42 e5 62 3e 7e 66 9c bd 8a 59 f4 bd 67 0c 81 be
       0.22157767 -0.07636736 -0.11931141 -0.25204775
000300 5f 1c 01 bd eb 71 36 be 9d ad ce bd fe 65 3a bc
       -0.031521197 -0.17816894 -0.10091708 -0.011376856
000310 8d e4 34 3d 1f 76 6d 3c cf a3 97 be 0b 4a f8 3d
       0.044163276 0.014493494 -0.29617164 0.121234976
000320 d5 8f c7 3c 76 ac 95 3b aa 62 3c 3d fa 15 62 3e
       0.024360577 0.004567678 0.04599253 0.22078696
000330 5f dd d0 bd 80 b9 0c be 76 35 04 be 62 a5 86 be
       -0.10198473 -0.13742638 -0.12911019 -0.26298052
000340 5f c9 59 bd 89 be b8 3e c5 e8 18 3d ca 91 50 3d
       -0.053170558 0.36082867 0.03733136 0.050920285
000350 4c 35 7d 3d 6f 5b 21 be b5 5b 68 bc 0f 6f c6 3d
       0.061818406 -0.15757535 -0.014182021 0.096891515
000360 2b 4b 6a 3d b0 f0 9e 3e 13 fd 06 3e 8f 1a ba bd
       0.057200592 0.31043005 0.13182478 -0.09087097
000370 af f8 12 be a2 4d c9 bd 86 41 d8 be 3f 23 8f be
       -0.14352678 -0.098292604 -0.4223749 -0.27956578
000380 a0 b5 61 3e 5b 54 ed be b1 94 85 3e bf c8 62 3e
       0.2204194 -0.4635342 0.26090005 0.22146891
000390 30 0b 78 3c 3a 2d 2a 3f 8a 4c 03 3d 52 41 b5 3d
       0.015139386 0.6647526 0.032055415 0.088503495
0003a0 e7 94 34 3e 39 a1 01 3f 06 88 c2 3e bf 48 bb be
       0.17634927 0.5063663 0.37994403 -0.36578938
0003b0 52 2f 0d 3d c2 d1 9b 3e 57 15 3c 3e 5e 31 73 be
       0.034468956 0.3043347 0.18367516 -0.23749301
0003c0 b4 f1 b1 3e c8 17 07 bc cc 95 46 bd dc 36 98 3e
       0.34754717 -0.008245416 -0.0484827 0.29729354
0003d0 d1 02 f7 3c 47 39 16 3e 65 a1 b3 be f5 63 09 3e
       0.03015271 0.14670287 -0.35084072 0.13417037
0003e0 41 05 e1 be a6 30 33 3e d0 01 fc bd 55 d2 3c 3d
       -0.4394932 0.17499027 -0.12305033 0.046099026
0003f0 cd c2 1c be 5a b9 f6 3d 7d 98 44 bd d6 cb 24 3e
       -0.15308686 0.12047072 -0.047996987 0.16093382

linears.3.bias f4 [20]
000000 0a ea c3 3c 03 50 b0 3c e4 05 93 3d 3c 07 59 bd
       0.02391531 0.021522528 0.07178858 -0.052985415
000010 7b 25 39 3d 74 b0 ec 39 44 14 23 bc 06 5a 78 bc
       0.04520176 0.00045144896 -0.009953562 -0.015158182
000020 e1 28 fe 3b 17 a5 74 bc f9 42 54 b9 6e 71 12 bd
       0.007756338 -0.014931939 -0.00020242845 -0.035752706
000030 8f e2 b1 3c 56 f3 db 3c e9 aa c0 bb e5 f8 a2 bb
       0.021714477 0.02684943 -0.005879749 -0.004973518
000040 64 91 23 3d c6 a8 fa bc 68 a1 c2 bb 73 4e 56 3c
       0.039933577 -0.030598056 -0.0059396513 0.013080227

linears.4.weight f4 [20, 20]
000000 4a 46 90 3e 7d 53 66 be 05 65 5f 3e 15 7b 96 bd
       0.28178626 -0.22492786 0.2181588 -0.07347695
000010 66 42 52 be ae b8 41 3e fd d3 0c 3e 27 88 44 3c
       -0.20533141 0.18918106 0.13752742 0.011995352
000020 93 ae 33 3e 45 65 8d 3e c0 b5 8a 3e 1e 9f 0f 3e
       0.17547064 0.27616325 0.2709179 0.14025542
000030 1f 52 2c 3e 31 a3 a8 be f5 36 39 3e 4a fb 88 3e
       0.16828202 -0.32937005 0.1808737 0.26754218
000040 1d 01 0b 3f 9f 59 46 be e8 31 48 be 2f f3 d8 3d
       0.54298574 -0.19370125 -0.19550288 0.105932586
000050 48 30 fa 3e ef 08 d4 3c 23 8d c2 3d e6 5b 4c be
       0.4886496 0.025883166 0.09499576 -0.19956931
000060 9b fb 4d be c5 82 85 be 2a 3d 77 3e 4f 7f 0f be
       -0.20115511 -0.26076332 0.24144426 -0.14013408
000070 aa b9 7a 3d 19 59 15 bd 01 39 f9 bd ae d7 86 3e
       0.06121222 -0.036461923 -0.12169076 0.26336426
000080 1e e1 22 3e 78 3c 6f bd 11 e7 7d bd 2e aa 9c 3e
       0.15906188 -0.058407277 -0.06198794 0.30598587
000090 e2 a2 97 3d 21 41 c8 3e 1c 3d bb bd 56 56 bd 3e
       0.07404114 0.3911219 -0.09142515 0.36979932
0000a0 21 1f 22 be 99 d5 46 be b4 9d 88 be 73 dc 1a be
       -0.15832187 -0.19417419 -0.26682818 -0.15123157
0000b0 88 29 43 3d 03 71 f9 3e 73 db 0f bf 8a 7d 00 bf
       0.04764703 0.48719034 -0.5619423 -0.5019156
0000c0 45 4e 95 bd b5 c7 21 3f 1c 3d d0 be 89 18 77 be
       -0.07290319 0.63195354 -0.40671623 -0.24130453
0000d0 97 f4 f2 3d 22 f8 10 bf 95 1e 95 be e5 de 77 3d
       0.11863058 -0.5662862 -0.29124895 0.060515303
0000e0 15 52 a9 3d 4f cb 81 3d a7 06 2a 3e 45 9a 29 3d
       0.08267609 0.06337606 0.166041 0.04140689
0000f0 4e 2e ab 3c f7 91 2e bd 1d b4 3a bd 46 7c 54 be
       0.020896103 -0.04261967 -0.045581926 -0.20750532
000100 20 4c 1c 3d 65 e1 e7 be d4 1e 6b 3e db 06 99 be
       0.038158536 -0.4528915 0.22960979 -0.29888043
000110 fe 6f 1c bf 42 81 b9 be b8 ee b9 bd 15 58 d8 ba
       -0.61108387 -0.36231428 -0.09078735 -0.0016505743
000120 aa 84 64 be 55 c9 3f 3e ad 40 b5 3b 6d ed 28 3f
       -0.22316232 0.18729146 0.0055313916 0.65987283
000130 ba 3d 96 3d b5 8d bb be ae bc 37 be 58 57 55 3e
       0.07335992 -0.3663155 -0.1794307 0.208341
000140 09 5e a9 be 49 7b 60 3e fc f6 b3 be eb 2f 28 be
       -0.33079556 0.2192203 -0.35149372 -0.16424529
000150 33 94 a6 3e 7f fc bf 3e 73 25 2f 3d 0a bd 92 be
       0.32534942 0.37497327 0.042760324 -0.2865985
000160 f7 10 a5 be e2 f7 21 be 40 65 3c be 3d 08 d0 bd
       -0.32239506 -0.15817216 -0.18397999 -0.10157821
000170 45 43 3d 3e a5 af 85 3e 2e 4c 2b be 59 92 b4 be
       0.18482693 0.2611057 -0.16728279 -0.35267904
000180 82 b7 e9 bd 0f b0 78 3e b3 33 b2 bd 9e 67 a3 be
       -0.114119545 0.24285911 -0.08701267 -0.3191499
000190 ca 9c 62 3e 9c 88 10 3e 83 6f 60 3e 5d f9 bd be
       0.22130123 0.14114612 0.21917538 -0.37104312
0001a0 02 ef f9 bd 11 89 9f 3e 4c 9c 7d be 88 b5 6d be
       -0.1220379 0.3115926 -0.24766654 -0.2321378
0001b0 f1 d5 d8 3e 55 9c d4 3d cb 86 9a be fc ce ab be
       0.42350724 0.103813805 -0.30180964 -0.33556354
0001c0 b7 13 23 3e ac 3e cf be 2e e1 58 3e 33 23 50 3e
       0.1592549 -0.40477502 0.21179649 0.20325927
0001d0 63 90 cf 3e f9 35 d4 3e 0c b5 5a 3e 87 e9 30 3e
       0.40539846 0.41447428 0.21358126 0.17276584
0001e0 a0 70 0b be b0 6b d6 bc dd 2f 2b 3d f8 00 94 bd
       -0.13617182 -0.026174396 0.041793693 -0.07226747
0001f0 45 80 e2 bd fe 28 29 be 70 00 66 bf 0e f7 6d be
       -0.11059622 -0.16519544 -0.8984442 -0.23238775
000200 ee df e4 3d 74 01 d5 3d 0c fb a2 bd 30 8a 07 3d
       0.11175524 0.10400668 -0.0795804 0.03309077
000210 a5 b3 21 3f c1 1e c6 be 0a 50 33 be 44 b4 de bd
       0.6316474 -0.38695338 -0.17511001 -0.10874227
000220 2f fa 4a 3e 10 ce 4c bb ff de 07 be d8 0e 0e 3d
       0.19822 -0.0031250753 -0.1326866 0.034682125
000230 86 69 82 be 3f 74 b5 3d df 8c c8 3d fb e2 b3 be
       -0.25471133 0.08860063 0.09792494 -0.3513411
000240 91 31 dd 3e 35 dc 8f be 3e ca 9f be f9 85 d7 bd
       0.4320188 -0.28097692 -0.31208986 -0.105236
000250 db c9 f7 bd e9 2c 2c 3e 14 48 3b 3c 99 cb 09 bf
       -0.12099048 0.16814007 0.011430759 -0.5382629
000260 2d c3 00 3e 22 f8 c8 3d 4d 01 aa 3d 59 3d 01 3e
       0.12574454 0.098129526 0.08301029 0.12621059
000270 fd c2 a1 3e 43 b0 f9 3e 3c d5 fe bc e7 65 3c 3e
       0.31594077 0.4876729 -0.031107537 0.18398248
000280 2a 3a 48 bd 77 a6 41 bd 9d 84 cb 3d 19 df be be
       -0.048883595 -0.047277894 0.09937403 -0.37279585
000290 59 8b b0 3c 3d 4c f8 3d ff 7f 8a be 1e 03 99 be
       0.021550821 0.12123916 -0.27050778 -0.2988519
0002a0 93 39 3d 3e de 87 18 be a5 a3 4f be 97 ec 08 bf
       0.18478994 -0.14895579 -0.20277269 -0.5348601
0002b0 a8 ae ab 3e 19 9d ba be 7f 60 b1 be d6 ca 2f bc
       0.3353169 -0.3644798 -0.34643933 -0.010729512
0002c0 16 e5 92 3e f4 5f 17 3e ed 68 f4 3e d6 36 74 3d
       0.28690404 0.14782697 0.47736302 0.059622608
0002d0 b2 fa a3 3e b3 9b 0f 3e a8 8c 9d 3e f0 16 33 3e
       0.32027203 0.14024238 0.30771375 0.17489219
0002e0 87 b0 ca be df 45 f1 3d 0f cb 33 be ab a3 b6 be
       -0.39587805 0.11780905 -0.1755793 -0.35671744
0002f0 9b a0 4e 3d 79 dd 9a be 1b 3e ab bc e4 4a d7 3e
       0.050446134 -0.30247095 -0.020903638 0.42049325
000300 65 c6 b7 3c 3e 35 14 3e 05 84 00 bf cc f2 2c bf
       0.02243347 0.14473435 -0.50201446 -0.6755798
000310 4a 88 ea 3d 01 da 7a 3e dc 4a 46 be 82 1d e0 bd
       0.11451776 0.24497224 -0.19364494 -0.10943128
000320 83 62 6a 3e 7c 52 49 3e 19 14 97 3e b2 af a7 bd
       0.22889142 0.19660372 0.2950752 -0.08187808
000330 4d 1a 46 be e1 78 10 be ae 0d 06 bf b8 25 7b bd
       -0.1934597 -0.14108612 -0.52364624 -0.06131527
000340 94 f9 db 3e c5 a3 0d 3f 2b 3e 0b 3d 11 d3 9a bb
       0.4296385 0.5532802 0.033994835 -0.004724868
000350 c7 36 86 3e 81 32 a3 3d 51 88 a9 3d 64 57 e1 3e
       0.26213667 0.07968617 0.082779534 0.44011986
000360 6d 1d 81 3d 3f 20 ca be 35 7f fb be bd 77 3b 3e
       0.06304441 -0.39477727 -0.4912049 0.18307395
000370 a4 98 0b 3d 3b e6 ec be 0c ea c4 bd bd 6e 8a 3e
       0.034081116 -0.46269402 -0.096149534 0.27037612
000380 b8 7d d5 bb 3d 46 1e bf 3a ad 91 3e 91 77 d6 be
       -0.006515231 -0.61825925 0.28452474 -0.41888097
000390 3b 0f 12 bf 42 75 c6 be 36 6a 7e be da 48 09 be
       -0.5705449 -0.38761336 -0.24845204 -0.13406697
0003a0 7f d2 49 bc 37 58 1c be 6c 05 a5 3e 81 a7 a6 3e
       -0.012318253 -0.15268026 0.322307 0.3254967
0003b0 98 3d 45 be 44 cd 2a 3e 32 db e6 3d 47 0d b3 be
       -0.19261777 0.16679865 0.11272277 -0.34971067
0003c0 45 8e 6f be ab 06 09 3e 2a bc 28 be a2 1b 5e 3e
       -0.23394115 0.1338145 -0.16478029 0.21690229
0003d0 d1 30 31 3e 91 bf 4e be 6b be e9 3d a7 ca 9b be
       0.17303778 -0.20190264 0.114132725 -0.3042805
0003e0 fe f9 90 be 40 4f a2 3d ec 35 a2 3e d9 bc 14 be
       -0.2831573 0.07925272 0.31681764 -0.14525165
0003f0 40 f5 ca 3d 01 36 d9 bd b5 1f 8b bd 99 9c 69 3e
       0.09910059 -0.106060036 -0.06793157 0.22813644

linears.4.bias f4 [20]
000000 f7 d2 01 bd 31 79 70 bb 2e 75 ea bd 46 95 9b 3c
       -0.031695332 -0.003669333 -0.114481315 0.018992078
000010 81 0a 80 3d a6 4f e2 3c 1d d7 bb bc 9f 88 bb 3c
       0.062520035 0.02762587 -0.022929722 0.022892294
000020 f3 79 b2 3d 05 d2 04 3d 4b 29 16 3d 67 4a 46 bd
       0.08714666 0.032426853 0.036660474 -0.0484108
000030 f7 91 3f be 59 b8 7c 3b 5c d5 c9 3c cf 96 49 bc
       -0.18708025 0.0038562028 0.02463787 -0.012304022
000040 1a c2 19 3d ca bc c9 3c 2b 4a 92 3c b2 a1 35 bb
       0.037538625 0.024626154 0.017857632 -0.0027714786

linears.5.weight f4 [1, 20]
000000 a1 a1 1e 3e 93 e8 f8 3e a7 1d 91 be 5c e9 07 3f
       0.15491344 0.4861494 -0.28342935 0.53090453
000010 c7 f0 72 be c4 df 62 be 44 92 6e be 3c 67 42 be
       -0.23724662 -0.22155672 -0.23297983 -0.18984693
000020 c4 4c 81 be 7c ef 75 be 3e 0d 1b be 1c 6f a9 3e
       -0.2525388 -0.24017137 -0.1514177 0.33092582
000030 e7 f2 29 3d 36 15 0f bf 3b 9c 8b be bc 1e 26 3f
       0.041491415 -0.5589174 -0.27267632 0.64890647
000040 d1 90 01 bf 2b 62 a1 be 17 22 84 be 25 e9 56 be
       -0.506116 -0.3152021 -0.25807258 -0.20987375

exp_avg f4 [20, 2]
000000 3b f3 f3 b9 5f 9d da b7 78 52 a7 39 00 d6 83 b8
       -0.00046529793 -2.6060907e-05 0.00031914166 -6.2864274e-05
000010 69 c8 67 b7 e6 4e cd b7 63 26 72 3a 2c 91 8c 38
       -1.3815335e-05 -2.4474644e-05 0.00092372874 6.7027606e-05
000020 05 5e 51 ba 36 53 42 b8 97 39 a8 39 d1 d0 ba b8
       -0.0007986727 -4.63307e-05 0.00032086365 -8.908066e-05
000030 0a 99 25 3a f9 10 a1 b8 9b d4 13 b9 f9 0d 8a b8
       0.0006317055 -7.68024e-05 -0.00014098214 -6.5829554e-05
000040 ae c9 d5 b7 1e 53 8b b8 92 af 9c 3a 89 1a dc 37
       -2.5485493e-05 -6.643518e-05 0.001195418 2.62384e-05
000050 07 e3 08 37 23 2d 9d 38 8f 5a d5 b8 0b ff 98 b8
       8.159091e-06 7.494751e-05 -0.00010173499 -7.29543e-05
000060 35 7c aa ba fd 26 a9 37 ec ac 2d ba dd a0 09 38
       -0.0013006987 2.0164525e-05 -0.00066251936 3.281316e-05
000070 94 e7 0e 39 2a e9 39 38 52 3a 94 b9 1b da 1c 38
       0.00013628445 4.4324588e-05 -0.00028272212 3.7396425e-05
000080 39 f2 63 38 d8 79 82 38 54 d4 05 ba 92 ea 82 b8
       5.4346605e-05 6.221578e-05 -0.0005105187 -6.242575e-05
000090 ae b2 80 3a b4 a5 68 37 2a 5c 75 ba 35 e2 04 38
       0.0009818876 1.3866858e-05 -0.0009359742 3.1681924e-05

exp_avg_sq f4 [20, 2]
000000 b6 7d a5 38 ed 14 84 37 06 ff fe 3a fb 37 46 38
       7.8912286e-05 1.574537e-05 0.0019454665 4.7259015e-05
000010 78 f1 d2 3a 77 6d 21 3a d6 0c 43 3a 97 63 12 39
       0.0016093692 0.0006157974 0.00074405724 0.00013960745
000020 bf 28 94 39 8c cf 46 38 88 ed 52 3b 7f 2d 37 39
       0.00028259118 4.740017e-05 0.0032185037 0.00017469189
000030 21 bb 50 3b cb 83 e5 38 6d 7c b5 3a 83 13 43 39
       0.0031849819 0.00010944119 0.0013846286 0.00018603918
000040 93 70 8b 3a ab 89 4c 38 da 72 10 3a 15 bb e9 38
       0.0010638408 4.8765603e-05 0.0005510278 0.000111451525
000050 d5 52 f1 3a 86 25 00 39 b5 8a 52 3b 22 50 74 39
       0.0018411527 0.0001222101 0.0032126133 0.00023299505
000060 2e c9 38 3b 60 20 96 37 2a d9 bd 3a e5 6e 05 38
       0.0028196084 1.789647e-05 0.0014484276 3.181295e-05
000070 b8 8e 8f 3a bb 3b c2 39 3b 9d 33 3a bd df b8 37
       0.0010952568 0.00037047066 0.0006851737 2.2038696e-05
000080 e6 69 e4 3a 38 20 0d 39 55 5b f7 39 50 21 e6 37
       0.001742658 0.0001345881 0.0004717956 2.7433649e-05
000090 d9 75 31 3a 62 58 da 37 29 7c e5 3a e8 36 d2 36
       0.0006769575 2.6028782e-05 0.0017508316 6.2648796e-06

exp_avg f4 [20]
000000 1d d0 24 b9 e1 e3 82 39 03 b1 27 3a 9c 58 80 b7
       -0.00015717787 0.00024965315 0.0006396921 -1.5300051e-05
000010 14 00 25 b9 22 25 b4 39 d4 f0 9d 39 c1 c5 a3 39
       -0.00015735655 0.00034359941 0.00030124804 0.0003123712
000020 5e db 8a 38 d5 aa eb 38 69 8c 72 b9 89 a4 e3 39
       6.621213e-05 0.00011237493 -0.00023131225 0.00043419402
000030 11 3f 08 ba 44 e3 af b9 49 c6 e5 b9 6e bd 4a b9
       -0.0005197386 -0.00033547927 -0.00043826018 -0.00019334789
000040 68 1d 9a b9 9e 70 cf b8 14 78 90 39 56 93 ac b9
       -0.00029395078 -9.891506e-05 0.00027555285 -0.0003291617

exp_avg_sq f4 [20]
000000 d1 1a 06 37 ec 27 1c 3b df 38 9b 3c a6 92 5f 39
       7.993266e-06 0.0023827506 0.018948017 0.00021321568
000010 24 76 b0 37 3d 31 be 3b bb 54 c6 3b 87 ac 2a 3b
       2.1035848e-05 0.0058042095 0.006052581 0.0026042776
000020 f7 a6 a7 3a e2 50 9c 37 74 f6 39 3b 09 61 e0 3b
       0.0012790848 1.8634313e-05 0.0028375657 0.006847505
000030 0e 36 e5 3b 6a 42 3c 3b c6 51 f3 3b 06 16 75 3a
       0.006994969 0.002872611 0.0074255196 0.000934929
000040 b6 24 62 3b 19 56 dc 36 f5 de b4 39 23 d2 11 3b
       0.0034506745 6.566534e-06 0.0003449839 0.0022250495

exp_avg f4 [20, 20]
000000 54 1e 60 35 3e 1a 4f 37 70 f6 55 b7 70 fd 38 37
       8.3490636e-07 1.2344271e-05 -1.27531675e-05 1.1026263e-05
000010 0d 8a 9e 37 93 76 39 37 60 87 79 37 47 1f e4 b6
       1.8899353e-05 1.1054467e-05 1.4873076e-05 -6.7985707e-06
000020 a6 23 ce 37 a3 0b b7 35 4f db 15 b7 2e 48 5a 37
       2.4573714e-05 1.3637949e-06 -8.932154e-06 1.3010618e-05
000030 6e 7d 82 b7 81 6e 35 b6 f9 ff a1 37 be 05 84 36
       -1.5555615e-05 -2.7035423e-06 1.9311892e-05 3.934575e-06
000040 cb cb 91 37 67 a1 1f b6 98 46 fa b6 3b aa b5 b6
       1.7380245e-05 -2.3786795e-06 -7.458799e-06 -5.414038e-06
000050 c4 e1 b5 35 04 d7 26 b8 7d 42 53 38 d7 91 d3 b7
       1.3551257e-06 -3.9777733e-05 5.0368242e-05 -2.5221072e-05
000060 49 84 1a b8 c8 85 0a b8 8f 01 1b b8 3c 00 c1 36
       -3.683966e-05 -3.3026357e-05 -3.695633e-05 5.7518755e-06
000070 55 89 70 b8 51 38 ef b6 15 b4 08 38 30 a2 03 b8
       -5.734836e-05 -7.129311e-06 3.259264e-05 -3.1383883e-05
000080 68 d7 20 38 de 97 61 37 b6 94 74 b8 7e d1 df 36
       3.8347585e-05 1.3446404e-05 -5.831263e-05 6.670306e-06
000090 65 4e 81 b7 39 d1 07 b7 09 26 25 36 a1 8d be 37
       -1.5414504e-05 -8.0953405e-06 2.4609055e-06 2.2715716e-05
0000a0 0b 27 0c b7 3a 93 33 b9 ba 3a 8e 39 e9 72 9e 38
       -8.353741e-06 -0.00017125616 0.00027128105 7.555431e-05
0000b0 d8 c0 90 b8 ca be e8 b8 b8 4c 8d b8 c2 99 95 b8
       -6.902375e-05 -0.00011098159 -6.737694e-05 -7.133513e-05
0000c0 54 22 9e b8 15 a8 b1 37 aa 2d 32 39 d3 cf bc b8
       -7.540421e-05 2.1178314e-05 0.00016992414 -9.003249e-05
0000d0 d7 28 1a 37 c3 49 18 38 af f7 63 b9 fb b7 e2 38
       9.188624e-06 3.630832e-05 -0.00021740676 0.00010810789
0000e0 d2 6e 3a 39 3b d8 17 b9 fc 22 5c b8 3a 62 88 38
       0.00017779626 -0.00014481034 -5.248467e-05 6.5032815e-05
0000f0 36 e6 40 b5 42 17 0c b8 49 9b 6b 38 31 6a 69 37
       -7.1860575e-07 -3.340026e-05 5.6172987e-05 1.3912607e-05
000100 35 6a 55 b7 f2 50 b8 b7 77 cc 6a b7 5e 61 5e b7
       -1.2720518e-05 -2.1972202e-05 -1.3995093e-05 -1.3254901e-05
000110 f1 df 88 b7 f5 4a 38 36 0d bb 0a 38 9c 50 8f b7
       -1.6316744e-05 2.7461767e-06 3.307597e-05 -1.7084465e-05
000120 5d 31 72 36 39 60 08 37 47 5c 3b b8 06 c3 b3 37
       3.6089543e-06 8.128635e-06 -4.4670214e-05 2.1429278e-05
000130 2e d9 0c 38 40 04 e6 b7 a8 a1 3b b7 13 33 6b 37
       3.3580865e-05 -2.7420116e-05 -1.1183707e-05 1.4018983e-05
000140 ec 06 b1 b6 c4 9b 0d b9 73 58 51 39 66 53 d6 37
       -5.275817e-06 -0.00013504835 0.00019964743 2.5549623e-05
000150 6a 46 9e b8 e9 20 c4 b8 15 95 95 b8 ad 99 18 b8
       -7.547143e-05 -9.352138e-05 -7.132642e-05 -3.6382746e-05
000160 45 80 c4 b8 a4 77 11 37 3f 48 06 39 f8 9a aa b8
       -9.3699e-05 8.6705295e-06 0.0001280615 -8.135097e-05
000170 cb 1c 19 38 52 bb 02 38 b2 69 39 b9 de 2a 8d 38
       3.6504858e-05 3.116887e-05 -0.0001768235 6.7313886e-05
000180 24 db bb 38 d0 1e c1 b8 99 d7 d6 b7 6c 40 69 38
       8.957673e-05 -9.2086964e-05 -2.5611183e-05 5.5611526e-05
000190 3d 03 62 37 99 ce 5c 39 26 25 ad b9 2e 61 d8 b8
       1.3471404e-05 0.00021057799 -0.0003302481 -0.00010317784
0001a0 cb 86 bb 38 0c 6a 0b 39 09 63 a6 38 2e 35 b4 38
       8.941962e-05 0.00013295579 7.9339436e-05 8.592974e-05
0001b0 5b 30 b8 38 82 d1 04 b8 d8 6c 5c b9 c8 3c e9 38
       8.7828106e-05 -3.166637e-05 -0.00021021382 0.00011121627
0001c0 87 31 82 b6 74 a5 25 b8 31 8d 89 39 86 f2 04 b9
       -3.8800677e-06 -3.9493156e-05 0.00026235872 -0.00012678848
0001d0 c1 ff 62 b9 9a 20 3b 39 26 15 70 38 b1 8f 98 b8
       -0.00021648315 0.00017845855 5.7240155e-05 -7.2746894e-05
0001e0 0d 3e 41 b6 06 09 31 37 e1 79 68 b7 de 43 d0 37
       -2.879536e-06 1.0552123e-05 -1.3856655e-05 2.4827135e-05
0001f0 e3 84 7a 37 80 3f 5b 37 a3 d8 9d 37 76 6f 0c b7
       1.4932101e-05 1.3068202e-05 1.8816738e-05 -8.370602e-06
000200 7d 6c 03 38 b3 64 0b 37 e8 6a bc b6 4d 00 44 37
       3.133387e-05 8.3084915e-06 -5.615282e-06 1.168258e-05
000210 e0 2c d6 b7 88 92 fd b6 f0 22 be 37 21 1f cd 35
       -2.5531685e-05 -7.557046e-06 2.2666034e-05 1.528275e-06
000220 d3 78 bb 37 9a 1b e4 b6 d2 03 27 b6 6d 92 47 b7
       2.23484e-05 -6.7981427e-06 -2.4887163e-06 -1.1895417e-05
000230 64 01 7b b6 ef 76 66 b9 71 7b b1 39 d6 7f 21 38
       -3.7402724e-06 -0.00021978815 0.00033852042 3.8504448e-05
000240 60 c0 e3 b8 c1 33 22 b9 ff 6d f1 b8 3c f6 8c b8
       -0.00010860036 -0.00015468804 -0.00011512264 -6.721585e-05
000250 de ea 1b b9 ea 4b 03 37 6a e4 5a 39 ce 82 05 b9
       -0.00014869447 7.825884e-06 0.00020875191 -0.00012732597
000260 82 17 80 38 21 8b 71 38 4f ab 9a b9 63 8f 01 39
       6.107894e-05 5.758845e-05 -0.00029500804 0.00012355814
000270 2b 66 2c 39 cc 49 23 b9 98 93 70 b8 9f e4 d0 38
       0.00016441259 -0.00015572383 -5.7357916e-05 9.960797e-05
000280 95 3c 93 36 ad 52 fb b6 89 b2 68 37 2a 29 5d b7
       4.387994e-06 -7.4900076e-06 1.3869846e-05 -1.3182211e-05
000290 92 29 18 36 8f c5 38 b7 98 00 21 b7 79 52 af b6
       2.2673962e-06 -1.1013252e-05 -9.596486e-06 -5.2250075e-06
0002a0 18 a6 58 b7 40 7c 00 b7 62 c3 ae 36 e1 39 8c b6
       -1.2913275e-05 -7.658324e-06 5.2083496e-06 -4.179063e-06
0002b0 3f 51 59 37 07 de 21 37 45 4b 8f b7 47 cb 65 37
       1.29531245e-05 9.648043e-06 -1.7081979e-05 1.3696793e-05
0002c0 de ee 11 37 08 59 a6 b6 a6 75 55 b7 87 06 70 37
       8.698289e-06 -4.95755e-06 -1.27231815e-05 1.43066345e-05
0002d0 a0 57 a7 b7 ac a8 f3 b8 92 78 34 39 02 52 d3 38
       -1.9948755e-05 -0.000116185605 0.00017211054 0.00010076539
0002e0 e5 68 7e b8 cb 6f 77 b8 41 2e d8 b7 84 cf 43 b8
       -6.065601e-05 -5.8993504e-05 -2.5770745e-05 -4.6684887e-05
0002f0 4a 89 ac b7 a8 e3 29 38 d2 81 ff 38 d4 f3 7f b8
       -2.0567928e-05 4.050476e-05 0.000121835285 -6.102382e-05
000300 f6 8f 0a b8 8a df f0 35 6f 55 01 b9 a4 d2 5a 38
       -3.3035838e-05 1.7946452e-06 -0.00012334225 5.2171425e-05
000310 98 5f 03 39 81 31 de b8 14 59 12 b7 97 15 49 37
       0.00012528745 -0.00010595006 -8.723018e-06 1.198556e-05
000320 2e e2 5e 36 25 f8 c5 37 36 9f 15 b8 28 5a 7f b7
       3.3212232e-06 2.3599781e-05 -3.5672645e-05 -1.5220176e-05
000330 8e e8 77 37 09 ab 55 37 5f 6e 07 37 82 b1 cc 36
       1.4776493e-05 1.2735612e-05 8.072325e-06 6.1003384e-06
000340 1e 19 22 37 79 a1 d1 b6 36 96 c8 b7 c5 1d 61 37
       9.6618005e-06 -6.2474833e-06 -2.3911805e-05 1.3417976e-05
000350 5f 10 d4 35 0e 4a a0 b5 a7 fc e2 37 97 8f 04 b7
       1.5799995e-06 -1.1942482e-06 2.705895e-05 -7.901245e-06
000360 ba 7d 8f b7 47 50 94 37 c4 d2 9f b3 fc ba 70 b6
       -1.7105474e-05 1.7680357e-05 -7.4423525e-08 -3.5871626e-06
000370 2a 0b bd 35 20 3f 7e 38 c3 fb ba b8 12 e7 0f b7
       1.4084846e-06 6.061711e-05 -8.9160654e-05 -8.577264e-06
000380 b6 eb 03 38 7e bb 33 38 39 bc 07 38 8a ac 95 37
       3.1452357e-05 4.285154e-05 3.2361804e-05 1.7842529e-05
000390 1e a2 30 38 a0 16 1c b6 df 3e 70 b8 63 e2 16 38
       4.2112653e-05 -2.325898e-06 -5.7279012e-05 3.5973626e-05
0003a0 f4 e5 94 b7 04 82 82 b7 23 18 a7 38 ae 4e 0a b8
       -1.7750055e-05 -1.555775e-05 7.967676e-05 -3.297504e-05
0003b0 fb e0 36 b8 9c 83 31 38 c2 f6 73 37 83 71 e3 b7
       -4.360171e-05 4.232266e-05 1.45413815e-05 -2.7113367e-05
0003c0 bb 06 87 36 6e 7d e5 38 e3 ae 39 b9 80 8a 4b b8
       4.024097e-06 0.00010942934 -0.00017708125 -4.852796e-05
0003d0 66 09 2a 38 85 c5 97 38 10 2e 36 38 37 0f 4a 38
       4.053991e-05 7.237032e-05 4.343508e-05 4.8174723e-05
0003e0 3e 84 49 38 e2 4f 49 b7 ac bd e3 b8 60 1e 6d 38
       4.8045295e-05 -1.1999133e-05 -0.000108595326 5.6533492e-05
0003f0 12 3d d4 b6 0e 5c d5 b7 b7 2e 15 39 a1 d8 9a b8
       -6.325202e-06 -2.5434445e-05 0.0001422715 -7.3836425e-05
