modelos/heat_20x4-20000.pt (torch, 28286 bytes, 27 tensors)

linears.0.weight f4 [20, 2]
0	0x3e52456f	0.205343
1	0xbee4b737	-0.44671032
2	0xbe6b8775	-0.23000892
3	0x3df0056b	0.117197834
4	0x3d633553	0.055470776
5	0xbf101a06	-0.5628971
6	0x3d6f07f0	0.05835718
7	0xbf326768	-0.69689035
8	0xbec2b4ea	-0.3802865
9	0xbf7aa48d	-0.97907335
10	0xbf202c6b	-0.62567776
11	0x3eb97e0a	0.36228973
12	0x3f2006e6	0.62510526
13	0xbee3918b	-0.44446978
14	0xbee85d8c	-0.4538387
15	0xbf1e5f68	-0.6186433
16	0xbe82278b	-0.25420794
17	0xbd07aa23	-0.03312124
18	0xbeae7f57	-0.34081528
19	0xbf5c30e9	-0.8601213
20	0x3e34603f	0.1761484
21	0xbf82520a	-1.0181286
22	0xbea5ad63	-0.32358846
23	0xbed2188b	-0.4103435
24	0xbe950e53	-0.2911249
25	0x3d4b1086	0.049576305
26	0x3e89fb9c	0.26949775
27	0xbec6bf28	-0.38817716
28	0x3dcbb335	0.099462904
29	0x3f130d8c	0.57442546
30	0x3eacc9d0	0.3374772
31	0x3ee8a55b	0.45438656
32	0xbe59f279	-0.21283902
33	0x3e68a82f	0.22720407
34	0xbd0743f7	-0.0330238
35	0x3f53ba45	0.827061
36	0x3e9e3c39	0.3090532
37	0x3f00c88b	0.50306004
38	0xbed01d5f	-0.40647408
39	0xbf25e585	-0.64803344

linears.0.bias f4 [20]
0	0xbddfdee0	-0.10931182
1	0xbd34239e	-0.04397928
2	0xbd395124	-0.045243397
3	0xbe0998d7	-0.1343721
4	0x3c4089a2	0.011751564
5	0xbc874e7a	-0.016516913
6	0xbdaeca09	-0.08534629
7	0xbdf49333	-0.119421385
8	0x3d17a1a6	0.037019394
9	0x3d8dc3b0	0.0692209
10	0xbd929b06	-0.071584746
11	0x3e16a4d6	0.14711317
12	0x3db9e1a8	0.09076244
13	0xbd402cbe	-0.04691767
14	0x3d3c047f	0.045902725
15	0x3b1cd0a9	0.0023928082
16	0x3d6715e3	0.056417357
17	0x3dfc27aa	0.12312253
18	0xbd4988fb	-0.0492029
19	0xbd28d5e5	-0.04121961

linears.1.weight f4 [20, 20]
0	0x3e87935c	0.26479614
1	0x3de308df	0.110856764
2	0x3ef4076f	0.4766192
3	0x3e2b8daa	0.1675326
4	0x3dedc776	0.1161031
5	0xbee649a8	-0.4497807
6	0x3e8e1f69	0.2775834
7	0x3e49184a	0.19638172
8	0x3c7dcfca	0.015491435
9	0xbe7ec60c	-0.24880236
10	0xbef0f29b	-0.47060093
11	0x3e92aa60	0.2864561
12	0xbdb3dffa	-0.087829545
13	0x3d4b8c4b	0.04969434
14	0x3e415819	0.18881263
15	0x3dcc12ea	0.09964545
16	0x3e116bd1	0.14201285
17	0xbe6944fc	-0.22780222
18	0x3dd022c3	0.1016288
19	0x3e0ffc5a	0.14061108
20	0xbdd1665d	-0.10224602
21	0x3ca290c3	0.019844418
22	0xbe856b08	-0.2605822
23	0x3dea693f	0.11445855
24	0xbdf67397	-0.12033766
25	0x3e60e8a0	0.2196374
26	0x3dee8bf9	0.116477914
27	0x3d7cd83f	0.061729666
28	0x3c1a782f	0.009428068
29	0xbd27f89f	-0.041008588
30	0x3e8fae39	0.2806261
31	0xbd8b0cf6	-0.067895815
32	0x3ec44852	0.38336426
33	0xbed3dda4	-0.41380036
34	0xbebe6faf	-0.37194583
35	0x3e19f21c	0.15033764
36	0xbe55c273	-0.20874958
37	0xbcca0e61	-0.02466506
38	0xbede0e54	-0.43370306
39	0xbe330f5e	-0.17486331
40	0xbdc2086f	-0.09474265
41	0xbd422f8d	-0.04740863
42	0xbdfd6407	-0.12372594
43	0x3e417a09	0.18894209
44	0x3e7c9813	0.24667387
45	0xbb968a9d	-0.0045941607
46	0xbe20c34d	-0.15699501
47	0xbd5c1b72	-0.05373711
48	0x3e8539f8	0.2602079
49	0x3d306fa1	0.043075208
50	0xbe07e7c7	-0.1327201
51	0x3d9c291c	0.076250285
52	0xbe02eeb8	-0.12786376
53	0x3e1d646a	0.15370336
54	0xbc9b45bb	-0.018954149
55	0x3d28e269	0.041231547
56	0x3e64c9b9	0.22342576
57	0x3e9c86fe	0.3057174
58	0xbf1f6666	-0.6226562
59	0xbe855c0c	-0.2604679
60	0x3ea5f0bc	0.32410228
61	0x3c8f6ca8	0.017507866
62	0xbe61ce90	-0.22051454
63	0x3d75237c	0.059848294
64	0xbe3f6986	-0.18692598
65	0xbe8ee22a	-0.27906924
66	0x3e76ab47	0.24088775
67	0x3dbd8281	0.09253407
68	0x3e32213b	0.17395489
69	0xbdbcae9e	-0.09212993
70	0x3ea36674	0.31914103
71	0x3dafc8fe	0.08583258
72	0x3e5da472	0.21644762
73	0x3e06166e	0.13094494
74	0x3dd51650	0.104046464
75	0x3c259e0f	0.010108485
76	0xbe888ce1	-0.26669982
77	0x3e867231	0.26258996
78	0xbc4e7d9f	-0.012603193
79	0x3eb4e873	0.35333595
80	0x3d127d5d	0.035764087
81	0x3b0d656a	0.002157534
82	0x3eef6582	0.46757132
83	0x3de40332	0.11133422
84	0xbeaae1e4	-0.33375466
85	0x3cc7f8dd	0.02441066
86	0xbe5462db	-0.20740835
87	0x3e11005f	0.14160298
88	0xbf08084f	-0.5313768
89	0xbe139e69	-0.14415897
90	0xbe01c0e4	-0.12671238
91	0xbf07f292	-0.5310451
92	0xbd21e8e1	-0.03952873
93	0x3e8b9810	0.27264452
94	0x3ed0baf4	0.40767634
95	0x3d9fd358	0.078039825
96	0xbe38d547	-0.18050109
97	0x3e66d567	0.22542344
98	0x3d14df5b	0.03634582
99	0xbdcab395	-0.09897534
100	0x3ecca98d	0.39973107
101	0x3eecee93	0.46275768
102	0x3df04ad7	0.117330246
103	0x3e3ef7a3	0.18649153
104	0x3f09ffbd	0.5390585
105	0xbe20059d	-0.15627141
106	0x3c9a376b	0.018825253
107	0x3d8f7193	0.070040844
108	0x3e00c98a	0.12576881
109	0x3e830b35	0.25594488
110	0xbbd203be	-0.0064091375
111	0xbd7e4539	-0.062077735
112	0xbe2f5056	-0.1712049
113	0x3e679fd5	0.22619565
114	0xbe67aa24	-0.22623497
115	0xbdacc370	-0.08435714
116	0x3f2106a9	0.6290079
117	0xbeafd981	-0.3434563
118	0x3d1891e8	0.037248522
119	0x3e823d87	0.25437567
120	0xbe48fc19	-0.19627418
121	0x3de311e4	0.11087397
122	0x3e949ac6	0.29024333
123	0x3e21696e	0.15762874
124	0xbc627176	-0.0138209965
125	0x3d66f7ef	0.05638879
126	0xbe7618a7	-0.24032842
127	0x3d42a4b1	0.047520343
128	0xbe7aa639	-0.24477471
129	0x3dcf7f84	0.101317436
130	0x3daa2a30	0.08308828
131	0x3e598388	0.21241581
132	0x3d100288	0.035158664
133	0xbe8cf8a7	-0.27533457
134	0x3ee75367	0.45180818
135	0xbe6a3d41	-0.22874929
136	0x3e6b08b8	0.22952545
137	0x3e2ee9a1	0.1708131
138	0x3dbfa0a3	0.09356811
139	0x3dbd5f34	0.09246674
140	0xbf8b6417	-1.088992
141	0xbd0665aa	-0.0328118
142	0xbeed5daa	-0.46360523
143	0xbf35c8ca	-0.71009505
144	0xbe1f8e87	-0.15581714
145	0x3f2e5300	0.680954
146	0xbee888a9	-0.45416763
147	0xbef1d4e2	-0.4723273
148	0x3e106ee3	0.141048
149	0xbe0070c1	-0.12543012
150	0xbf354b75	-0.70818263
151	0xbde1d3d8	-0.11026734
152	0x3eb655ec	0.35612428
153	0xbf14575b	-0.57945794
154	0x3e632d81	0.22185327
155	0x3e0c1b47	0.1368228
156	0x3f145729	0.57945496
157	0x3eec1b3c	0.46114528
158	0xbc90bee5	-0.01766915
159	0xbd27cd12	-0.040967055
160	0x3f12c04f	0.5732469
161	0xbeecdd5a	-0.46262628
162	0xbb5d91e6	-0.0033808886
163	0xbe591555	-0.21199544
164	0xbf289ebe	-0.6586722
165	0x3e867877	0.26263782
166	0xbd6a5f66	-0.057219885
167	0x3d9b6a93	0.07588687
168	0xbe84ed7d	-0.2596244
169	0xbecb0fe7	-0.3966057
170	0xbeea0658	-0.45707965
171	0xbd1cac07	-0.038249996
172	0xbe01d529	-0.1267897
173	0xbe81b536	-0.25333565
174	0x3e3ed86a	0.18637243
175	0x3e0eb346	0.13935575
176	0xbd3806d2	-0.04492838
177	0x3f338b75	0.7013467
178	0xbd9d201e	-0.076721415
179	0x3cec2bcb	0.028829476
180	0xbe0c9978	-0.13730419
181	0x3e494fb4	0.1965931
182	0xbea2f6fe	-0.31829065
183	0xbd8294e7	-0.06376057
184	0xbeaaaabb	-0.33333382
185	0xbdfb7ef9	-0.122800775
186	0xbc541d95	-0.012946506
187	0xbdf741bc	-0.12073085
188	0xbf051aab	-0.5199382
189	0x3d0c582f	0.034263786
190	0xbf14df4b	-0.5815322
191	0xbe28a5b2	-0.16469458
192	0xbc653856	-0.013990482
193	0xbde69747	-0.112593226
194	0x3e27a4fa	0.16371527
195	0x3e6e4edf	0.23272274
196	0x3e05ba5c	0.13059372
197	0x3f443476	0.7664255
198	0x3ee6aac6	0.45052165
199	0xbe40334e	-0.18769571
200	0xbed07d29	-0.4072049
201	0xbd961737	-0.07328647
202	0x3ed72e31	0.4202743
203	0x3eab3883	0.33441553
204	0x3e56fe5b	0.20995466
205	0x3d29b9bb	0.041436892
206	0x3e1905b1	0.14943577
207	0x3ecff6cb	0.40617976
208	0x3e91bccf	0.28464362
209	0x3d692cce	0.056927495
210	0xbd2bdc62	-0.04195822
211	0xbd5ccbb0	-0.05390519
212	0x3cea7580	0.028620481
213	0x3e52840a	0.20558181
214	0xbe9ad5df	-0.30241296
215	0xbe896d7f	-0.2684135
216	0x3df7aec4	0.12093881
217	0xbe128895	-0.14309914
218	0xbdd14e91	-0.102200635
219	0xbe3987f5	-0.1811827
220	0x3ca57873	0.020199036
221	0xbea471a8	-0.32117963
222	0xbdfcc35e	-0.12341951
223	0x3ed7a07e	0.42114633
224	0xbddf2314	-0.108953625
225	0xbe5ca7fb	-0.21548454
226	0x3dc34f9f	0.09536671
227	0xbf2393e6	-0.6389755
228	0xbecd53eb	-0.40103087
229	0xbd38d0d6	-0.045121036
230	0x3e23967e	0.15975377
231	0xbe84ce17	-0.25938484
232	0xbe6efcfe	-0.23338696
233	0x3e8704db	0.26370892
234	0xbe268cb4	-0.16264611
235	0x3f023ad6	0.50871027
236	0xbebff473	-0.37491187
237	0x3df2e091	0.11859239
238	0x3f1ae5ba	0.60506785
239	0xbf14b90f	-0.58094877
240	0x3dcdf34c	0.10056171
241	0xbe1c2ad1	-0.15250708
242	0xbe6fa10d	-0.2340128
243	0xbe639d20	-0.22227907
244	0xbe8202cf	-0.25392768
245	0xbe837724	-0.25676835
246	0x3d968273	0.073491
247	0xbec32ed3	-0.38121662
248	0xbe243910	-0.16037393
249	0xbe121a6f	-0.14267896
250	0xbe639fac	-0.22228879
251	0x3e0c7f4e	0.13720438
252	0x3af48d7a	0.0018657886
253	0x3e80666b	0.2507814
254	0x3dfafa92	0.12254824
255	0x3f106f42	0.56419766

linears.1.bias f4 [20]
0	0xbce400ec	-0.02783247
1	0x3d200c0f	0.039074
2	0x3d0c5b32	0.034266658
3	0x3d0b5118	0.034012884
4	0xbd2f237d	-0.042758454
5	0xbdd39086	-0.103303
6	0x3d96015f	0.0732448
7	0x3e036d93	0.12834768
8	0x3c74ab87	0.014933473
9	0x3e111b81	0.14170648
10	0xb9edd9eb	-0.00045366524
11	0x3d4258fe	0.04744815
12	0x3d41336f	0.04716819
13	0xbccb8b26	-0.024846625
14	0x3d460996	0.048348986
15	0xbd182612	-0.03714568
16	0xbde77c87	-0.113030486
17	0x3c49f169	0.012325623
18	0xbd1e0e9b	-0.038588148
19	0x3d08304b	0.03324918

linears.2.weight f4 [20, 20]
0	0x3b574671	0.0032848383
1	0xbda5cee3	-0.08096101
2	0xbe9d0e0f	-0.30674788
3	0x3d659fe5	0.05606069
4	0xbec6fb15	-0.38863435
5	0x3eaa1b70	0.33224058
6	0xbdc5c059	-0.09655828
7	0xbd555054	-0.05207856
8	0xbea34937	-0.31891796
9	0xbe6d132f	-0.23151849
10	0x3e35329c	0.17695087
11	0x3e0b2e13	0.13591795
12	0xbe115930	-0.14194179
13	0xbe3ec75d	-0.18630739
14	0xbf1de057	-0.6167044
15	0xbd24427c	-0.040102467
16	0x3ea89b5e	0.32931036
17	0xbe274d04	-0.16337973
18	0xbf276e85	-0.65403014
19	0x3f3e1689	0.74253136
20	0xbe862592	-0.2620054
21	0xbaff1424	-0.0019460958
22	0x3efaa43e	0.48953432
23	0xbd7634e3	-0.06010903
24	0xbe8a7380	-0.27041245
25	0x3e28accb	0.16472165
26	0x3ecaac36	0.39584512
27	0x3e6e4db0	0.23271823
28	0x3ebf20b5	0.3732964
29	0x3d85eea1	0.065396555
30	0x3ec5f90d	0.38666573
31	0x3cb6ab6d	0.022298539
32	0xbe3fbb2f	-0.18723749
33	0xbe5f42bf	-0.21802805
34	0x3d56a020	0.0523988
35	0x3e222bc2	0.15837005
36	0x3cf232ea	0.029565293
37	0x3e4489f5	0.19193251
38	0xbe99f36f	-0.30068538
39	0x3e7ab8d1	0.24484564
40	0xbe401a23	-0.1875997
41	0x3e905f09	0.28197506
42	0x3ef3d5f2	0.47624165
43	0x3d1f0eee	0.038832597
44	0xbecb2630	-0.39677572
45	0xbbb7fca2	-0.005614833
46	0x3ea1219e	0.3147096
47	0xbe040f80	-0.12896538
48	0xbedb79a1	-0.42866233
49	0x3ea87e2d	0.32908764
50	0xbdcd1656	-0.10014026
51	0x3f256e89	0.6462179
52	0x3e5a4a0f	0.21317314
53	0xbe238c38	-0.15971458
54	0x3c928495	0.017885486
55	0x3d3dfded	0.04638474
56	0x3c7831b5	0.01514857
57	0xbb7d7d64	-0.0038679475
58	0xbf295bef	-0.66155905
59	0x3e9a5758	0.30144763
60	0x3dc8dd56	0.098078415
61	0xbe839111	-0.25696614
62	0xbeab8f2f	-0.33507678
63	0x3d0d56dd	0.034506667
64	0x3ed9d6c4	0.42546666
65	0xbe551881	-0.20810129
66	0xbdae4d4a	-0.085108355
67	0x3e7dc3f5	0.24781783
68	0x3cc2823f	0.023743747
69	0x3de612ec	0.11234078
70	0xbec84de1	-0.39121917
71	0xbea9cd93	-0.33164653
72	0xbd69e272	-0.05710072
73	0x3da16270	0.078801036
74	0xbd892ce2	-0.06698014
75	0x3dd23c39	0.10265393
76	0x3d961a0b	0.07329186
77	0x3edaae0e	0.42710918
78	0x3dbebc2b	0.09313234
79	0xbf1d6fcf	-0.6149873
80	0xbea363d9	-0.31912115
81	0x3d66299c	0.056192026
82	0x3dea6c3a	0.11446424
83	0x3f002f20	0.5007191
84	0xbdabe7ab	-0.083937965
85	0x3dee9bef	0.11650836
86	0x3e6dd1d5	0.23224576
87	0xbd811cb0	-0.063043
88	0x3d410480	0.047123432
89	0x3cfca649	0.03084101
90	0x3e200239	0.15625848
91	0x3e2b8c72	0.16752794
92	0xbe5eb02e	-0.21746895
93	0x3d6d27bf	0.057899233
94	0xbe78b25f	-0.24286793
95	0xbec59556	-0.38590497
96	0xbc466cfc	-0.012110945
97	0x3e886d69	0.26645973
98	0xbef9f2f9	-0.48818186
99	0x3ed9facf	0.42574164
100	0x3e5cfc6b	0.21580665
101	0x3ec9c9c7	0.39411756
102	0xbe6fab71	-0.23405243
103	0x399259f9	0.00027914325
104	0x3e3b5057	0.18292366
105	0xbe17ebae	-0.14835998
106	0xbd7bd550	-0.061482728
107	0x3c7b03eb	0.015320758
108	0x3e1443f9	0.14479055
109	0xbdc3afa9	-0.09554989
110	0xbe86dba8	-0.2633946
111	0xbd3eee98	-0.04661426
112	0x3e3711fa	0.17877951
113	0x3d50260a	0.050817527
114	0x3e62c3cc	0.22145003
115	0xbdcb177e	-0.0991659
116	0x3d5ecaba	0.054392554
117	0xbf46f60a	-0.77719176
118	0x3e21cd52	0.1580098
119	0x3e2ff87f	0.17184637
120	0x3e0d5328	0.13801253
121	0x3d9a749f	0.07541775
122	0x3e8b3e59	0.27196005
123	0x3e75d4b9	0.24006929
124	0xbde9c0d3	-0.114137314
125	0x3bc4f19b	0.006010247
126	0x3d49cb71	0.049266282
127	0x3d6bd75e	0.057578437
128	0xbe89c648	-0.2690909
129	0x3dc46fa2	0.09591605
130	0x3db27d2c	0.08715281
131	0x3e5b55f2	0.21419504
132	0x3dad4540	0.08460474
133	0x3e9f659d	0.31132212
134	0x3e2a5030	0.16632152
135	0xbebc6957	-0.36799118
136	0xbe5790e3	-0.21051364
137	0x3ec2bc5d	0.38034335
138	0xbeabdb4b	-0.33565745
139	0xbdf9aafa	-0.12190814
140	0xbe30832e	-0.17237541
141	0xbae123ae	-0.0017176771
142	0xbd9885aa	-0.074473694
143	0x3e6f1d17	0.2335094
144	0xbdb72671	-0.08942879
145	0x3f3784c3	0.71686953
146	0xbca1d00e	-0.019752529
147	0xbe73130e	-0.23737738
148	0xbecfdc53	-0.40597782
149	0xbfbdf61d	-1.4840733
150	0x3f33d1a0	0.7024174
151	0xbe447d75	-0.19188483
152	0xbe205077	-0.15655695
153	0x3e5e26de	0.21694514
154	0xbea5870b	-0.32329592
155	0x3e113c83	0.1418324
156	0x3e1437a1	0.14474346
157	0x3e807aac	0.2509359
158	0xbe9197ef	-0.2843623
159	0xbd4358df	-0.047692176
160	0x3e503a9e	0.2033486
161	0x3d2f5cf6	0.042813264
162	0x3ed7755e	0.42081732
163	0x3e7310b6	0.23736843
164	0xbe36542d	-0.17805548
165	0xbd70592a	-0.058678783
166	0xbd84ae7d	-0.064785935
167	0xbe9cc9ed	-0.30622807
168	0xbefa3f7b	-0.48876557
169	0xbecbc27b	-0.39796814
170	0x3cc582b7	0.024110181
171	0x3cc4c093	0.024017608
172	0x3c8611d6	0.016365927
173	0xbbf676a0	-0.0075214654
174	0xbe086400	-0.13319397
175	0x3d8dae52	0.069180146
176	0x3f065c8c	0.52484965
177	0xbed29568	-0.41129613
178	0xbea58737	-0.32329723
179	0x3f24b648	0.6434064
180	0xbea55683	-0.32292566
181	0x3e98456a	0.2974046
182	0xbd50c593	-0.05096967
183	0x3e8e7b4b	0.2782844
184	0x3f089332	0.533496
185	0xbed45b0c	-0.41475713
186	0xbe278e07	-0.16362773
187	0x3e994a6f	0.299396
188	0x3f028ae3	0.50993174
189	0x3ef04697	0.46928856
190	0xbec7a051	-0.389895
191	0xbed4bbec	-0.41549623
192	0x3ef5652d	0.47928753
193	0xbe9a78db	-0.3017033
194	0x3f0e7755	0.55650836
195	0x3e972455	0.29519907
196	0xbe6ca996	-0.23111567
197	0xba9453bb	-0.0011316458
198	0x3e3f8808	0.18704236
199	0xbe8b7ef4	-0.27245295
200	0x3ef8fb37	0.48629162
201	0xbebbfd66	-0.36716765
202	0xbd9e996f	-0.07744109
203	0xbe0e23f8	-0.13880908
204	0x3f2f80fd	0.68556195
205	0xbeaa2cda	-0.33237344
206	0xbe83624e	-0.25660938
207	0xbe397e52	-0.18114594
208	0x3ebb96f1	0.36638597
209	0x3eaf3aaa	0.34224445
210	0xbe9cf481	-0.30655292
211	0xbcf8069e	-0.030276593
212	0x3de19349	0.110144205
213	0xbe4ff1a0	-0.20307016
214	0xbe9922c0	-0.29909325
215	0x3eba0a15	0.36335817
216	0xbe89b254	-0.26893866
217	0x3cbc6336	0.022996526
218	0x3e043fd9	0.12914981
219	0xbde8412d	-0.11340556
220	0xbe0da9d6	-0.13834319
221	0xbe4a7325	-0.19770487
222	0xbebcd45f	-0.36880776
223	0xbecdab38	-0.40169692
224	0xbe9359db	-0.28779492
225	0x3e313aa8	0.17307532
226	0xbe3eedf8	-0.18645465
227	0x3de9b358	0.1141116
228	0xbe7cb2c0	-0.24677563
229	0xbdd43586	-0.10361771
230	0x3de21a98	0.110402286
231	0xbee6c958	-0.45075488
232	0x3d2fc662	0.042913802
233	0xbe4c1623	-0.1993032
234	0x3ea5fe51	0.3242059
235	0x3ce26e56	0.027640503
236	0x3d8c0cc3	0.068383716
237	0x3eacb354	0.33730567
238	0xbc4ed024	-0.012622867
239	0xbf1583f9	-0.584045
240	0x3e4b07f1	0.19827248
241	0x3e40e596	0.1883758
242	0x3ccbf7b5	0.02489839
243	0xbee40f2a	-0.4454282
244	0xbe5d55de	-0.21614787
245	0xbf0b8063	-0.5449278
246	0x3d9a5d31	0.07537306
247	0x3ed2b7bf	0.41155812
248	0xbe370b1d	-0.17875333
249	0x3eaad55f	0.33365914
250	0x3e30c1f4	0.17261487
251	0x3e98d66e	0.29851097
252	0x3c8bac8e	0.017050054
253	0xbf144947	-0.5792431
254	0xbdfd057e	-0.12354563
255	0xbe009191	-0.12555529

linears.2.bias f4 [20]
0	0xbd9bb722	-0.07603289
1	0xbccda993	-0.025105273
2	0x3d08282e	0.033241443
3	0xbc15d870	-0.009145841
4	0x3c9094c7	0.017649068
5	0x3d80fc15	0.06298081
6	0x3ba4a1a6	0.005024153
7	0xbead42ba	-0.3383997
8	0xbde366bc	-0.111035794
9	0x3dec4d7d	0.11538217
10	0x3dafb9ec	0.08580384
11	0xbbfa23f7	-0.007633682
12	0x3d95c25d	0.073124625
13	0x3d44f012	0.04808051
14	0xbe092bec	-0.13395661
15	0xbcc67874	-0.024227358
16	0x3b37bc28	0.0028035734
17	0xb97ee6b1	-0.00024309267
18	0xbd04e77a	-0.032447316
19	0xbd555634	-0.052084163

linears.3.weight f4 [20, 20]
0	0xbedfb74a	-0.43694526
1	0xbc905dcc	-0.01762285
2	0xbe562600	-0.20912933
3	0x3de72f11	0.11288274
4	0x3e91374b	0.28362498
5	0x3e5ca580	0.21547508
6	0x3d790a0b	0.060800593
7	0xbd8c7eaa	-0.06860097
8	0xbd17ddf3	-0.0370769
9	0x3ea0da61	0.3141661
10	0xbe0ed93c	-0.13950056
11	0x3d778ddc	0.060438022
12	0x3de06bf8	0.109580934
13	0x3d5981fd	0.053102482
14	0x3ec0f1ed	0.37684575
15	0xbcc276d4	-0.023738302
16	0xbe974524	-0.29544938
17	0x3e04aeed	0.12957354
18	0x3da895b1	0.08231676
19	0xbeb00c0e	-0.34384197
20	0x3f3ae862	0.7301084
21	0xbf25718d	-0.6462639
22	0x3f13b977	0.5770487
23	0xbf417de3	-0.7558271
24	0x3f17946f	0.59210867
25	0xbe21b00c	-0.15789813
26	0x3e98e5ac	0.29862726
27	0x3c7d2777	0.015451304
28	0x3e72874b	0.23684423
29	0xbdceb1e0	-0.10092521
30	0x3e9a57df	0.30145165
31	0x3d384bcd	0.044994164
32	0x3e724e8e	0.23662779
33	0x3d860f6b	0.065459095
34	0x3e33d2c6	0.17560872
35	0xbecc99d8	-0.39961123
36	0xbeb58aee	-0.35457557
37	0xbec0092c	-0.37506998
38	0x3e404a77	0.18778406
39	0xbbbf2eee	-0.005834452
40	0x3f6a5e1c	0.9154985
41	0xbf0d02e5	-0.5508254
42	0x3edd16e6	0.43181533
43	0xbf172d69	-0.59053665
44	0x3ee998b5	0.4562432
45	0xbe89830b	-0.2685779
46	0xbe372ef3	-0.17889003
47	0x3e4266e2	0.18984559
48	0x3edec2a6	0.4350788
49	0xbeebb8ac	-0.4603933
50	0x3e111bfb	0.1417083
51	0xbe7366c9	-0.23769678
52	0xbe4ed5a2	-0.20198682
53	0x3e117fff	0.14208983
54	0x3d195918	0.037438482
55	0xbe5ce544	-0.21571833
56	0x3e57e3f2	0.21083048
57	0xbe4221df	-0.18958233
58	0x3e33ffbc	0.17578024
59	0x3f023aa9	0.5087076
60	0x3e7e5d14	0.24840194
61	0x3dc37e21	0.095455416
62	0xbe7d9a1c	-0.2476582
63	0x3e68ea19	0.22745551
64	0xbe943a4c	-0.28950727
65	0x3e6d304f	0.2316296
66	0xbf057422	-0.5213033
67	0x3e454205	0.19263466
68	0x3e92a6a5	0.28642765
69	0x3ab25a75	0.001360728
70	0xbe5e3c88	-0.21702778
71	0x3dd0e454	0.101998
72	0xbecb4a8a	-0.39705306
73	0x3ecbee6b	0.39830336
74	0xbd891d93	-0.06695094
75	0xbee34e35	-0.44395605
76	0xbe6f5c6a	-0.23375097
77	0x3e993223	0.29921064
78	0xbe503e6c	-0.20336312
79	0xbed3639d	-0.41286936
80	0x3f308218	0.6894851
81	0xbe41ca51	-0.18924834
82	0x3ea03fa5	0.31298557
83	0xbf1ab2a3	-0.6042883
84	0x3e613189	0.21991552
85	0xbee2e7ec	-0.44317567
86	0xbe7fc268	-0.24976504
87	0x3e857fbd	0.2607402
88	0x3f015ab4	0.50529027
89	0xbf5b7a09	-0.85733086
90	0x3e9c6e32	0.30552822
91	0xbe852ea8	-0.26012158
92	0xbdf0f390	-0.11765206
93	0xbbcd15ad	-0.0062586875
94	0x3f06f0f0	0.5271139
95	0x3d6af413	0.057361674
96	0x3eb00cf7	0.3438489
97	0x3ea65c60	0.32492352
98	0x3eb405d7	0.35160705
99	0x3faee0b7	1.3662328
100	0xbf236420	-0.63824654
101	0xbe380ba0	-0.17973185
102	0xbd02b4d7	-0.031910744
103	0x3eb6acef	0.35678813
104	0xbdf6bd18	-0.120477855
105	0xbe2b395e	-0.16721103
106	0xbf07b7f7	-0.53015083
107	0xbdd1116b	-0.102084
108	0xbebfd154	-0.37464392
109	0x3e32381e	0.1740422
110	0xbc20c5ff	-0.009812831
111	0x3e5ad2fd	0.21369548
112	0x3e0fbc85	0.14036758
113	0xbdfc977b	-0.1233358
114	0xbd5f467f	-0.05451059
115	0x3e6431a7	0.22284566
116	0xbe8a27db	-0.26983532
117	0x3eef3ab6	0.4672448
118	0x3e21b39e	0.15791175
119	0xbece7354	-0.40322363
120	0xbf21c43c	-0.63190055
121	0xbd864b00	-0.06557274
122	0x3e52b6c7	0.20577537
123	0x3ec6e144	0.3884374
124	0xbe35e70f	-0.17763923
125	0xbd50ea1c	-0.051004514
126	0xbe1215d9	-0.14266147
127	0xbeb7d100	-0.35901642
128	0xbea980d2	-0.33106095
129	0x3e208103	0.15674214
130	0x3f200c1f	0.62518495
131	0xbf062698	-0.5240264
132	0x3e7b1337	0.24519049
133	0x3ec8c9c3	0.39216432
134	0xbcc2b8b5	-0.023769716
135	0xbe80f57b	-0.25187287
136	0x3ebccf00	0.36876678
137	0x3f743286	0.9538959
138	0xbe0c07b9	-0.13674821
139	0x3e0641c1	0.1311102
140	0x3ed63bb1	0.41842416
141	0xbf579cd5	-0.8422368
142	0x3e69e925	0.22842844
143	0xbf880826	-1.0627487
144	0xbe203a6b	-0.15647285
145	0x3f6e9dff	0.9320983
146	0xbeae63b1	-0.34060434
147	0x3c8b39d7	0.016995354
148	0x3eef4b43	0.46737108
149	0xbe759ef7	-0.23986422
150	0x3f4627e3	0.7740461
151	0x3e7cce11	0.24687983
152	0x3ea40dae	0.32041687
153	0xbe9718a8	-0.29511
154	0xbef57add	-0.479453
155	0xbf8fceb5	-1.1234957
156	0xbd8f4c58	-0.06996983
157	0x3e567789	0.20944037
158	0xbf23e3e9	-0.6401964
159	0x3d4269c4	0.047464147
160	0xbe552771	-0.20815827
161	0xbde5aa90	-0.11214173
162	0x3d83f82f	0.06443822
163	0xbc505f15	-0.012717982
164	0xbe6f822a	-0.23389497
165	0x3ca98f6d	0.020698274
166	0x3e919efb	0.28441605
167	0xbe4c569a	-0.19954911
168	0x3da6902e	0.08132969
169	0x3ed17b3f	0.40914342
170	0xbea5dc73	-0.32394752
171	0xbce4b150	-0.02791658
172	0x3e3885d4	0.18019801
173	0x3d7a395a	0.06108985
174	0x3ba540e7	0.0050431374
175	0x3f1c80e7	0.6113419
176	0xbec6b85c	-0.3881253
177	0x3d6f2804	0.05838777
178	0x3e9bb173	0.3040882
179	0xbeb5d17c	-0.35511386
180	0xbe3f7ab6	-0.18699154
181	0x3dc41ecb	0.09576186
182	0xbee1eaa2	-0.44124323
183	0xbdd121e8	-0.10211545
184	0xbd7903a0	-0.060794473
185	0x3d2fc0b4	0.042908385
186	0xbc19bc30	-0.009383246
187	0x3b426802	0.0029664044
188	0x3dbaacaf	0.09114968
189	0x3d793c47	0.0608485
190	0x3e1c571a	0.15267602
191	0xbc293420	-0.010327369
192	0xbdfe45be	-0.12415646
193	0x3c3ee70b	0.011651765
194	0x3da3513f	0.07974481
195	0xbe93d4c4	-0.28873265
196	0xbec9ea8e	-0.39436764
197	0x3ee0f247	0.43934843
198	0xbe915198	-0.28382564
199	0x3ded7c69	0.11595995
200	0xbdf4a3f7	-0.11945336
201	0x3ddccf36	0.1078171
202	0xbea95d61	-0.33079055
203	0x3e2cf0fa	0.168888
204	0xbe97b4a8	-0.29630017
205	0xbeff755a	-0.4989422
206	0x3f05314a	0.52028334
207	0xbe3fad54	-0.18718463
208	0xbe3d7104	-0.18500143
209	0x3e122628	0.14272368
210	0xbe30f66b	-0.17281501
211	0x3f0e8ce1	0.55683714
212	0x3d611716	0.054953657
213	0xbe9e8574	-0.30961192
214	0x3e30364e	0.17208216
215	0x3f10ee59	0.5661369
216	0xbe61838e	-0.2202284
217	0xbe05f239	-0.13080682
218	0xbde3e21e	-0.11127113
219	0xbe0d3578	-0.13789928
220	0xbe7dfd3d	-0.24803634
221	0xbf348988	-0.70522356
222	0xbe0393e1	-0.1284938
223	0x3f5f97f6	0.8734125
224	0xbd930a77	-0.071797304
225	0xbd6de8cd	-0.058083344
226	0x3db4c0f5	0.08825866
227	0xbed19612	-0.40934807
228	0xbe4179c9	-0.18894114
229	0xbdcbfacc	-0.09959945
230	0xbdcef668	-0.10105592
231	0xbe8967a4	-0.26836884
232	0xbe584664	-0.21120602
233	0x3ccd9b37	0.025098426
234	0x3d47f255	0.04881509
235	0x3e4a5030	0.19757152
236	0x3f353a76	0.7079233
237	0x3e6c5b7d	0.23081775
238	0xbe10e6f4	-0.14150602
239	0x3d08b07d	0.033371437
240	0xbc9a9979	-0.01887201
241	0x3d1a89b5	0.037728984
242	0x3ec8f91a	0.3925255
243	0x3f0301ee	0.5117482
244	0x3c98f7d4	0.018672861
245	0xbda97bac	-0.08275542
246	0x3ef48dee	0.47764534
247	0x3b2d7e77	0.0026473084
248	0xbebe547c	-0.3717383
249	0xbe2e7e55	-0.1704038
250	0x3d3116ed	0.043234754
251	0xbe84f761	-0.25969985
252	0x3e8346de	0.25640005
253	0xbd887bb0	-0.066642165
254	0x3de78787	0.11305147
255	0x3f33c0ae	0.7021588

linears.3.bias f4 [20]
0	0x3d685176	0.056718312
1	0xbc4d5f31	-0.012534902
2	0xbd3db1a2	-0.046311982
3	0xbe1b3f6d	-0.15160914
4	0xbd6d6a15	-0.057962496
5	0xbb809103	-0.0039235367
6	0x3cbfe42e	0.023424234
7	0xbaf9a617	-0.0019046691
8	0x3d8ae50c	0.067819685
9	0xbc5a6388	-0.013329394
10	0xbc1c7a38	-0.009550624
11	0x3dcae328	0.09906608
12	0x3c6824e6	0.0141689535
13	0xbc868e6e	-0.016425338
14	0xbb7a4902	-0.0038190489
15	0xbd2ff899	-0.04296169
16	0xbc643f02	-0.013931038
17	0x3cf23253	0.029565012
18	0x3ccdd4f9	0.025125967
19	0xbbb2e29a	-0.005459142

linears.4.weight f4 [1, 20]
0	0xbdddd919	-0.10832424
1	0x3f839275	1.027907
2	0x3e83be05	0.2573091
3	0x3eeddfc1	0.46459773
4	0x3f349534	0.70540166
5	0xbe8a72c8	-0.27040696
6	0x3f0cf8df	0.5506725
7	0x3e5f5c60	0.21812582
8	0xbe7a77a1	-0.24459697
9	0x3ec42744	0.38311207
10	0xbf26fdb5	-0.65230876
11	0x3dddf652	0.108379975
12	0xbdd4fc8c	-0.10399732
13	0xbf262581	-0.64900976
14	0xbee2ea1d	-0.4431924
15	0x3e4cc086	0.19995317
16	0xbe662780	-0.22476006
17	0xbe8bbf26	-0.27294272
18	0x3e85907e	0.260868
19	0xbe805623	-0.25065717

exp_avg f4 [20, 2]
0	0xb876c4e9	-5.8834357e-05
1	0x38223b0c	3.86788e-05
2	0x383c875c	4.4948756e-05
3	0xb773ba21	-1.4527265e-05
4	0xb8733f88	-5.7994883e-05
5	0x381dc19e	3.7612037e-05
6	0xb68ca48e	-4.191482e-06
7	0x377b9164	1.4994617e-05
8	0x3793618d	1.7569191e-05
9	0xb71c5af2	-9.319499e-06
10	0xb8199931	-3.6620713e-05
11	0x37d2e69d	2.5141338e-05
12	0x3766c12e	1.3754046e-05
13	0xb789b747	-1.6417018e-05
14	0x37e92129	2.7791206e-05
15	0xb6b5b894	-5.415708e-06
16	0x37ac285b	2.052279e-05
17	0xb6365576	-2.7169858e-06
18	0xb6b63e4f	-5.4312763e-06
19	0xb7123642	-8.714911e-06
20	0x364ba208	3.0343672e-06
21	0x3784f91d	1.5851629e-05
22	0xb540d5c1	-7.1836627e-07
23	0x363edff1	2.8442557e-06
24	0xb6fb038a	-7.480795e-06
25	0x363214a8	2.653609e-06
26	0x3777ab46	1.4762225e-05
27	0x3661875d	3.3606404e-06
28	0x3705042d	7.92839e-06
29	0xb6fd6446	-7.551661e-06
30	0x36c93292	5.996154e-06
31	0xb7213a12	-9.609868e-06
32	0x36f34898	7.2504154e-06
33	0xb7a08e1d	-1.9139663e-05
34	0x38279bb5	3.9960916e-05
35	0xb8043a34	-3.152546e-05
36	0xb50d9960	-5.2749783e-07
37	0xb6216b49	-2.4053318e-06
38	0x382209d1	3.8632952e-05
39	0xb73024fd	-1.04990295e-05

exp_avg_sq f4 [20, 2]
0	0x3c106a1c	0.008814361
1	0x39b66a32	0.00034792867
2	0x3b4131a7	0.0029479058
3	0x38bc5bd1	8.981641e-05
4	0x3bac3941	0.0052558486
5	0x3965b47c	0.00021906378
6	0x384f7d35	4.9469254e-05
7	0x37616a26	1.343576e-05
8	0x3ba6afa4	0.005086856
9	0x39a8bc99	0.00032183973
10	0x3b38443a	0.0028116838
11	0x3a8ec5a0	0.0010892637
12	0x3a551940	0.0008129068
13	0x39b59783	0.00034635895
14	0x3aa6e1d4	0.0012732097
15	0x38c545d2	9.406697e-05
16	0x3b341b3a	0.0027482049
17	0x38c33312	9.307837e-05
18	0x3a914ed1	0.0011086111
19	0x38f606eb	0.00011731483
20	0x3934540c	0.00017197448
21	0x36cb7a27	6.064092e-06
22	0x3a90291d	0.0010998581
23	0x38d22478	0.00010020373
24	0x387312c6	5.79532e-05
25	0x3784d4c2	1.58347e-05
26	0x388ff0f0	6.8636495e-05
27	0x3840f927	4.600841e-05
28	0x37c6ac0f	2.368356e-05
29	0x344ca274	1.905808e-07
30	0x3a0eed0f	0.00054521946
31	0x3449d03d	1.879534e-07
32	0x3af16683	0.0018417392
33	0x3803406c	3.129283e-05
34	0x3a8a06c6	0.0010530583
35	0x389968ef	7.315154e-05
36	0x39cccead	0.00039063898
37	0x37b7cd51	2.1910908e-05
38	0x3a8d6925	0.0010788782
39	0x384cdb28	4.8841495e-05

exp_avg f4 [20]
0	0xb8df8473	-0.00010658139
1	0x389a6f43	7.364016e-05
2	0xb91a8467	-0.00014735908
3	0xb67562c9	-3.6565345e-06
4	0x3895c7db	7.1421e-05
5	0xb91749d8	-0.00014427991
6	0x386e7c08	5.6859135e-05
7	0x381eb569	3.7839087e-05
8	0x37e48f92	2.7246573e-05
9	0x3719f818	9.1772745e-06
10	0xb78b0179	-1.6570777e-05
11	0xb694104e	-4.412642e-06
12	0xb7eb0547	-2.801664e-05
13	0x382cf279	4.1233816e-05
14	0xb6d5bb85	-6.369725e-06
15	0x3824065b	3.9106566e-05
16	0x368e7395	4.2453853e-06
17	0x389fb045	7.6145436e-05
18	0x38360971	4.3400974e-05
19	0x37e0bb14	2.6789996e-05

exp_avg_sq f4 [20]
0	0x3cfd2359	0.030900644
1	0x3c2f67e0	0.010705918
2	0x3d09a746	0.03360679
3	0x35a6b92f	1.2421859e-06
4	0x3c5fefdd	0.013668028
5	0x3d22d33d	0.039752234
6	0x3c22152f	0.009892746
7	0x3b240393	0.0025026544
8	0x3b614ecc	0.0034379242
9	0x3b27bafb	0.0025593627
10	0x3a70602b	0.00091696036
11	0x3b01773f	0.0019754914
12	0x3a8f49af	0.0010931994
13	0x3a6b8e2d	0.00089857244
14	0x3549503e	7.49951e-07
15	0x39962989	0.00028641176
16	0x3b015489	0.0019734225
17	0x3c28940b	0.010289202
18	0x37b8185d	2.1945854e-05
19	0x3a75bc21	0.00093740417

exp_avg f4 [20, 20]
0	0x35a49d67	1.2264762e-06
1	0xb5d2cc0e	-1.5705607e-06
2	0x3609e187	2.0545865e-06
3	0x35a69bc1	1.2413294e-06
4	0xb58f7ce4	-1.0690678e-06
5	0xb69a58d2	-4.5998977e-06
6	0x36706ed4	3.5827297e-06
7	0xb64d6f24	-3.0612073e-06
8	0xb4020ecc	-1.2112577e-07
9	0x34e591c0	4.276062e-07
10	0x3641c322	2.8872823e-06
11	0x35f7cc96	1.8462476e-06
12	0x31d6ba14	6.2493744e-09
13	0x35f24ffc	1.8053684e-06
14	0xb5ae199f	-1.2971467e-06
15	0x34aad9da	3.1823475e-07
16	0xb571c28d	-9.0062605e-07
17	0xb5bb4cfc	-1.3954991e-06
18	0xb53fdd53	-7.1475114e-07
19	0xb5d9ebdf	-1.6236407e-06
20	0xb5a95bdf	-1.2618219e-06
21	0xb623fe49	-2.4436906e-06
22	0xb5a2f067	-1.2139907e-06
23	0xb646c2ad	-2.9617615e-06
24	0xb623eac1	-2.4425538e-06
25	0xb4fa9293	-4.6672776e-07
26	0xb52c4407	-6.4173986e-07
27	0xb6b0cd62	-5.2691184e-06
28	0xb5835801	-9.785873e-07
29	0xb5d5223e	-1.5879702e-06
30	0x36056462	1.9876975e-06
31	0x34b25f32	3.3224347e-07
32	0x349ba7d0	2.89931e-07
33	0x34edc2c8	4.4286412e-07
34	0x364940a9	2.9988971e-06
35	0x364f6a8f	3.090743e-06
36	0x341fd249	1.488453e-07
37	0x362c6a32	2.569181e-06
38	0x360697d3	2.005593e-06
39	0xb68496ae	-3.951448e-06
40	0x364212f3	2.8919283e-06
41	0xb6c5fb2e	-5.9002987e-06
42	0x358173ec	9.644987e-07
43	0xb5812c7b	-9.624194e-07
44	0xb6f6cb51	-7.3550405e-06
45	0xb683a353	-3.9231177e-06
46	0x3668693b	3.4631946e-06
47	0xb720ddec	-9.588413e-06
48	0xb69528ca	-4.4452945e-06
49	0xb6b82208	-5.487589e-06
50	0x369792a2	4.517221e-06
51	0xb6573987	-3.2070982e-06
52	0xb6837ae7	-3.918412e-06
53	0x36aa7bbb	5.080799e-06
54	0x3654e024	3.1720929e-06
55	0x36dc9a59	6.5744794e-06
56	0xb673db29	-3.633739e-06
57	0x35a0e9a4	1.1988927e-06
58	0x36ad0985	5.15691e-06
59	0xb708c94e	-8.153102e-06
60	0xb61f5131	-2.3740106e-06
61	0xb5d2f7dc	-1.5718356e-06
62	0xb682c4ab	-3.897197e-06
63	0xb6a01b32	-4.7715375e-06
64	0xb668dc2f	-3.4698858e-06
65	0xb62676c5	-2.480506e-06
66	0x35d70a0c	1.6021672e-06
67	0xb6a2c857	-4.851299e-06
68	0xb60bc0a4	-2.0824746e-06
69	0xb6562dba	-3.1915101e-06
70	0xb6adc3c4	-5.178592e-06
71	0xb63d80a1	-2.8238067e-06
72	0xb5c06ed1	-1.4337367e-06
73	0xb552f5c4	-7.858873e-07
74	0x3691f53f	4.349887e-06
75	0x367f84c1	3.8075234e-06
76	0x34655bdd	2.1360707e-07
77	0x36a79d5f	4.9953082e-06
78	0x366f0025	3.561386e-06
79	0xb68a6276	-4.124183e-06
80	0xb5cd30f6	-1.528794e-06
81	0x36aeab8b	5.2055743e-06
82	0xb5ab9d79	-1.2786323e-06
83	0x34f3c235	4.540358e-07
84	0x344187d9	1.8023947e-07
85	0x367323d7	3.6230683e-06
86	0xb6544628	-3.1631298e-06
87	0x36cc0cc9	6.081162e-06
88	0x3632bd50	2.6634261e-06
89	0xb5645684	-8.5062516e-07
90	0xb7011b2e	-7.695327e-06
91	0xb5796fd1	-9.292244e-07
92	0x35d79a24	1.6063609e-06
93	0xb683487f	-3.912544e-06
94	0xb5e3bfcb	-1.6968637e-06
95	0xb6671916	-3.4436284e-06
96	0x36129024	2.1839596e-06
97	0x3528fadf	6.294994e-07
98	0xb5d2ec8a	-1.5715061e-06
99	0x3683b996	3.9257093e-06
100	0x33ae434a	8.114746e-08
101	0xb566bec2	-8.5959266e-07
102	0x35b8ef76	1.3778761e-06
103	0x352f59a5	6.532303e-07
104	0x369b341d	4.6254268e-06
105	0xb463631c	-2.1177078e-07
106	0xb4ca484c	-3.7678035e-07
107	0x35e56477	1.7091069e-06
108	0x354f955f	7.733087e-07
109	0x36a36f61	4.8707448e-06
110	0x363bf4b2	2.8007603e-06
111	0x3680156e	3.817192e-06
112	0x359e8aa5	1.1812268e-06
113	0x35322eef	6.6378465e-07
114	0xb5ce1061	-1.5352963e-06
115	0xb6127618	-2.1824435e-06
116	0x32cc023e	2.3749745e-08
117	0xb5b338ab	-1.3353032e-06
118	0xb64751f7	-2.970102e-06
119	0x3634e298	2.6953985e-06
120	0x35042c6e	4.9238486e-07
121	0xb64f2c27	-3.0871104e-06
122	0xb523519c	-6.084099e-07
123	0xb60b0ede	-2.0721268e-06
124	0xb6ab1e95	-5.0997573e-06
125	0xb5c06ea5	-1.4337317e-06
126	0x357eb8ba	9.4891186e-07
127	0xb6cd52a4	-6.1190967e-06
128	0xb61afc27	-2.309456e-06
129	0xb67f92b6	-3.8083358e-06
130	0xb3255739	-3.8496385e-08
131	0xb5eee163	-1.7797978e-06
132	0xb5f14d8f	-1.7978472e-06
133	0x360584c9	1.9895836e-06
134	0x3631406e	2.6412558e-06
135	0x368599a0	3.981593e-06
136	0xb5c44555	-1.4623316e-06
137	0x361f7420	2.376044e-06
138	0x3655ae74	3.1841018e-06
139	0xb6adde5f	-5.181689e-06
140	0xb67103b4	-3.5913954e-06
141	0x377f8325	1.5229719e-05
142	0xb5d1d9ae	-1.5635067e-06
143	0x369bf631	4.6480204e-06
144	0x37364335	1.0863693e-05
145	0x37ffffbf	3.051746e-05
146	0xb7d001b9	-2.4796334e-05
147	0x37cf0772	2.467979e-05
148	0x371fc44a	9.522841e-06
149	0x36c70c44	5.93209e-06
150	0xb6feddbe	-7.595604e-06
151	0x361d91eb	2.3479759e-06
152	0x36ffbd59	7.621635e-06
153	0xb740499c	-1.146123e-05
154	0xb6c351d9	-5.820981e-06
155	0xb763ca0d	-1.3577298e-05
156	0x36f24264	7.219891e-06
157	0xb6906e48	-4.304373e-06
158	0xb70c0b7e	-8.347326e-06
159	0x37941937	1.7654716e-05
160	0x354dee8f	7.67156e-07
161	0x36a85a05	5.01727e-06
162	0x354c7f11	7.618083e-07
163	0x36918be4	4.337622e-06
164	0x366f1262	3.5624475e-06
165	0x367f363b	3.8029527e-06
166	0xb5c33b8f	-1.4545966e-06
167	0x36fa2a5d	7.4555123e-06
168	0x360f611f	2.1365192e-06
169	0x35b5a441	1.3533355e-06
170	0xb518cc19	-5.6921414e-07
171	0xb5c5c4f1	-1.4734961e-06
172	0x35211613	6.0009296e-07
173	0xb61d8b5a	-2.3475936e-06
174	0xb666b9ec	-3.4380892e-06
175	0xb68029dc	-3.8195703e-06
176	0x359abab1	1.1528228e-06
177	0xb69307c2	-4.3818445e-06
178	0xb5fcad6b	-1.8825934e-06
179	0x36ab0b45	5.097509e-06
180	0x344ae890	1.8897322e-07
181	0x3643aed6	2.9159032e-06
182	0xb5726c99	-9.0310056e-07
183	0x358d01c3	1.0505831e-06
184	0xb54f08fa	-7.712657e-07
185	0x369cd523	4.6739747e-06
186	0xb62d346f	-2.580953e-06
187	0x3676c625	3.6772192e-06
188	0x3507c621	5.0579735e-07
189	0xb61174b8	-2.1674623e-06
190	0xb61a0f17	-2.2956572e-06
191	0xb649d179	-3.0073263e-06
192	0xb4d3fb3e	-3.9484615e-07
193	0xb5de0b97	-1.6543662e-06
194	0xb39acf10	-7.208848e-08
195	0xb542c1c6	-7.255261e-07
196	0x3516e3f1	5.6211053e-07
197	0xb5128999	-5.458947e-07
198	0x356ecfe6	8.896444e-07
199	0x35ca482b	1.5071176e-06
200	0xb5eae6f0	-1.750157e-06
201	0xb3dc262a	-1.025149e-07
202	0xb615d70e	-2.2327908e-06
203	0xb66118a4	-3.3541955e-06
204	0xb62f2e9a	-2.6104158e-06
205	0x36cfd9e7	6.194448e-06
206	0xb6ca1423	-6.0224133e-06
207	0xb4ed8e8c	-4.4248407e-07
208	0xb3af323e	-8.1582115e-08
209	0xb623f039	-2.442872e-06
210	0xb6577868	-3.2107582e-06
211	0xb52a5210	-6.344935e-07
212	0x351df08d	5.8837105e-07
213	0xb5b27152	-1.3295014e-06
214	0x36409ccf	2.8701504e-06
215	0x35a19e21	1.2041456e-06
216	0x3557e7c8	8.043103e-07
217	0x3680ed39	3.8423136e-06
218	0x35c112eb	1.4385126e-06
219	0xb597906f	-1.1292412e-06
220	0xb466ef39	-2.1507448e-07
221	0xb64de9e3	-3.068352e-06
222	0x361d2e93	2.3421933e-06
223	0x3516a3cb	5.6117705e-07
224	0x36e87c6d	6.928624e-06
225	0xb6e7feca	-6.913998e-06
226	0x368346e8	3.912359e-06
227	0xb6138614	-2.198275e-06
228	0x3513df68	5.5086866e-07
229	0x36fda2de	7.558948e-06
230	0x36f29f37	7.230697e-06
231	0x36ce7e90	6.154012e-06
232	0x35fe8eb3	1.8966006e-06
233	0x35f97d6f	1.8588452e-06
234	0xb5e6dd4a	-1.7200739e-06
235	0xb599a801	-1.1448284e-06
236	0xb301e021	-3.0238997e-08
237	0xb617fa2b	-2.264637e-06
238	0xb668fdfe	-3.4718537e-06
239	0x3592537f	1.0902148e-06
240	0xb702c566	-7.794564e-06
241	0x35dfe926	1.668265e-06
242	0xb6898efb	-4.0995633e-06
243	0xb7036e54	-7.833896e-06
244	0x360fffdd	2.1457593e-06
245	0x36f344c4	7.2499697e-06
246	0xb72cd095	-1.0300563e-05
247	0xb54074f5	-7.169577e-07
248	0x369d5d7d	4.689848e-06
249	0x3698952a	4.547318e-06
250	0xb6eee441	-7.119525e-06
251	0x3714a0bc	8.858911e-06
252	0x36f6ee2f	7.3590995e-06
253	0xb6cc501c	-6.0889997e-06
254	0x361ddb3e	2.3522439e-06
255	0xb64b20c0	-3.026842e-06

exp_avg_sq f4 [20, 20]
0	0x324a11ff	1.1762039e-08
1	0x3681f8ee	3.873479e-06
2	0x35455503	7.351193e-07
3	0x3487b11a	2.5274568e-07
4	0x36072f28	2.0144016e-06
5	0x3726aa81	9.93407e-06
6	0x363a24eb	2.773765e-06
7	0x36a2e9d7	4.8551988e-06
8	0x32ec533a	2.7511863e-08
9	0x36b68511	5.4395136e-06
10	0x368d8dad	4.2186207e-06
11	0x36e975eb	6.9576686e-06
12	0x348587a3	2.487187e-07
13	0x35b37035	1.3369196e-06
14	0x33c02f3f	8.949291e-08
15	0x3354cb06	4.9544745e-08
16	0x33e70f62	1.0759574e-07
17	0x322eef36	1.0182523e-08
18	0x359b2635	1.155952e-06
19	0x34b499cc	3.3639515e-07
20	0x36507189	3.1060501e-06
21	0x34f07a59	4.4792503e-07
22	0x33d64eeb	9.9795066e-08
23	0x365b0a75	3.263963e-06
24	0x3628419b	2.5072138e-06
25	0x340f8814	1.3367418e-07
26	0x366dfbc3	3.5462297e-06
27	0x35af31fb	1.3053062e-06
28	0x358e1ae3	1.058765e-06
29	0x36d6f740	6.4064807e-06
30	0x3470748a	2.2394138e-07
31	0x374e4ad9	1.2295984e-05
32	0x36806131	3.826012e-06
33	0x351d7bc0	5.866714e-07
34	0x328cb11d	1.6378687e-08
35	0x35345f9d	6.719436e-07
36	0x3593d8b0	1.1015418e-06
37	0x360e1d25	2.1176613e-06
38	0x364c51d6	3.0446004e-06
39	0x341d98dc	1.4677374e-07
40	0x36855f17	3.974779e-06
41	0x38728092	5.7817037e-05
42	0x36a54e53	4.9265013e-06
43	0x360133c2	1.9252625e-06
44	0x36d4338e	6.324094e-06
45	0x39552ed8	0.00020330714
46	0x38fa11b8	0.00011924229
47	0x390404aa	0.00012590238
48	0x3765301e	1.3660667e-05
49	0x34a0ead8	2.9973194e-07
50	0x3822355d	3.867351e-05
51	0x36569a6b	3.1978368e-06
52	0x36d83ed3	6.4446153e-06
53	0x3811556b	3.4650246e-05
54	0x35fe0ea8	1.892874e-06
55	0x37d3f040	2.5265035e-05
56	0x373ae0b5	1.1138783e-05
57	0x35106296	5.378764e-07
58	0x3681e784	3.8714516e-06
59	0x384cc045	4.8816455e-05
60	0x3606cc58	2.00865e-06
61	0x341c0ecd	1.4534017e-07
62	0x36bceb07	5.6301974e-06
63	0x370c462e	8.36099e-06
64	0x38018bf8	3.0886353e-05
65	0x35f07859	1.7916419e-06
66	0x34f98117	4.647379e-07
67	0x379bb121	1.8559922e-05
68	0x3575d458	9.1578613e-07
69	0x37ccbd8d	2.4406962e-05
70	0x3789d883	1.6432494e-05
71	0x37079fb5	8.083812e-06
72	0x34f997d0	4.6490322e-07
73	0x356f4388	8.913271e-07
74	0x37050d39	7.930496e-06
75	0x37222842	9.665326e-06
76	0x342da41f	1.6171587e-07
77	0x375010f6	1.2401715e-05
78	0x3731ca5c	1.0597138e-05
79	0x379823c3	1.8136465e-05
80	0x37d73163	2.5652995e-05
81	0x391f20dd	0.00015175664
82	0x37bf99fc	2.2840679e-05
83	0x34d7519f	4.0106258e-07
84	0x375bc28f	1.3098716e-05
85	0x3a1e518d	0.00060393737
86	0x39d53119	0.00040663106
87	0x399951b7	0.00029243316
88	0x38381dee	4.3896893e-05
89	0x3509d83a	5.135113e-07
90	0x391b1b02	0.00014792013
91	0x36273cc2	2.4920305e-06
92	0x37f5f934	2.932232e-05
93	0x38f53481	0.0001169229
94	0x35c7167e	1.4833201e-06
95	0x3887cb5c	6.47518e-05
96	0x383118a0	4.2223022e-05
97	0x361c7c7f	2.3318278e-06
98	0x37440856	1.1684451e-05
99	0x38f41bda	0.000116400144
100	0x3767c28d	1.381397e-05
101	0x37c436f2	2.3390607e-05
102	0x36b86a3d	5.495995e-06
103	0x362eb76f	2.6034793e-06
104	0x371642c8	8.956245e-06
105	0x3900f8fe	0.00012299788
106	0x38ea3efd	0.00011169722
107	0x383a6203	4.4437136e-05
108	0x376ed657	1.423581e-05
109	0x368accb3	4.1365506e-06
110	0x38075c25	3.2272324e-05
111	0x36b2f5a4	5.3334097e-06
112	0x3788b626	1.6297283e-05
113	0x37f2fedd	2.8967328e-05
114	0x344134bf	1.7993715e-07
115	0x37963f8a	1.7910981e-05
116	0x376a1319	1.3951933e-05
117	0x36669d00	3.4364057e-06
118	0x371512c1	8.885459e-06
119	0x37d7ee65	2.5741008e-05
120	0x36809268	3.831741e-06
121	0x37fcf05c	3.0152667e-05
122	0x355cd982	8.22729e-07
123	0x35b0cb3c	1.3172171e-06
124	0x37d413cd	2.528159e-05
125	0x390656fe	0.00012811643
126	0x38bd97f0	9.040523e-05
127	0x38c04564	9.1681984e-05
128	0x376fafa2	1.4286403e-05
129	0x372c8404	1.0282736e-05
130	0x373a4f67	1.1104951e-05
131	0x365b4461	3.2673345e-06
132	0x37394a76	1.1044196e-05
133	0x37ad6b91	2.0673297e-05
134	0x36920fea	4.3529917e-06
135	0x37fed5b4	3.0378673e-05
136	0x371644a8	8.956682e-06
137	0x358f0741	1.0656441e-06
138	0x376f0ddf	1.424874e-05
139	0x3858349a	5.1547402e-05
140	0x37055bfc	7.9488345e-06
141	0x392d48d0	0.0001652569
142	0x3782f966	1.5613343e-05
143	0x36bacb33	5.5668875e-06
144	0x370564a7	7.950853e-06
145	0x3a1e141d	0.0006030219
146	0x39ac768b	0.00032894718
147	0x39b82ff7	0.0003513095
148	0x38041a31	3.1495645e-05
149	0x36cd44e9	6.1174983e-06
150	0x38f398ee	0.00011615628
151	0x37bdf645	2.2645234e-05
152	0x373fa4b1	1.1422832e-05
153	0x38c368e9	9.3178656e-05
154	0x3659b7d4	3.2442522e-06
155	0x3874a50b	5.832784e-05
156	0x37e2699a	2.6990474e-05
157	0x357ec847	9.4913815e-07
158	0x36a2603e	4.8391803e-06
159	0x38fd8582	0.00012088848
160	0x36eb18a9	7.0064166e-06
161	0x3894de54	7.098602e-05
162	0x371e7a3c	9.445994e-06
163	0x34e4bb2a	4.260449e-07
164	0x36470b21	2.9659789e-06
165	0x3992031a	0.000278496
166	0x39302099	0.00016796812
167	0x39151a98	0.00014219654
168	0x378447fc	1.5769147e-05
169	0x36008ef1	1.915669e-06
170	0x388460b9	6.3122665e-05
171	0x36cdc514	6.132419e-06
172	0x3703554e	7.82807e-06
173	0x3845f82e	4.7199595e-05
174	0x351d2ccf	5.855226e-07
175	0x37d3dd3b	2.5256179e-05
176	0x377c2477	1.5028861e-05
177	0x349b6fa9	2.8952243e-07
178	0x36243a82	2.447196e-06
179	0x38520762	5.0074777e-05
180	0x36a8ee48	5.0345297e-06
181	0x3813eb64	3.5266756e-05
182	0x3648bfe6	2.9914022e-06
183	0x34902541	2.6849196e-07
184	0x373305a6	1.06705465e-05
185	0x392080e5	0.00015306806
186	0x38d98d26	0.00010373657
187	0x38b4a759	8.61424e-05
188	0x3751b34c	1.2499117e-05
189	0x35e210e4	1.6843228e-06
190	0x37c7c425	2.3813986e-05
191	0x33e07809	1.0452647e-07
192	0x371412b4	8.825842e-06
193	0x37d6d2ba	2.5608915e-05
194	0x35cbbd8b	1.5179843e-06
195	0x37bd7d2a	2.258884e-05
196	0x3724e8af	9.829338e-06
197	0x32fcebfc	2.9443974e-08
198	0x36e826de	6.9186635e-06
199	0x38282d02	4.0096238e-05
200	0x371a683e	9.203386e-06
201	0x380a9602	3.304147e-05
202	0x36910fd2	4.3231785e-06
203	0x348cdd19	2.6237902e-07
204	0x3748dcf4	1.1972374e-05
205	0x39228b2a	0.00015501367
206	0x38f95274	0.00011888603
207	0x389eb950	7.568544e-05
208	0x37798c6a	1.4874249e-05
209	0x366203e4	3.367889e-06
210	0x37fb62fc	2.9967625e-05
211	0x35e94bec	1.7381949e-06
212	0x375e6d7b	1.3257722e-05
213	0x37fa9895	2.9873374e-05
214	0x35828371	9.724009e-07
215	0x37c4ab56	2.3444805e-05
216	0x3756d2ef	1.2804506e-05
217	0x353a3439	6.9366394e-07
218	0x3717d5e4	9.050102e-06
219	0x3821870f	3.8511174e-05
220	0x36870b4b	4.024628e-06
221	0x36bdc22d	5.655244e-06
222	0x3597c631	1.1308058e-06
223	0x366d8fbd	3.5399419e-06
224	0x37dc659b	2.6273357e-05
225	0x3696598e	4.480774e-06
226	0x35c6bd86	1.4807308e-06
227	0x367687f4	3.6735992e-06
228	0x3627cdd6	2.5004751e-06
229	0x38486827	4.7780715e-05
230	0x36c313ac	5.813743e-06
231	0x387c0e7c	6.009497e-05
232	0x37317170	1.0576434e-05
233	0x336e27ef	5.5450013e-08
234	0x35921f30	1.0886924e-06
235	0x368a3b5e	4.1196317e-06
236	0x3591421c	1.0822582e-06
237	0x35348333	6.7246145e-07
238	0x3798b09e	1.8202056e-05
239	0x360b491d	2.0755172e-06
240	0x378c6dd0	1.6740436e-05
241	0x351db066	5.874375e-07
242	0x35dc5276	1.6415277e-06
243	0x3792913c	1.7472186e-05
244	0x36e32341	6.7692313e-06
245	0x363d84d1	2.8240504e-06
246	0x37c9328b	2.3984603e-05
247	0x3682b924	3.895855e-06
248	0x36a9be35	5.0587355e-06
249	0x379d3230	1.8739229e-05
250	0x36a05b77	4.7790195e-06
251	0x3831e03d	4.2408927e-05
252	0x378e836c	1.6988917e-05
253	0x36ac2492	5.130257e-06
254	0x350700bf	5.0292505e-07
255	0x3621c0c4	2.4103074e-06

exp_avg f4 [20]
0	0x37361884	1.0853753e-05
1	0x37e18482	2.6883794e-05
2	0x37e02f45	2.6724892e-05
3	0x370f397e	8.53685e-06
4	0xb81a835b	-3.6838795e-05
5	0x37673af2	1.3782397e-05
6	0x378994bd	1.6400934e-05
7	0xb8a572ae	-7.889174e-05
8	0xb82c984a	-4.1149826e-05
9	0xb7dce41a	-2.6332262e-05
10	0x3719271c	9.1286165e-06
11	0x381939b9	3.65318e-05
12	0x3825426a	3.940092e-05
13	0x375989ce	1.2966293e-05
14	0xb7eec76a	-2.846467e-05
15	0x37487aec	1.1949549e-05
16	0x382a70a5	4.0636067e-05
17	0xb925ace1	-0.00015800029
18	0xb884e87f	-6.337556e-05
19	0x39074f73	0.000129042

exp_avg_sq f4 [20]
0	0x39b9eff1	0.0003546472
1	0x39b17325	0.0003384586
2	0x3b0a61e4	0.0021115476
3	0x36a80c1a	5.008199e-06
4	0x3b881f1c	0.004154099
5	0x39246f62	0.00015681752
6	0x3a1b189d	0.00059164484
7	0x3be02565	0.0068403953
8	0x3b23418c	0.0024910895
9	0x3a6067a3	0.0008560365
10	0x3a0ab9a2	0.00052919437
11	0x3acf505b	0.0015816794
12	0x3a987082	0.001163021
13	0x38cd113a	9.7783704e-05
14	0x3b007ac5	0.0019604426
15	0x3a7b2ee0	0.0009581875
16	0x3b65aad0	0.003504444
17	0x3ce9ca98	0.028538987
18	0x3c32a4e2	0.010903569
19	0x3cfdff4d	0.031005526

exp_avg f4 [20, 20]
0	0x368428c8	3.938654e-06
1	0xb6cae832	-6.0471e-06
2	0xb6985121	-4.5393977e-06
3	0x370a79e1	8.253818e-06
4	0x36b205d3	5.3054914e-06
5	0xb78cb7af	-1.6774835e-05
6	0xb6cb0d14	-6.051394e-06
7	0xb830df9e	-4.216993e-05
8	0x36f8e756	7.417907e-06
9	0x378673d9	1.602799e-05
10	0xb7380f97	-1.0970884e-05
11	0x372fb85c	1.0473737e-05
12	0x3781c309	1.5468819e-05
13	0x3684e8ed	3.9610227e-06
14	0xb80e8d26	-3.3986893e-05
15	0x3685b54d	3.984815e-06
16	0xb769cf46	-1.3936142e-05
17	0x3731c04e	1.0594797e-05
18	0x369e58dd	4.719112e-06
19	0xb49d6870	-2.9319517e-07
20	0xb678b5fe	-3.7060813e-06
21	0xb6866885	-4.005679e-06
22	0xb670e0dc	-3.5893672e-06
23	0xb6eee4f4	-7.1196064e-06
24	0x379458b0	1.7684273e-05
25	0xb737122a	-1.0911879e-05
26	0xb5e41997	-1.6994771e-06
27	0x378b5ee7	1.6614284e-05
28	0x37cdb89b	2.4523868e-05
29	0x372038e9	9.549994e-06
30	0xb7603752	-1.3364321e-05
31	0xb767599c	-1.3789537e-05
32	0x3615f354	2.2344366e-06
33	0xb6b0deee	-5.271161e-06
34	0x383bc731	4.4769786e-05
35	0x3749161f	1.1985684e-05
36	0xb73756da	-1.0927872e-05
37	0xb7f6145d	-2.9334968e-05
38	0x3754780a	1.26641335e-05
39	0x375d1f5a	1.3179926e-05
40	0x3650c066	3.1106406e-06
41	0xb5962bf0	-1.1188658e-06
42	0xb6397dcd	-2.7640374e-06
43	0x36e9844a	6.9593416e-06
44	0x339445c8	6.90448e-08
45	0xb6bfa4cd	-5.711429e-06
46	0xb6533409	-3.1471739e-06
47	0xb7ea5afc	-2.7937342e-05
48	0x35052ee0	4.9614573e-07
49	0x36b8ab40	5.5035634e-06
50	0xb5f23319	-1.8045276e-06
51	0xb65a0710	-3.2488642e-06
52	0x3576012f	9.1643864e-07
53	0x3711b92b	8.685786e-06
54	0x35dee290	1.6606227e-06
55	0xb63cc1ba	-2.8126947e-06
56	0xb66d5e8b	-3.5370783e-06
57	0x37663953	1.3722415e-05
58	0x363167da	2.6435505e-06
59	0xb75f2f83	-1.3302898e-05
60	0x341dc077	1.4691783e-07
61	0x364c3775	3.043065e-06
62	0x360197b9	1.9310812e-06
63	0xb6ce76a3	-6.1530895e-06
64	0x3682d4b5	3.8990643e-06
65	0x3692a454	4.3702694e-06
66	0x35daa42f	1.6290049e-06
67	0x3839d406	4.43049e-05
68	0x37493a0a	1.1994047e-05
69	0xb6258ce0	-2.4668916e-06
70	0x35a9ea64	1.2659698e-06
71	0xb6028846	-1.945083e-06
72	0x35aa431b	1.2685517e-06
73	0xb6cc6caa	-6.092324e-06
74	0x37be576b	2.2690472e-05
75	0x34f793c5	4.6114852e-07
76	0x3686bc00	4.0153973e-06
77	0xb7fad926	-2.990344e-05
78	0x351c9772	5.833491e-07
79	0x36b8da70	5.509057e-06
80	0xb61e95a0	-2.3630928e-06
81	0x35b36958	1.3367198e-06
82	0x3636656d	2.717915e-06
83	0x35c7d769	1.4889348e-06
84	0xb6fa6d72	-7.4633217e-06
85	0xb692a17c	-4.3699383e-06
86	0x36656fd1	3.4188745e-06
87	0xb77f5283	-1.5218396e-05
88	0xb65459d1	-3.1642742e-06
89	0x36d74dd8	6.4165615e-06
90	0x34b3da12	3.3500015e-07
91	0x36460e67	2.9512682e-06
92	0x35520a3a	7.824598e-07
93	0x35a77f61	1.2479542e-06
94	0xb69de17d	-4.705215e-06
95	0xb6893351	-4.088892e-06
96	0xb4477781	-1.8576795e-07
97	0x3740693d	1.14685945e-05
98	0xb6be7216	-5.6757226e-06
99	0xb6130718	-2.1908836e-06
100	0x34ebe656	4.3939752e-07
101	0x34f2c357	4.521814e-07
102	0x35a3e9fe	1.2212547e-06
103	0x35c4ad99	1.4653662e-06
104	0xb5b22f34	-1.3275771e-06
105	0xb65464b6	-3.1649083e-06
106	0x348fb885	2.677008e-07
107	0xb64f440e	-3.0885017e-06
108	0xb52969c8	-6.311134e-07
109	0x365145ef	3.1184134e-06
110	0xb5871866	-1.0065385e-06
111	0x369b2043	4.6231157e-06
112	0x36ccb88a	6.101157e-06
113	0xb5f61d75	-1.8337001e-06
114	0xb668a635	-3.466744e-06
115	0xb5d1cae8	-1.5630767e-06
116	0xb623e652	-2.4422957e-06
117	0x36429e90	2.9000548e-06
118	0xb61d867e	-2.3473108e-06
119	0x35a3dcc3	1.2208696e-06
120	0xb5bf55af	-1.4255546e-06
121	0xb610c57d	-2.1572625e-06
122	0xb65d1f49	-3.2949777e-06
123	0xb67cf8df	-3.7695788e-06
124	0x37148c1f	8.854112e-06
125	0xb63fc7e0	-2.857756e-06
126	0xb5be6ca0	-1.4187717e-06
127	0x3707a329	8.084616e-06
128	0x3763c62b	1.3576394e-05
129	0x365faf9b	3.3331805e-06
130	0xb6ad9af7	-5.173842e-06
131	0xb62de337	-2.5911265e-06
132	0x35b0d2fd	1.3174428e-06
133	0x35dddc57	1.652991e-06
134	0x378d6c87	1.6859047e-05
135	0x36c6f6e4	5.9296017e-06
136	0xb631bd0c	-2.6485095e-06
137	0xb78099ef	-1.533047e-05
138	0x3706bb09	8.03057e-06
139	0x34822d36	2.4247282e-07
140	0xb43e9fdf	-1.775329e-07
141	0x33cfb7b6	9.6726055e-08
142	0x34e5ccd7	4.2803615e-07
143	0x345d0804	2.0585145e-07
144	0xb52a02dc	-6.3334096e-07
145	0xb51b1ef9	-5.778707e-07
146	0x34c5817c	3.6788322e-07
147	0x35976ad5	1.1281469e-06
148	0xb4554562	-1.9862412e-07
149	0x3508c2ef	5.0947614e-07
150	0xb3fee2fe	-1.1869086e-07
151	0xb51ce987	-5.8454356e-07
152	0x335f1b4d	5.1946063e-08
153	0xb49ec1e1	-2.957086e-07
154	0x358e3236	1.0594438e-06
155	0xb4ffe4e0	-4.766398e-07
156	0xb485f119	-2.4948602e-07
157	0x34783027	2.3114318e-07
158	0xb557917c	-8.030545e-07
159	0x35010626	4.806519e-07
160	0x365fffa7	3.3378399e-06
161	0xb65cc7f4	-3.2898943e-06
162	0xb6823ab5	-3.8811363e-06
163	0x36c14eb0	5.7610087e-06
164	0x36ab7e34	5.110889e-06
165	0xb7010e7e	-7.692373e-06
166	0xb6a335d3	-4.8640445e-06
167	0xb7d2dec7	-2.513769e-05
168	0x3613cbb9	2.202329e-06
169	0x36c8d2bb	5.9849967e-06
170	0xb6beae3b	-5.6827243e-06
171	0x36c52cee	5.876288e-06
172	0x36c15779	5.7620314e-06
173	0x3659535d	3.2384044e-06
174	0xb79e8379	-1.889629e-05
175	0x363766f6	2.7329056e-06
176	0xb706a0b4	-8.024439e-06
177	0x370c0fba	8.348312e-06
178	0x36ad7e91	5.170536e-06
179	0xb6403e92	-2.864665e-06
180	0xb5ecf341	-1.7654166e-06
181	0x35d237d4	1.5662467e-06
182	0x34beea6a	3.5560817e-07
183	0xb6a06620	-4.7802605e-06
184	0xb52859c8	-6.2715526e-07
185	0x37058d6c	7.960345e-06
186	0x35d82596	1.6104193e-06
187	0x366b40d2	3.505546e-06
188	0xb5f0ec8f	-1.7950241e-06
189	0xb6efec6e	-7.150279e-06
190	0x368ed3cf	4.2565875e-06
191	0xb6103c33	-2.1492713e-06
192	0xb6b85b8a	-5.494284e-06
193	0xb4d075fd	-3.8828867e-07
194	0x36c01b03	5.7251905e-06
195	0x356e0e50	8.8682737e-07
196	0x36d6dc44	6.4033393e-06
197	0xb647fac0	-2.9799266e-06
198	0x352dad4b	6.4699697e-07
199	0xb52d4b86	-6.4557423e-07
200	0xb5f76966	-1.8433609e-06
201	0x36172592	2.2522622e-06
202	0x36556b0f	3.180179e-06
203	0xb4e90efd	-4.3410537e-07
204	0xb6c0c337	-5.744772e-06
205	0xb57b1ad9	-9.3543855e-07
206	0x365befbd	3.277309e-06
207	0xb6e41401	-6.7972583e-06
208	0xb596badf	-1.1230258e-06
209	0x35df5e5c	1.6642257e-06
210	0x35afac3e	1.3088645e-06
211	0xb6bb15b5	-5.5755613e-06
212	0xb71cad55	-9.338682e-06
213	0xb649015d	-2.9952128e-06
214	0xb788bed1	-1.630132e-05
215	0xb6337640	-2.674191e-06
216	0x3606a794	2.00651e-06
217	0xb3cd625f	-9.56395e-08
218	0xb6b8554f	-5.4935585e-06
219	0x363d1e09	2.8180677e-06
220	0x358dda48	1.0568847e-06
221	0xb2de1b0a	-2.5856497e-08
222	0xb60f7081	-2.1374146e-06
223	0xb5a3bb71	-1.2198999e-06
224	0x35f30c64	1.8108517e-06
225	0x36ded1e5	6.6405505e-06
226	0xb5d7b519	-1.6071455e-06
227	0xb7073ae3	-8.060338e-06
228	0xb61ebbeb	-2.3653217e-06
229	0xb6f57ec4	-7.3163264e-06
230	0x364e327e	3.0725782e-06
231	0xb6b52e52	-5.3996127e-06
232	0xb706b451	-8.029006e-06
233	0x36298882	2.526242e-06
234	0xb6a76cad	-4.9896394e-06
235	0x35e74383	1.723049e-06
236	0x368fd56f	4.286579e-06
237	0x360a96cb	2.0651376e-06
238	0x367e9090	3.7933096e-06
239	0xb68885ea	-4.0687055e-06
240	0x34ac9a1d	3.214963e-07
241	0x363d3cb8	2.8198538e-06
242	0xb53d065f	-7.041726e-07
243	0x3576d6ff	9.1955e-07
244	0x34ea1485	4.3600826e-07
245	0x36032123	1.953981e-06
246	0x34a2f4a0	3.035284e-07
247	0xb7a48e99	-1.9616726e-05
248	0x363157fb	2.6426267e-06
249	0xb5ed6fea	-1.7690447e-06
250	0x360e9d46	2.1251194e-06
251	0xb735383d	-1.0801535e-05
252	0xb6ba05cb	-5.5439064e-06
253	0x36d9a834	6.4866854e-06
254	0x37dedfdc	2.6568705e-05
255	0xb683f439	-3.9325355e-06
