modelos/heat_40x1-20000.pt (torch, 7430 bytes, 9 tensors)

linears.0.weight f4 [40, 2]
0	0x3ea40786	0.3203699
1	0x3f3ee885	0.74573547
2	0xbf5e11ec	-0.86746097
3	0xc01cf832	-2.4526486
4	0xbfb2421b	-1.3926424
5	0xbfc6124a	-1.5474331
6	0xbeced7fe	-0.40399164
7	0x3e8dd0ab	0.27698264
8	0x3e915365	0.28383937
9	0x3f1c50ca	0.61060774
10	0xbe1bcc7e	-0.15214726
11	0xbd1191fd	-0.035539616
12	0xbf996016	-1.1982448
13	0xc06fb058	-3.7451382
14	0xbe6f47e5	-0.2336727
15	0xc0466c5f	-3.1003644
16	0x3e025c1b	0.12730448
17	0x3d14fbe1	0.036373023
18	0xbf9e31c8	-1.2358942
19	0xc0a2ed21	-5.0914464
20	0x3e15c852	0.14627197
21	0x3d9391de	0.07205556
22	0xbfb4b37c	-1.4117274
23	0xc0b70083	-5.7188125
24	0xbfb7edf5	-1.4369494
25	0x3f0f34e7	0.559401
26	0x3ffb3a7e	1.9627225
27	0x3fddb999	1.7322265
28	0x3b8fec85	0.004392209
29	0x40b3766a	5.608205
30	0x3fac1cbb	1.3446268
31	0xc03590f5	-2.8369725
32	0x3c9f64ee	0.019457307
33	0xc007a132	-2.1192136
34	0xbebb16d8	-0.36540866
35	0xbfb7be66	-1.435498
36	0xbf13292a	-0.57484686
37	0x3f1e0a4c	0.6173446
38	0xbf9f45cf	-1.2443179
39	0xbefc392d	-0.49262372
40	0xbedc3f25	-0.43016925
41	0xbfb5733a	-1.4175789
42	0xbf5b2eeb	-0.85618466
43	0x3ebfffb9	0.37499788
44	0x3fb5421a	1.4160798
45	0xbfa83a79	-1.3142844
46	0xbf25d441	-0.64777
47	0x3e9ffe64	0.31248772
48	0x3f6db58f	0.9285516
49	0xbf29e2dc	-0.66361785
50	0xbde0fab4	-0.10985318
51	0xbf15f84f	-0.58582014
52	0xbf2295f7	-0.6351008
53	0xbfd47742	-1.6598895
54	0x3eb1fd0a	0.34763366
55	0x3d5a1228	0.05323997
56	0xbf7dc02f	-0.99121374
57	0x409ed2ae	4.9632177
58	0x3fd36911	1.6516439
59	0x3f0772a1	0.52909285
60	0x3e91836e	0.28420585
61	0x3ff5c630	1.9201107
62	0x3fc9e0c0	1.5771713
63	0xbe5b1a76	-0.21396813
64	0x3f315b7b	0.69280213
65	0xbefab29a	-0.48964387
66	0x3e6d07c0	0.23147488
67	0x3f9d45b2	1.2286894
68	0x3f4ca7a4	0.799433
69	0xbf5c353a	-0.8601872
70	0xbf248cb3	-0.6427719
71	0x3efcecff	0.49399564
72	0xbfb6baa0	-1.4275703
73	0xc059a6db	-3.400809
74	0xbdf37f90	-0.11889565
75	0xbc8bced7	-0.017066402
76	0x3fb182a5	1.3867995
77	0x4028f5c6	2.6400008
78	0x3e32f6df	0.17476986
79	0x40032fe0	2.049797

linears.0.bias f4 [40]
0	0x3f1ccb5b	0.61247796
1	0xbc9bc94a	-0.01901688
2	0x3f973afb	1.1814874
3	0x3e2fc113	0.17163496
4	0x3f0b7339	0.5447269
5	0x3e983116	0.2972495
6	0x3eab4e6c	0.3345827
7	0x3e8ee8a7	0.27911875
8	0xbe8cb3e2	-0.2748099
9	0xbe672f37	-0.22576605
10	0xbe8a49e2	-0.27009493
11	0xbf4fc733	-0.8116333
12	0x3eeead6e	0.4661669
13	0x3e8464d3	0.25858173
14	0x3d8da394	0.06915966
15	0xbf3e0c73	-0.74237746
16	0xbdc331a7	-0.09530955
17	0x3e936c71	0.28793672
18	0x3e5f8f73	0.21832065
19	0x3f995b38	1.1980963
20	0x3ec8a71c	0.39189994
21	0x3f3b6170	0.7319555
22	0xbf2c5971	-0.67323977
23	0x3ed66c66	0.41879576
24	0xbf4de61e	-0.80429256
25	0x3e2b2783	0.16714291
26	0xbeb5af51	-0.35485318
27	0xbe247d33	-0.16063385
28	0x3f65303d	0.8952673
29	0xbe4ab231	-0.19794537
30	0xbe78abd5	-0.24284299
31	0xbe6b4d59	-0.22978725
32	0xbed90b5c	-0.4239148
33	0xbdf57985	-0.11986069
34	0xbe817d55	-0.25290933
35	0x3eb086d3	0.34477863
36	0x3f15f65d	0.58579046
37	0x3e86a966	0.26301116
38	0xbf82f8b7	-1.0232152
39	0xbe07119a	-0.13190308

linears.1.weight f4 [1, 40]
0	0xbed23f3a	-0.41063863
1	0x3f2378f8	0.6385646
2	0x3fa3576e	1.2761056
3	0x3e476879	0.19473447
4	0xbf1a26da	-0.6021553
5	0xbeada10f	-0.3391194
6	0x3fa962c8	1.3233271
7	0xc014f6ad	-2.327556
8	0x3ef27271	0.47352937
9	0x40189c12	2.3845258
10	0x3f3e287f	0.7428054
11	0xbfa4f7ad	-1.2888085
12	0xbff52afa	-1.915374
13	0x3fd31642	1.6491168
14	0x3fc4a038	1.5361395
15	0x3faffe1f	1.3749427
16	0xbf8e3e25	-1.1112715
17	0xbf208667	-0.6270508
18	0x3ef0914c	0.46985853
19	0x3fd90193	1.6953605
20	0xbf1f09b3	-0.62124175
21	0x3f44f252	0.7693225
22	0x3ffd599e	1.9792974
23	0x3ee6680b	0.45001253
24	0xbf6e18ea	-0.93006766
25	0xbf180023	-0.5937521
26	0x3f30e960	0.691061
27	0x3ea69154	0.32532752
28	0xbff1f3be	-1.8902509
29	0x3f9ba91d	1.2160984
30	0x3f3020af	0.6879987
31	0x3f37100a	0.7150885
32	0xbf5db1eb	-0.86599606
33	0x3f0c793a	0.5487248
34	0xbf963c93	-1.1737236
35	0x3f1c19aa	0.6097666
36	0x3f9d5421	1.2291299
37	0xbe82fa32	-0.2558151
38	0xbfa52531	-1.2901975
39	0x3f4b701e	0.7946795

exp_avg f4 [40, 2]
0	0xb5ab9a2d	-1.2785364e-06
1	0xb6c808bb	-5.961481e-06
2	0x36e8be71	6.936309e-06
3	0x37ca78cc	2.4136527e-05
4	0x372b1056	1.0196198e-05
5	0xb7421c5e	-1.1569906e-05
6	0x35ec11d8	1.7588563e-06
7	0xb6bb8fd9	-5.5897804e-06
8	0x358f07a3	1.0656553e-06
9	0xb731cbe0	-1.05974905e-05
10	0x37308f49	1.0523779e-05
11	0x369b8843	4.635223e-06
12	0x37dc3f49	2.6255513e-05
13	0xb78300b4	-1.5616744e-05
14	0xb6915bba	-4.332015e-06
15	0x386f9da1	5.7128844e-05
16	0xb78c0059	-1.6689462e-05
17	0xb6b7f6d1	-5.482558e-06
18	0xb614cd73	-2.2173306e-06
19	0x36f7f345	7.389494e-06
20	0xb7d5f001	-2.550334e-05
21	0xb70dfe5a	-8.463476e-06
22	0xb68f0554	-4.2623524e-06
23	0xb5b5f100	-1.3555691e-06
24	0xb76738da	-1.378191e-05
25	0xb985b901	-0.00025505575
26	0x378939e5	1.6358632e-05
27	0xb8e8e50b	-0.00011105285
28	0xb7b5e2f5	-2.1682567e-05
29	0xb83115fe	-4.222057e-05
30	0x37cad7e0	2.4180801e-05
31	0x385adfd9	5.2183725e-05
32	0xb66d0606	-3.5319258e-06
33	0x38348e51	4.3047887e-05
34	0x37717d56	1.4393901e-05
35	0x37b32f69	2.136054e-05
36	0x37887336	1.6266113e-05
37	0xb7dc80e5	-2.6286065e-05
38	0x372b4f95	1.0210923e-05
39	0xb884f040	-6.3390005e-05
40	0x3756dc9b	1.2806758e-05
41	0x37ddb6a8	2.6430309e-05
42	0x3810574e	3.4413584e-05
43	0xb86b2585	-5.606331e-05
44	0x37be5d82	2.2693308e-05
45	0x3952c72c	0.00020101358
46	0x37834cc7	1.565217e-05
47	0xb7dd55f5	-2.638528e-05
48	0xb8132f33	-3.509149e-05
49	0x38360697	4.339832e-05
50	0x37b174b9	2.1154397e-05
51	0xb7648711	-1.3621307e-05
52	0x36d92213	6.4710707e-06
53	0x377d8331	1.51105205e-05
54	0xb595ed62	-1.1170453e-06
55	0xb640b609	-2.8716188e-06
56	0xb8de110e	-0.000105889616
57	0xb845f2c0	-4.719454e-05
58	0xb79c4e77	-1.8633187e-05
59	0xb88db3c8	-6.756891e-05
60	0xb7870e01	-1.6099775e-05
61	0xb7b4e9e8	-2.1566593e-05
62	0xb9653b18	-0.00021861156
63	0xb79743e2	-1.8032213e-05
64	0xb7c7c57e	-2.3814613e-05
65	0x38655a62	5.468203e-05
66	0xb74057f9	-1.14645745e-05
67	0xb70802e2	-8.106903e-06
68	0x37555112	1.2714665e-05
69	0x38ab3fd7	8.1658065e-05
70	0x3792cd3d	1.7500128e-05
71	0xb81b163c	-3.6975587e-05
72	0xb747df75	-1.1913352e-05
73	0x37465b38	1.1822958e-05
74	0x3718aa62	9.099576e-06
75	0x363f681e	2.8521822e-06
76	0xb804ea61	-3.1689535e-05
77	0x37719f4e	1.440181e-05
78	0xb7286fac	-1.0039581e-05
79	0xb7d750f2	-2.566769e-05

exp_avg_sq f4 [40, 2]
0	0x3489b814	2.5652173e-07
1	0x34e97a80	4.3488762e-07
2	0x3511e680	5.435213e-07
3	0x343bdd1d	1.7496173e-07
4	0x37d038fd	2.482207e-05
5	0x38475a90	4.752964e-05
6	0x348c1e6a	2.609916e-07
7	0x35c36588	1.4558182e-06
8	0x355a2e48	8.1278677e-07
9	0x35e02a91	1.6701689e-06
10	0x34c4f743	3.6687752e-07
11	0x3655724d	3.1806005e-06
12	0x35b1e676	1.3254601e-06
13	0x34d6e40e	4.0026538e-07
14	0x37899bbd	1.6404194e-05
15	0x371bf780	9.2963455e-06
16	0x355056c5	7.7612304e-07
17	0x36da37df	6.5034105e-06
18	0x3526e117	6.216737e-07
19	0x33f92562	1.1601766e-07
20	0x3605f63d	1.9961874e-06
21	0x378bd8ec	1.6671103e-05
22	0x3292c61d	1.7086728e-08
23	0x3131984f	2.5843467e-09
24	0x396b4cc9	0.00022439951
25	0x397e64bc	0.00024260854
26	0x373f22d1	1.13925935e-05
27	0x3656d3e2	3.2011817e-06
28	0x37d38f05	2.5219759e-05
29	0x355ef544	8.3058353e-07
30	0x3826f11e	3.9802042e-05
31	0x36132413	2.1925705e-06
32	0x36e378bd	6.779183e-06
33	0x3664d3ff	3.4098045e-06
34	0x3581e140	9.676805e-07
35	0x367d1dc0	3.7717255e-06
36	0x35d507d9	1.5872021e-06
37	0x36e9594f	6.954338e-06
38	0x379398ef	1.759498e-05
39	0x391efdf6	0.00015162662
40	0x359efb52	1.1845061e-06
41	0x369588cb	4.456471e-06
42	0x368ec0fd	4.2543966e-06
43	0x37816515	1.5425068e-05
44	0x3882dcb6	6.239994e-05
45	0x38a8fa6f	8.057511e-05
46	0x35a3f187	1.221474e-06
47	0x36f6741b	7.3448878e-06
48	0x374400c4	1.1682689e-05
49	0x375835d5	1.2887137e-05
50	0x35bd0c30	1.4085144e-06
51	0x371f20e2	9.484795e-06
52	0x35201d17	5.9646976e-07
53	0x349cf9fb	2.923915e-07
54	0x351af26f	5.772226e-07
55	0x364eeab2	3.0833003e-06
56	0x38faca49	0.000119586075
57	0x350248ff	4.8535e-07
58	0x384cbdf4	4.8814298e-05
59	0x3741db75	1.1554793e-05
60	0x35696277	8.694255e-07
61	0x361cc4c1	2.3360337e-06
62	0x37ef92a7	2.855931e-05
63	0x37b2793e	2.1275711e-05
64	0x369c4585	4.6572554e-06
65	0x37c97e8b	2.4019993e-05
66	0x3532f378	6.666446e-07
67	0x36513b3e	3.117791e-06
68	0x3791bb54	1.7372578e-05
69	0x383ab5fa	4.4515335e-05
70	0x362669a7	2.4797425e-06
71	0x375024dc	1.2406348e-05
72	0x369b386d	4.625929e-06
73	0x3520f863	5.9966095e-07
74	0x3465c3c6	2.1398509e-07
75	0x35ef3132	1.7821205e-06
76	0x37820d8c	1.5503516e-05
77	0x36e443e7	6.8028344e-06
78	0x35d5242d	1.5880265e-06
79	0x36224838	2.4181918e-06

exp_avg f4 [40]
0	0xb7086ce9	-8.131589e-06
1	0x3724e8aa	9.829333e-06
2	0xb896d0cf	-7.191451e-05
3	0xb6693f08	-3.4756395e-06
4	0xb7765470	-1.4682402e-05
5	0xb70b3e27	-8.299517e-06
6	0x3723a26d	9.753375e-06
7	0x38b046e0	8.4055355e-05
8	0x374b6b29	1.2124693e-05
9	0xb951fbd4	-0.00020025606
10	0x37a52c82	1.9690258e-05
11	0xb62273d2	-2.4207297e-06
12	0xb9bd3e57	-0.00036095336
13	0x382bd5ff	4.0968876e-05
14	0xb876bd61	-5.8827343e-05
15	0x37ddb7e9	2.6430893e-05
16	0x380a2a19	3.294097e-05
17	0xb7dfd48c	-2.6682646e-05
18	0xb7f34d07	-2.9003726e-05
19	0xb91e99f0	-0.000151254
20	0xb7c9da74	-2.4062792e-05
21	0xb8851f28	-6.3477375e-05
22	0x38b6ea76	8.722108e-05
23	0xb7bafad3	-2.2289727e-05
24	0x38d91e66	0.000103530285
25	0xb7c017bb	-2.2899234e-05
26	0x378dafa4	1.6890299e-05
27	0x36c673a0	5.9143204e-06
28	0x37a3d533	1.9530393e-05
29	0xb7b5fdbc	-2.1695036e-05
30	0x3823104f	3.8877417e-05
31	0x38d72dd8	0.00010260538
32	0x3866e1b3	5.5046472e-05
33	0x37441988	1.1688455e-05
34	0x385f9b0e	5.331175e-05
35	0xb81bf553	-3.7183356e-05
36	0xb852731d	-5.017511e-05
37	0xb6db24e0	-6.5310014e-06
38	0x381e72a7	3.7776914e-05
39	0x373b966b	1.11810905e-05

exp_avg_sq f4 [40]
0	0x3548e62c	7.484075e-07
1	0x3736f095	1.090406e-05
2	0x3906a838	0.00012841902
3	0x3554391c	7.905926e-07
4	0x35c0cc28	1.4364532e-06
5	0x35b0bf4f	1.31687e-06
6	0x3856189f	5.1044506e-05
7	0x38e74676	0.00011028063
8	0x3632b2f1	2.6628225e-06
9	0x39535fdb	0.00020158237
10	0x36e92cb8	6.949147e-06
11	0x379fd553	1.9053614e-05
12	0x3a08ef3d	0.00052236376
13	0x390f4f05	0.0001366698
14	0x38d1c2c0	0.000100021716
15	0x37e6d962	2.7519363e-05
16	0x37d90b27	2.5873609e-05
17	0x36805f3d	3.8257845e-06
18	0x36a88225	5.021941e-06
19	0x396f462a	0.00022818954
20	0x367f0fe0	3.8007202e-06
21	0x3768e00a	1.3880441e-05
22	0x397c02f7	0.00024033697
23	0x36bd2bfe	5.6377603e-06
24	0x37507320	1.2424571e-05
25	0x368adea0	4.1386375e-06
26	0x3707d358	8.095834e-06
27	0x35cab3e6	1.510253e-06
28	0x3919db2a	0.00014672862
29	0x36e9679d	6.9560033e-06
30	0x36d61104	6.379678e-06
31	0x3809048f	3.266759e-05
32	0x37a649dc	1.9823136e-05
33	0x3645bfd1	2.946694e-06
34	0x385b2c12	5.2254713e-05
35	0x372260e8	9.678515e-06
36	0x37d760a2	2.5674995e-05
37	0x3541da16	7.221546e-07
38	0x380220c8	3.1024945e-05
39	0x37306140	1.051306e-05

exp_avg f4 [1, 40]
0	0x37b4b932	2.154391e-05
1	0xb857e516	-5.1473347e-05
2	0xb8af6b6a	-8.364658e-05
3	0x3715117c	8.885163e-06
4	0x3795c36b	1.7853183e-05
5	0x377b6831	1.4985025e-05
6	0xb8b80e0c	-8.77642e-05
7	0x3851de6f	5.003664e-05
8	0xb7644dfa	-1.3608014e-05
9	0xb8b5bea8	-8.666265e-05
10	0xb77441a0	-1.4558813e-05
11	0xb8907003	-6.887319e-05
12	0x3851b673	4.9999402e-05
13	0xb8ba9244	-8.896415e-05
14	0xb9447b0a	-0.00018737852
15	0xb84429c9	-4.6768957e-05
16	0x37fe7cf4	3.0337345e-05
17	0x3772730a	1.4451109e-05
18	0xb743cfd2	-1.1671293e-05
19	0xb7a12856	-1.9211479e-05
20	0x37a3cb4e	1.9525785e-05
21	0xb827e30e	-4.0027364e-05
22	0xb846f792	-4.7437446e-05
23	0xb70279bc	-7.776947e-06
24	0x388eab49	6.802992e-05
25	0x36d72cf3	6.412732e-06
26	0xb80b6afe	-3.3239827e-05
27	0xb78085b7	-1.5321055e-05
28	0xb8883ea0	-6.49665e-05
29	0x3801a47e	3.0909192e-05
30	0xb7e557cd	-2.7339813e-05
31	0xb8a4fe02	-7.867442e-05
32	0x37ab08ae	2.038883e-05
33	0xb59f9b28	-1.189158e-06
34	0x380ca530	3.3532444e-05
35	0xb77067f9	-1.4329323e-05
36	0xb8d51423	-0.00010160382
37	0x37568d45	1.2788286e-05
38	0x37079b40	8.082774e-06
39	0xb7d580a2	-2.5451478e-05

exp_avg_sq f4 [1, 40]
0	0x378d9983	1.6879994e-05
1	0x38881a7e	6.48992e-05
2	0x382b26df	4.080578e-05
3	0x36155787	2.2253678e-06
4	0x37791d05	1.4848313e-05
5	0x34ef14de	4.4532402e-07
6	0x38eb1a71	0.00011210598
7	0x38d0015e	9.9184675e-05
8	0x34d79840	4.0157647e-07
9	0x387466ba	5.8269805e-05
10	0x348a286d	2.5733917e-07
11	0x37e5f88c	2.7414666e-05
12	0x3672f84f	3.6205345e-06
13	0x38a273ee	7.7463555e-05
14	0x38f43581	0.000116447925
15	0x39028037	0.0001244553
16	0x3871f2c6	5.7684978e-05
17	0x383c99bb	4.4965866e-05
18	0x373ebd7c	1.1369e-05
19	0x36342152	2.6841485e-06
20	0x383d0ca0	4.507287e-05
21	0x3783f9a6	1.5732669e-05
22	0x388a78e9	6.602874e-05
23	0x36b14747	5.283309e-06
24	0x3804ed3e	3.16922e-05
25	0x3722cfdb	9.704348e-06
26	0x3816457d	3.5827503e-05
27	0x34585094	2.0145882e-07
28	0x38c82080	9.542797e-05
29	0x38b80c43	8.7760876e-05
30	0x38815068	6.166176e-05
31	0x37ed2d58	2.8273716e-05
32	0x373781fa	1.09379125e-05
33	0x3811b32f	3.473757e-05
34	0x37aa321d	2.0288915e-05
35	0x371c77b1	9.326192e-06
36	0x390eed03	0.00013630469
37	0x34f11e76	4.491191e-07
38	0x38fa904f	0.000119478085
39	0x38839713	6.2747065e-05
