modelos/heat_20x5-20000.pt (torch, 35622 bytes, 33 tensors)

linears.0.weight f4 [20, 2]
0	0xbf232fec	-0.63745
1	0x3e1ad862	0.15121606
2	0xbe211b5d	-0.15733095
3	0xbed76fbe	-0.4207744
4	0x3d8beac0	0.068318844
5	0xbdca1124	-0.098665506
6	0x3e94b9e8	0.29048085
7	0xbf292e48	-0.66086245
8	0xbe1f5589	-0.15559973
9	0x3e9ba322	0.30397898
10	0xbe14b420	-0.14521837
11	0xbeef0155	-0.46680704
12	0xbebeacdb	-0.37241253
13	0x3ed96efe	0.42467493
14	0x3e1340fa	0.14380255
15	0xbf1ac066	-0.60449827
16	0xbd3c8517	-0.046025362
17	0xbfa7f11b	-1.3120455
18	0xbe6062b2	-0.2191265
19	0xbf01722c	-0.5056484
20	0xbe91555a	-0.2838543
21	0xbe02bbe7	-0.12766992
22	0x3ec00561	0.37504104
23	0xbe74ae07	-0.23894511
24	0x3de65878	0.11247343
25	0x3fa170c5	1.261254
26	0x3ea44dec	0.320907
27	0xbefa209c	-0.48853004
28	0xbe7137a3	-0.2355638
29	0xbef8324d	-0.48475876
30	0xbc40f757	-0.01177772
31	0xbf2cb3ed	-0.67462045
32	0x3d9772ee	0.07394968
33	0x3e1bcaeb	0.15214126
34	0x3e2b440d	0.16725178
35	0x3edc7c9d	0.43063822
36	0xbe45be38	-0.19310844
37	0xbe2ec77a	-0.17068282
38	0xbe2fd673	-0.1717165
39	0xbeabc45c	-0.33548248

linears.0.bias f4 [20]
0	0xbd176c33	-0.03696842
1	0xbbd17afa	-0.006392834
2	0x3dffb85f	0.12486338
3	0xbe416a0d	-0.18888111
4	0x3d17317c	0.036912426
5	0x3bf6ce54	0.0075319204
6	0x3e824717	0.25444862
7	0xbe102e3a	-0.14080134
8	0xbd949bc8	-0.072562754
9	0x3cef6bc2	0.029226188
10	0x3d74d554	0.059773758
11	0xbad06f63	-0.0015902336
12	0xbd24da67	-0.040247347
13	0xbe6568e1	-0.2240329
14	0x3c37ab86	0.011210328
15	0xbdc03f8c	-0.093871206
16	0xbd41a082	-0.047272213
17	0x3d0e3c00	0.03472519
18	0x3d2852d1	0.041094605
19	0xbcb56577	-0.022143109

linears.1.weight f4 [20, 20]
0	0x3e199517	0.1499828
1	0xbc45b87c	-0.01206791
2	0x3d6fda02	0.058557518
3	0x3e18b58a	0.14913002
4	0x3e9489fe	0.2901153
5	0x3ed1855c	0.40922058
6	0x3d42af7b	0.047530632
7	0x3d6fc015	0.058532793
8	0x3e9f7815	0.31146303
9	0x3e6ffe3a	0.23436823
10	0xbd371ba5	-0.0447041
11	0x3d6f0bb7	0.05836078
12	0xbda50210	-0.08057034
13	0xbd233089	-0.03984121
14	0x3f087ce5	0.53315574
15	0xbe38d7ec	-0.18051118
16	0xbe27ddf8	-0.16393268
17	0xbe9b551d	-0.30338374
18	0x3eef0982	0.4668694
19	0xbeae8b8a	-0.34090835
20	0xbed52f97	-0.4163787
21	0x3d091b8d	0.03347354
22	0x3bb5ed86	0.0055519966
23	0xbe412cf7	-0.18864809
24	0x3e30b624	0.17256981
25	0x3e54193b	0.2071275
26	0xbdc4cb9e	-0.096091494
27	0x3cf81cec	0.030287229
28	0xbe17c81a	-0.14822426
29	0xbdf62f95	-0.12020794
30	0xbe672fec	-0.22576874
31	0x3ea7fdf4	0.32810938
32	0xbdd75a03	-0.10515215
33	0x3dc3d736	0.095625326
34	0xbc6555f5	-0.013997545
35	0xbc48799b	-0.012236024
36	0xbe9f863c	-0.311571
37	0x3e923eb3	0.2856346
38	0xbdf2994d	-0.11845646
39	0xbe782d06	-0.24235925
40	0x3dcfb816	0.101425335
41	0xbe9bb1cc	-0.30409086
42	0xbe42fdf0	-0.19042182
43	0x3e95242f	0.29129168
44	0xbe049e7b	-0.1295108
45	0xbdffad03	-0.12484171
46	0xbf109663	-0.5647947
47	0x3dfaeaf3	0.12251844
48	0x3ebe31a7	0.37147257
49	0xbe940a2c	-0.2891401
50	0xbdc8c577	-0.098032884
51	0xbd77e3cc	-0.06051998
52	0x3dc590bc	0.096467465
53	0x3d098d78	0.03358218
54	0xbeb96b63	-0.36214742
55	0x3e15116b	0.14557426
56	0x3de3fcc0	0.111321926
57	0x3b93710b	0.0044995598
58	0xbdecc6cb	-0.11561354
59	0x3ce58d4d	0.028021479
60	0xbea6ac81	-0.32553485
61	0x3f01f487	0.50763744
62	0x3e4f0638	0.20217216
63	0x3e686d4d	0.22697945
64	0xbeb23c4f	-0.34811637
65	0x3ea216bf	0.3165798
66	0xbe440dde	-0.19145915
67	0x3ed4d93a	0.4157198
68	0x3e36dd72	0.17857912
69	0x3e97eff8	0.2967527
70	0x3edcbb2f	0.4311156
71	0x3e7f032b	0.24903552
72	0xbea86e83	-0.32896814
73	0x3e4a8de2	0.19780686
74	0x3ee237d9	0.44183233
75	0x3e9828c7	0.2971861
76	0xbf16d992	-0.58925736
77	0xbeaf4bdd	-0.34237567
78	0x3f36a570	0.7134619
79	0x3e9c9838	0.30584884
80	0xbe2c65d1	-0.16835715
81	0x3e42a808	0.19009411
82	0x3cfaf97e	0.030636545
83	0x3edd9b8a	0.4328273
84	0xbec63eed	-0.38719884
85	0x3e99afe5	0.3001701
86	0xbe344ff3	-0.17608623
87	0x3f0b4450	0.5440111
88	0xbda8ee60	-0.082485914
89	0x3de9b142	0.11410762
90	0x3ece74df	0.4032354
91	0x3d42c826	0.047554158
92	0xbf1c7884	-0.6112139
93	0x3ec092ef	0.376121
94	0xbe0af1d6	-0.13568816
95	0x3e546189	0.20740332
96	0x3e15a09e	0.14612052
97	0x3e009660	0.12557364
98	0x3e5d66e9	0.21621288
99	0xbda33dfa	-0.079708055
100	0xbe505b4a	-0.20347324
101	0xbf046939	-0.5172306
102	0x3e442aa7	0.19156896
103	0xbe7919f0	-0.243263
104	0xbd6d4890	-0.05793053
105	0xbe7816f4	-0.24227506
106	0xbe286cb7	-0.16447721
107	0xbdaafdc8	-0.08349186
108	0xbf1f22f0	-0.62162685
109	0xbe9b940d	-0.3038639
110	0x3e4fde45	0.20299633
111	0x3d41345f	0.047169086
112	0xbd05f45c	-0.032703742
113	0xbdba42dc	-0.09094784
114	0xbe430fad	-0.19048949
115	0xbe6d7b34	-0.2319153
116	0x3d4db318	0.050219625
117	0x3eed0630	0.46293783
118	0xbd64bd94	-0.05584486
119	0xbe555cf5	-0.20836242
120	0xbf55b039	-0.8347202
121	0xbecdf6c1	-0.4022732
122	0x3dc21aa7	0.0947774
123	0x3f162728	0.586535
124	0xbde90d8b	-0.11379536
125	0xbcbb5f5a	-0.022872616
126	0xbed71468	-0.42007756
127	0x3ebd4491	0.36966375
128	0x3e8be109	0.27320126
129	0xbc55c2e2	-0.013046952
130	0xbe0e9127	-0.13922559
131	0x3f5995cf	0.84994215
132	0xbdc50346	-0.09619765
133	0x3eac9900	0.3371048
134	0xbdd26e37	-0.10274928
135	0x3e891f75	0.26781812
136	0xbd1dad1e	-0.038495176
137	0x3d9d27c6	0.07673602
138	0x3da5c1aa	0.08093579
139	0xbc98d3bf	-0.018655656
140	0xbe7e5f65	-0.24841078
141	0xbc6b9943	-0.014379802
142	0xbe307471	-0.17231919
143	0xbee14205	-0.4399568
144	0xbeceb203	-0.40370187
145	0x3ed25093	0.41077098
146	0x3e66f8f3	0.22555904
147	0xbe860e2e	-0.26182693
148	0x3d8c4ab6	0.068501875
149	0x3ea84372	0.32863957
150	0x3d1ef2af	0.03880566
151	0x3ec6c98d	0.38825646
152	0x3e54e9f7	0.20792376
153	0xbde0d593	-0.10978236
154	0xbdb427a1	-0.08796621
155	0x3dd83e21	0.10558725
156	0xbebc0c5f	-0.36728188
157	0xbf004774	-0.5010903
158	0xbe87cc62	-0.2652312
159	0x3e85e4d4	0.26151145
160	0x3e39dcaf	0.1815059
161	0x3d0e6145	0.034760732
162	0x3e3939a0	0.18088388
163	0x3ec3062c	0.38090646
164	0xbeb6cee6	-0.35704726
165	0x3ead4609	0.33842495
166	0x3eed8690	0.46391726
167	0xbe916696	-0.2839858
168	0x3e5a7b02	0.21335986
169	0xbd4011fc	-0.04689215
170	0xbf27de72	-0.655738
171	0xbd1a62e5	-0.03769197
172	0xbe350a81	-0.17679788
173	0x3c3fa39c	0.011696722
174	0xbe29b547	-0.16573058
175	0x3e5cc690	0.2156012
176	0x3e5982f6	0.21241364
177	0xbc35b03a	-0.011089379
178	0x3e38ce2f	0.18047403
179	0x3e44a31f	0.19202851
180	0x3d90ffa7	0.07080012
181	0xbe877a42	-0.26460463
182	0xbe3e0609	-0.1855699
183	0xbe5d86a4	-0.21633393
184	0x3df19886	0.1179667
185	0xbc4cd3a8	-0.012501635
186	0xbe6db3f2	-0.23213175
187	0xbeb8e8ab	-0.36115012
188	0x3d0a3d47	0.033749845
189	0xbed02a6f	-0.40657374
190	0xbe79b956	-0.24387106
191	0x3edb13cd	0.42788544
192	0x3ea19c45	0.31564537
193	0x3e6fe1af	0.23425935
194	0xbe90dda2	-0.28294092
195	0x3c814e8a	0.01578452
196	0xbdeac016	-0.11462419
197	0xbddff1f2	-0.10934819
198	0x3db1f91d	0.08690093
199	0xbcac61bc	-0.021042697
200	0x3eb40e0f	0.35166976
201	0xbe0ca6f8	-0.13735569
202	0xbeb8b7cf	-0.36077735
203	0xbbfec791	-0.007775255
204	0x3e3f81dd	0.18701883
205	0xbd6f943f	-0.058490988
206	0xbe8c70dc	-0.27429855
207	0x3d08f00d	0.033432055
208	0xbe115ff5	-0.14196761
209	0x3cfe42ee	0.031037774
210	0xbd4f978f	-0.050681647
211	0x3eaf90e4	0.3429023
212	0x3e6d597a	0.23178664
213	0x3eda6b1f	0.42659852
214	0xbc8382e5	-0.016053626
215	0x3d50a7d2	0.050941296
216	0x3e0d7ba4	0.13816696
217	0xbd8d4242	-0.06897403
218	0xbecb7a33	-0.39741668
219	0xbee48215	-0.44630495
220	0x3de07305	0.10959438
221	0xbec721b3	-0.38892898
222	0x3ed85105	0.42249313
223	0x3da60aec	0.08107552
224	0xbde5f4af	-0.1122831
225	0x3ef94325	0.4868404
226	0x3ec673c8	0.3876021
227	0x3d60346f	0.054737505
228	0xbd8e9ee8	-0.06963903
229	0xbe8154b9	-0.2525995
230	0xbf4f99d1	-0.8109408
231	0xbe17464f	-0.14772914
232	0x3e5e1e49	0.2169124
233	0x3db76b39	0.08955998
234	0xbe2d9848	-0.16952622
235	0x3e79e366	0.24403152
236	0x3ef30b9a	0.4746979
237	0x3f41aec5	0.756573
238	0x3de34eed	0.11099038
239	0xbe8379f5	-0.25678983
240	0xbd3b1fec	-0.04568474
241	0xbd910f8e	-0.07083045
242	0x3e17760f	0.1479113
243	0x3e2660e3	0.16247897
244	0xbe8c162c	-0.27360666
245	0x3d6134dd	0.054982055
246	0x3e699331	0.22810055
247	0x3e99c092	0.30029732
248	0x3e8d030e	0.27541393
249	0x3cb61398	0.02222614
250	0x3e72f583	0.23726468
251	0xbe548a0d	-0.20755787
252	0xbe271998	-0.16318357
253	0x3d854c22	0.06508662
254	0x3dd6552b	0.10465463
255	0x3e900467	0.2812836

linears.1.bias f4 [20]
0	0x3d60acfa	0.054852463
1	0x3d8d750f	0.06907093
2	0xbcf16c10	-0.029470474
3	0x3d66cdd0	0.05634862
4	0x3dbd6a1a	0.09248753
5	0x3e7f650d	0.24940892
6	0x3cbf054d	0.023317957
7	0x3c37aaf6	0.011210194
8	0xbd8d9db7	-0.06914847
9	0x3d7f7fca	0.06237773
10	0xbd185892	-0.037193842
11	0xbd2e29db	-0.042520385
12	0xbc4a784d	-0.0123577835
13	0xbc80f612	-0.015742335
14	0x3d04b18d	0.032395888
15	0xbc5095ec	-0.012731057
16	0x3c010e51	0.007876948
17	0xbd7cb047	-0.06169155
18	0x3e611688	0.21981251
19	0x3d939a2b	0.072071396

linears.2.weight f4 [20, 20]
0	0x3e442013	0.1915286
1	0x3e1917be	0.14950463
2	0x3e21a221	0.15784504
3	0xbd211267	-0.03932419
4	0x3ecc6aa9	0.39925125
5	0xbd6e9ece	-0.058256917
6	0x3d26a8c1	0.04068828
7	0xbe93c92f	-0.28864428
8	0xbda9321d	-0.082615115
9	0x3e9696ab	0.29411826
10	0xbed0470e	-0.4067921
11	0x3ede5256	0.43422192
12	0x3e4a9006	0.19781503
13	0xbd11f27d	-0.035631645
14	0xbdda4575	-0.10657779
15	0x3c55a9af	0.013040944
16	0x3ee51e41	0.44749644
17	0x3ce8f271	0.028435918
18	0xbf32377b	-0.69615906
19	0xbf423b1b	-0.7587144
20	0x3d6298f6	0.055321656
21	0x3e8d4b33	0.27596435
22	0x3eb4c416	0.35305852
23	0x3e80fd72	0.25193363
24	0xbd811a87	-0.06303888
25	0xbdfe9a14	-0.12431732
26	0xbdf96ddb	-0.121791564
27	0x3e1ec1c5	0.15503605
28	0xbe2eca6b	-0.17069404
29	0x3ddf07f5	0.108901896
30	0xbf08a95e	-0.53383434
31	0xbdb4fefe	-0.088376984
32	0x3e942442	0.28933913
33	0x3ebe051b	0.3711327
34	0x3e2b7ff8	0.16748035
35	0x3cb6deec	0.022323094
36	0xbc591def	-0.013251766
37	0x3e4f01e4	0.20215565
38	0xbe8b34d9	-0.27188757
39	0xbe8c789a	-0.27435762
40	0x3df8a8c8	0.121415675
41	0xbdaa983c	-0.08329818
42	0xbe454bbe	-0.19267175
43	0x3d9c0490	0.07618058
44	0xbed07e72	-0.4072147
45	0xbd85c34a	-0.06531389
46	0xbcff9006	-0.031196605
47	0xbe038d38	-0.1284684
48	0xbe8f7aac	-0.2802328
49	0x3d993e9b	0.07482644
50	0xbb767580	-0.0037606657
51	0xbedbe636	-0.42949075
52	0xbc2b11a7	-0.01044122
53	0x3d8193d1	0.06327022
54	0xbd3c13b2	-0.04591722
55	0x3dd553d4	0.104163796
56	0xbe8414ea	-0.25797206
57	0xbd00bc35	-0.03142949
58	0x3d20924c	0.03920202
59	0x3eed303f	0.4632587
60	0xbda4d7ac	-0.08048949
61	0x3d571098	0.05250606
62	0x3ea6d06e	0.32580894
63	0x3d65e1cf	0.05612355
64	0x3f024ed2	0.5090152
65	0x3d2532d8	0.04033169
66	0x3d96eebe	0.07369755
67	0x3ca8aa8b	0.020589134
68	0x3e2e6532	0.1703079
69	0xbdb9dfc4	-0.09075883
70	0x3e4a9ff3	0.19787578
71	0x3d91c593	0.071177624
72	0x3e8c4011	0.2739263
73	0xbc99cc59	-0.018774198
74	0x3df6d2cd	0.12051926
75	0x3d846981	0.06465436
76	0xbe395bc4	-0.18101412
77	0xbece2d26	-0.4026882
78	0x3e28eb89	0.164961
79	0xbe2a02f3	-0.16602688
80	0x3da39fab	0.079894386
81	0xbda53ea2	-0.08068587
82	0x3df87611	0.121318944
83	0x3e11c8fb	0.14236824
84	0xbd9fe17c	-0.078066796
85	0xbd33761c	-0.04381381
86	0x3dd2651d	0.10273192
87	0x3ec515f4	0.3849331
88	0x3ea57395	0.32314745
89	0xbd922151	-0.07135261
90	0xbe79ceb2	-0.24395254
91	0x3e0b760e	0.13619253
92	0x3eb2d97f	0.3493156
93	0x3ca86d63	0.020559972
94	0x3e9d116e	0.3067736
95	0x3e9d6b7e	0.30746073
96	0x3e87cf00	0.26525116
97	0x3cc42be0	0.023946702
98	0xbec5ead8	-0.38655734
99	0xbb829e9c	-0.003986193
100	0xbea6db0b	-0.32588992
101	0x3e6c4f55	0.23077138
102	0x3cdb65a1	0.026781859
103	0xbeb7a713	-0.35869655
104	0xbec3a3f3	-0.3821102
105	0x3d1dfd7a	0.038571812
106	0x3e2ea084	0.1705342
107	0xbdb088d3	-0.08619847
108	0x3cc3b2fd	0.02388906
109	0x3d85b90f	0.06529438
110	0x3e30c6ff	0.17263411
111	0x3e489520	0.19588137
112	0xbf2c7115	-0.6736005
113	0xbe5f3551	-0.21797682
114	0xbe97f555	-0.2967936
115	0x3e0c4b70	0.13700652
116	0xbe45f277	-0.19330774
117	0x3eab6865	0.33478084
118	0x3ccb1825	0.024791786
119	0x3d973a3c	0.07384154
120	0xbe4094de	-0.18806788
121	0xbdfdaf59	-0.123869605
122	0x3e9efd27	0.31052515
123	0xbde5d95a	-0.11223097
124	0xbe218fbb	-0.15777485
125	0x3d17b4a9	0.037037525
126	0xbe150ad6	-0.14554915
127	0x3d22d1e0	0.039750934
128	0xbe694ee8	-0.22784007
129	0x3d0abc51	0.033871
130	0x3e84cd55	0.25937906
131	0xbe3b33a8	-0.18281424
132	0xbf0a95df	-0.54134935
133	0x3c80e672	0.015734885
134	0x3d8776bb	0.06614443
135	0xbe9478b7	-0.28998348
136	0xbe806536	-0.25077218
137	0xbe4be68e	-0.19912168
138	0x3d13ed09	0.036114726
139	0xbe4f84a5	-0.20265444
140	0x3d148886	0.03626301
141	0xbe1482c2	-0.14503005
142	0xbe404fde	-0.18780467
143	0x3c84584a	0.01615538
144	0xbdd6bffa	-0.104858354
145	0xbdeba3cb	-0.115058504
146	0xbe99645f	-0.2995939
147	0x3dd13686	0.10215478
148	0x3d9527e7	0.072830014
149	0xbf09f12b	-0.5388362
150	0x3e57514f	0.2102711
151	0xbd6ad45a	-0.05733142
152	0xbeab89df	-0.33503625
153	0xbdeae735	-0.114698805
154	0xbed28ba2	-0.41122156
155	0x3df949cd	0.121722795
156	0xbe9460ac	-0.28980005
157	0x3f2a19b0	0.66445446
158	0x3e4de400	0.20106506
159	0xbd221170	-0.03956741
160	0x3e21a8f8	0.15787113
161	0xbe9c6551	-0.30546048
162	0x3e04cdbb	0.12969105
163	0x3d8b0aed	0.06789193
164	0xbeff5843	-0.49872026
165	0xbf111f39	-0.56688267
166	0xbf044bea	-0.51678336
167	0xbdb26185	-0.087100066
168	0xbd816446	-0.06317954
169	0xbde47631	-0.11155356
170	0x3db79ce2	0.0896547
171	0xbee2638d	-0.44216576
172	0x3f2ce5c2	0.6753808
173	0xbec3232e	-0.38112777
174	0xbef741cd	-0.4829239
175	0x3e851ad1	0.25997022
176	0x3e6c5dc1	0.2308264
177	0x3eb05b45	0.34444633
178	0xbda153e7	-0.07877331
179	0x3e774f29	0.24151291
180	0xbf04ce99	-0.51877743
181	0x3eef0ced	0.4668955
182	0x3e2185a8	0.15773642
183	0xbe7e7345	-0.2484866
184	0xbb222fae	-0.0024747658
185	0x3e70acd4	0.23503429
186	0xbeb165ce	-0.34647983
187	0xbd19cabd	-0.037546862
188	0xbeb1a0fc	-0.34693134
189	0x3e8dd568	0.2770188
190	0x3e17a422	0.14808705
191	0x3e07fcc1	0.13280012
192	0xbeb4336a	-0.35195476
193	0x3d94aae8	0.0725916
194	0xbe0c3c3f	-0.13694857
195	0x3d50f227	0.051012184
196	0xbc889cd0	-0.016676337
197	0xbe54aad0	-0.20768285
198	0x3e54ab8b	0.20768563
199	0xbe4592b2	-0.19294241
200	0xbe47c547	-0.19508849
201	0xbe06eab2	-0.13175467
202	0xbde60de9	-0.11233122
203	0xbda76551	-0.081736214
204	0xbf1c2e1f	-0.61007875
205	0xbdec8aab	-0.11549886
206	0x3eae5ffa	0.340576
207	0xbe10202e	-0.14074776
208	0x3d649866	0.0558094
209	0xbe47c651	-0.19509245
210	0x3ed860b4	0.4226128
211	0x3e82dece	0.2556061
212	0xbecbc4fa	-0.3979872
213	0x3e85dc19	0.26144484
214	0xbde05ab2	-0.10954799
215	0xbd0d46a8	-0.03449121
216	0x3d9ff7f5	0.07810966
217	0x3eb576f7	0.35442325
218	0x3e1a0918	0.15042531
219	0xbef42e62	-0.47691637
220	0xbe00e8db	-0.12588827
221	0xbe2df776	-0.1698893
222	0xbea243c2	-0.3169232
223	0xbe99ff8d	-0.30077782
224	0x3e02be9e	0.12768027
225	0x3d5ffb30	0.05468291
226	0x3d6dc93a	0.058053233
227	0x3df0e452	0.11762299
228	0xbed7b7d8	-0.4213245
229	0xbe7d9129	-0.24762405
230	0xbde73016	-0.112884685
231	0xbe44d4d4	-0.19221812
232	0xbe70e8cb	-0.23526303
233	0xbd940185	-0.07226852
234	0x3edae55e	0.42753118
235	0x3e905fac	0.28197992
236	0x3d73ba30	0.059503734
237	0x3db75186	0.08951096
238	0x3eac0167	0.3359482
239	0x3ca3461d	0.019930894
240	0xbd52e12f	-0.051484283
241	0x3eda4cc4	0.42636693
242	0x3df9b6ec	0.12193093
243	0xbe449703	-0.19198231
244	0x3e7f3a35	0.24924548
245	0x3f02da25	0.5111411
246	0xbe6ab13d	-0.22919174
247	0x3dbc4323	0.09192493
248	0xbdd86417	-0.105659656
249	0x3e885329	0.26625946
250	0x3e248f4c	0.16070288
251	0x3eec41e7	0.4614403
252	0x3e23219c	0.1593079
253	0xbeb078fa	-0.34467298
254	0x3edc0fc1	0.4298077
255	0xbe1ab22a	-0.15107027

linears.2.bias f4 [20]
0	0x3caee77a	0.021350611
1	0xbb248bb6	-0.0025107688
2	0x3d8a50b8	0.06753677
3	0x3cc2408a	0.023712415
4	0xb93bf542	-0.00017925075
5	0xbbf8dcb1	-0.007594668
6	0xbc27f354	-0.010250885
7	0xbd61285e	-0.054970138
8	0xbd4f59f4	-0.050622895
9	0x3c7d20bd	0.0154497
10	0xbd716d1e	-0.058941953
11	0x3c920f5b	0.017829588
12	0x3d2aba05	0.04168131
13	0xbca1a5b4	-0.019732334
14	0xbc90592e	-0.01762065
15	0x3b410ca5	0.0029457
16	0xbb3c8cc0	-0.0028770417
17	0xbc90a6bb	-0.017657628
18	0xbd9c4e16	-0.07632081
19	0x3c492a5c	0.012278166

linears.3.weight f4 [20, 20]
0	0x3dcf105b	0.101105414
1	0xbee11fad	-0.4396948
2	0x3d986ec8	0.07443005
3	0x3e598085	0.21240433
4	0xbf2a1199	-0.664331
5	0x3de4c89c	0.11171076
6	0x3dc266ab	0.094922386
7	0xbdd6377a	-0.104598
8	0xbf5ce437	-0.8628573
9	0xbe03ed35	-0.12883456
10	0x3dd89f0e	0.10577212
11	0x3e813815	0.252381
12	0x3e18c89d	0.14920278
13	0xbdd29aa9	-0.10283405
14	0xbcce03b1	-0.025148245
15	0x3ea39e29	0.31956604
16	0xbe001ce7	-0.12511025
17	0xbea51469	-0.32242134
18	0xbee7bc3c	-0.452608
19	0xbf05649b	-0.52106637
20	0xbf7a3468	-0.97736216
21	0xbe949a38	-0.2902391
22	0x3ebbd941	0.3668919
23	0xbec50afd	-0.38484946
24	0xbe6bc62b	-0.23024814
25	0x3ecc70d5	0.39929834
26	0xbd6f3b3b	-0.058406096
27	0x3d17b9f8	0.037042588
28	0xbcca7bb6	-0.024717193
29	0x3ebdf4f6	0.37100953
30	0xbe151272	-0.14557818
31	0x3caeaa2f	0.021321384
32	0x3eb7ab0d	0.3587269
33	0x3e1af51f	0.15132569
34	0x3ec6fe75	0.3886601
35	0x3f0063ea	0.50152457
36	0x3e37472e	0.17898247
37	0xbe49b215	-0.19696839
38	0xbd5df9a6	-0.05419316
39	0xbc343519	-0.010998988
40	0x3edafca3	0.42770872
41	0xbe923fc4	-0.28564274
42	0x3e8ae12c	0.27124918
43	0x3dd025eb	0.10163482
44	0xbdbf194b	-0.09330996
45	0x3ebccd8a	0.36875564
46	0xbec2490b	-0.37946352
47	0xbd9ea96a	-0.07747157
48	0xbe4cdc79	-0.20005979
49	0xbdbfbff6	-0.093627855
50	0x3e3d34dd	0.18477197
51	0x3e3d3b67	0.18479691
52	0xbe9c2664	-0.3049804
53	0x3e4520cd	0.19250794
54	0xbde1bdb7	-0.11022513
55	0x3e0eb78a	0.13937202
56	0xbe8f7750	-0.28020716
57	0xbd46af34	-0.04850693
58	0xbd0c6002	-0.034271248
59	0x3d7e07e6	0.06201925
60	0xbec91083	-0.3927041
61	0x3e8c42d3	0.27394733
62	0x3ecc0d1d	0.39853755
63	0xbd895e40	-0.0670743
64	0x3ead68d8	0.33869052
65	0xbe1005bb	-0.14064686
66	0xbeec2349	-0.4612067
67	0xbcff9585	-0.031199226
68	0x3d3c0b46	0.04590919
69	0xbec7b8af	-0.3900809
70	0xbf04b1e3	-0.51833934
71	0x3e1898af	0.14901994
72	0xbecc0b7a	-0.39852506
73	0x3d5fac14	0.054607466
74	0xbdaa9f1a	-0.083311275
75	0xbe5df12e	-0.21674034
76	0x3c70311c	0.014660146
77	0xbdbc7ae7	-0.09203129
78	0x3e7c5e01	0.24645235
79	0xbe61de27	-0.220574
80	0x3dc32ffb	0.09530636
81	0xbe8ce7da	-0.2752064
82	0xbe062c39	-0.13102807
83	0x3d17df58	0.03707823
84	0x3df9a192	0.1218902
85	0x3dacb6f2	0.084333315
86	0xbe2e18f4	-0.17001706
87	0xbee2c53d	-0.44291106
88	0xbe97dff6	-0.29663056
89	0xbef8cfe3	-0.48596105
90	0x3e04183e	0.12899873
91	0xbd8bddd0	-0.06829417
92	0xbeb9b848	-0.36273408
93	0x3e237cc9	0.1596557
94	0xbd9245e3	-0.07142236
95	0x3e3805b5	0.17970927
96	0xbed1426a	-0.40870982
97	0xbdd639cd	-0.104602434
98	0x3e51c7f5	0.20486434
99	0x3e3346b5	0.17507441
100	0x3d150429	0.03638092
101	0x3de35b1b	0.11101361
102	0xbe0dbd72	-0.13841799
103	0x3d886013	0.0665895
104	0xbe76235d	-0.24036928
105	0x3b46430d	0.0030252368
106	0xbd98ed46	-0.07467131
107	0xbc84818a	-0.01617505
108	0x39d1accb	0.00039992327
109	0x3d0a1521	0.033711556
110	0xbd8d239b	-0.06891557
111	0x3e42ca30	0.19022441
112	0xbcaeb5dd	-0.021326954
113	0xbe035fb5	-0.12829478
114	0x3dd933ab	0.10605558
115	0x3e95922b	0.2921308
116	0x3d72dc69	0.05929223
117	0xbe8231d9	-0.25428656
118	0x3e297804	0.16549689
119	0x3e652800	0.2237854
120	0x3d2d3eb2	0.04229612
121	0x3d946818	0.07246417
122	0x3cc08063	0.02349872
123	0xbdfebffc	-0.12438962
124	0x3ba979be	0.0051719835
125	0x3ebfbd08	0.37448907
126	0x3d4b3aca	0.049616612
127	0xbe465ae0	-0.19370604
128	0xbc83c141	-0.016083362
129	0xbd2940df	-0.04132163
130	0x3c9e7b73	0.019345975
131	0x3d054941	0.032540563
132	0x3dd17986	0.10228257
133	0x3e5a23f0	0.21302772
134	0xbe3e6021	-0.18591358
135	0xbd9c9231	-0.07645071
136	0x3d3d30c7	0.046189096
137	0xbe2555f9	-0.16146077
138	0x3d3eb04e	0.046554856
139	0x3efe2368	0.49636388
140	0xbce7407d	-0.028228993
141	0xbd7f5adb	-0.062342506
142	0x3e545811	0.2073672
143	0x3c1f1f78	0.009712093
144	0xbeb3904f	-0.35071036
145	0x3de4e7e4	0.11177042
146	0x3d90e6bf	0.07075261
147	0xbe13fabe	-0.1445112
148	0xbeb2d039	-0.34924486
149	0x3e0e84dc	0.1391787
150	0x3e9e3a7b	0.30903992
151	0x3dace800	0.08442688
152	0xbe8257af	-0.25457522
153	0xbc8c5bb9	-0.01713358
154	0x3d86a210	0.0657388
155	0x3e9fa954	0.31183875
156	0xbb706f27	-0.0036687346
157	0x3e35bb8c	0.17747325
158	0x3cc215ef	0.0236921
159	0x3ebc46e9	0.3677285
160	0x3dd70491	0.10498918
161	0xbed7fdf8	-0.4218595
162	0xbdb6b747	-0.08921676
163	0xbedd2f4b	-0.43200144
164	0x3de2619a	0.11053772
165	0x3dec3670	0.11533821
166	0x3f108086	0.5644611
167	0x3e272e6e	0.16326305
168	0xbc1a3c53	-0.0094137965
169	0x3c88fd66	0.016722392
170	0x3d0ecf19	0.034865472
171	0x3e3b05cb	0.18263929
172	0x3e80a9a6	0.2512943
173	0xbe779184	-0.24176604
174	0xbe61ec5b	-0.22062819
175	0xbdb718ef	-0.089403026
176	0x3d4d4a53	0.05011971
177	0xbeb368c4	-0.35040867
178	0x3cff5870	0.0311701
179	0xbd4a9d52	-0.04946644
180	0x3efd28e9	0.49445274
181	0xbd531293	-0.051531386
182	0xbe9403bf	-0.28909108
183	0xbf0e51f7	-0.5559382
184	0xbeecfc9c	-0.46286476
185	0x3eb5db8b	0.3551906
186	0x3e705c84	0.23472792
187	0x3e560350	0.20899701
188	0xbebab037	-0.36462566
189	0xbe809126	-0.2511074
190	0x3e0519ae	0.12998077
191	0x3e833590	0.25626802
192	0xbe2c4315	-0.16822465
193	0xbe592456	-0.21205267
194	0xbe0b1fa8	-0.13586295
195	0x3d52b137	0.051438536
196	0x3e20bcf2	0.15697077
197	0xbda5bc29	-0.08092529
198	0x3e31a611	0.17348506
199	0x3e771542	0.24129203
200	0xbe6d2561	-0.2315879
201	0xbe82671f	-0.254693
202	0x3f15cebb	0.5851857
203	0xbe8f164f	-0.27946708
204	0xbe8bc55e	-0.27299017
205	0x3ca92c12	0.020650897
206	0x3d0517b2	0.0324933
207	0x3f19e19a	0.60109866
208	0xbeba6479	-0.3640478
209	0x3e834d4c	0.2564491
210	0xbdf2bc2f	-0.118522994
211	0x3eedb937	0.4643037
212	0xbde0076e	-0.10938917
213	0xbe822674	-0.25419962
214	0xbe2deae4	-0.16984135
215	0x3e166684	0.14687544
216	0xbcc4f85c	-0.024044208
217	0xbe46ead5	-0.19425519
218	0x3de15707	0.11002927
219	0x3e33ca8c	0.17557734
220	0x3eb1c85a	0.3472317
221	0xbed4a897	-0.41534874
222	0x3e435b2d	0.1907775
223	0x3c94b069	0.018150525
224	0xbe17bba8	-0.14817679
225	0x3e438e15	0.19097169
226	0x3de7dab7	0.113210134
227	0xbeac3f8d	-0.33642235
228	0xbe208947	-0.15677367
229	0xbe8758ab	-0.26434836
230	0xbe56d816	-0.20980868
231	0xbc33053e	-0.010926543
232	0xbe234c09	-0.15946974
233	0x3e42fe0f	0.19042228
234	0x3e1f31a1	0.15546276
235	0xbec6ca49	-0.38826206
236	0xbe00ef4f	-0.12591289
237	0xbe6e2011	-0.2325442
238	0xbbb3572e	-0.005473039
239	0x3e8a313c	0.26990688
240	0x3e834dcc	0.25645292
241	0x3a2e91a6	0.00066592766
242	0xbc63f5df	-0.013913601
243	0xbcf98b97	-0.03046207
244	0xbec85755	-0.3912913
245	0xbc6cebc8	-0.0144605115
246	0x3e16c37f	0.14723013
247	0x3e6ce743	0.23135094
248	0xbd23bc17	-0.0399743
249	0x3de0796f	0.109606616
250	0xbe567a8b	-0.20945184
251	0x3d7d2364	0.06180133
252	0x3e1c3b6e	0.15257046
253	0x3d8bff86	0.068358466
254	0x3f08ebd1	0.5348483
255	0x3f04540a	0.51690733

linears.3.bias f4 [20]
0	0x3d8bb3d8	0.06821412
1	0x3cb3d37a	0.021951426
2	0xbcead7d8	-0.028667375
3	0xbcbfd86d	-0.02341863
4	0xbd650a9a	-0.055918314
5	0x3ca5fcb1	0.020262094
6	0xbb78e476	-0.003797797
7	0xbca8fcc1	-0.020628335
8	0xbcac79e3	-0.021054214
9	0xbe753306	-0.23945245
10	0xbd9d0677	-0.07667249
11	0xbd91fba7	-0.07128077
12	0x3c528a2f	0.012850328
13	0x3d71ea26	0.059061192
14	0xbe472684	-0.19448286
15	0xbb488794	-0.003059839
16	0x3d03a72e	0.032141857
17	0xbc8798bc	-0.016552322
18	0xbd891300	-0.06693077
19	0xbcdf663f	-0.027270434

linears.4.weight f4 [20, 20]
0	0x3e83e1f0	0.25758314
1	0xbe4b60b5	-0.1986111
2	0xbca9c2ee	-0.020722833
3	0x3e9f76b8	0.31145263
4	0x3e522e4d	0.20525475
5	0xbe258d57	-0.16167198
6	0x3f0ec229	0.55765015
7	0xbe3336ad	-0.17501326
8	0xbe8c6e8d	-0.27428094
9	0xbe499297	-0.19684826
10	0x3e5c2298	0.21497571
11	0x3edbf3ea	0.4295953
12	0xbd1cf7a9	-0.038322125
13	0x3e57a326	0.2105833
14	0x3dcb33ef	0.09922015
15	0xbc13bc82	-0.009017112
16	0xbda42546	-0.08014922
17	0x3edee45f	0.43533608
18	0xbe53f8f1	-0.20700432
19	0xbd1c18b0	-0.03810948
20	0x3e05cbf6	0.13066086
21	0x3dda88e9	0.10670645
22	0x3ce6104c	0.028083943
23	0x3e9630bf	0.29334065
24	0xbd59d198	-0.0531784
25	0x3e304355	0.17213185
26	0x3f041d07	0.5160679
27	0x3ea5d018	0.32385325
28	0x3e2e7324	0.1703611
29	0xbf0d2a9d	-0.5514315
30	0x3e351097	0.1768211
31	0x3d60fe25	0.05492987
32	0x3cae5917	0.021282716
33	0xbd97a096	-0.07403676
34	0x3eb9e7b8	0.363096
35	0xbcfc9b72	-0.03083584
36	0xbdb6ceac	-0.08926138
37	0x3b7d6f71	0.003867116
38	0x3e9e0b40	0.30867958
39	0xbe74cf63	-0.23907237
40	0xbc02cfd9	-0.007984125
41	0x3e6946b9	0.22780885
42	0xbe27e2cc	-0.1639511
43	0xbef21e99	-0.4728897
44	0xbea7d70c	-0.32781255
45	0x3ec7f38f	0.39053008
46	0x3c85b82e	0.016323175
47	0x3d897a2d	0.06712756
48	0x3e154a29	0.14579071
49	0xbf07465a	-0.5284172
50	0xbd8ba9f7	-0.068195276
51	0xbf18f7d5	-0.5975316
52	0x3ed48928	0.41510892
53	0xbf0e587a	-0.55603755
54	0xbedc25aa	-0.42997485
55	0xbccf7969	-0.025326448
56	0xbeaac7bd	-0.33355513
57	0x3e1aa2f0	0.15101218
58	0x3e0fff21	0.14062168
59	0x3ceb4a32	0.028721903
60	0xbed481f6	-0.41505402
61	0xbd8ab83a	-0.0677342
62	0xbf0d9cf3	-0.5531761
63	0x3dc87758	0.09788388
64	0xbeb26ca7	-0.3484852
65	0xbdc006d4	-0.09376302
66	0xbeccec95	-0.40024248
67	0xbf36900e	-0.7131356
68	0xbed4ddf1	-0.41575578
69	0xbdf5a6ae	-0.11994682
70	0xbe156636	-0.14589772
71	0xbe887f7e	-0.2665977
72	0xbd5ddc93	-0.054165434
73	0xbef5b027	-0.47985956
74	0x3e28f4bd	0.1649961
75	0xbe2f3c36	-0.17112812
76	0xbea0f0bc	-0.31433666
77	0xbe1084e1	-0.1411319
78	0xbd852285	-0.06500725
79	0x3e1d90ee	0.15387318
80	0xbe490006	-0.19628915
81	0xbe06baed	-0.13157244
82	0x3f016986	0.5055164
83	0x3d8301a7	0.063967995
84	0xbe4954cb	-0.19661252
85	0x3d8d8db9	0.06911797
86	0xbe42445d	-0.18971391
87	0x3db5af52	0.0887133
88	0x3e4e69e1	0.20157577
89	0x3ec05303	0.37563333
90	0xbdad71e0	-0.084689856
91	0x3e0bcc1a	0.13652077
92	0xbd6ab0be	-0.05729746
93	0xbe69fe5a	-0.22850934
94	0xbc48b63c	-0.012250479
95	0x3d92bd84	0.071650535
96	0xbea853f0	-0.3287654
97	0x3e8994f1	0.26871446
98	0x3ea946a1	0.33061698
99	0xbde1222e	-0.109928474
100	0x3e051c6d	0.12999125
101	0xbf059288	-0.52176714
102	0xbecc2ea2	-0.39879328
103	0xbe87dcd3	-0.26535663
104	0xba933764	-0.0011231718
105	0x3e12eede	0.14348933
106	0xbf1baadd	-0.6080759
107	0x3e607042	0.21917823
108	0x3d9a1c87	0.075249724
109	0xbcfe7998	-0.03106384
110	0xbec15d3c	-0.37766445
111	0x3e6129c9	0.21988596
112	0xbca3e58d	-0.02000692
113	0x3d140ecc	0.036146924
114	0x3eb8246b	0.35965285
115	0x3e4e141a	0.20124856
116	0x3ef5a4e8	0.47977376
117	0x3eb8ac21	0.36068824
118	0xbe3d00f0	-0.18457389
119	0x3edd01c1	0.431654
120	0xbeb9aab4	-0.3626305
121	0x3f51ecf4	0.82002187
122	0x3debad88	0.11507708
123	0x3dcbf431	0.09958685
124	0xbe648f9f	-0.22320412
125	0xbd1cef0d	-0.038313914
126	0x3db195a8	0.08671123
127	0xbc4240e3	-0.0118562905
128	0x3e4def0f	0.20110725
129	0x3dd65697	0.104657345
130	0x3ebccfec	0.36877382
131	0xbea9a444	-0.33133137
132	0x3e9dee81	0.30846027
133	0x3de9d361	0.114172705
134	0xbde0e91b	-0.10981961
135	0xbe4a68e2	-0.19766572
136	0x3df28e77	0.11843579
137	0x3dc5b368	0.0965336
138	0x3e13bf61	0.14428474
139	0x3e4960ff	0.19665907
140	0x3f0d8f3b	0.5529668
141	0xbe36640e	-0.17811605
142	0xbe174d6b	-0.14775626
143	0xbe1b7621	-0.15181781
144	0x3e58863b	0.21144955
145	0x3e1443eb	0.14479034
146	0x3e530d34	0.20610505
147	0xbe8c7614	-0.27433836
148	0xbe473c57	-0.19456612
149	0x3e017d9b	0.12645571
150	0x3e22549b	0.15852587
151	0xbc81b919	-0.015835332
152	0x3e8d31ab	0.27576956
153	0xbe33c7b6	-0.17556652
154	0x3d6d6136	0.057954036
155	0x3e3fe793	0.18740682
156	0x3e502a54	0.20328647
157	0xbdd42fc4	-0.10360673
158	0xbb7296e8	-0.0037016217
159	0x3e2ead42	0.1705828
160	0xbdeb0217	-0.11475008
161	0x3ec27821	0.37982276
162	0x3eb2afe8	0.3489983
163	0xbebe7086	-0.37195224
164	0x3e6be84c	0.23037833
165	0x3d7255f0	0.059163988
166	0xbd150a90	-0.036387026
167	0x3ec64504	0.3872453
168	0x3e0e2ad5	0.13883527
169	0x3bd45c4f	0.0064807306
170	0x3cbd0e2c	0.023078047
171	0xbea1a6f5	-0.3157269
172	0xbd8ced0e	-0.06881152
173	0xbe4f5b35	-0.20249636
174	0x3df7b983	0.120959304
175	0xbcae7e73	-0.02130053
176	0xbeaea83e	-0.34112734
177	0xbe0bd45c	-0.13655227
178	0xbd691892	-0.056908198
179	0x3e656176	0.2240046
180	0xbea91ea7	-0.33031198
181	0xbf08bf51	-0.53416926
182	0xbd54b212	-0.051927634
183	0x3dd7bf47	0.1053453
184	0x3f19eb33	0.6012451
185	0x3d96ab70	0.07356918
186	0x3f10fa31	0.5663176
187	0xbe255309	-0.16144957
188	0xbe031787	-0.12801944
189	0x3f0152d1	0.5051699
190	0x3db361bf	0.08758878
191	0x3ec9f7b3	0.39446792
192	0xbda125a7	-0.0786851
193	0x3f0a1a5b	0.53946465
194	0x3f1ee15f	0.6206264
195	0x3f1bc498	0.60846853
196	0x3db040d7	0.08606117
197	0x3ef8ac35	0.48568884
198	0x3ef8f2fa	0.48622876
199	0x3e432d37	0.19060217
200	0xbe3ddd5f	-0.18541478
201	0xbde7acd9	-0.11312265
202	0xbec47fa7	-0.3837864
203	0x3cc8fa08	0.024533287
204	0xbd8c86b6	-0.068616316
205	0xbdaced2c	-0.084436744
206	0x3b823e3f	0.0039747055
207	0x3d0275b9	0.03185055
208	0xbde13be2	-0.1099775
209	0xbe528784	-0.20559508
210	0xbeb1c96a	-0.3472398
211	0xbec1aaf0	-0.37825727
212	0x3e32112f	0.17389368
213	0xbdc744d5	-0.097299255
214	0xbae2d399	-0.0017305493
215	0xbec08f40	-0.3760929
216	0x3d9e8206	0.07739644
217	0x3d7873b8	0.060657233
218	0x3e241f51	0.16027571
219	0xbcb51883	-0.022106415
220	0xbe23e2b8	-0.16004455
221	0x3e037f74	0.12841588
222	0x3ee79103	0.45227823
223	0xbea2f319	-0.31826094
224	0x3e916aef	0.28401896
225	0x3d49a603	0.049230587
226	0x3e7d7f8f	0.24755691
227	0x3ee8314f	0.4535012
228	0x3e7ffb9c	0.24998325
229	0x3d7ea8a3	0.062172543
230	0xbe79464e	-0.24343225
231	0x3c80862e	0.015688982
232	0x3e0df202	0.1386185
233	0x3d1a68e3	0.037697684
234	0xbd2b196a	-0.041772284
235	0xbdccbfe9	-0.099975415
236	0x3cc87fbd	0.024474973
237	0x3e8c1c05	0.27365127
238	0xbcb8897a	-0.022526491
239	0xbe403611	-0.18770625
240	0xbdb50a6a	-0.08839877
241	0xbd8c2ea0	-0.068448305
242	0xbeb16b8a	-0.34652358
243	0xbd612d18	-0.054974645
244	0xbe97d713	-0.29656276
245	0xbd3a0e80	-0.045423985
246	0xbe9b0b24	-0.30281937
247	0xbe81f63b	-0.2538317
248	0xbd924719	-0.07142467
249	0xbed443b6	-0.4145791
250	0x3d3dab24	0.04630579
251	0xbdcce2b1	-0.100041755
252	0xbe5947ac	-0.21218747
253	0xbdff7596	-0.124735996
254	0x3e4e558b	0.2014982
255	0xbe6206eb	-0.22072951

linears.4.bias f4 [20]
0	0xbca50705	-0.020144949
1	0xbc412c6f	-0.011790379
2	0x3c1e9a13	0.009680289
3	0x3c4eaf57	0.012615046
4	0xbd647c05	-0.055782337
5	0xbc51f870	-0.01281558
6	0xbc3d41ab	-0.011551301
7	0x3c548c20	0.0129728615
8	0xbd06e27d	-0.03293084
9	0xbbbdba3a	-0.005790022
10	0x3d6ec5a2	0.058293946
11	0xbcb83481	-0.022485973
12	0x3e36cd96	0.17851862
13	0xbe29be8c	-0.16576594
14	0x3dc9ad9f	0.09847569
15	0x3d3810da	0.044937946
16	0xbdb8d65d	-0.090252616
17	0x3d5c84f3	0.053837728
18	0x3e021e66	0.12706909
19	0x3d709480	0.05873537

linears.5.weight f4 [1, 20]
0	0x3e0d5750	0.13802838
1	0x3de7388d	0.11290083
2	0xbe5ed6fc	-0.21761698
3	0xbfa9c2b0	-1.3262539
4	0x3e120be4	0.14262348
5	0x3ed3d475	0.4137303
6	0xbeb1e4c2	-0.3474484
7	0x3d779186	0.060441516
8	0x3e58d372	0.2117441
9	0x3ea2c370	0.31789732
10	0xbf1e54bc	-0.61848044
11	0x3f602fba	0.87572825
12	0xbe0c9b46	-0.13731107
13	0x3e8df06e	0.27722496
14	0xbf15a01a	-0.5844742
15	0xbe7e6b44	-0.24845606
16	0x3e9c81f0	0.30567884
17	0xbe10052b	-0.14064471
18	0xbe3e65e1	-0.18593551
19	0xbe3fa19b	-0.18713991

exp_avg f4 [20, 2]
0	0xb885018b	-6.3422216e-05
1	0xb8ab91fb	-8.1811064e-05
2	0xb8f80b4f	-0.00011827668
3	0xb5c987d7	-1.5015202e-06
4	0xb7f09b24	-2.8682472e-05
5	0x37290cc9	1.0076162e-05
6	0xb950f4bf	-0.00019927601
7	0x37d8f0fe	2.5861427e-05
8	0x394f42fd	0.00019766013
9	0x3763701c	1.3556357e-05
10	0xb90e0ed9	-0.00013547706
11	0x36c64882	5.909301e-06
12	0x38aac3ce	8.142703e-05
13	0xb78e3d49	-1.6956257e-05
14	0xb993d39b	-0.00028195683
15	0x37fbc97a	3.0015352e-05
16	0xb9723d12	-0.00023101669
17	0x37326fa5	1.0635621e-05
18	0xb885bbb9	-6.3769e-05
19	0x3797b48a	1.8084673e-05
20	0xb8f94aa7	-0.0001188715
21	0x363448e4	2.6864518e-06
22	0x387aef48	5.9827493e-05
23	0x385f9de4	5.331439e-05
24	0x394111a1	0.00018412482
25	0xb6ec1312	-7.035568e-06
26	0xb86768c6	-5.517227e-05
27	0x37895f31	1.6376e-05
28	0xb8fd0d9f	-0.00012066517
29	0x36ea7838	6.9877387e-06
30	0xb9970821	-0.0002880702
31	0xb552b158	-7.8489165e-07
32	0xb8a7298e	-7.970921e-05
33	0xb8276446	-3.990929e-05
34	0x3999db34	0.00029345753
35	0x363b3f51	2.7902026e-06
36	0xb90214ca	-0.0001240551
37	0x37f5bb6e	2.9293555e-05
38	0xb7b0f763	-2.1096033e-05
39	0x37028923	7.780533e-06

exp_avg_sq f4 [20, 2]
0	0x39cd6128	0.00039173034
1	0x395089d8	0.00019887777
2	0x3aa74674	0.0012762086
3	0x389209ef	6.963673e-05
4	0x38d43481	0.000101187274
5	0x35b09f14	1.315932e-06
6	0x3a570bf9	0.0008203383
7	0x37255faa	9.85704e-06
8	0x3b84b83e	0.0040502837
9	0x38cc5c9b	9.744727e-05
10	0x3903a39e	0.00012554086
11	0x37f591b6	2.9274128e-05
12	0x3a5ab375	0.0008342781
13	0x364a0ad6	3.0106653e-06
14	0x3aa25e7f	0.0012387781
15	0x384f0d8f	4.9365273e-05
16	0x3a058bbf	0.0005094371
17	0x35ccdefa	1.5264079e-06
18	0x3a1aa705	0.00058995216
19	0x38e160e0	0.000107468804
20	0x39320b50	0.00016979617
21	0x37afbd04	2.0949643e-05
22	0x394f3ef6	0.00019764513
23	0x3901d846	0.00012382967
24	0x396e24e2	0.00022711189
25	0x383b7da5	4.470129e-05
26	0x3a47ead6	0.0007626241
27	0x35e4121d	1.6992595e-06
28	0x3aae1ad2	0.001328314
29	0x38bad951	8.9096495e-05
30	0x3a60bbb9	0.0008572895
31	0x3676d514	3.6780884e-06
32	0x3a42bb19	0.00074283924
33	0x391cc21b	0.00014949629
34	0x3a3cf973	0.00072088017
35	0x38314936	4.226827e-05
36	0x39f2eba2	0.00046333397
37	0x390bc862	0.00013330721
38	0x39e7e19f	0.00044227854
39	0x38208edf	3.828003e-05

exp_avg f4 [20]
0	0xb93522ad	-0.00017274423
1	0xb86197dd	-5.3785614e-05
2	0xb7bf4f1e	-2.2805816e-05
3	0xb7c4b89e	-2.345099e-05
4	0x37e5e520	2.7405622e-05
5	0xb809e3f4	-3.2875643e-05
6	0xb7396545	-1.1050438e-05
7	0x3806626d	3.2039756e-05
8	0x38f60f98	0.00011733099
9	0x38d021aa	9.924483e-05
10	0x39105d81	0.00013767743
11	0x38bb1185	8.920118e-05
12	0x38a0d680	7.669348e-05
13	0xb82b8fbb	-4.0903436e-05
14	0x3792e3e6	1.751068e-05
15	0x38583bee	5.1554227e-05
16	0xb932f791	-0.00017067629
17	0xb9aaf8ba	-0.00032610242
18	0xb80cccad	-3.356922e-05
19	0xb88a962f	-6.608327e-05

exp_avg_sq f4 [20]
0	0x3aaa7061	0.0013003462
1	0x3a46a840	0.0007578172
2	0x3691044a	4.321836e-06
3	0x383e3332	4.534721e-05
4	0x3b440eed	0.0029916123
5	0x3921bc41	0.00015424287
6	0x3953f8cb	0.0002021521
7	0x3854eb8b	5.0764105e-05
8	0x39a27ddc	0.0003099282
9	0x3a1167fa	0.0005546805
10	0x39d88e0c	0.00041304564
11	0x3a8885fc	0.0010415907
12	0x39341a84	0.00017176016
13	0x3820a608	3.83016e-05
14	0x3a835406	0.0010019548
15	0x3a6e8b03	0.0009099694
16	0x3aa479bc	0.0012548487
17	0x3ae15b42	0.0017193335
18	0x3ae367d8	0.0017349673
19	0x3a8bf4d2	0.001067782

exp_avg f4 [20, 20]
0	0x38279a47	3.9959585e-05
1	0x36b8e8f4	5.5107466e-06
2	0xb63bff62	-2.8013824e-06
3	0xb7cf4a36	-2.471088e-05
4	0x3750c98a	1.2444691e-05
5	0x369b54ae	4.629218e-06
6	0x37f0a635	2.8687626e-05
7	0xb780c8a7	-1.5352225e-05
8	0xb7093afa	-8.179568e-06
9	0x37184fac	9.078456e-06
10	0x378ea894	1.700622e-05
11	0xb7d01a07	-2.4807652e-05
12	0x36297962	2.5253617e-06
13	0xb7d83a2d	-2.5776297e-05
14	0x3726b7ae	9.937137e-06
15	0xb6d6dfc5	-6.403747e-06
16	0xb680fc4c	-3.8440685e-06
17	0xb6b922a4	-5.5174623e-06
18	0x3733f08c	1.0725238e-05
19	0x36e5e5da	6.85149e-06
20	0xb777b575	-1.4764596e-05
21	0xb752e1ec	-1.2569577e-05
22	0x368ecfb3	4.256109e-06
23	0xb76f55c5	-1.426548e-05
24	0x369f0f08	4.740319e-06
25	0xb754d29c	-1.2685221e-05
26	0x3741123d	1.1507943e-05
27	0xb771ffb8	-1.4424259e-05
28	0xb7d96b99	-2.591852e-05
29	0xb76d52cf	-1.4145581e-05
30	0xb6dc94ba	-6.573825e-06
31	0x365185c8	3.1221298e-06
32	0x37c6829c	2.3664259e-05
33	0xb74dc12e	-1.226393e-05
34	0xb7785d64	-1.4803696e-05
35	0xb7905a16	-1.7208087e-05
36	0x364c6a49	3.0460235e-06
37	0x376bc70b	1.4053435e-05
38	0xb6d2646e	-6.2701793e-06
39	0xb745aa31	-1.1781741e-05
40	0x38665752	5.4917597e-05
41	0x380a21cb	3.2933236e-05
42	0xb5d5031a	-1.5870639e-06
43	0xb7ba9f44	-2.2247092e-05
44	0x3723c3bc	9.76113e-06
45	0x380c08e0	3.3386867e-05
46	0x381c443e	3.7256854e-05
47	0xb686466c	-4.0017094e-06
48	0x381a4865	3.6783884e-05
49	0x383866b1	4.3964657e-05
50	0x3825ecf6	3.9559753e-05
51	0xb80e47c2	-3.3922268e-05
52	0xb84cb128	-4.880238e-05
53	0xb7fa15da	-2.9812498e-05
54	0x383bc9c0	4.477217e-05
55	0x379e6d8d	1.8886081e-05
56	0xb780b162	-1.534139e-05
57	0xb80d71f9	-3.3723165e-05
58	0x37fdc302	3.0250758e-05
59	0x38042330	3.1504023e-05
60	0x3820a2cf	3.82986e-05
61	0x36d1607a	6.2399167e-06
62	0x3607e0bb	2.0247378e-06
63	0xb8071c78	-3.221302e-05
64	0x37658177	1.3679607e-05
65	0x36c7aa6e	5.950503e-06
66	0x38229afe	3.8768158e-05
67	0xb7ac938a	-2.0572701e-05
68	0xb737c30d	-1.0953064e-05
69	0x374176dd	1.15313715e-05
70	0x37a80d82	2.003345e-05
71	0xb7d1c20b	-2.50051e-05
72	0x34f0608f	4.477374e-07
73	0xb81127b6	-3.4607678e-05
74	0x37451b53	1.1748477e-05
75	0xb71c1fc6	-9.305722e-06
76	0xb6c7d955	-5.955963e-06
77	0xb6b16afa	-5.287465e-06
78	0x375857de	1.2895061e-05
79	0x36e6d335	6.879122e-06
80	0x387e540c	6.0636594e-05
81	0x376d6a76	1.4151088e-05
82	0xb7a17f57	-1.9251993e-05
83	0xb732b622	-1.0652033e-05
84	0x374caac4	1.2199107e-05
85	0x37419d1b	1.1540275e-05
86	0x373c964e	1.1240669e-05
87	0xb5c56852	-1.4708005e-06
88	0x36fdc536	7.562946e-06
89	0x3788a40b	1.6288852e-05
90	0x37ae2844	2.0761167e-05
91	0xb816c5cf	-3.594701e-05
92	0xb6403441	-2.8640645e-06
93	0xb71f70ed	-9.503431e-06
94	0x37a56d98	1.9720566e-05
95	0x370ace40	8.273462e-06
96	0xb5d9361a	-1.6183506e-06
97	0xb79613a0	-1.7890532e-05
98	0x37665d28	1.3730758e-05
99	0x379193d7	1.735419e-05
100	0xb810ff75	-3.457019e-05
101	0xb706ed21	-8.042233e-06
102	0xb71ce0c5	-9.350658e-06
103	0x381f7148	3.8014055e-05
104	0xb767cf03	-1.3816872e-05
105	0xb7135727	-8.7821745e-06
106	0xb84cda20	-4.8840535e-05
107	0x37cda35b	2.4513973e-05
108	0x36edc47b	7.0860237e-06
109	0xb7825bae	-1.55399e-05
110	0xb7c424d0	-2.3382163e-05
111	0x37c26cf1	2.3177332e-05
112	0x3719fd4f	9.178489e-06
113	0x3834b093	4.307979e-05
114	0xb7743808	-1.4556579e-05
115	0x3730b7f6	1.0533249e-05
116	0x371d5828	9.378455e-06
117	0x36b97f8d	5.5282785e-06
118	0xb7848853	-1.5799107e-05
119	0xb6f4f12f	-7.299844e-06
120	0xb81d939a	-3.756918e-05
121	0xb7ed7b22	-2.830994e-05
122	0x371e89d5	9.449625e-06
123	0xb7ed40a3	-2.82827e-05
124	0x36e2f67d	6.76402e-06
125	0xb7f03907	-2.8636785e-05
126	0x379b1165	1.848554e-05
127	0xb7f8cc2c	-2.9658979e-05
128	0xb89b5a76	-7.4078256e-05
129	0xb80b1bcc	-3.316607e-05
130	0xb7911333	-1.7294287e-05
131	0x3750da67	1.2448617e-05
132	0x388adaf0	6.621133e-05
133	0xb7b2e101	-2.132403e-05
134	0xb8118c15	-3.4701156e-05
135	0xb8220ab4	-3.8633778e-05
136	0x36ed32ea	7.0690776e-06
137	0x3804bcef	3.164721e-05
138	0xb780e946	-1.5367415e-05
139	0xb7de35b8	-2.6489477e-05
140	0x379c2694	1.8614614e-05
141	0x36820b3c	3.8756098e-06
142	0x36c4ba64	5.862954e-06
143	0xb7a05e18	-1.9117302e-05
144	0x36e840cf	6.9216835e-06
145	0x3693e5e8	4.407706e-06
146	0x37dca823	2.6304338e-05
147	0xb74f603f	-1.23605705e-05
148	0xb6815894	-3.8548114e-06
149	0x37015195	7.707994e-06
150	0x3753ef3a	1.2632279e-05
151	0xb74d4d0b	-1.223689e-05
152	0xb699b20e	-4.5804836e-06
153	0xb7be7bdf	-2.2707447e-05
154	0x36ec511a	7.0427895e-06
155	0xb6bc3c8c	-5.609885e-06
156	0xb6aeb0e9	-5.206199e-06
157	0xb61d7fc8	-2.3469202e-06
158	0x370da28c	8.442101e-06
159	0x3664d30f	3.40975e-06
160	0x37c639c3	2.3630337e-05
161	0x3753e206	1.2629205e-05
162	0xb759ff8a	-1.2993705e-05
163	0x374ebeaa	1.2322949e-05
164	0xb57052f9	-8.952771e-07
165	0x373fac1b	1.1424559e-05
166	0xb755da54	-1.2746623e-05
167	0x376898c3	1.3863845e-05
168	0x37b14a89	2.1134752e-05
169	0x37580770	1.2876335e-05
170	0x37063b44	8.000821e-06
171	0xb7417445	-1.1530768e-05
172	0xb7682985	-1.3837945e-05
173	0x37559b20	1.2731907e-05
174	0x377ad876	1.495156e-05
175	0x378e3939	1.6954365e-05
176	0xb550cbd3	-7.778264e-07
177	0xb783c140	-1.5706406e-05
178	0x36ded0c3	6.6404186e-06
179	0x3764e478	1.36430535e-05
180	0xb7d49c51	-2.534516e-05
181	0xb75edab3	-1.3283151e-05
182	0x36f0e059	7.178675e-06
183	0xb7102207	-8.5909915e-06
184	0x358635cd	9.999436e-07
185	0xb758630c	-1.2897664e-05
186	0x36a6afa2	4.967632e-06
187	0xb73dba89	-1.1308709e-05
188	0xb7d0e18d	-2.4900562e-05
189	0xb77d7c90	-1.5108977e-05
190	0xb72d25ce	-1.0320406e-05
191	0x37362296	1.0856098e-05
192	0x37b865fb	2.1981998e-05
193	0xb6dbc9df	-6.5502095e-06
194	0xb78894bd	-1.6281725e-05
195	0xb78639ad	-1.6000902e-05
196	0x364ceb91	3.0535487e-06
197	0x377e93b7	1.5173972e-05
198	0xb70bda2c	-8.335843e-06
199	0xb75e4d30	-1.3250203e-05
200	0xb81e40de	-3.7730548e-05
201	0x35e0bebf	1.6744815e-06
202	0x36428703	2.898684e-06
203	0x380eb6c7	3.4025663e-05
204	0xb78b92d4	-1.6638463e-05
205	0x364e0a5e	3.0702427e-06
206	0xb812e259	-3.5019915e-05
207	0x37cdd8c5	2.4538846e-05
208	0x37db0083	2.6107073e-05
209	0xb5530bce	-7.8620803e-07
210	0xb76e07b5	-1.41877e-05
211	0x37dd197f	2.6357126e-05
212	0xb7a9d280	-2.0244392e-05
213	0x380a4acb	3.297142e-05
214	0xb5ee3487	-1.7747669e-06
215	0x378f3b90	1.7074664e-05
216	0x35c5038d	1.4678677e-06
217	0xb6089532	-2.0352422e-06
218	0xb6fb191e	-7.483307e-06
219	0xb5463c70	-7.3848696e-07
220	0x3691cbbe	4.3450555e-06
221	0x371b3399	9.2507335e-06
222	0xb78f9ec2	-1.7120856e-05
223	0x3801e01f	3.0964726e-05
224	0xb7062669	-7.9959655e-06
225	0x3703c797	7.854679e-06
226	0xb81862d7	-3.6331676e-05
227	0x37dbd435	2.6205651e-05
228	0x37df4cc1	2.6619413e-05
229	0x36c92604	5.9946924e-06
230	0xb6721e38	-3.60784e-06
231	0x353eb77d	7.1047526e-07
232	0xb7510a51	-1.2459773e-05
233	0x380d13d8	3.36355e-05
234	0x370c6956	8.369176e-06
235	0x37c12b21	2.3027476e-05
236	0x366dede9	3.5454234e-06
237	0xb761d77a	-1.3461215e-05
238	0xb58341ff	-9.779468e-07
239	0x372db62b	1.0354018e-05
240	0x3924da33	0.00015721544
241	0x385533aa	5.0831273e-05
242	0x377c775d	1.5048162e-05
243	0xb8e9e139	-0.00011152257
244	0x383e6345	4.5391982e-05
245	0x385aa4cd	5.2128733e-05
246	0x391dbafe	0.00015042347
247	0xb882a14b	-6.228926e-05
248	0x3786c335	1.6064945e-05
249	0x38a5314b	7.876995e-05
250	0x38c9b834	9.6187374e-05
251	0xb8cc718b	-9.748627e-05
252	0xb884e63c	-6.337135e-05
253	0xb9084a1a	-0.00012997576
254	0x38a44d51	7.834531e-05
255	0xb6f16f2e	-7.1953027e-06

exp_avg_sq f4 [20, 20]
0	0x38c43efe	9.3577415e-05
1	0x350f41ee	5.336759e-07
2	0x37896cfe	1.6382426e-05
3	0x376d89fb	1.4158427e-05
4	0x3719affc	9.160485e-06
5	0x34b23dda	3.3200087e-07
6	0x3711fd68	8.701674e-06
7	0x369e5ddb	4.719693e-06
8	0x3778dcbe	1.4833347e-05
9	0x3552b9e2	7.850159e-07
10	0x36e679db	6.86872e-06
11	0x382fe219	4.193382e-05
12	0x37dac25c	2.607813e-05
13	0x370e4976	8.4809635e-06
14	0x35e0b296	1.6741276e-06
15	0x358ac85b	1.0340112e-06
16	0x351161c9	5.4159005e-07
17	0x35de4af3	1.6562102e-06
18	0x360a6512	2.0622433e-06
19	0x3619bdc9	2.2909246e-06
20	0x373bd400	1.1195429e-05
21	0x36b39c7b	5.3528324e-06
22	0x33c7f603	9.311409e-08
23	0x35bb0877	1.3935049e-06
24	0x33d1e8e7	9.7746856e-08
25	0x36bf2b36	5.697274e-06
26	0x346196aa	2.1009569e-07
27	0x362c270e	2.565273e-06
28	0x37b14cc0	2.1135784e-05
29	0x370b3254	8.296764e-06
30	0x3672638c	3.6118754e-06
31	0x35d50039	1.5869801e-06
32	0x37bbcce9	2.2387556e-05
33	0x34c91bb2	3.7459318e-07
34	0x370f3586	8.535926e-06
35	0x36d3caec	6.3119132e-06
36	0x3544557a	7.3140075e-07
37	0x36c6db7e	5.926412e-06
38	0x362754c1	2.4934272e-06
39	0x36975e37	4.5111187e-06
40	0x3a48baeb	0.00076572475
41	0x372db740	1.035427e-05
42	0x391cc0e1	0.00014949172
43	0x3905c017	0.00012755427
44	0x38b5e277	8.672935e-05
45	0x36dabdeb	6.5190156e-06
46	0x38975cca	7.2175244e-05
47	0x38264f51	3.9651353e-05
48	0x38ef55f9	0.00011412422
49	0x376336fc	1.3543056e-05
50	0x3891cf83	6.952791e-05
51	0x39cb602f	0.0003879084
52	0x395bb4de	0.00020952846
53	0x38980d91	7.250452e-05
54	0x37cfa31f	2.4752282e-05
55	0x371cbdd8	9.342526e-06
56	0x36852477	3.967954e-06
57	0x37c2ee6e	2.323763e-05
58	0x37bf6db3	2.2820057e-05
59	0x37ece9f6	2.8242339e-05
60	0x379570ec	1.7814767e-05
61	0x365211a2	3.1302702e-06
62	0x35895026	1.0230622e-06
63	0x36dae95d	6.5240733e-06
64	0x35af1da5	1.3047144e-06
65	0x363f4b9b	2.8505226e-06
66	0x37332c2b	1.0679515e-05
67	0x363c8a51	2.8094694e-06
68	0x36cdadf0	6.129725e-06
69	0x36ac53be	5.1357483e-06
70	0x36c5f488	5.8995247e-06
71	0x37018635	7.720247e-06
72	0x36b05558	5.255144e-06
73	0x3708139f	8.1108e-06
74	0x36c0fb2b	5.7512857e-06
75	0x3626dc1b	2.4864046e-06
76	0x35111457	5.404631e-07
77	0x367b4930	3.7444515e-06
78	0x364b626b	3.0306644e-06
79	0x365ed59a	3.320491e-06
80	0x38d7b5dc	0.00010285873
81	0x37599e7c	1.2971108e-05
82	0x3690c8e2	4.3149203e-06
83	0x37491594	1.1985558e-05
84	0x36b36f91	5.3476037e-06
85	0x373ec866	1.1371541e-05
86	0x37d20dba	2.5040343e-05
87	0x3592ec10	1.0946551e-06
88	0x373028c6	1.0499911e-05
89	0x37b72c20	2.1835847e-05
90	0x37dff9e0	2.6700029e-05
91	0x382df230	4.147197e-05
92	0x377f0b54	1.5201822e-05
93	0x378d2e27	1.6830001e-05
94	0x37d35579	2.5192961e-05
95	0x364c8f1a	3.0481665e-06
96	0x35fdf994	1.8922606e-06
97	0x3782595b	1.5538817e-05
98	0x376168de	1.3435461e-05
99	0x37750e22	1.46064285e-05
100	0x383c9f82	4.4971246e-05
101	0x3515e9fb	5.584731e-07
102	0x36294aae	2.5226432e-06
103	0x37c66381	2.3649774e-05
104	0x36cf8662	6.184725e-06
105	0x34cdc820	3.8329836e-07
106	0x37ead5d2	2.7994542e-05
107	0x3722aa90	9.695665e-06
108	0x36f6f16a	7.3594756e-06
109	0x35ea1415	1.7440203e-06
110	0x370a5ebf	8.247501e-06
111	0x37b3f78b	2.1453734e-05
112	0x36bdeda4	5.660304e-06
113	0x37c52451	2.3501141e-05
114	0x3610dff0	2.158802e-06
115	0x361af6d7	2.3091468e-06
116	0x34f5b934	4.576956e-07
117	0x352a981a	6.355127e-07
118	0x365250d5	3.133949e-06
119	0x359b38b8	1.1564907e-06
120	0x36fc9850	7.5279168e-06
121	0x37d5d7e8	2.5492118e-05
122	0x37ad0f98	2.0630468e-05
123	0x37011dae	7.6959095e-06
124	0x3591093a	1.0806027e-06
125	0x380f4997	3.4162393e-05
126	0x382afdf2	4.0767663e-05
127	0x36b0c7bb	5.2684604e-06
128	0x38f22cb3	0.00011547785
129	0x38611ce0	5.3671072e-05
130	0x37cbc9e0	2.4293491e-05
131	0x347e1674	2.3663762e-07
132	0x3952c1fa	0.00020099423
133	0x37bd91e6	2.2598495e-05
134	0x383bcf8b	4.4777564e-05
135	0x3797fd4f	1.8118559e-05
136	0x3747e350	1.191425e-05
137	0x37a4e9e2	1.9659234e-05
138	0x3794ad54	1.7723687e-05
139	0x377f51d7	1.5218239e-05
140	0x38f12784	0.00011499136
141	0x37061626	7.992179e-06
142	0x379204dc	1.740682e-05
143	0x36a5615d	4.9287178e-06
144	0x36aae62a	5.0931894e-06
145	0x36ac907d	5.14282e-06
146	0x36e71c56	6.887635e-06
147	0x35bdd005	1.4142139e-06
148	0x3673c8d4	3.632672e-06
149	0x37239240	9.749609e-06
150	0x377d9339	1.5114253e-05
151	0x383c0d12	4.4834866e-05
152	0x35241df1	6.113833e-07
153	0x36ac0799	5.126884e-06
154	0x3771d27b	1.4413726e-05
155	0x36947847	4.424746e-06
156	0x347cfba8	2.3560881e-07
157	0x375b1134	1.3057423e-05
158	0x36e5cdc2	6.848685e-06
159	0x3748383d	1.1934023e-05
160	0x381ed8e4	3.787213e-05
161	0x35703b48	8.949323e-07
162	0x363f9e9b	2.8553538e-06
163	0x3806e2d2	3.2159332e-05
164	0x37149d9e	8.8581855e-06
165	0x35514a64	7.796682e-07
166	0x38022443	3.1028187e-05
167	0x377b48e0	1.4977733e-05
168	0x37a41415	1.9559675e-05
169	0x359f4bf7	1.1868532e-06
170	0x36efda13	7.1481422e-06
171	0x37d14763	2.4947984e-05
172	0x3771634b	1.4387838e-05
173	0x37ea8871	2.795851e-05
174	0x35f2530d	1.8054576e-06
175	0x36da4add	6.5056215e-06
176	0x330a2c2b	3.21708e-08
177	0x35b627bf	1.3571624e-06
178	0x36222c05	2.4165504e-06
179	0x35bf756c	1.4264783e-06
180	0x36998bb2	4.576018e-06
181	0x35a8bdf4	1.2572259e-06
182	0x35abc289	1.279711e-06
183	0x355727c3	8.01516e-07
184	0x34e4c72a	4.261322e-07
185	0x35b793bc	1.3677559e-06
186	0x33d640a5	9.97691e-08
187	0x357242bc	9.0249137e-07
188	0x36c7b526	5.9517506e-06
189	0x35fd2f6f	1.8863774e-06
190	0x3547a6fa	7.437626e-07
191	0x35f988d1	1.8591765e-06
192	0x36edd309	7.087718e-06
193	0x3483a742	2.4522348e-07
194	0x3601dd73	1.9351398e-06
195	0x35e982c8	1.7397915e-06
196	0x34695b4a	2.1733027e-07
197	0x35c561e5	1.4706135e-06
198	0x35070d63	5.03109e-07
199	0x35957f5d	1.1138433e-06
200	0x38399fb5	4.4256176e-05
201	0x35e26f57	1.6870716e-06
202	0x375c914e	1.3146853e-05
203	0x378dbbaa	1.6895898e-05
204	0x37110b16	8.645255e-06
205	0x3682f7e0	3.9031584e-06
206	0x3706cfa3	8.035367e-06
207	0x3715c06e	8.925896e-06
208	0x383fec9e	4.5758316e-05
209	0x368a9c42	4.1309113e-06
210	0x35fb7913	1.8736195e-06
211	0x37d50acd	2.5396608e-05
212	0x3889119b	6.535948e-05
213	0x3712caa3	8.749458e-06
214	0x360e9937	2.1248832e-06
215	0x36eab846	6.9951957e-06
216	0x35df0b4d	1.6618084e-06
217	0x351a2669	5.7425365e-07
218	0x3526d3ee	6.214822e-07
219	0x3490ae82	2.694906e-07
220	0x3804c035	3.165026e-05
221	0x34d8ade9	4.0359672e-07
222	0x3657b714	3.2144062e-06
223	0x381daac7	3.7590766e-05
224	0x37091ec7	8.173002e-06
225	0x34cdd089	3.8335955e-07
226	0x38247ce5	3.9216964e-05
227	0x37a14bf4	1.9228064e-05
228	0x37bed09e	2.274691e-05
229	0x3432d59f	1.6655257e-07
230	0x36b986a2	5.529103e-06
231	0x37a63e8f	1.9817873e-05
232	0x3765e89a	1.370362e-05
233	0x38129686	3.49493e-05
234	0x350b4c62	5.1892687e-07
235	0x371a07af	9.180904e-06
236	0x34171bdd	1.4073107e-07
237	0x358156af	9.636477e-07
238	0x35da8e2d	1.6283644e-06
239	0x353f8040	7.1339673e-07
240	0x3a396244	0.00070718327
241	0x38028779	3.1120584e-05
242	0x395b19fe	0.0002089515
243	0x3894a998	7.088779e-05
244	0x38249649	3.924061e-05
245	0x37acd9ae	2.0605363e-05
246	0x391cfbbd	0.00014971099
247	0x37e253b4	2.6980277e-05
248	0x368d9254	4.2191623e-06
249	0x383db1ab	4.5226578e-05
250	0x38aaf05a	8.151001e-05
251	0x399b3149	0.00029600624
252	0x38c31e19	9.303931e-05
253	0x38e2c4e1	0.00010813191
254	0x388109ef	6.1530496e-05
255	0x3786b50f	1.6058357e-05

exp_avg f4 [20]
0	0x378a565f	1.6491102e-05
1	0x38278712	3.9941697e-05
2	0x37d3fe7e	2.5271667e-05
3	0x3865e5bd	5.4811815e-05
4	0xb8d4b1b1	-0.00010142045
5	0xb8e52ab9	-0.00010927529
6	0x38a17d85	7.700458e-05
7	0x3885cf41	6.380538e-05
8	0xb8c316f1	-9.302598e-05
9	0x3853cffa	5.0500013e-05
10	0xb7d26588	-2.508123e-05
11	0xb9176df2	-0.0001444144
12	0x39848f29	0.00025283665
13	0xb8565e3b	-5.1109335e-05
14	0x388cc583	6.71251e-05
15	0x37600244	1.3351968e-05
16	0x388b78f2	6.650564e-05
17	0xb82ab65d	-4.0700997e-05
18	0x3843de51	4.669867e-05
19	0x3915f93a	0.00014302591

exp_avg_sq f4 [20]
0	0x39eb2db3	0.0004485674
1	0x36bb07bd	5.573935e-06
2	0x3b7f4b3b	0.0038954753
3	0x385fad5b	5.3328793e-05
4	0x3896f59e	7.198307e-05
5	0x38a41744	7.824463e-05
6	0x3a8cbd7e	0.0010737625
7	0x3a13fe99	0.0005645543
8	0x382119a5	3.8409275e-05
9	0x38381c84	4.3895576e-05
10	0x39bf89e9	0.0003653311
11	0x39167fbb	0.00014352698
12	0x3c084b42	0.008318724
13	0x3989cadb	0.00026281815
14	0x3a19be95	0.0005864886
15	0x39c8b546	0.00038282032
16	0x37cb940d	2.4268427e-05
17	0x37d5f581	2.55059e-05
18	0x386ca6d2	5.642215e-05
19	0x39208089	0.00015306672
