modelos/heat_10x1-20000.pt (torch, 5894 bytes, 9 tensors)

linears.0.weight f4 [10, 2]
0	0x3d9187fe	0.071060166
1	0xc0d2a832	-6.5830317
2	0x3f95835b	1.1680712
3	0xc0d7d4ff	-6.7447505
4	0xbfcd6498	-1.6046324
5	0x3f99aa3e	1.2005079
6	0x3f8968b4	1.0735078
7	0xbfe6007d	-1.7968899
8	0x3f9c7017	1.2221707
9	0xbd10e11c	-0.03537093
10	0x40416df8	3.022337
11	0x40610cad	3.5163987
12	0xbf88a2c0	-1.0674667
13	0xbf0dddcf	-0.5541658
14	0xbfae789e	-1.363056
15	0xc0bbe178	-5.871273
16	0xbf774dd7	-0.9660315
17	0xbf989454	-1.1920266
18	0x3f3aa667	0.7291016
19	0xc01a8923	-2.4146202

linears.0.bias f4 [10]
0	0xbf79d08c	-0.9758384
1	0xbff32e92	-1.8998587
2	0x3fb0e98c	1.3821273
3	0xbef46231	-0.47731164
4	0xbe719c16	-0.23594698
5	0x3fdcfbec	1.726438
6	0x3f34bfc8	0.70605135
7	0xbf5b4f03	-0.8566744
8	0x3f9b69a1	1.214161
9	0x3e2d1cbc	0.16905493

linears.1.weight f4 [1, 10]
0	0x4094ee38	4.6540794
1	0xc03c6f51	-2.9442942
2	0x3fa33956	1.2751873
3	0x404bc7dd	3.1840737
4	0x4003dca4	2.0603418
5	0xbff0b4fd	-1.8805233
6	0x4094e06b	4.652395
7	0xc0753240	-3.831192
8	0xc0196a6f	-2.3971212
9	0xbfc5664d	-1.5421845

exp_avg f4 [10, 2]
0	0x354a5c8f	7.5385555e-07
1	0x383e4f5e	4.5373446e-05
2	0x38e17cbc	0.0001075207
3	0x37331ede	1.0676418e-05
4	0xb750a734	-1.2436696e-05
5	0xb4e92f9d	-4.3434275e-07
6	0x37c50b82	2.3489589e-05
7	0x37694ed0	1.3906232e-05
8	0x37e820e1	2.7671866e-05
9	0xb88e6dd6	-6.791546e-05
10	0x35f61ef7	1.833744e-06
11	0xb6066003	-2.0023442e-06
12	0xb8971224	-7.20362e-05
13	0x380a75f8	3.301163e-05
14	0xb65a8068	-3.2559274e-06
15	0x366e2ac5	3.5489659e-06
16	0xb6b37f33	-5.3494236e-06
17	0xb8746c49	-5.827498e-05
18	0xb7bfce05	-2.286491e-05
19	0x371ffdd8	9.536241e-06

exp_avg_sq f4 [10, 2]
0	0x38cdb83e	9.8094795e-05
1	0x35a1b411	1.2047841e-06
2	0x38bd59e6	9.028967e-05
3	0x3405438c	1.2411164e-07
4	0x377ab7d3	1.4943961e-05
5	0x365701ec	3.2038615e-06
6	0x38aaa781	8.137432e-05
7	0x3809000d	3.2663393e-05
8	0x38b557fb	8.64714e-05
9	0x389aa46b	7.3739175e-05
10	0x32a5ab74	1.9286496e-08
11	0x31cacafb	5.90205e-09
12	0x398baf56	0.0002664278
13	0x39e1080f	0.00042921348
14	0x35084784	5.0768017e-07
15	0x338e90e4	6.638746e-08
16	0x3716516b	8.959653e-06
17	0x38c3631a	9.316784e-05
18	0x37b6b41a	2.1779957e-05
19	0x36dc9398	6.573693e-06

exp_avg f4 [10]
0	0xb7fd1518	-3.0169773e-05
1	0xb8ebe50a	-0.00011248335
2	0x37e9d5a0	2.7875241e-05
3	0xb70aa9e9	-8.265001e-06
4	0x36a37f67	4.87261e-06
5	0x3552d030	7.853405e-07
6	0xb82b0175	-4.0770934e-05
7	0x37abed2b	2.0495228e-05
8	0x3901c100	0.00012374297
9	0x36f77c73	7.3756614e-06

exp_avg_sq f4 [10]
0	0x398a0965	0.0002632841
1	0x38c578a0	9.41616e-05
2	0x37806c67	1.5309268e-05
3	0x39073062	0.00012892627
4	0x38d0b4f2	9.9519166e-05
5	0x358e85e3	1.0618791e-06
6	0x3a4b960d	0.0007766195
7	0x387ab8e8	5.9776852e-05
8	0x391b4aab	0.00014809768
9	0x37d9ff3e	2.5987272e-05

exp_avg f4 [1, 10]
0	0xb82aa0f0	-4.0681043e-05
1	0x3937e5b2	0.00017537808
2	0xb8b36682	-8.554479e-05
3	0xb8e9696c	-0.00011129942
4	0xb8c6e47f	-9.4839364e-05
5	0x389bec03	7.4349366e-05
6	0xb93fd0b8	-0.00018292933
7	0x39642f30	0.00021761353
8	0x38e79b1d	0.000110438305
9	0x386c8600	5.6391582e-05

exp_avg_sq f4 [1, 10]
0	0x37a34c6e	1.9466705e-05
1	0x379efccd	1.8952787e-05
2	0x381235b1	3.4859117e-05
3	0x37b6740a	2.1750126e-05
4	0x36d94677	6.475307e-06
5	0x36cb9690	6.067399e-06
6	0x3654bb82	3.1699606e-06
7	0x3742b6a4	1.1605825e-05
8	0x361da43c	2.349042e-06
9	0x37acb71f	2.058927e-05
