modelos/sir-10000.pt (torch, 73854 bytes, 24 tensors)

linears.0.weight f4 [50, 1]
00000000: 2124 313e 703f 10be 56dc eb3d 7af3 85be
00000010: 1e8e 2ebe ab7b 37be e3d8 50bd 285e e4bd
00000020: 26d9 1c3e cc14 5d3e a3f0 4ebe 0abd 8abd
00000030: b1bf 843c f3f2 17bd 6100 083a 0b93 11be
00000040: 953d 8cbe 113c 78be 1024 cbbd dc32 43be
00000050: 1763 f3bd e4f1 b1bd a9dd 64be 69cd d9bd
00000060: a83b 293e a4ad bb3d 95ad f5bd 4a43 023d
00000070: 4398 1a3e 690c a23d 21a8 cebd 3bcf bdbd
00000080: c079 7ebe de50 253f b32e 35be 707f 50bd
00000090: 11b6 a33e deb6 ca3d a9c3 0cbe cda4 46be
000000a0: 4965 403e e251 f5bd ce50 6d3e d8e6 b9bd
000000b0: ea74 0b3e bc00 03bd 68de 49be a1b3 163d
000000c0: bf55 473d 5459 f23d
0.17298938 -0.140867 0.11516635 -0.2616232 -0.17046401 -0.1791827 -0.05098809 -0.111507714
0.1531721 0.21589965 -0.20208983 -0.067743376 0.016204687 -0.03709693 0.0005188045 -0.14216249
-0.27390733 -0.24241664 -0.09918988 -0.1906237 -0.11884134 -0.08688715 -0.22350182 -0.10634882
0.16526663 0.09163979 -0.11995999 0.031802453 0.15097146 0.07912523 -0.10090662 -0.09268042
-0.24851131 0.6457652 -0.17693596 -0.050902784 0.31974843 0.098981604 -0.13746513 -0.19398804
0.18788637 -0.119785085 0.23175356 -0.09077233 0.13618818 -0.031983122 -0.19713748 0.0367924
0.04866576 0.11833444

linears.0.bias f4 [50]
00000000: 3f53 1d3d a646 173d fe08 32bd 3918 26bd
00000010: 87e1 14bd 1fdd de3c 503f 3c3d 4433 0f3d
00000020: 3f15 1dbd 9312 6f3d 7162 d73c 8a27 2a3d
00000030: 566e 5f3b 0a45 bebc 0de8 23bd 9d37 583d
00000040: 8ec4 acbc bf1c 0f3d fd87 33bd 2962 153d
00000050: 43a0 2d3d df42 22bd 3e98 0fbd a81b 0dbd
00000060: 9aae 0fbd 6e3c 13bd 6518 113d 2d8c df3c
00000070: 31e4 143d 8a00 753d 29ad 9abb 6f23 2e3c
00000080: 9079 03bd 9738 bf3d 9e9c 1dbd e0f3 eabc
00000090: 06b4 8ebc ccb9 27bd 2186 2ebd ed53 3abd
000000a0: 6b62 2ebd 8513 223d 637d 053d 810b 09bd
000000b0: 2092 06bd 11e2 b93c 3442 21bd 126f 383d
000000c0: c57d 07bc cbe5 243d
0.038409468 0.03693261 -0.043465607 -0.040550444 -0.036347892 0.027205048 0.045958817 0.034961
-0.03835034 0.058367323 0.026292058 0.041541614 0.0034092865 -0.02322628 -0.040016223 0.052787412
-0.021089818 0.034939524 -0.04383086 0.036470566 0.042389166 -0.039614554 -0.0350573 -0.034450203
-0.035078622 -0.035946302 0.035423655 0.02728852 0.036350433 0.059814967 -0.0047203493 0.010628565
-0.032098353 0.093369655 -0.03847944 -0.028680742 -0.017419826 -0.040948674 -0.042608384 -0.045490194
-0.042574327 0.039569397 0.03259028 -0.033458237 -0.0328542 0.022690805 -0.039369777 0.0450278
-0.008269732 0.04025821

linears.1.weight f4 [50, 50]
00000000: 3c42 52be 1545 5f3e c4e8 b23b bd57 653e
00000010: 58e8 393e 51f5 4c3e 7ae3 5bbe 1ec2 1b3e
00000020: e523 643e 7b68 0cbe 7908 56bc 6d4b dabd
00000030: 0d26 333e 2975 0c3e ce68 41bd 109c 523d
00000040: 73ab 2bbc 00a1 ad3d cffa 6c3e 727a 2b3d
00000050: 09e4 623e 16a7 043e 6dfc 06bd 1a37 263e
00000060: 41cb 263e d389 39be d89c ec3c 8b3b 74be
00000070: 2a57 bd3d 0683 d1bd 8987 e63d 60e8 63bd
00000080: 62fc 17bd f0c5 a6ba 02d4 3fbe 24cc 2bbe
00000090: 9791 493e f9a9 1e3e 247e 0a3e 6a72 093e
000000a0: b708 f0bc 9baf 0a3d a149 33be fc62 65be
000000b0: 02c0 4fbe 2e1c 60be bf48 003e 16ab 0cbe
000000c0: f058 05be 5862 123e 0ad9 a43d 0a57 343d
000000d0: 2742 13bd fa29 1fbe 6636 143e d60c 8d3d
000000e0: 839c 233e 2b1b 87bc c9f0 233e a9ca 5e3e
000000f0: 3637 023e 00ac 5f3d 9796 e93d 0e47 fbbd
00000100: 4498 493d b7ac 313e b740 03be 56e5 e43d
00000110: f69c 3bbe 858c d03d 05ce 0fbe 8b28 d3bb
00000120: d583 2f3e b98d 1f3e adca 0e3e 3930 233e
00000130: 31bf 253e b59b 013e d473 65be 2311 6a3e
00000140: 6b8a 68be ab52 00bd 6036 3a3d 726a 7ebe
00000150: c261 b9bd f0f5 2bbe 8b62 76be 5c8e 633d
00000160: 07b9 4ebe 31fc 7d3e b48c ae3d 85c8 0abe
00000170: 4e82 563e 5929 a5bd e2bc fbbd 1411 e23b
00000180: 5f09 08be dfa3 82bd 01b4 37be 7768 2abe
00000190: d5f1 f6bd 97e2 36be 3baa 2cbc c1e4 72bd
000001a0: 089c 4ebe a5f2 7c3e 7ec3 553e b679 293e
000001b0: 6b9b cb3d 1511 6e3d a65a 7d3e 71bb 51be
000001c0: f2a7 f7bd cc42 85bd ba21 293e 4e78 42be
000001d0: 0747 a73d 17e7 1a3e 92f3 a53d d23d 143d
000001e0: 3206 41be 33c5 743d 027c 083d 804c 42be
000001f0: 9f7f 893d 6d20 39be 4ba0 d63d 586d b7bb
00000200: 3f0c 3e3d 56d4 30be 20d4 52bd 5c7f 693e
00000210: e593 b4bd 722d ce3d 425d 1fbd e618 1abe
00000220: 396b d2bd cc92 1cbd 4e40 c2bd 6369 47be
00000230: 4102 4b3d bb77 5e3e 2f59 593e 2d87 5cbd
00000240: a3d0 133e 68f5 833d 23ec debc 1870 243e
00000250: 9a65 50be fc8d 1b3e 689e febd 8928 a43d
00000260: 718b 25be 683b 643e b4a5 193e 6f9e efbc
00000270: 243a 07be b54b 113d 9f3b 1cbd dbc6 8abd
00000280: 55e8 153e c265 673d 262f d13d 382b 26be
00000290: 8e3c 9e3d 2e2f a43d 6ae0 be3d ff16 643e
000002a0: 6390 5dbe 564c 0bbe 68e8 733d 076a 843d
000002b0: 4602 2bbe 69ff 03be 3cd1 c0bd eda0 70be
000002c0: 5c94 ed3d 4e2e cd3d 6e48 273e 1cfa 24be
000002d0: ecba 393e 7cbb 7a3d a546 9cbd ed30 05be
000002e0: 36b2 6e3d ca34 503d 2c81 efbd 7e86 5dbd
000002f0: 3dda 4cbe 2504 e93d 8e39 5f3e 99a8 40be
00000300: adab 733e 11ea 4a3e c65e f33d 9926 713d
00000310: d303 333d 73c6 5fbe 8442 393d 53e3 043e
00000320: cf72 103d 62a8 fbbd cb0e cdbd c27b a5bd
00000330: 6a94 aebb d098 87bd 67ee 003d 7530 2bbe
00000340: 94f4 f8bd bb95 83bd a57f f7bd cded 22bd
00000350: 7e10 34bc 5e96 74bd a3c0 583e a7e9 d4bd
00000360: b743 c03c 883a d33c 7f0e 703e 40d3 07bb
00000370: 130c 763d 289a 95bd a509 803d 33d8 c3bd
00000380: 18f6 37be c026 653e 4e34 773e 9122 b33c
00000390: 9590 c43d b48f ab3c 59e3 1d3e 13a3 553e
000003a0: 977e 5dbe 35e6 b63d 1e5d 133e c449 0cbd
000003b0: dd8a 2abe 4562 343e 21f2 443b 879a 413e
000003c0: 3249 093d c877 363e 4a26 3e3c 94f3 61be
000003d0: d4a4 16be 9747 dfbd fff4 b83d c06f fabb
000003e0: 6014 843d cd62 063e c52e 423e 5d9c 4a3e
000003f0: 171c 713e a469 5dbe 3cfe 04be a2f6 a93b
-0.20533079 0.21803696 0.0054598767 0.22396751 0.18155038 0.20015456 -0.21473494 0.15210769
0.22279318 -0.13711731 -0.0130635435 -0.106589176 0.17494984 0.13716568 -0.04721909 0.051418364
-0.010477888 0.08477974 0.23142551 0.04186482 0.22157301 0.12954363 -0.032955576 0.16231957
0.16288473 -0.18118982 0.028883383 -0.23850839 0.09245141 -0.10230069 0.1125632 -0.055641532
-0.037105925 -0.0012723785 -0.18733218 -0.16777092 0.19684444 0.15494527 0.13524681 0.13422552
-0.02930103 0.033858877 -0.17508556 -0.22401041 -0.20288089 -0.2188575 0.1252775 -0.13737139
-0.13022208 0.14295328 0.080492094 0.04402832 -0.03595176 -0.15543357 0.14473876 0.06887214
0.15977673 -0.016492447 0.16009821 0.21756996 0.12716374 0.05460739 0.11405676 -0.12269412
0.049217477 0.17351042 -0.12817656 0.11176555 -0.18321595 0.10183052 -0.14043434 -0.006444042
0.17140134 0.15581407 0.13944502 0.15936364 0.16186215 0.12657054 -0.22407466 0.228581
-0.22709052 -0.03132884 0.045462012 -0.24845293 -0.09051849 -0.16793036 -0.24061029 0.055555686
-0.2018777 0.24803235 0.08522931 -0.13553055 0.20948145 -0.08064527 -0.12291886 0.0068990085
-0.13284825 -0.06378912 -0.1793976 -0.16641413 -0.120578445 -0.17859875 -0.010538633 -0.059300188
-0.20176709 0.24701937 0.20875356 0.16550335 0.09941753 0.05812176 0.24741611 -0.2048166
-0.1209258 -0.06506881 0.16516772 -0.18991205 0.08167844 0.15127216 0.08103098 0.03619177
-0.1885002 0.059758376 0.033321388 -0.18974495 0.06713795 -0.18078776 0.10479792 -0.0055977516
0.046398398 -0.172685 -0.05147183 0.2280249 -0.08817271 0.10067262 -0.038907297 -0.1504856
-0.10274357 -0.038225934 -0.094849214 -0.19473796 0.049562696 0.21725361 0.21225427 -0.05383985
0.14435057 0.06443292 -0.027212208 0.16058385 -0.20351258 0.15190881 -0.12432557 0.08015544
-0.16166474 0.22288287 0.15004617 -0.029250352 -0.13205773 0.03547259 -0.038142797 -0.0677621
0.14639409 0.05649353 0.10214071 -0.16227424 0.07726394 0.08016811 0.09320147 0.22274397
-0.2163711 -0.13603339 0.05954781 0.064655356 -0.16700086 -0.128904 -0.09414908 -0.23498888
0.11600563 0.100185975 0.16336223 -0.16111034 0.18137711 0.061213955 -0.07630662 -0.13006945
0.058275424 0.050831594 -0.116945595 -0.05408334 -0.20005126 0.11377744 0.21799299 -0.18814315
0.23795958 0.19815852 0.11883311 0.0588747 0.04370482 -0.21853046 0.04522945 0.12977342
0.03526574 -0.12287976 -0.10012587 -0.080802456 -0.005327751 -0.066209435 0.03147736 -0.16717704
-0.121560246 -0.06425043 -0.12084893 -0.039777566 -0.01099026 -0.059713714 0.21167235 -0.10396128
0.023469789 0.025784746 0.2344303 -0.002072528 0.06007011 -0.073047936 0.062518395 -0.09562721
-0.17964971 0.22378063 0.24141046 0.021867068 0.09597889 0.020942546 0.15418757 0.20862989
-0.21630321 0.08930627 0.1439099 -0.034250036 -0.16654535 0.17615612 0.0030051547 0.18906604
0.03351707 0.1781913 0.0116058085 -0.22065574 -0.14711314 -0.109023266 0.09031104 -0.007642716
0.06449199 0.13123627 0.18963154 0.1978621 0.23545872 -0.2162233 -0.12987608 0.0051868716

linears.1.bias f4 [50]
00000000: c95a 4ebc 466a 3cbb 12e0 c83c 7042 073d
00000010: c174 3ebc 6b27 803a f96c 273d ed0d e03c
00000020: 3564 feba 7f75 7d3c b277 8f3c 85b2 023d
00000030: 5114 2d39 8fe6 263d 47c1 213d 6dbb cfbc
00000040: 7783 8dbc 7ab9 263c 3fa2 1cba 7c79 edbc
00000050: b39c 6e3c f2a4 2a3d f6b0 a23c 7577 223d
00000060: c0fe 26bd d4c7 a73c 1d45 3e3d 778a 2cbd
00000070: 667e 85bb 60c1 fabc adbc f9bc b205 7f3c
00000080: 3490 d9bc 28f8 1a3d 8a5c 04bd 8b4c 063d
00000090: 0f53 aebb 3518 d5bc 956c 123d 1c09 cebc
000000a0: 01d9 efbc b5a1 bdbc 371f 1cbd 5433 bbbb
000000b0: 708b b4bc 59d8 4bbc 185e 133d 93e6 c3bc
000000c0: 4d63 13bd c98f 90bc
-0.012594887 -0.0028749867 0.024520908 0.033022344 -0.011624516 0.0009777372 0.04087541 0.02735039
-0.0019408526 0.015469908 0.01751313 0.03190853 0.00016506134 0.04074722 0.039490964 -0.025357926
-0.017274601 0.010176057 -0.0005975104 -0.028988592 0.014563727 0.04166121 0.019859772 0.039664704
-0.040770292 0.020481028 0.04645263 -0.042124238 -0.0040739058 -0.030609787 -0.030485475 0.015565323
-0.02655802 0.037834316 -0.032314815 0.03278784 -0.00531996 -0.02601252 0.035748083 -0.025150828
-0.02927828 -0.023148397 -0.038115706 -0.005712906 -0.022039145 -0.012441718 0.035978407 -0.023913657
-0.035983372 -0.017646687

linears.2.weight f4 [50, 50]
00000000: 5d2a 79be 83be bbbd 7698 f63d 1412 9fbc
00000010: d529 3c3e 0d85 76be ed79 53be 7d75 82bc
00000020: 092c 8b3b 5741 13bd 6175 52be 001d 853e
00000030: c2dc 143d 017e 3cbe a22b 29be dc5d 3abe
00000040: f9e5 7c3e b862 063e 6565 09be d43e 41be
00000050: efd9 fb3d d05e 2e3e 76bd b4bc cd04 5b3e
00000060: 7446 513d 60aa 393e c733 403c e47e 5dbd
00000070: 825d 6f3e 09f5 103e 145d 78be a975 ae3c
00000080: 002b 2d3e ed08 f5bd c01a e4bb 8f0d bb3d
00000090: 0297 82be b042 2c3e 4b73 1d3c 2727 46be
000000a0: 6aaf d03d aef3 48be b85c 83bd c6be 35bc
000000b0: 9cdd 7b3e 63b1 a2bd d854 a8bd fecd 23be
000000c0: ae49 c0bd 275d 83be dc17 7bbc c424 bebb
000000d0: d970 653e 53e5 f23d b55b 393e 3547 abbd
000000e0: 2d6c 133d a7f8 ac3d 3abb 693e 7e52 563d
000000f0: ba13 22be ad72 47be d2d8 4ebe dc84 6bbe
00000100: 2fd3 d1bd 84cc 36be e50b 40be b3a4 7cbe
00000110: b1bf a4bd dbca 2fbe 2023 54bc 13c2 dbbd
00000120: f508 273e 44ae 73be a019 1abe 7ca7 78bb
00000130: 623e 76be 2c96 123e b210 e03d d852 4f3e
00000140: 54e0 62bd 6f21 703e 1c32 bcbd 5d81 423e
00000150: 7c74 273d 57c1 00bc 72c4 2dbe 53e4 c63c
00000160: 3db2 2f3c 8db1 0e3e 0a19 5f3e 1eb0 cc3d
00000170: e9b2 6bbd 960e ca3d 44f4 40be 6c11 6ebd
00000180: 9f03 60be d762 393e c307 11be 9d9d 3f3e
00000190: e905 bb3d 7e44 01be 9ffc 103e 1c64 723e
000001a0: 694a 773e 64f0 3d3d 4815 bebd eb45 113e
000001b0: 2c1f 3b3c 5ee1 653c 978c 64be cd06 753e
000001c0: 6647 a3bd 642f 6dbd b7d0 f6bd 9698 fe3d
000001d0: b493 71bd fca5 443e c622 95bd f8e5 5bbe
000001e0: 25d6 6a3d e759 04bd 6fcc ec3d cf58 b03d
000001f0: bcb6 83bc 92fb 0bbe 2110 183e 3f1f 153e
00000200: 14c5 b43b 0d9e 6c3e 11db 18be b01a 6cbd
00000210: 0aae a6bd 7410 2fbc 93d3 18be 6edf 373e
00000220: 8d53 353e 1736 37bd ec2b 663e 0dff 753e
00000230: af46 16be 8927 0dbe 813e c23c 19c8 573c
00000240: f1f5 88bc 46c9 e7bd 8b73 f6bd b8e0 fa3d
00000250: bb1e 1abe fce8 093c c7b1 c1bc 67ca 283e
00000260: 2213 4fbe 45be 653e 87b9 35bd a38b e4bd
00000270: d213 46be f566 81bd a3c3 4ebe 5b49 5fbe
00000280: 6b1f 5abe b088 373e 1259 d6bd b521 24be
00000290: 0cc9 a43c 0061 04bd c726 823d 2e46 95bd
000002a0: 2a99 193e 5728 15be ad0f 3f3d 0d1b 673e
000002b0: c337 4f3e 4a3c 1c3e a92b 1abe 550a 67be
000002c0: a840 28bd 6065 4bbe 4a81 60be 8848 94bd
000002d0: 6432 1dbe 80fc e93d 0aa3 31bd 57bf 543e
000002e0: 098c e23d 8317 23be 4fa1 a23d 0169 3a3e
000002f0: aed2 a2bd 843a 023e 0791 813e ab15 3e3e
00000300: 09f5 1b3e 3995 42be 1b66 98bd 22ed 88bd
00000310: a942 dbbd f1c8 6c3e 3c3b a83c b366 d63c
00000320: 97ef e3bd 4c6b 253d c181 c0bd b363 673e
00000330: 712f b43d a9a3 193e 1a41 1cbe 1c89 563d
00000340: 26b0 0b3e f1fc 3dbe c11a 16be 10fe 51be
00000350: 576a 353e 6726 4d3d 23c3 b13c d9e7 3b3d
00000360: 84b7 ed3d ab16 023e cbe9 fdbd d429 44be
00000370: 9464 523e 620d 36be 42c5 1d3d 1d1b 8b3c
00000380: 9641 78be 618e c2bd aade bf3d 6368 75bd
00000390: 40d7 7cbe 7921 e33d bd01 e23c 2684 41be
000003a0: 9ef3 54be 19c1 873d c1d9 14bc 0eee 143e
000003b0: a674 03be f2a4 c8bd 2392 b5bc 9f12 ce3d
000003c0: 6313 7fbd a707 733e 1fa4 4bbe ee3a 2f3e
000003d0: 7145 1bbe 981d cebc 8212 6cbe 1ccc ef3c
000003e0: 2137 923d a64c b8bc 7ba8 063e 5827 253e
000003f0: 5747 27be 377f dcbc bcbc e0bd 591c 17be
-0.24332567 -0.091671966 0.12040798 -0.0194178 0.18375333 -0.24074192 -0.2065198 -0.015925163
0.0042471928 -0.035950985 -0.20552589 0.25998688 0.036343344 -0.18407442 -0.16520551 -0.18199867
0.24697103 0.13123596 -0.13417585 -0.18871623 0.12297427 0.17028356 -0.022062998 0.2138855
0.05109258 0.18131399 0.011731095 -0.05407609 0.23375514 0.14155973 -0.24254256 0.02129634
0.16910934 -0.11964593 -0.0069611967 0.091334455 -0.25505835 0.16822314 0.0096100075 -0.19350873
0.101897076 -0.19624206 -0.06414169 -0.011092847 0.24596256 -0.0794399 -0.08219308 -0.15996549
-0.09389053 -0.25657007 -0.015325513 -0.0058027226 0.22406329 0.118601464 0.1810139 -0.08363191
0.035991836 0.08445864 0.22825328 0.052324764 -0.15827838 -0.19477339 -0.20199898 -0.229999
-0.10245358 -0.17851454 -0.18754537 -0.24672203 -0.08044375 -0.17167227 -0.012947828 -0.10730376
0.1631201 -0.23796946 -0.15048838 -0.0037941625 -0.24047235 0.14315099 0.109406844 0.20246446
-0.055389717 0.23450254 -0.09189245 0.1899466 0.040882573 -0.007858596 -0.16969469 0.024278795
0.010723648 0.13934918 0.21786895 0.09994529 -0.05754367 0.09866063 -0.1884318 -0.058122084
-0.21876381 0.1810411 -0.14163117 0.18712468 0.09131987 -0.12623784 0.14158867 0.23671001
0.24149479 0.046371832 -0.09281403 0.14186828 0.011421006 0.0140307825 -0.22319256 0.23928376
-0.079726025 -0.057906523 -0.12051528 0.12431447 -0.05897875 0.19203943 -0.07282023 -0.21474445
0.05733313 -0.0323123 0.1156243 0.08610689 -0.016078345 -0.13670185 0.14849903 0.145627
0.0055166576 0.23107167 -0.14927317 -0.05764264 -0.08138664 -0.010685075 -0.14924459 0.17956325
0.17707653 -0.04472932 0.22477692 0.24023075 -0.14675401 -0.13784613 0.023711445 0.013170266
-0.016718837 -0.11317687 -0.12033757 0.12249893 -0.15050785 0.008417364 -0.023644341 0.1648346
-0.20222142 0.22435863 -0.044366386 -0.11159446 -0.19343498 -0.063184656 -0.20191817 -0.21805327
-0.21301048 0.17923236 -0.104662076 -0.16028483 0.020115398 -0.03231907 0.063550524 -0.07288776
0.14999834 -0.1456617 0.04664581 0.22568913 0.20236115 0.15257373 -0.15055718 -0.22562535
-0.041077286 -0.1986289 -0.2192432 -0.07240397 -0.15351254 0.11425114 -0.043368377 0.20776115
0.11061866 -0.15926938 0.079409234 0.18204118 -0.0795034 0.12717634 0.2530596 0.18562953
0.15230192 -0.19002236 -0.0744135 -0.066858545 -0.10706074 0.23123528 0.020536058 0.026172018
-0.111296825 0.04038553 -0.093997486 0.22596626 0.08798111 0.15003838 -0.1525921 0.05237685
0.13641414 -0.1855352 -0.14658643 -0.20507073 0.17716347 0.05008545 0.021699494 0.045875404
0.116072685 0.1270396 -0.12398108 -0.19156581 0.2054618 -0.17778543 0.038518198 0.016980702
-0.24243769 -0.09499813 0.09368642 -0.059914004 -0.24691486 0.11090369 0.02758872 -0.18898067
-0.20796058 0.06628627 -0.00908512 0.14543936 -0.12837467 -0.09797086 -0.02216441 0.100621454
-0.062274348 0.23733388 -0.19886826 0.17112324 -0.15163209 -0.025160596 -0.23053935 0.029272132
0.07139421 -0.022497486 0.13150208 0.1612829 -0.16335808 -0.02691613 -0.10973498 -0.14756908

linears.2.bias f4 [50]
00000000: 4379 a23c 6672 83bc dd04 0d3d 333c e7bc
00000010: 33cc 7dbc 1a3c c5bc 3abf 36bd 74c4 8ebb
00000020: fea3 003d 0c26 81bc f027 093d 03e8 8fbc
00000030: cbf5 413c 19c7 d93c cdc5 24bd a9bf e3bc
00000040: 6b2b d43c 0b58 3fbc 3dbc 233d 2775 cf3c
00000050: a735 ad3c b491 093d b08e d23c c7e1 8abb
00000060: 8600 20bd f6eb f4bc d991 b9bc 594e 9fbb
00000070: eaf9 f0bc 1b09 543c d5a4 da3c acbe f2bc
00000080: 7ad6 debc 6151 f63a 9ec3 2c3d 82bb f33c
00000090: f632 f23c e105 b23c 038f 3fbc 2cc8 fcbc
000000a0: 02cf 173d c1c6 f83c c12b 12bd 6f5d fa3b
000000b0: 3e14 4bbc 870c 053d 1845 13bd 33dd b63c
000000c0: c30a 05bd dd62 be3c
0.019833213 -0.01604576 0.034428466 -0.028226947 -0.015490579 -0.02407651 -0.04461596 -0.004356915
0.031406395 -0.015765212 0.033485353 -0.017566686 0.011838387 0.026584195 -0.0402277 -0.027801352
0.02589961 -0.011678706 0.03997444 0.025324417 0.021143747 0.03358622 0.025702804 -0.0042383405
-0.039063 -0.029897671 -0.022652553 -0.0048616347 -0.029416043 0.012941624 0.026689926 -0.029631935
-0.02720188 0.0018792563 0.042178743 0.029752497 0.029565316 0.021731319 -0.0116918115 -0.030857168
0.037062652 0.03036821 -0.03568626 0.0076405327 -0.012394963 0.03248265 -0.035954565 0.022322273
-0.032480966 0.023240501

linears.3.weight f4 [3, 50]
00000000: 8ce0 223e 19af 0cbe 8162 973e 15b7 2dbe
00000010: 7ff0 34be df02 98be 89bb 64bd ef4f a4bd
00000020: d82a 8b3e 2ef5 e8bd e455 8b3e 0104 60be
00000030: 9fc9 093d 0bdb a33e 233f 86be 8a6a 57be
00000040: 1d77 a13e e03e 6fbd da0a 8e3e 2571 843e
00000050: f642 983e f15c 8d3e 45a9 9b3e e6b7 81bd
00000060: c9de 53be ada8 2dbe 33cc 6ebe 8c02 61bd
00000070: fbfa 39be 939e 9e3d f6b5 403e aa1a dabd
00000080: f3e4 b9be 170b eb3b dac4 c23d 1cdc 903e
00000090: fd66 1f3e 0b9b 133e 5d20 b4bd 9464 a2be
000000a0: 6b5d 843e ca43 163d 3e8c 96be ab1a ae3c
000000b0: 0c4d d6bd 7fe5 223e a7ca 2dbe 10f5 253e
000000c0: 6b85 3fbe b828 993e f141 96be 85f8 013e
000000d0: 8345 acbd 440b 113d e60d 6a3e 714f 993e
000000e0: 1ca1 30bc 635e 7f3e dbad f5bd e028 bdbd
000000f0: 1094 293e 0fd6 383e 0e08 2b3e c3d5 33be
00000100: 6b38 623d d225 0abe b1c4 843e 413d 2f3e
00000110: e990 73bd 472d 6c3e 7e60 8bbe ac7a 02be
00000120: 13ef 6f3e 50b5 9a3e c464 773d 3720 babd
00000130: 4335 88be 5e40 97be ab36 5abd e10b 03be
00000140: 33ca 82be 0b28 9fbd a9a2 54be 4d28 073e
00000150: 01ed a8bb 8522 06be f35e b2bd e9ea 0d3e
00000160: bd60 a1be 8ee8 e0bd 7346 94be a27b 75bc
00000170: 69c3 bebd a5ea 523e 06ef 96be 3783 813d
00000180: 5595 abbc 8084 353e fb7d 4bbe 7544 6cbe
00000190: 5a76 543e c433 aa3d b136 e33c 9b0e 493e
000001a0: 25c2 da3d b83e b03d 8d0c b3be e655 903c
000001b0: 6669 223e 73b7 163f c987 52be b540 373d
000001c0: 1e93 663e 8053 d13d 2636 063e a956 c7bd
000001d0: cc76 773e d41a 913e df8e b13d 0a07 cd3d
000001e0: 1332 88bc a184 173e 1383 d7bd d0d8 973c
000001f0: b2e6 313d 3dc9 66be 59a3 3cbe 73b9 1f3e
00000200: d52e b33e c927 9d3e 6260 1f3e b0e3 d4bd
00000210: c070 1ebe 103f 89be 53f4 ab3e cad6 723e
00000220: 7ffb c3bd c990 553d 367c f4ba 21f1 aa3e
00000230: 0be1 313d 6fe3 393d 13da 1a3e 82ff fd3d
00000240: 9012 503b eae8 8fbd 3302 ca3d 5307 dbbd
00000250: 3e45 153e b2bd c3bb
0.1590597 -0.1373867 0.2956734 -0.16964372 -0.17669867 -0.2968969 -0.05584291 -0.080230586
0.27181125 -0.11374889 0.27213967 -0.21876527 0.033639546 0.32003054 -0.26220044 -0.21036735
0.3153619 -0.05840957 0.27742654 0.25867572 0.29738587 0.2760997 0.3040258 -0.06333904
-0.20690455 -0.16958876 -0.23320083 -0.05493407 -0.18162148 0.077450894 0.18819413 -0.10649617
-0.36307487 0.007172953 0.09510203 0.2829293 0.1556663 0.14414613 -0.08795235 -0.3171736
0.25852522 0.036685742 -0.2940387 0.02125295 -0.10463914 0.15907858 -0.16971837 0.16206765
-0.18703239 0.29913878 -0.29347184 0.12692459 -0.08411696 0.035411134 0.22856864 0.2994342
-0.010780599 0.2493835 -0.11996051 -0.09236312 0.16560388 0.18050407 0.16702291 -0.17562012
0.055229586 -0.1349099 0.25931314 0.1711321 -0.05946437 0.23064147 -0.27222055 -0.12742108
0.23431043 0.30216455 0.060398832 -0.09088176 -0.26603135 -0.29541296 -0.05327479 -0.127975
-0.2554489 -0.077713095 -0.20765175 0.13198967 -0.005155206 -0.13099106 -0.087095164 0.13859142
-0.31519118 -0.10981856 -0.28959998 -0.01498309 -0.09314615 0.20597322 -0.29479235 0.06323855
-0.02094523 0.17726326 -0.19872276 -0.2307299 0.20748273 0.08310655 0.02773604 0.19634478
0.106815614 0.08605713 -0.34970513 0.017619085 0.15860519 0.5887367 -0.2055961 0.044739444
0.22517058 0.102210045 0.13106593 -0.09733326 0.24166411 0.2834078 0.086698286 0.10011108
-0.01662544 0.14796688 -0.10523047 0.018536001 0.0434329 -0.22537704 -0.18421687 0.15598087
0.34996668 0.30694416 0.15564111 -0.103949904 -0.15472698 -0.26805925 0.33584842 0.23714748
-0.095694534 0.05214003 -0.001865274 0.33387092 0.04342751 0.045382913 0.15122251 0.1240225
0.0031749345 -0.07026847 0.09863701 -0.10694756 0.14577195 -0.005973541

linears.3.bias f4 [3]
00000000: 1f6a 1c3d 06ad 333b 690e 083d
0.038187142 0.0027416362 0.033216868

exp_avg f4 [50, 1]
00000000: af70 b934 b60c beb5 7199 d1b5 2f91 d735
00000010: a964 01b5 2b75 ccb5 80d6 1735 e38b bbb5
00000020: ed14 a235 338b 8ab5 26ea 07b6 ba3d fa36
00000030: 691d 1eb6 4851 30b6 b14c 0034 99be 9e35
00000040: 2caa 03b6 b5f8 e3b5 215f 1635 d064 a7b5
00000050: a334 0236 c362 3cb4 3d9b 5b35 ac57 c9b6
00000060: 21fe 41b4 9124 65b6 5a98 01b6 6f14 65b6
00000070: 7ee0 f0b5 7b11 43b6 9152 2f36 2aef 49b6
00000080: f1bf 00b4 7272 ed35 213e 4eb4 e872 b92d
00000090: 937b c6b5 667c 7b36 c2ab e034 043d 2835
000000a0: 6cb0 9435 2c9b 0f36 71bd 7735 3c3d a2b5
000000b0: 8189 0736 45fb cfb6 02c6 2435 dc3e 0a36
000000c0: 1c0b a234 2fb6 2b36
3.4540923e-07 -1.4159803e-06 -1.5616371e-06 1.6061002e-06 -4.8202725e-07 -1.5233285e-06 5.656402e-07 -1.3973298e-06
1.2076031e-06 -1.0322314e-06 -2.025286e-06 7.4577665e-06 -2.3560954e-06 -2.6273356e-06 1.1948829e-07 1.1827389e-06
-1.9619574e-06 -1.6985201e-06 5.6017785e-07 -1.247181e-06 1.9402148e-06 -1.7544794e-07 8.180976e-07 -6.000473e-06
-1.8066977e-07 -3.4144944e-06 -1.9311178e-06 -3.4135553e-06 -1.7946729e-06 -2.906744e-06 2.6125092e-06 -3.0090546e-06
-1.1990757e-07 1.7691184e-06 -1.9207847e-07 2.1083094e-11 -1.4788114e-06 3.7474324e-06 4.1848222e-07 6.2673666e-07
1.1078205e-06 2.1398982e-06 9.2290344e-07 -1.2087762e-06 2.0196605e-06 -6.1983324e-06 6.13829e-07 2.0600191e-06
3.0182935e-07 2.558703e-06

exp_avg_sq f4 [50, 1]
00000000: 0ffd ce31 a083 8734 731d 8435 addd 2533
00000010: 67e3 b233 0ebd 7231 cd50 6437 6ea1 a836
00000020: b785 1833 affb 4932 4700 d734 b1cf f535
00000030: 8b05 af38 0a05 a136 814b d437 0063 4233
00000040: 760c 6733 5edd a033 e6bc e734 b7a0 8a34
00000050: 87f1 4434 38ed 3235 12d7 ab32 a576 a036
00000060: edfd 4832 855b d936 86f1 4c35 1f3a 4e36
00000070: 30f6 6035 5e64 5535 5c93 5436 7803 fb32
00000080: 475d 9333 1fa5 fe30 faee 7335 34e4 d137
00000090: 55a2 d833 e6bb f433 3233 7535 03f3 2033
000000a0: 0458 d633 dc32 4b35 4dd2 c334 7ba2 4235
000000b0: 0efc ee35 3842 9837 9f6a d134 c4a6 c337
000000c0: e796 2737 0d3f f032
6.0241585e-09 2.524148e-07 9.843337e-07 3.861867e-08 8.330135e-08 3.53231e-09 1.3608672e-05 5.025583e-06
3.551187e-08 1.1756966e-08 4.0047073e-07 1.8314369e-06 8.345683e-05 4.7987605e-06 2.5307529e-05 4.5259185e-08
5.3795212e-08 7.490847e-08 4.3164545e-07 2.5821438e-07 1.834179e-07 6.6655366e-07 2.0004823e-08 4.7821836e-06
1.1699268e-08 6.4777582e-06 7.6347385e-07 3.0730223e-06 8.380475e-07 7.9494737e-07 3.1676236e-06 2.9221823e-08
6.862188e-08 1.8527863e-09 9.087231e-07 2.5021007e-05 1.0087812e-07 1.1396314e-07 9.134411e-07 3.747392e-08
9.9811615e-08 7.5697403e-07 3.6474594e-07 7.250707e-07 1.7805739e-06 1.8150648e-05 3.900686e-07 2.3323468e-05
9.98911e-06 2.796835e-08

exp_avg f4 [50]
00000000: c532 fc33 ad2a 1335 587e 0c34 6af2 0435
00000010: 68b1 49b5 400f 3734 8ade e1b4 9aa2 44b2
00000020: c44d b834 ba0b 0eb4 7a48 c634 3eac 9135
00000030: bf47 4633 1664 4ab3 03f2 9ab4 6db0 12b4
00000040: 8ce2 e7b5 d046 bb34 9355 1635 41a2 3b34
00000050: f72f d634 9df2 da34 a1d3 86b5 49d1 dab3
00000060: 081b 9534 630a afb2 4fee 2535 8064 4b34
00000070: 50ad 8f35 de03 35b5 04fa a135 567d b034
00000080: 6af4 3eb5 f151 8cb6 b2e7 86b4 c426 fab3
00000090: d128 e3b4 eed3 1435 2059 9a34 87d0 f333
000000a0: b3e9 9434 e849 3835 979a e435 b484 efb4
000000b0: b05c 38b5 630b bbb3 66fd 3fb4 bbf8 0734
000000c0: b46b 9835 5e76 12b3
1.17438994e-07 5.482387e-07 1.308448e-07 4.952659e-07 -7.5136495e-07 1.7048751e-07 -4.2071434e-07 -1.1445673e-08
3.4329253e-07 -1.3229047e-07 3.6933108e-07 1.0853471e-06 4.616572e-08 -4.7122818e-08 -2.8860822e-07 -1.3661493e-07
-1.7276775e-06 3.4882987e-07 5.600388e-07 1.747476e-07 3.9895505e-07 4.078219e-07 -1.004537e-06 -1.0189485e-07
2.777308e-07 -2.0377405e-08 6.1814075e-07 1.894241e-07 1.0704771e-06 -6.743338e-07 1.2068199e-06 3.2873749e-07
-7.1136185e-07 -4.1818644e-06 -2.5128026e-07 -1.16485836e-07 -4.2311743e-07 5.5442695e-07 2.8749582e-07 1.13535e-07
2.7737187e-07 6.865289e-07 1.7032315e-06 -4.4613773e-07 -6.868022e-07 -8.709937e-08 -1.7880447e-07 1.2663342e-07
1.1356228e-06 -3.410093e-08

exp_avg_sq f4 [50]
00000000: 5dd9 f333 2473 cc34 bbdf 9033 c632 5d33
00000010: e64a 9534 3dcd 0934 a9b7 1635 2677 b634
00000020: edab 3035 b6c2 4e33 fbda 3234 e7b4 7a34
00000030: e55e 2134 9564 f532 46b1 f933 6bc1 9632
00000040: cc3e 1734 07f3 ad33 2914 5634 3362 3634
00000050: 2882 3334 5135 2135 2a14 eb33 4ee7 0735
00000060: 12b3 b133 1404 e234 b548 1c35 b827 b732
00000070: ce7e 9135 89f0 e533 3c41 0535 0b01 b832
00000080: 919a 9d33 03d0 2633 d3a9 bf34 d585 ab34
00000090: 4afc 7d33 4558 8d34 56b8 4735 3d13 f833
000000a0: c085 0434 0337 9135 da32 bc34 0f0c c533
000000b0: 8a57 ce34 b688 6d34 2c69 6c34 3b29 8134
000000c0: 5296 4e34 a610 4834
1.13551074e-07 3.8081737e-07 6.746219e-08 5.150175e-08 2.7807909e-07 1.2833785e-07 5.6146615e-07 3.3986834e-07
6.5815294e-07 4.81402e-08 1.6657206e-07 2.3348876e-07 1.5028816e-07 2.8567493e-08 1.1627212e-07 1.7550255e-08
1.4085816e-07 8.100147e-08 1.9937637e-07 1.6985796e-07 1.6718025e-07 6.005476e-07 1.0946708e-07 5.062801e-07
8.2747775e-08 4.2098748e-07 5.822033e-07 2.1322066e-08 1.0840247e-06 1.07073966e-07 4.964129e-07 2.1420894e-08
7.338998e-08 3.8839072e-08 3.5700086e-07 3.1948608e-07 5.913561e-08 2.632752e-07 7.440152e-07 1.1551899e-07
1.2342116e-07 1.0819352e-06 3.5054728e-07 9.175721e-08 3.8434183e-07 2.212208e-07 2.2017474e-07 2.4058122e-07
1.9239931e-07 1.8632508e-07

exp_avg f4 [50, 50]
00000000: d9e1 fc32 fa2b b932 7413 edb2 658e 16b3
00000010: 64e1 ecb2 dedb be31 a0f8 a033 85da c632
00000020: 0ec6 abb2 b3ee 5333 801a 1eb1 973c 6d33
00000030: 6726 f332 7bec ce32 e64d a7b2 5b77 0333
00000040: 7a8d b0b2 0a6f 48b1 b273 a1b2 6575 eb31
00000050: 6972 e532 ce25 3bb2 878f 22b3 2a8f 83b2
00000060: 53d3 7db2 2199 fdb2 e581 c232 7062 25b2
00000070: ed34 c332 25e1 9132 f3e3 3f31 08e1 7832
00000080: da14 14b3 3fc7 a9b4 633f 03b3 95e4 f032
00000090: 668a 03b3 5e38 fab2 7192 cdb2 ebeb 26b3
000000a0: 6504 40b2 0d02 d732 c573 1d33 5554 24b2
000000b0: 9528 aab2 a334 2233 00de 1bb3 71bb 39b2
000000c0: eccb 5eb3 1500 af32 5f14 c4b4 aa30 a234
000000d0: 50dd 5fb4 7ad4 a434 0477 c334 8a0d ba34
000000e0: f4da 03b4 6d9e 5334 cc8e aeb4 c011 bdb4
000000f0: 1801 b634 10ab 88b3 d8c1 bfb3 a73c 07b3
00000100: e359 dc32 71fb 9f34 9000 9c34 91c5 a134
00000110: dd3c 5134 aeb4 b734 ab2a 7234 31ac 0734
00000120: d006 b634 ad98 6e34 a71f b6b4 f63e b7b3
00000130: 7f4f 7c34 03a9 afaf 3fef bbb4 0d60 dbb3
00000140: b0b8 3934 981d f833 3771 a934 0501 abb4
00000150: d83a c434 32ef 41b3 61e6 85b4 4bf5 06b4
00000160: 7349 b134 f8e9 c234 8350 b7b4 e187 7834
00000170: cba7 b1b4 d1ef 1834 f9c8 9cb4 327e 2eb3
00000180: 0918 c134 3c94 3d32 e1ec b533 5bd7 93b4
00000190: 9833 4db4 b1cf 5334 aeeb 72b4 7f36 9434
000001a0: 5dab 4b34 e743 6234 e115 3b34 07a6 7534
000001b0: b32f 50b4 1e51 76b4 e5b2 8334 2917 5a34
000001c0: 2e0f b0b4 ca75 6434 5ae0 3cb2 d556 5534
000001d0: f81b 9f34 7a02 aa34 b41f 6e34 24dc 7534
000001e0: 69a5 6d34 f6b4 6f34 6207 8634 70c8 6a34
000001f0: 088f 54b4 4c3d 81b4 487c 6a34 b141 85b4
00000200: 8200 45b4 0a15 65b4 2957 7634 9fab 7c34
00000210: e4e4 9334 aa04 5eb4 df96 5034 84d1 3a34
00000220: 4fea afb4 0d6b 81b4 cb46 4934 b058 6134
00000230: 2bb6 72b4 84b1 6b34 afb3 8bb4 2159 7234
00000240: 9fd2 56b4 8416 8a34 3884 6734 a970 63b4
00000250: 1f76 3cb4 ba3f 5cb4 290f feb3 3d05 0534
00000260: 1f31 a7b3 8777 3934 90f9 f733 d42a 7334
00000270: 7733 1634 1f6a 8e33 9771 2cb4 e7ab 1eb4
00000280: fe33 9834 ad5b cc33 962c ddb3 b77a de33
00000290: bead 1bb3 fb60 1934 f353 5b34 daf6 bd34
000002a0: 7f38 32b2 6f01 9234 a602 b033 4863 8ab1
000002b0: 3376 5334 7bd4 4430 0f39 50b4 c01e 83b3
000002c0: 30a8 a633 528b e5b3 05db 97b3 3fba 8832
000002d0: 5595 d432 b84c 2433 8274 5934 12a4 94b4
000002e0: 06e7 0734 0120 8d33 9677 73b4 cc62 8ab3
000002f0: 8d4e 1733 eb1a 1e34 a6ed 92b4 f2cd ad33
00000300: 8dc2 5bb4 8a11 cdaf 3be0 e7b3 2898 2834
00000310: 4231 2e34 1178 b0b3 3561 e8b3 6ed5 e3b1
00000320: bb15 95b3 70bd 0834 7212 08b4 a8e0 0e33
00000330: 8447 9933 1e28 0134 c891 7234 2976 0134
00000340: b03d 0db4 ac17 2bb3 0b7d e833 deb2 5834
00000350: 21a2 eb33 4d95 d433 906e beb2 2ad1 1634
00000360: 8ba8 2c33 95b2 b633 e940 8833 62e3 0334
00000370: f42a 0734 7cd2 af33 ee63 5f33 9864 8f33
00000380: a70b 0bb4 bd29 15b4 885f 0134 6864 45b3
00000390: f6c5 97b3 9b39 a8b3 b812 ca33 8d4e f833
000003a0: 5754 3533 3bd8 48b4 d38b 9333 13c9 2234
000003b0: ced4 6cb3 f4d3 0eb4 2c47 8633 8f55 7a33
000003c0: 778c 0ab4 e3da 0434 2575 54b3 5867 ae33
000003d0: 999d 03b4 e088 b333 e054 8433 54da a8b3
000003e0: 953a 46b4 d4a7 81b3 a1c7 b332 8865 a933
000003f0: 4413 a0b3 eb55 1cb4 75e1 8ab2 c553 4033
2.9439365e-08 2.1556833e-08 -2.7599278e-08 -3.5054104e-08 -2.7576512e-08 5.554724e-09 7.495805e-08 2.3149605e-08
-1.9997085e-08 4.934436e-08 -2.300709e-09 5.523597e-08 2.8306387e-08 2.4089095e-08 -1.9476783e-08 3.0609367e-08
-2.0553433e-08 -2.9166949e-09 -1.8795479e-08 6.8527464e-09 2.6711136e-08 -1.0893428e-08 -3.78491e-08 -1.531551e-08
-1.4774588e-08 -2.9522711e-08 2.2643642e-08 -9.626646e-09 2.2725056e-08 1.6982606e-08 2.7923732e-09 1.4486666e-08
-3.44779e-08 -3.1623674e-07 -3.0558464e-08 2.8043624e-08 -3.0626687e-08 -2.9129463e-08 -2.3931735e-08 -3.8864453e-08
-1.117687e-08 2.5030227e-08 3.6659703e-08 -9.565231e-09 -1.980906e-08 3.7766437e-08 -3.6290658e-08 -1.08110365e-08
-5.187387e-08 2.0372719e-08 -3.6522667e-07 3.021026e-07 -2.0849006e-07 3.0701977e-07 3.6408176e-07 3.465505e-07
-1.227998e-07 1.9708541e-07 -3.2513924e-07 -3.5216908e-07 3.3900938e-07 -6.3641096e-08 -8.9293906e-08 -3.14873e-08
2.5652247e-08 2.9799006e-07 2.9057674e-07 3.0132335e-07 1.9486784e-07 3.4217868e-07 2.2553529e-07 1.2635498e-07
3.3905098e-07 2.222102e-07 -3.3923172e-07 -8.533054e-08 2.349825e-07 -3.1952405e-10 -3.500554e-07 -1.0215454e-07
1.7296657e-07 1.1553783e-07 3.1561078e-07 -3.1851974e-07 3.655066e-07 -4.515386e-08 -2.4940803e-07 -1.256896e-07
3.302226e-07 3.630555e-07 -3.4144986e-07 2.3146232e-07 -3.3090905e-07 1.4243348e-07 -2.920349e-07 -4.0627306e-08
3.596654e-07 1.10349525e-08 8.471557e-08 -2.7537575e-07 -1.9110882e-07 1.9726464e-07 -2.2623746e-07 2.76068e-07
1.896819e-07 2.1072593e-07 1.7423692e-07 2.2877803e-07 -1.9388862e-07 -2.2940046e-07 2.4530814e-07 2.0311258e-07
-3.27936e-07 2.1277006e-07 -1.0994052e-08 1.986876e-07 2.9636408e-07 3.166677e-07 2.2177011e-07 2.289749e-07
2.2132521e-07 2.2324443e-07 2.4964817e-07 2.1865867e-07 -1.9796073e-07 -2.4072722e-07 2.1838162e-07 -2.4820977e-07
-1.834724e-07 -2.1334941e-07 2.2942244e-07 2.3531764e-07 2.7547424e-07 -2.0677058e-07 1.9426396e-07 1.7398821e-07
-3.2766772e-07 -2.4106012e-07 1.8745338e-07 2.0987022e-07 -2.2604279e-07 2.195066e-07 -2.6021505e-07 2.2570431e-07
-2.0006927e-07 2.5720885e-07 2.1561652e-07 -2.1182008e-07 -1.7551837e-07 -2.051228e-07 -1.1830554e-07 1.2388496e-07
-7.7854786e-08 1.7272951e-07 1.1547229e-07 2.264672e-07 1.3988561e-07 6.6316936e-08 -1.6060072e-07 -1.4777434e-07
2.8350036e-07 9.516166e-08 -1.02992246e-07 1.0360002e-07 -3.6246767e-08 1.4284517e-07 2.0426505e-07 3.5383601e-07
-1.0373809e-08 2.7195662e-07 8.1961204e-08 -4.0276156e-09 1.9693907e-07 7.160634e-10 -1.9392267e-07 -6.105756e-08
7.7605705e-08 -1.0688986e-07 -7.071325e-08 1.5917179e-08 2.4747957e-08 3.8254e-08 2.0252085e-07 -2.7686525e-07
1.26569e-07 6.5716456e-08 -2.2674644e-07 -6.444097e-08 3.522887e-08 1.472469e-07 -2.736753e-07 8.0934015e-08
-2.0466742e-07 -3.7301745e-10 -1.0797563e-07 1.5701573e-07 1.6222933e-07 -8.2174786e-08 -1.0821024e-07 -6.6308337e-09
-6.942306e-08 1.2734904e-07 -1.2672697e-07 3.3266275e-08 7.137626e-08 1.2028656e-07 2.2591041e-07 1.2057048e-07
-1.315409e-07 -3.983557e-08 1.0826087e-07 2.0181639e-07 1.0972531e-07 9.899177e-08 -2.216919e-08 1.4045932e-07
4.020016e-08 8.507519e-08 6.3448006e-08 1.2283047e-07 1.2588481e-07 8.1873594e-08 5.201212e-08 6.677254e-08
-1.2949623e-07 -1.389189e-07 1.2048815e-07 -4.5958956e-08 -7.067494e-08 -7.833588e-08 9.409763e-08 1.1562688e-07
4.2219053e-08 -1.8705116e-07 6.870655e-08 1.5160576e-07 -5.5141577e-08 -1.3301889e-07 6.252807e-08 5.8285476e-08
-1.2903352e-07 1.2373089e-07 -4.946664e-08 8.1213045e-08 -1.225766e-07 8.3602345e-08 6.162168e-08 -7.862823e-08
-1.8461499e-07 -6.0375584e-08 2.0929123e-08 7.888144e-08 -7.454085e-08 -1.4559889e-07 -1.616784e-08 4.477967e-08

exp_avg_sq f4 [50, 50]
00000000: b1af 0f34 0cb1 c833 1744 a233 c76f 2a34
00000010: 1d52 0834 01b6 f733 080c 1933 35a5 a133
00000020: 317a d933 9bd7 1734 20a0 0234 c8fc 4a33
00000030: 88f5 3d32 763d 2933 2437 f630 3ddd b433
00000040: 385d 2b34 8dce 1134 937d c333 93f8 f133
00000050: 868c a433 e58d b533 94c5 1834 838d cb33
00000060: 4a54 e033 1d85 8533 7397 ae33 b9fa 2d33
00000070: c0f9 f333 3b8d af33 fd06 ad33 6c1f b433
00000080: c65e 2734 ed8d 8134 b9ff 0934 e1cf 5433
00000090: e9b7 2b34 e7bf a033 3701 ed33 d811 1234
000000a0: c847 ec33 a753 a733 dbfd 1e34 8b96 b633
000000b0: c08b c333 1d93 da32 5c8c 1134 5977 3433
000000c0: 34a3 2633 6846 f133 5da4 9433 0ae6 8b33
000000d0: a868 7f33 17cf 9a33 af68 9133 b6dc 9433
000000e0: 237e 2633 82f9 7833 25ab 9033 a0de 9133
000000f0: 7e12 9633 0be4 4033 5a36 3532 f441 0733
00000100: 69cd cc30 63ab 8533 a2ce 9b33 fe4c 9b33
00000110: 8b0b 7d33 f30a 9333 c448 7d33 1dad 7333
00000120: 2c79 9533 fc62 8233 a059 9033 d012 6233
00000130: c958 8333 6c5a 2833 189a 8933 43c1 6733
00000140: 7e12 7933 5b6f 8533 aad6 9a33 0b9c a733
00000150: 1dfe 9033 59df 2433 9535 9f33 e004 7f33
00000160: e2fc 8733 f172 9333 5b70 9233 19ed 7f33
00000170: 32f9 9733 37a1 7633 4626 8933 7493 ec32
00000180: 2331 9333 f763 0e33 f2da 0e33 afd3 8d33
00000190: 154a e434 1777 c634 62dd b634 e71b f234
000001a0: c59a df34 be02 d634 1ba3 7834 2169 b534
000001b0: b360 cc34 77ca e734 f1bb d934 c321 9134
000001c0: 8829 9b33 9045 6434 ae7f da31 8b4c be34
000001d0: c4f4 f134 e02b e234 1207 c434 2882 d334
000001e0: 1d4d b734 730e bd34 d822 e834 0dab c734
000001f0: a983 ce34 dd53 a734 8c2c bc34 4d93 7034
00000200: f170 d534 d17c b834 fbcd ba34 bc51 bf34
00000210: 0dd1 f034 41ce 0f35 d636 e034 ff25 8934
00000220: 6d22 f034 35e5 b534 9557 d334 9f56 e534
00000230: 14a1 d134 2f9d b834 80e8 eb34 98fc bd34
00000240: af53 c434 1cc4 3734 6a7c e434 20c9 6b34
00000250: 000c 7134 5e89 d634 9bbf d332 7289 cf32
00000260: 2ecc b332 6b78 e432 b0fc cd32 6d01 e732
00000270: f9c0 3b32 e157 ab32 2610 db32 9ebb cd32
00000280: 8b00 eb32 6517 6932 cb5f 2631 8be5 0332
00000290: cb18 962f 4d9d c932 aba6 e932 9fab fa32
000002a0: af21 9c32 d81d e632 41d5 b332 197d 8f32
000002b0: 5858 d932 8f7d a532 dece dd32 c30b 9532
000002c0: ef1d ba32 a8a6 0f32 e5b7 ba32 50f6 8032
000002d0: 1e70 a032 6d87 af32 3b91 e632 c9ee e032
000002e0: e807 cb32 eb0d 2b32 588e ff32 24ab ad32
000002f0: 19c5 b332 0f00 d532 0a54 e732 0ab9 b532
00000300: 583d de32 f541 9432 5728 c832 b048 ec31
00000310: 6082 d132 55b5 0332 1fd0 1e32 5782 bd32
00000320: 414d 0b35 54cb 0535 2132 fd34 79a5 0d35
00000330: 69cb 0935 a24a 0a35 796d b634 d54c f434
00000340: 6a35 0835 c290 0835 3a91 0a35 76c9 c934
00000350: 7391 d733 f976 9234 dfe2 4d32 14f9 0135
00000360: 702b 0d35 fad6 0c35 c82e ff34 47cd 0835
00000370: 2ae2 f934 e634 f434 f471 0a35 5f54 0135
00000380: bd8b 0835 ed3b e734 29a6 0035 09be ba34
00000390: 94c8 0335 7f30 ed34 c709 fb34 02a9 0235
000003a0: 32fb 0d35 3552 1135 e08f 0835 6126 b434
000003b0: c053 0e35 062c f834 0700 0335 1622 0b35
000003c0: 46a6 0835 c2bb fb34 94d8 0b35 d696 f734
000003d0: 2fbc 0335 c3a1 8334 5892 0935 2c1f 9f34
000003e0: 5025 9d34 6379 0835 1a5a c233 e959 8a33
000003f0: 4653 5f33 9243 e433 d0d3 b833 5ad3 a933
1.3381829e-07 9.3454304e-08 7.556098e-08 1.5873148e-07 1.269586e-07 1.153494e-07 3.563403e-08 7.527198e-08
1.01270764e-07 1.4141408e-07 1.2165447e-07 4.7261693e-08 1.1057075e-08 3.9404277e-08 1.7914528e-09 8.422146e-08
1.5959529e-07 1.357932e-07 9.103237e-08 1.12676524e-07 7.662406e-08 8.45428e-08 1.4227982e-07 9.478665e-08
1.0446145e-07 6.217508e-08 8.130055e-08 4.0507732e-08 1.13609985e-07 8.174762e-08 8.0572114e-08 8.387619e-08
1.5587565e-07 2.4131387e-07 1.285215e-07 4.954916e-08 1.5992522e-07 7.4854874e-08 1.10363935e-07 1.3603801e-07
1.1002663e-07 7.79176e-08 1.4807249e-07 8.502419e-08 9.1058155e-08 2.544544e-08 1.355524e-07 4.2018062e-08
3.879832e-08 1.1235244e-07 6.9216846e-08 6.514536e-08 5.9467e-08 7.208853e-08 6.7711305e-08 6.931934e-08
3.8764608e-08 5.7968926e-08 6.7366535e-08 6.792584e-08 6.988283e-08 4.4910887e-08 1.0547945e-08 3.149212e-08
1.4901335e-09 6.22447e-08 7.255336e-08 7.231755e-08 5.891665e-08 6.8472126e-08 5.8972333e-08 5.6735292e-08
6.960394e-08 6.071602e-08 6.721825e-08 5.2636835e-08 6.116313e-08 3.9197786e-08 6.407589e-08 5.395965e-08
5.799165e-08 6.2135506e-08 7.210231e-08 7.8049275e-08 6.7517455e-08 3.838736e-08 7.413761e-08 5.9376248e-08
6.3324265e-08 6.8661286e-08 6.819092e-08 5.9587453e-08 7.076814e-08 5.7422962e-08 6.3865215e-08 2.754107e-08
6.854159e-08 3.315287e-08 3.326108e-08 6.604329e-08 4.252221e-07 3.6967023e-07 3.406122e-07 4.5096314e-07
4.1649596e-07 3.98626e-07 2.3156137e-07 3.3790369e-07 3.806832e-07 4.3174416e-07 4.0556145e-07 2.703292e-07
7.2253044e-08 2.1259461e-07 6.3591505e-09 3.544595e-07 4.5067839e-07 4.2127704e-07 3.651299e-07 3.9396514e-07
3.4142514e-07 3.5214507e-07 4.323872e-07 3.7191094e-07 3.8466285e-07 3.1167193e-07 3.505014e-07 2.240533e-07
3.9756517e-07 3.4363487e-07 3.479507e-07 3.5635992e-07 4.4855588e-07 5.357179e-07 4.176315e-07 2.5545884e-07
4.4728532e-07 3.3880647e-07 3.9365537e-07 4.27176e-07 3.9046483e-07 3.4387037e-07 4.3941327e-07 3.538778e-07
3.6568733e-07 1.7114547e-07 4.2558833e-07 2.195925e-07 2.244924e-07 3.9960554e-07 2.4650765e-08 2.4160475e-08
2.0931193e-08 2.6597453e-08 2.398005e-08 2.6892588e-08 1.09287095e-08 1.9946983e-08 2.5502299e-08 2.395046e-08
2.7357848e-08 1.3567704e-08 2.4210631e-09 7.677396e-09 2.7302458e-10 2.3471012e-08 2.7200562e-08 2.9181875e-08
1.8176108e-08 2.6789095e-08 2.093532e-08 1.6704279e-08 2.5302299e-08 1.9265626e-08 2.5821858e-08 1.7351232e-08
2.1666862e-08 8.361589e-09 2.1736875e-08 1.5013171e-08 1.8677436e-08 2.0434266e-08 2.6841567e-08 2.6185619e-08
2.3635906e-08 9.956675e-09 2.9750638e-08 2.0217676e-08 2.0927972e-08 2.479649e-08 2.6930156e-08 2.115532e-08
2.5872097e-08 1.7259461e-08 2.3301409e-08 6.8767676e-09 2.439009e-08 7.666434e-09 9.244132e-09 2.2061768e-08
5.1893954e-07 4.984224e-07 4.7161396e-07 5.276739e-07 5.133248e-07 5.151761e-07 3.3979794e-07 4.5504444e-07
5.0741676e-07 5.08746e-07 5.162034e-07 3.758575e-07 1.0038175e-07 2.7281183e-07 1.1984155e-08 4.84187e-07
5.2589803e-07 5.2466896e-07 4.753149e-07 5.0962666e-07 4.654442e-07 4.548703e-07 5.157483e-07 4.817902e-07
5.0867294e-07 4.3070705e-07 4.792551e-07 3.4783469e-07 4.909318e-07 4.4179976e-07 4.6759507e-07 4.867471e-07
5.289213e-07 5.4136336e-07 5.0873314e-07 3.3555537e-07 5.3020995e-07 4.622563e-07 4.880134e-07 5.1831137e-07
5.090591e-07 4.6889005e-07 5.20967e-07 4.6117083e-07 4.9075146e-07 2.451835e-07 5.1249435e-07 2.9638738e-07
2.9270677e-07 5.084059e-07 9.050218e-08 6.44248e-08 5.199697e-08 1.0629368e-07 8.606696e-08 7.9081204e-08

exp_avg f4 [50]
00000000: 90d3 1135 2dc3 55b5 399f 0bb4 d087 5935
00000010: fd6b 4b35 e3f7 6d35 4da5 53b4 deff 9833
00000020: 9c26 d4b4 60dd 00b4 f315 1a34 ef76 e2b4
00000030: 9195 2b34 c678 1135 cbdd 0033 16a9 e534
00000040: e061 a2b5 10d8 27b5 25ef 8f34 f9a3 c234
00000050: f01e b3b4 d52b 1bb5 5869 c5b1 e3b8 0db4
00000060: 6e9d 0634 e3be 65b5 b383 85b4 a271 5535
00000070: 0595 ee34 2965 02b5 05c2 6135 89e9 c034
00000080: 59fd 03b5 5379 3235 1e12 95b5 3163 ae34
00000090: 93e6 4433 b0c9 95b5 3df0 3cb5 1a38 f4b4
000000a0: 9609 b834 4cba 9c34 5cc3 51b5 e81e 3635
000000b0: 3e52 8fb5 83a6 8734 2ae9 9b35 1cf7 1534
000000c0: b7da 44b4 49d3 3db4
5.4324573e-07 -7.96327e-07 -1.3003309e-07 8.103643e-07 7.5780537e-07 8.86501e-07 -1.9711042e-07 7.1245935e-08
-3.951617e-07 -1.2001465e-07 1.4350353e-07 -4.2182316e-07 1.5980028e-07 5.419246e-07 3.0004042e-08 4.27776e-07
-1.2098426e-06 -6.252676e-07 2.6809826e-07 3.6254622e-07 -3.3363858e-07 -5.7805784e-07 -5.745431e-09 -1.319891e-07
1.2536995e-07 -8.5586925e-07 -2.4869004e-07 7.951404e-07 4.443938e-07 -4.857598e-07 8.410137e-07 3.5932706e-07
-4.916997e-07 6.648672e-07 -1.1106638e-06 3.2482197e-07 4.5844512e-08 -1.1160064e-06 -7.038505e-07 -4.548936e-07
3.4279645e-07 2.9192813e-07 -7.814285e-07 6.784526e-07 -1.0678266e-06 2.5266863e-07 1.161626e-06 1.3966604e-07
-1.833349e-07 -1.7678862e-07

exp_avg_sq f4 [50]
00000000: d369 0a35 ef0b e833 6559 9235 f7c5 3135
00000010: 408e 2535 b377 bd34 5f74 fe32 32fb 8e34
00000020: 69b2 8f35 d845 9233 2a49 bd35 7ab8 2f36
00000030: 2447 3536 806e f233 1796 1c33 9f48 a835
00000040: e6c4 6234 ff38 fc34 9665 fa34 39c0 9534
00000050: 15ff cb34 328d 8435 30c0 9b35 7ebc 0635
00000060: c5db d634 00f2 5136 f8dd b432 f550 8634
00000070: ac9b 0c35 aad5 0535 fe26 8535 8b1f 3b34
00000080: 6639 8e33 0826 9d34 8f50 8535 4be7 bd36
00000090: 71e8 a636 d3cf 0f36 d43c cd34 913e a435
000000a0: 1ea7 1636 c85e 5a35 1d7c 5534 633d 0a36
000000b0: 29e9 f333 76fd b833 7d36 4a35 93a1 a736
000000c0: 4235 3635 ec9a 8d36
5.1563e-07 1.08055126e-07 1.0903865e-06 6.6225715e-07 6.167429e-07 3.5291086e-07 2.9622411e-08 2.663233e-07
1.0706254e-06 6.811359e-08 1.4102891e-06 2.6184412e-06 2.701251e-06 1.1289103e-07 3.6458086e-08 1.2538111e-06
2.1119521e-07 4.6980128e-07 4.6640042e-07 2.7893273e-07 3.7997293e-07 9.87586e-07 1.1604334e-06 5.019318e-07
4.002051e-07 3.128429e-06 2.1055698e-08 2.501835e-07 5.2380597e-07 4.9857283e-07 9.92062e-07 1.7427207e-07
6.622831e-08 2.92712e-07 9.932718e-07 5.659565e-06 4.9742453e-06 2.142963e-06 3.8228484e-07 1.2237161e-06
2.2449017e-06 8.1349253e-07 1.9882323e-07 2.0599334e-06 1.1357981e-07 8.614272e-08 7.5330155e-07 4.9957976e-06
6.7877784e-07 4.2201627e-06

exp_avg f4 [50, 50]
00000000: baab c733 37eb 4eb4 d862 1632 e10e b732
00000010: dbed 0534 4dc5 2d33 d1af 5833 5b6b aab3
00000020: f0cd ef33 20a4 0f33 2d6e 69b4 82f9 ec33
00000030: 17e4 b133 fc74 3531 7bad bbb3 a584 4fb1
00000040: 2028 ecb3 5c32 dbb4 df6d 7133 a5a5 1734
00000050: cca3 afb3 b77c 8733 889c 32b4 45f6 9a33
00000060: 6e6e 8f32 f896 ce31 ca25 fdb3 0daf cab3
00000070: f141 9333 4b6b 40b3 6517 12b3 9ff7 03b3
00000080: 048f b1b3 8f28 4534 ab3e 1634 6068 08b4
00000090: 1554 6334 2d2d 93b4 bca8 92b4 02f9 1e34
000000a0: b314 85b4 dcc4 db33 2c4b 01b4 8ba8 7433
000000b0: c965 0434 adc1 fab3 abc0 9fb4 73a5 1c31
000000c0: faa2 aa34 a5c0 ceb3 22ff c733 d51a e733
000000d0: 555e f4b3 345e 6833 2bf2 a7b2 4f03 10b4
000000e0: d049 d8b3 1231 eeb3 3e42 b6b3 a3a8 94b3
000000f0: 6413 8433 5a33 b1b1 d94d a632 1dd5 83b3
00000100: fe42 1ab3 d92d a133 1bf9 ec32 32b8 5034
00000110: cbce 19b4 0c9c 2fb3 cef2 f633 ab0d 07b4
00000120: 0a1f f533 6569 01b4 de3c 8733 050e 6c33
00000130: a4d8 dcb2 662c 5634 a608 86b3 c733 0534
00000140: c1f1 8332 2c2b 23b3 09f1 0fb3 d5c7 78b3
00000150: 5508 1ab4 fbd5 bd33 99f4 8db3 87e8 4434
00000160: ba3a eb33 be58 9fb3 9d17 de33 27ff d833
00000170: 7e5b b5b2 2643 dab2 d84b 05b4 1077 4db2
00000180: b7e8 b832 4eca 6632 6c5c 19b4 6d0e da33
00000190: 7d53 f033 be31 8132 e24f dfb0 45e5 5934
000001a0: e29c f232 f9fa 35b4 92bc cdb3 25d6 40b3
000001b0: de9e a5b3 703e 3d33 69de b932 8ce2 2133
000001c0: 15e0 0a34 3d0e 7ab3 c4d7 26b4 85c3 b633
000001d0: b60c c131 5147 0732 0ad6 22b4 85f8 b132
000001e0: 0688 1e34 396d b6b3 f1a7 f633 9c79 aa33
000001f0: 0ed7 8934 0dd9 2234 f4a3 5cb3 a0e1 2533
00000200: 1e5f 9c32 9069 1734 5f06 50b2 c67e 1fb4
00000210: 08e6 7cb4 42ac 16b2 ce6a 7db4 676e e833
00000220: fada c933 0154 60b2 1a8f 1332 5a80 dab3
00000230: 4a6e d2b3 5e18 c733 32dc 43b4 5c18 80b4
00000240: 0bc4 06b2 0960 00b4 15f3 1fb4 a720 b5b3
00000250: 80e6 89b4 1a3e 97b3 5ee3 1f34 8f60 ed33
00000260: 9a8c 35b4 f3a9 1533 8084 be33 09d4 dab3
00000270: 2690 8db3 d281 52b4 697b 54b2 64d0 1db4
00000280: 9b0f ceb3 05a2 1e34 d53d b433 fa44 fcb0
00000290: 1b9d 1cb3 9766 2d33 205d a7b3 d943 d933
000002a0: 617f b5b3 bc33 6733 add6 3c33 ed59 b8b3
000002b0: c665 6cb2 9456 e4b3 1efe 0933 0972 8533
000002c0: c408 6ab3 c6d4 1f34 04b5 e6b3 7c05 1334
000002d0: 1a61 ceb2 ad58 e7b2 1de8 58b3 e88f 3333
000002e0: 72fe 85b3 a458 6e33 d0d2 1133 e302 7a34
000002f0: ab53 7231 4ba4 0232 b9b5 9733 be18 5434
00000300: 8bef 4db3 15f9 6933 0910 39b4 aad8 f6b2
00000310: 82a2 17b4 86ce c931 9c9f e832 3d3d f833
00000320: 37b2 1f34 dcda cc33 af1c d8b3 ce11 8e33
00000330: 62a7 26b3 7237 20b4 eb93 1eb4 d9a5 3ab4
00000340: 5347 efb3 98f6 d4b3 fbf5 3432 aee1 f7b3
00000350: 3a26 8bb2 bebc 03b4 a6e0 86b3 49ed fb33
00000360: 0dc5 c333 f3cd 8834 8136 27b4 52b3 5432
00000370: c7ca f633 22b6 22b4 2e65 d133 c1ea b4b3
00000380: e08d c633 20ca dc32 a75f d3b3 3dff 4c34
00000390: 3dbe 4fb3 a10e 3a34 7401 9a32 634b 3cb3
000003a0: a252 a3b3 42ec 06b4 904a eeb3 aa44 8633
000003b0: d49f d4b3 2b6f 1734 1e83 4933 5a0c 8bb3
000003c0: f539 4334 2c4b 2a34 5b3c 8db2 01b2 9bb3
000003d0: 33b8 81b3 f201 0fb3 ba64 ad32 11e6 b432
000003e0: 0f71 96b3 9f74 ba33 cbba 9434 6428 e933
000003f0: 6fbb 21b4 3f3b e833 76a4 3431 8e9f 77b4
9.2978965e-08 -1.9270816e-07 8.753624e-09 2.131077e-08 1.2473122e-07 4.0459145e-08 5.0451323e-08 -7.93577e-08
1.11667646e-07 3.3444053e-08 -2.1739898e-07 1.10349916e-07 8.283694e-08 2.6405464e-09 -8.739422e-08 -3.0197864e-09
-1.0996905e-07 -4.082857e-07 5.6212112e-08 1.4123232e-07 -8.178867e-08 6.309113e-08 -1.6634488e-07 7.21598e-08
1.6697609e-08 6.0125522e-09 -1.17881044e-07 -9.4381996e-08 6.8572156e-08 -4.4801066e-08 -3.401455e-08 -3.0726024e-08
-8.268219e-08 1.836181e-07 1.3992637e-07 -1.2703958e-07 2.1171611e-07 -2.7413753e-07 -2.731739e-07 1.4805485e-07
-2.478824e-07 1.0233791e-07 -1.2041409e-07 5.6963966e-08 1.2330487e-07 -1.16767616e-07 -2.9756242e-07 2.2795035e-09
3.178355e-07 -9.627664e-08 9.313068e-08 1.07616565e-07 -1.1379294e-07 5.4102387e-08 -1.9551484e-08 -1.3412249e-07
-1.007171e-07 -1.10916645e-07 -8.487085e-08 -6.922462e-08 6.150256e-08 -5.157216e-09 1.9360344e-08 -6.138928e-08
-3.5916848e-08 7.5054864e-08 2.7587296e-08 1.943852e-07 -1.4324466e-07 -4.0887286e-08 1.14994336e-07 -1.2577827e-07
1.14143475e-07 -1.2052404e-07 6.297499e-08 5.4960783e-08 -2.5709888e-08 1.9946455e-07 -6.2414344e-08 1.2405427e-07
1.5360344e-08 -3.799066e-08 -3.3514002e-08 -5.7923746e-08 -1.4345399e-07 8.839921e-08 -6.610316e-08 1.8338515e-07
1.09537226e-07 -7.4201566e-08 1.0341976e-07 1.0104696e-07 -2.1112779e-08 -2.5409076e-08 -1.2414182e-07 -1.1959642e-08
2.1526246e-08 1.3433761e-08 -1.4282858e-07 1.015404e-07 1.1191057e-07 1.5040197e-08 -1.624809e-09 2.0293108e-07
2.824385e-08 -1.6948242e-07 -9.580357e-08 -4.4898247e-08 -7.712309e-08 4.406178e-08 2.1637975e-08 3.7691777e-08
1.2933772e-07 -5.822061e-08 -1.553845e-07 8.5106e-08 5.6184843e-09 7.87425e-09 -1.5165293e-07 2.0718526e-08
1.4764382e-07 -8.494903e-08 1.1485816e-07 7.9383625e-08 2.5674711e-07 1.5166388e-07 -5.1371856e-08 3.862226e-08
1.8204044e-08 1.4101374e-07 -1.2108642e-08 -1.4854149e-07 -2.3553014e-07 -8.770316e-09 -2.3601316e-07 1.0823424e-07
9.3996235e-08 -1.3057616e-08 8.589064e-09 -1.0174763e-07 -9.7989485e-08 9.271092e-08 -1.8240897e-07 -2.3859582e-07
-7.844402e-09 -1.1955866e-07 -1.4896462e-07 -8.434409e-08 -2.568595e-07 -7.042782e-08 1.4890745e-07 1.10537364e-07
-1.6908089e-07 3.4846334e-08 8.871666e-08 -1.0189985e-07 -6.5920446e-08 -1.9605002e-07 -1.2368084e-08 -1.4697576e-07
-9.595461e-08 1.4773839e-07 8.39315e-08 -1.8355018e-09 -3.6464467e-08 4.0373006e-08 -7.793483e-08 1.0117191e-07
-8.4516394e-08 5.383093e-08 4.3967407e-08 -8.584525e-08 -1.3760149e-08 -1.0632826e-07 3.2128916e-08 6.214038e-08
-5.4490343e-08 1.4885435e-07 -1.0743136e-07 1.3692437e-07 -2.4025713e-08 -2.6932264e-08 -5.0502525e-08 4.1807567e-08
-6.2395785e-08 5.549431e-08 3.3952176e-08 2.3284115e-07 3.5263195e-09 7.604352e-09 7.0645406e-08 1.975304e-07
-4.7948145e-08 5.447608e-08 -1.7235301e-07 -2.8736697e-08 -1.4122091e-07 5.873349e-09 2.7080937e-08 1.1559539e-07
1.4872863e-07 9.5393005e-08 -1.0063501e-07 6.615629e-08 -3.880212e-08 -1.4921332e-07 -1.4768709e-07 -1.7382935e-07
-1.11422786e-07 -9.9168744e-08 1.05333084e-08 -1.1542885e-07 -1.6199113e-08 -1.226899e-07 -6.2807246e-08 1.173126e-07
9.1162384e-08 2.5481822e-07 -1.5572915e-07 1.2380797e-08 1.1492153e-07 -1.5153685e-07 9.7507254e-08 -8.424605e-08
9.2459004e-08 2.5703287e-08 -9.842852e-08 1.9091836e-07 -4.8368964e-08 1.7327922e-07 1.792862e-08 -4.3840725e-08
-7.60531e-08 -1.2565673e-07 -1.10963015e-07 6.252351e-08 -9.901092e-08 1.4103414e-07 4.691821e-08 -6.4749386e-08
1.8181875e-07 1.5859831e-07 -1.6442007e-08 -7.250129e-08 -6.040536e-08 -3.329655e-08 2.0185656e-08 2.105938e-08
-7.0054845e-08 8.682513e-08 2.7703058e-07 1.0857255e-07 -1.5062481e-07 1.0814119e-07 2.6286933e-09 -2.3061713e-07
