modelos/sir-30000.pt (torch, 73854 bytes, 24 tensors)

linears.0.weight f4 [50, 1]
0	0xbe1bf7c7	-0.15231238
1	0x3e723029	0.23651184
2	0xbd233f20	-0.039855123
3	0xbce93f16	-0.028472465
4	0xbdc86bb6	-0.09786169
5	0xbd062fc0	-0.03276038
6	0x3ca79316	0.020455878
7	0x3db6c932	0.08925094
8	0x3d90dbb7	0.07073157
9	0xbd679d79	-0.056546662
10	0xbd9e90c9	-0.07742459
11	0xbdfd3676	-0.12363903
12	0x3c969ef8	0.01838635
13	0xbe074344	-0.13209254
14	0xbd6eda77	-0.058313813
15	0xbe97cf8b	-0.2965053
16	0xbdb6c2a7	-0.08923846
17	0xbda599d6	-0.080859825
18	0x3c3b6a5a	0.01143893
19	0xbdb68b37	-0.08913272
20	0xbdb6f649	-0.08933694
21	0x3e5baf69	0.21453632
22	0x3e0fcd22	0.14043096
23	0xbcddff43	-0.027099257
24	0x3da86afe	0.08223532
25	0x3d8f5843	0.069992565
26	0xbd8f909c	-0.07010004
27	0x3e8876eb	0.26653227
28	0x3d630a74	0.05542989
29	0x3c8dc446	0.017305505
30	0x3e446575	0.19179328
31	0xbbef02f3	-0.0072940527
32	0xbcd76b3c	-0.02629625
33	0xbd9c9f0b	-0.076475225
34	0x3d3d6e25	0.04624762
35	0xbb641e19	-0.0034807979
36	0xbbd6c927	-0.006554741
37	0x3dc3f347	0.09567886
38	0x3e71b990	0.23605943
39	0x3dddc6dd	0.10828946
40	0xbd21c1a9	-0.03949133
41	0xbde596c6	-0.112103984
42	0xbd0f6689	-0.035009895
43	0xbc36a22a	-0.011147061
44	0x3cd9df58	0.026595756
45	0x3eadada5	0.33921543
46	0xbd87c1bc	-0.06628749
47	0xbe83c9e0	-0.25739956
48	0xbdb72e28	-0.089443505
49	0xbc89a36e	-0.016801562

linears.0.bias f4 [50]
0	0x3d454c08	0.048168212
1	0xbd11b244	-0.035570398
2	0xbd558f73	-0.052138757
3	0xbca939b5	-0.0206574
4	0x3c828671	0.015933247
5	0xbc177f46	-0.009246653
6	0x3d653f04	0.0559683
7	0xbc8cfc0d	-0.01721003
8	0xbc5d3a37	-0.013502649
9	0xbd4fd906	-0.05074408
10	0x3d46e58a	0.04855875
11	0x3d8435e4	0.06455591
12	0x3c14acc3	0.009074393
13	0x3dbb83ce	0.09155999
14	0x3d26fe1f	0.040769693
15	0xbc4c1961	-0.012457223
16	0xbce27de8	-0.027647927
17	0x3c912e6a	0.017722327
18	0x3c24a3a1	0.010048778
19	0xbcc89708	-0.02448608
20	0x3d407256	0.04698404
21	0xbcdd6e1c	-0.027030043
22	0x3c1f9e0e	0.009742273
23	0xbcb32e99	-0.021872805
24	0xbd5795a9	-0.05263296
25	0xbc9cf7a5	-0.019161055
26	0xbc03940c	-0.008030903
27	0x3d0b1cfe	0.033963196
28	0x3cd420c8	0.025894538
29	0x394ac8e7	0.00019339063
30	0xbc9dd6a8	-0.019267395
31	0xbcb93e3e	-0.022612687
32	0xbadcbbe4	-0.0016840664
33	0x3cce13e8	0.025155976
34	0x3c76c303	0.015061143
35	0xbba0bb56	-0.0049051447
36	0x3cdcc4c8	0.026949301
37	0x3ce93aab	0.028470358
38	0xbc69d227	-0.014271296
39	0xbc265e95	-0.010154386
40	0xbd465599	-0.048421476
41	0xbc8eda15	-0.017437974
42	0x3cfeaba7	0.03108771
43	0xbb6557bc	-0.003499492
44	0xbc3e4a11	-0.0116143385
45	0x3c267912	0.010160701
46	0x3d53aed2	0.051680394
47	0xbcb2f835	-0.02184687
48	0x3ca2a6c5	0.019854913
49	0x3d77a0ff	0.060456272

linears.1.weight f4 [50, 50]
0	0x3e026199	0.12732543
1	0xbdc1a76e	-0.09455763
2	0x3e4bf3cc	0.1991722
3	0x3cd667b4	0.026172496
4	0x3db33d67	0.08751946
5	0x3ddb29e2	0.10701348
6	0xbe2cc274	-0.16871053
7	0xbe4a7d54	-0.19774371
8	0x3d155d68	0.036466032
9	0xbc2e59b2	-0.010641502
10	0xbdd50cfb	-0.104028665
11	0xbd8edfa1	-0.069762476
12	0x3d3095e6	0.043111704
13	0x3dce6711	0.10078252
14	0x3e38b20b	0.18036668
15	0xbdd879ac	-0.10570082
16	0xbe689740	-0.22713947
17	0xbe7defef	-0.24798559
18	0x3e6b0084	0.22949415
19	0xbe13dfbe	-0.1444082
20	0xbe1298bc	-0.14316076
21	0x3e646e3c	0.22307676
22	0x3e48f151	0.19623305
23	0xbe4ab05b	-0.19793837
24	0x3d6731cd	0.056443978
25	0x3d6a0376	0.057132207
26	0x3e0f6fd1	0.14007498
27	0xbe02d6f3	-0.12777309
28	0x3e3bc227	0.18335782
29	0xbd837e21	-0.064205416
30	0xbd88f3d3	-0.06687131
31	0xbd714fd6	-0.058914028
32	0x3d3b7671	0.04576725
33	0xbce88eb5	-0.02838836
34	0xbe3df3a0	-0.18549967
35	0x3d3227b9	0.043494914
36	0xbd28c8d3	-0.041207146
37	0x3d347c35	0.044063766
38	0xbe7189dd	-0.23587747
39	0x3d549ee4	0.051909342
40	0x3b2f34c3	0.002673433
41	0xbd856f19	-0.06515331
42	0xbe5a952b	-0.21345966
43	0xbcaf99e5	-0.021435687
44	0xbd850264	-0.064945966
45	0x3a92b010	0.0011191387
46	0x3e7503d7	0.23927246
47	0xbd010045	-0.031494398
48	0x3e2395ca	0.15975109
49	0x3e6a4c6f	0.2288072
50	0x3e67f6a3	0.22652678
51	0xbe52a9e4	-0.2057262
52	0xbdbac476	-0.09119503
53	0x3d9f72eb	0.07785591
54	0x3cdead77	0.027182324
55	0x3de501fe	0.111820206
56	0x3e69dd12	0.22838238
57	0xbe4735ed	-0.19454165
58	0xbd6e6985	-0.0582061
59	0x3d3cdeb0	0.04611081
60	0x3d79c275	0.060976464
61	0x3e0ed6e2	0.13949159
62	0xbe109f2e	-0.14123222
63	0x3aa883dc	0.001285668
64	0xbe238156	-0.15967306
65	0xbe34de03	-0.17662816
66	0x3d7acead	0.061232258
67	0x3e3768ff	0.17911147
68	0xbe165e9e	-0.14684531
69	0x3e6edff1	0.23327614
70	0xbd607d8f	-0.054807242
71	0x3e0854fa	0.13313666
72	0x3e53521e	0.20636794
73	0x3bfc8ae1	0.0077069853
74	0x3df4da55	0.11955706
75	0xbe3798fa	-0.1792945
76	0x3e4fdcf7	0.20299135
77	0x3d836e8e	0.06417571
78	0x3e83d859	0.25750998
79	0xbe2ad475	-0.16682608
80	0x3cbb4c98	0.022863671
81	0xbe525fe8	-0.20544398
82	0xbe0a1860	-0.13485861
83	0x3b06f33e	0.002059176
84	0xbe0f4a3e	-0.13993165
85	0x3e034301	0.12818529
86	0xbe4baafe	-0.19889447
87	0x3ae0b59d	0.0017143969
88	0x3e443f24	0.19164711
89	0xbe18b002	-0.14910892
90	0x3e3be191	0.18347766
91	0x3dabe5ef	0.08393466
92	0x3d733258	0.059374183
93	0xbe69413c	-0.22778791
94	0x3e65f3f7	0.22456346
95	0x3e4af05b	0.19818251
96	0xbe43a5db	-0.19106238
97	0xbdde1525	-0.10843877
98	0xbe477526	-0.19478282
99	0xbd2c09e2	-0.042001612
100	0xbd1a64b4	-0.037693694
101	0x3e056409	0.13026442
102	0xbe5f2d5b	-0.21794645
103	0x3e530f87	0.20611392
104	0x3d7ba2e0	0.061434627
105	0xbdf60a90	-0.120137334
106	0xbd22fd86	-0.03979256
107	0x3d80d661	0.062908895
108	0x3d8dde68	0.06927186
109	0x3e7be954	0.24600726
110	0x3dad4d48	0.08462006
111	0xbe145c5e	-0.1448836
112	0x3dae99b5	0.08525411
113	0x3e4c4768	0.19949114
114	0x3ce74000	0.02822876
115	0xbe281f86	-0.16418275
116	0xbe3bd701	-0.18343736
117	0xbde9500a	-0.11392219
118	0x3e79ec4c	0.24406546
119	0x3e44106b	0.19146888
120	0x3e52e9f9	0.20597066
121	0x3e1be84a	0.1522533
122	0xbd730bd2	-0.059337445
123	0xbd07f232	-0.03318996
124	0x3e1b90e1	0.15191986
125	0x3d8b9a8b	0.06816586
126	0xbd96de50	-0.073666215
127	0xbe8fcbfb	-0.28085312
128	0xbd8e7c02	-0.06957246
129	0xbd88e101	-0.06683541
130	0xbe5708c8	-0.20999444
131	0x3bec1d76	0.0072056605
132	0xbce30eae	-0.02771696
133	0xbde9d95b	-0.114184104
134	0xbda270c2	-0.07931663
135	0x3d2ceffb	0.04222105
136	0x3dfe0d22	0.12404849
137	0xbe3ac874	-0.1824053
138	0x3cc1bd18	0.023649737
139	0xbe6b7891	-0.22995211
140	0xbe0f8022	-0.14013723
141	0xbe17c48a	-0.14821067
142	0xbe2663ad	-0.16248961
143	0xbdd8c327	-0.10584097
144	0x3d1e27e6	0.03861227
145	0x3e280601	0.1640854
146	0x3e3f51da	0.18683568
147	0x3db22fed	0.08700547
148	0xbda39865	-0.07988051
149	0xbdb0ad50	-0.08626807
150	0xbe2134ce	-0.157428
151	0x3d81eab6	0.06343596
152	0xbe26860e	-0.16262075
153	0xbde7a2b5	-0.11310331
154	0x3e6b99b5	0.23007853
155	0x3e39be1f	0.18138932
156	0xbb90d9fb	-0.0044205165
157	0x3e255fe7	0.16149865
158	0xbdbd7006	-0.092498824
159	0xbe450246	-0.19239148
160	0x3e26e53b	0.16298382
161	0xbe2cd32e	-0.16877434
162	0xbe84013b	-0.2578219
163	0x3e512ac9	0.20426477
164	0x3e2ea2c7	0.17054282
165	0xbde34519	-0.11097164
166	0x3e7e0950	0.2480824
167	0x3da4f020	0.08053613
168	0xbdcae904	-0.099077255
169	0x3c98f5de	0.018671926
170	0xbe433735	-0.19064029
171	0x3cc18ab9	0.023625718
172	0xbe21372b	-0.15743701
173	0xbdb11721	-0.086469896
174	0x3c2db357	0.01060184
175	0x3e1e1381	0.15437128
176	0x3da1c1e7	0.07898312
177	0xbca1c960	-0.019749343
178	0x3e04504e	0.12921259
179	0xbe5bb438	-0.21455467
180	0xbe19c23a	-0.15015498
181	0x3d4fe1a0	0.050752282
182	0xbe1aa85b	-0.15103285
183	0xbe263bb7	-0.16233717
184	0x3e5e3630	0.21700358
185	0x3dddfeb4	0.108395964
186	0xbe74e3fc	-0.23915094
187	0x3e63b6e8	0.22237742
188	0x3ce61562	0.028086368
189	0xbb43eee4	-0.0029897029
190	0x3e43ce34	0.19121629
191	0x3e27870b	0.16360109
192	0xbd2cf1da	-0.042222835
193	0x3e4ebd6f	0.2018945
194	0x3d6b9fbf	0.057525393
195	0xbd0bd07e	-0.03413438
196	0xbe1758c0	-0.14779949
197	0xbdc8daa7	-0.098073296
198	0x3e4b754b	0.19868962
199	0x3d21b3f2	0.03947825
200	0x3d11589c	0.035484895
201	0x3e248c4a	0.16069141
202	0x3d977a68	0.07396394
203	0x3e3b2bb5	0.18278392
204	0x3e70a988	0.23502171
205	0xbe6ee827	-0.23330747
206	0x3ce7a4aa	0.02827676
207	0xbbae469b	-0.0053184754
208	0x3e20fbc0	0.15721035
209	0xbdef28c8	-0.116777
210	0xbe0bb599	-0.13643493
211	0x3dc3cebc	0.09560916
212	0xbdaaf527	-0.0834754
213	0xbdd3626f	-0.10321509
214	0xbe737a43	-0.23777108
215	0x3df8e4f4	0.12153044
216	0x3be497fa	0.006976125
217	0x3e3affdf	0.1826167
218	0x3e1bf2d3	0.15229349
219	0x3d9e3a73	0.07725992
220	0x3e5fe085	0.21862991
221	0x3dbfb98f	0.09361564
222	0x3df8c9a5	0.12147836
223	0xbd2cc7ba	-0.04218266
224	0xbe798363	-0.24366526
225	0xbe6c14cb	-0.23054807
226	0x3c553529	0.013013163
227	0x3d22794d	0.039666463
228	0xbe3514d4	-0.17683727
229	0xbd835b2f	-0.06413876
230	0xbdf202b7	-0.11816924
231	0x3ba9fc56	0.0051875515
232	0x3d2feef6	0.0429525
233	0xbe4fc03c	-0.20288175
234	0x3d98510b	0.07437333
235	0xba4d5b22	-0.0007833709
236	0x3df7802c	0.12084994
237	0xbb3fee53	-0.002928634
238	0x3e798941	0.24368764
239	0x3e655075	0.22393973
240	0x3bc4507f	0.005991041
241	0xbdd104f8	-0.10206026
242	0x3e50ecb3	0.20402794
243	0x3e545254	0.2073453
244	0x3d07fff0	0.033203065
245	0x3e154d0a	0.1458017
246	0x3e2f5d45	0.17125423
247	0x3cbfb405	0.02340127
248	0x3df0a2d1	0.11749805
249	0xbe338ff5	-0.17535384
250	0xbe66d259	-0.22541179
251	0xbe216ed9	-0.15764941
252	0x3e00db68	0.12583697
253	0xbe80444a	-0.250521
254	0x3d9dda8b	0.077076994
255	0xbc124868	-0.008928396

linears.1.bias f4 [50]
0	0x3d38ad4c	0.045087144
1	0xbcb921c6	-0.022599112
2	0xbb81e600	-0.0039641857
3	0x3ca33a8c	0.019925378
4	0x3cae7555	0.021296183
5	0xbdacdc64	-0.08440474
6	0xbbe70fff	-0.0070514674
7	0xbd9261d6	-0.07147567
8	0xbc7f5542	-0.015584292
9	0xbc2e3db1	-0.010634826
10	0x3d8c5c3d	0.068535306
11	0xbcd0d068	-0.02549
12	0xbd0d35bf	-0.034475084
13	0x3c376800	0.011194229
14	0x3c8cbe59	0.017180609
15	0xbcfdc01f	-0.0309754
16	0x3d3bed81	0.0458808
17	0x3c92b03f	0.017906306
18	0x3b6fb21f	0.0036574674
19	0xbd645d41	-0.055752996
20	0x3b4cdb84	0.0031258771
21	0xbcf2e5d4	-0.029650606
22	0x3d50b9de	0.050958507
23	0xbd296f2a	-0.04136578
24	0xbc822cea	-0.015890557
25	0xbd2b7783	-0.041862022
26	0xbd245b60	-0.040126204
27	0x3ca4e87d	0.02013039
28	0x3d40153d	0.046895254
29	0xbd53723a	-0.051622607
30	0xbd4a62eb	-0.04941074
31	0x3bd3afd2	0.0064601684
32	0xbd02392d	-0.03179281
33	0xbcf23315	-0.029565373
34	0x3d23cb70	0.039988935
35	0xbd687786	-0.05675461
36	0x3c7f76bc	0.015592273
37	0x3d2b1b92	0.04177434
38	0x3dbef844	0.09324697
39	0xbd5d3bcb	-0.0540121
40	0xbce40bdf	-0.027837692
41	0x3d0ed6cf	0.034872826
42	0xbca15947	-0.019695891
43	0x3d056721	0.032569055
44	0x3d44bb05	0.04802992
45	0x3d10aaa5	0.03531899
46	0x3c8cf9fa	0.017209042
47	0xbd5778a8	-0.0526053
48	0x3c901efe	0.017592903
49	0x3b88e4ed	0.0041776807

linears.2.weight f4 [50, 50]
0	0x3e17de1d	0.14830823
1	0xbdf6b105	-0.120454825
2	0xbe45d029	-0.19317688
3	0x3e469d83	0.19396023
4	0xbd34e875	-0.044167
5	0x3e49bd1e	0.19701049
6	0xbe4fafe7	-0.20281945
7	0x3d0fb269	0.035082255
8	0x3d40d89a	0.047081567
9	0x3df3eb2a	0.11910088
10	0x3e1e669b	0.15468828
11	0xbe81a7fe	-0.2532348
12	0x3e3c4c64	0.18388516
13	0xbd5e58ea	-0.054284014
14	0x3d61a508	0.055089027
15	0x3e81db1f	0.2536249
16	0xbe3de712	-0.18545178
17	0x3e09f32d	0.1347167
18	0xba1e255f	-0.00060327904
19	0x3c4facdc	0.01267549
20	0x3da58f29	0.08083946
21	0x3dcc8c38	0.09987682
22	0x3e2e7bab	0.17039363
23	0x3d4e0fd2	0.050308056
24	0x3df57273	0.1198472
25	0xbe2d70ba	-0.16937533
26	0x3e3f625d	0.18689866
27	0xbd4a3ebc	-0.049376234
28	0x3e0d117f	0.13776205
29	0x3b82f6b6	0.0039966954
30	0x3c8ab673	0.016932702
31	0xbd31064d	-0.0432189
32	0x3e4f16e0	0.2022357
33	0xbdf4a663	-0.11945798
34	0x3dbe6a96	0.092976734
35	0x3c3e5f51	0.011619405
36	0x3d72581f	0.05916607
37	0xbe03eda2	-0.12883618
38	0x3e0b33bc	0.13593954
39	0x3c73b9d2	0.014875846
40	0x3db20f41	0.08694316
41	0x3d6d61b9	0.057954524
42	0x3cf92c85	0.030416736
43	0xbe255463	-0.16145472
44	0xbe322a8d	-0.17399044
45	0x3d40b83d	0.047050703
46	0xbc94d26c	-0.018166743
47	0x3d7431e9	0.05961791
48	0x3e834325	0.25637165
49	0xbe0267f4	-0.12734967
50	0xbe243ac2	-0.1603804
51	0xbda2b4ea	-0.07944663
52	0xbdae331d	-0.08505843
53	0x3ccb7d96	0.024840157
54	0xbe3cf66a	-0.18453375
55	0xbe01680b	-0.12637345
56	0xbd1de771	-0.038550798
57	0x3e01a9a0	0.12662363
58	0x3dc6120e	0.096714124
59	0xbe4a4add	-0.1975512
60	0xbdd5e8f5	-0.10444824
61	0x3e1fb337	0.15595709
62	0x3d76b2cf	0.06022912
63	0x3e4e0967	0.20120774
64	0x3dda0bad	0.10646758
65	0xbdaf81d9	-0.08569688
66	0xbe233052	-0.15936401
67	0x3e24523f	0.16047
68	0xbd9f6b5b	-0.07784148
69	0x3df6b2d8	0.120458305
70	0x3db85aff	0.09001731
71	0xbbb6c81d	-0.0055780546
72	0x3dcd4524	0.10022953
73	0xbe391d1e	-0.18077514
74	0x3d9d8acf	0.07692491
75	0x3d7413bf	0.059589144
76	0xbd194ff0	-0.03742975
77	0xbd3f1736	-0.046652995
78	0x3df8b06f	0.12143027
79	0x3e369b69	0.17832722
80	0xbe642050	-0.22277951
81	0xbe3dc20d	-0.18531056
82	0x3cd2ad8d	0.025717521
83	0x3dd17245	0.10226873
84	0xbdc200cc	-0.09472808
85	0x3cbf64da	0.02336352
86	0x3e64adf4	0.22331983
87	0xbdcfe375	-0.10150806
88	0xbe00a2a3	-0.12562041
89	0x3e6e8dce	0.23296282
90	0x3e4112c7	0.18854819
91	0x3d3f5f01	0.046721462
92	0xbdd7d5b5	-0.10538808
93	0x3da812e8	0.08206731
94	0x3ccf5a8b	0.025311729
95	0x3b926074	0.0044670645
96	0xbb5296ec	-0.0032133413
97	0x3d803a54	0.06261125
98	0x3dce388a	0.10069378
99	0xbe08ccaa	-0.13359323
100	0x3e3918ab	0.18075816
101	0xbd524610	-0.051336348
102	0xbe581012	-0.2109988
103	0xbcf42f49	-0.029807704
104	0xba81c005	-0.0009899145
105	0xbd0bdc36	-0.034145556
106	0x3d3b1377	0.04567286
107	0x3e4898da	0.19589558
108	0xbd11b527	-0.03557315
109	0xbe0b141e	-0.13581893
110	0xbe775ec3	-0.24157242
111	0x3d95be87	0.07311731
112	0xbe23376d	-0.15939112
113	0xbe642a36	-0.22281727
114	0xbe5a5afb	-0.21323769
115	0x3e458ef1	0.19292809
116	0xbe22679f	-0.15859841
117	0x3df3c4c3	0.11902764
118	0xbdd8671d	-0.10566542
119	0x3df8da82	0.12151052
120	0xbc1fc5c3	-0.00975174
121	0x3e370b06	0.17875299
122	0x3e381bc4	0.17979342
123	0xbdb72eb5	-0.089444555
124	0xbe5022c2	-0.20325759
125	0xbb430988	-0.002976032
126	0xba7600dd	-0.0009384284
127	0xbde89fd8	-0.11358613
128	0x3e327fb9	0.17431535
129	0x3e2ee80e	0.1708071
130	0xbe57b3f3	-0.21064739
131	0x3e31e4f9	0.17372502
132	0xbdad64b1	-0.08466471
133	0xbdd21e14	-0.10259643
134	0xbe634ea8	-0.22197974
135	0x3e3a1448	0.18171799
136	0x3e2fcd45	0.17168148
137	0x3e1928d4	0.14956981
138	0x3e00f44b	0.1259319
139	0x3e5fa816	0.21841463
140	0x3da3f6d8	0.08006066
141	0x3e229b02	0.15879443
142	0x3dc9de35	0.09856836
143	0xbdfec689	-0.12440211
144	0xbc5fc3ab	-0.013657491
145	0xbe3fd382	-0.18733028
146	0x3e403952	0.18771866
147	0x3e394807	0.18093883
148	0xbdfba4b3	-0.12287273
149	0x3d25e761	0.040503863
150	0xbe286f8d	-0.16448803
151	0x3e1dcffe	0.15411374
152	0x3d2504bc	0.04028772
153	0x3df551ac	0.11978468
154	0xbc8d2561	-0.017229738
155	0x3e3b6992	0.1830199
156	0x3d723f5a	0.059142448
157	0x3e0fb87a	0.14035216
158	0xbe209c9a	-0.15684739
159	0x3d5b0253	0.053469013
160	0xbe0a1b75	-0.13487037
161	0x3e8554ab	0.2604116
162	0x3d8a0aab	0.06740316
163	0xbe168243	-0.14698128
164	0xbdfbad6a	-0.122889355
165	0x3e2f8593	0.17140798
166	0xbdda10c9	-0.10647733
167	0x3e39a0a7	0.1812769
168	0xbc5d5e3f	-0.01351124
169	0x3d72e549	0.059300695
170	0xbd436e74	-0.04771276
171	0xbcafd164	-0.02146215
172	0xbd98d81e	-0.07463096
173	0x3e6bac14	0.23014861
174	0xbdb87dcb	-0.09008368
175	0xbe6689d6	-0.22513518
176	0xbc87ce6e	-0.016577926
177	0x3d3e6be6	0.04648962
178	0x3e11a1e8	0.14221919
179	0x3e43a87d	0.19107242
180	0x3da6d2d3	0.0814568
181	0xbe0a407f	-0.13501166
182	0x3d2c816a	0.042115606
183	0xbd4c2364	-0.04983844
184	0xbe091d90	-0.13390183
185	0xbd2402a6	-0.04004159
186	0xbbd7aba7	-0.006581742
187	0xbdde5f6d	-0.10858045
188	0x3c7eac5e	0.015544025
189	0x3d3ddedd	0.046355117
190	0xbe82c0ed	-0.25537816
191	0x3df6b570	0.12046325
192	0xbd6cdc7c	-0.057827458
193	0x3e84eb2c	0.25960672
194	0x3e29d865	0.16586454
195	0x3e5477cc	0.20748824
196	0x3df2476c	0.11830029
197	0x3d8edd6b	0.06975826
198	0x3dcc97d2	0.09989895
199	0xbe04c1a1	-0.12964489
200	0xbe161c11	-0.14659144
201	0xbcf562c1	-0.029954316
202	0xbbf3c354	-0.0074390564
203	0xbe248cc2	-0.1606932
204	0xbdf34cc3	-0.118798755
205	0x3ba72329	0.005100627
206	0x3e47a718	0.19497335
207	0x3e2f2810	0.17105126
208	0xbdf2c35b	-0.11853667
209	0xbd126bf5	-0.035747487
210	0xbc267f72	-0.010162221
211	0x3d5b89ef	0.05359834
212	0xbc9af34d	-0.018914843
213	0x3e277f89	0.16357245
214	0x3e64bc2b	0.22337405
215	0x3dc6287c	0.096756905
216	0x3e4860ca	0.19568172
217	0xbe103a4f	-0.14084743
218	0xbe2e140c	-0.16999835
219	0xbb14319b	-0.0022612575
220	0x3e2854bd	0.16438575
221	0x3df41296	0.119176075
222	0xbe3db38d	-0.18525524
223	0x3e2374f5	0.15962584
224	0x3d4de246	0.05026462
225	0x3da1e063	0.079041265
226	0x3e5e9f87	0.21740542
227	0xbdef2ad5	-0.116780914
228	0xbd60191d	-0.05471145
229	0x3e4888e9	0.19583477
230	0xbd70bdb3	-0.05877466
231	0x3c39f602	0.011350157
232	0x3e5b2274	0.21399862
233	0xbd17641d	-0.03696071
234	0x3d2b1d55	0.04177602
235	0xbe232d10	-0.15935159
236	0xbe0d7945	-0.13815792
237	0x3dd5a0e7	0.1043108
238	0xbe7406ae	-0.23830673
239	0x3e65c103	0.2243691
240	0xbd73bf41	-0.059508566
241	0x3ddd64b9	0.10810227
242	0x3e3eef3e	0.18645951
243	0x3e31be75	0.1735781
244	0x3e2c817a	0.16846266
245	0xbd464d06	-0.0484133
246	0xbdb89548	-0.09012848
247	0xbd7ba80e	-0.061439566
248	0x3e2b0a62	0.1670318
249	0x3dc30f33	0.095243834
250	0xbcd8938d	-0.026437545
251	0x3e268e7d	0.16265292
252	0x3ce0413f	0.027374862
253	0xbde45672	-0.11149301
254	0xbd9e9b89	-0.0774451
255	0xbd8bb4a0	-0.06821561

linears.2.bias f4 [50]
0	0xbce1767d	-0.02752232
1	0xbd7eeb34	-0.062236026
2	0xbd71cb8c	-0.059032008
3	0xbdb29e76	-0.0872163
4	0x3d26792b	0.0406429
5	0xbdd146f9	-0.10218615
6	0xbd1a1231	-0.037615005
7	0x3dcec31a	0.100958064
8	0xbdc02225	-0.093815126
9	0xbd6b0698	-0.057379335
10	0xbd3b5970	-0.04573959
11	0xbd01e6cc	-0.031714246
12	0x3d05473f	0.03253865
13	0x3d500b47	0.050792005
14	0x3d053c77	0.032528367
15	0x3c85542b	0.016275486
16	0xbd848d45	-0.064722575
17	0x3c8a57e6	0.016887616
18	0x3db23a64	0.087025434
19	0x3d05f6de	0.032706134
20	0xbd473d77	-0.0486426
21	0x3c9624bc	0.018328063
22	0xbd88d029	-0.066803284
23	0x3cc0f08f	0.023552207
24	0x3da40b85	0.0801001
25	0x3dad73fa	0.084693864
26	0x3d45b86c	0.04827158
27	0xbd061114	-0.03273113
28	0xbd58d724	-0.05293955
29	0x3d3810f1	0.04493803
30	0x3d24edc9	0.040265832
31	0x3d83f012	0.06442274
32	0xbd4dc05c	-0.050232276
33	0x3d45de1e	0.04830753
34	0xbce7424a	-0.028229851
35	0xbd3d0aa8	-0.04615274
36	0x3d376df4	0.044782594
37	0xbdc1a7b7	-0.09455817
38	0x3d94581a	0.072433665
39	0x3da5d833	0.08097877
40	0x3d341658	0.04396662
41	0xbdb9a0ba	-0.09063859
42	0x3dceb085	0.10092262
43	0x3d6f5976	0.058434926
44	0x3d5d0b5e	0.05396592
45	0xbd842a6e	-0.06453405
46	0x3d86f23d	0.06589172
47	0x3daeab73	0.08528795
48	0xbd579e59	-0.052641246
49	0xbc8b8592	-0.017031465

linears.3.weight f4 [3, 50]
0	0xbd6f988f	-0.0584951
1	0xbd9a022a	-0.07519944
2	0xbe0de673	-0.1385744
3	0xbe4b0fc2	-0.1983023
4	0x3c20b8d6	0.009809693
5	0xbe907f4a	-0.28222114
6	0xbea86a53	-0.3289362
7	0x3dcfa7aa	0.10139401
8	0xbdfaa72b	-0.12238916
9	0xbe9f1978	-0.3107412
10	0xbe2d1037	-0.16900717
11	0xbc90f4e2	-0.017694894
12	0x3d0f1ea4	0.03494133
13	0x3e02f51c	0.12788814
14	0x3e93fd60	0.28904247
15	0x3df5116e	0.11966215
16	0xbd496c45	-0.04917552
17	0x3e03f0bb	0.128848
18	0x3e7a5059	0.24444713
19	0x3e241d29	0.16026749
20	0xbdd56b1b	-0.10420819
21	0x3e0085a2	0.12550977
22	0xbe203eee	-0.15649006
23	0x3de96778	0.11396688
24	0x3e84acff	0.25913236
25	0x3df6eb37	0.120565824
26	0x3dbf8aba	0.09352632
27	0xbe4a1fa4	-0.19738632
28	0xbe7625e5	-0.24037893
29	0x3e59d12c	0.21271199
30	0x3e1f6630	0.15566325
31	0x3e23cc33	0.15995865
32	0xbe7f6b0b	-0.24943177
33	0x3e610c42	0.21977332
34	0xbe827d09	-0.2548602
35	0xbd64c675	-0.055853326
36	0x3dfe4eb6	0.12417357
37	0xbeafeee6	-0.34361953
38	0x3e47fa02	0.19528964
39	0x3e55b745	0.20870693
40	0x3d7339f4	0.05938144
41	0xbe8d29de	-0.27571005
42	0x3e94ebfd	0.29086295
43	0x3e1d9ac3	0.15391068
44	0x3e86bc33	0.2631546
45	0xbe88d620	-0.26725864
46	0x3eb2cacf	0.34920356
47	0x3e8fb1ad	0.28065243
48	0xbd64749a	-0.055775262
49	0xbdcce6c2	-0.10004951
50	0x3ddde102	0.108339325
51	0xbe12453b	-0.14284222
52	0xbd20536d	-0.03914206
53	0xbbdc3bf1	-0.0067210128
54	0x3e5d157a	0.21590224
55	0xbbab9a55	-0.0052369037
56	0x3e45be4e	0.19310877
57	0xba897f67	-0.0010490239
58	0x3b8aec8e	0.0042396253
59	0xbe4e2152	-0.20129898
60	0xbe3ff054	-0.18744022
61	0xbb641cbc	-0.0034807166
62	0xbd8ca06a	-0.06866534
63	0x3e1b624a	0.15174213
64	0xbe29212b	-0.16516559
65	0xbe3674f1	-0.17818047
66	0xb98dad0e	-0.00027022552
67	0xbda11c4d	-0.07866726
68	0xbc85fc69	-0.01635571
69	0xbdc7763b	-0.097393475
70	0xbe3214eb	-0.17390792
71	0xbe49e9e4	-0.19718128
72	0x3cca3f3d	0.024688357
73	0xbe6a0fab	-0.2285754
74	0x3e25f472	0.1620653
75	0xbbc9b19f	-0.0061552073
76	0x3de5a356	0.112127945
77	0x3e62de51	0.2215512
78	0x3e70864b	0.23488729
79	0xbe2a9c37	-0.16661154
80	0xbdabd54b	-0.08390292
81	0x3cb60714	0.022220172
82	0x3e4d312e	0.20038292
83	0xbe81e528	-0.25370145
84	0x3e883154	0.26600134
85	0xbd826e13	-0.06368651
86	0x3da5ba9b	0.08092233
87	0x3be9a741	0.007130534
88	0x3e40e541	0.18837453
89	0x3d321dfd	0.04348563
90	0xbcbb36b7	-0.022853239
91	0xbb1d42a6	-0.0023996024
92	0x3ab8768d	0.0014073417
93	0x3dde5b2a	0.10857232
94	0xbd871e36	-0.06597559
95	0x3d8713c0	0.06595564
96	0xbe6274fe	-0.22114941
97	0xbcbd0194	-0.023072042
98	0xbd45caf8	-0.04828927
99	0x3e4b6713	0.19863538
100	0xbdc191da	-0.09451647
101	0xbdd50f3f	-0.104032986
102	0x3ea82d4d	0.32847062
103	0x3dac7cbd	0.084222294
104	0x3dd78aa6	0.10524492
105	0x3e039d6a	0.12853017
106	0xbc0f1a6c	-0.008734327
107	0x3be203cb	0.006897425
108	0x3c358cd8	0.011080943
109	0xbb110a1a	-0.0022131265
110	0x3e6e9612	0.23299435
111	0x3cf0b33a	0.029382337
112	0x3d051b8f	0.032496985
113	0xbe3014d6	-0.17195448
114	0x3d6de962	0.0580839
115	0xbe7124ee	-0.23549244
116	0xbe3bb31b	-0.18330042
117	0x3e3598a1	0.17734005
118	0xbe00adfa	-0.12566367
119	0xbd9799a7	-0.07402354
120	0x3e43ac3a	0.19108668
121	0xbdd3caa4	-0.10341385
122	0x3e2c5561	0.16829444
123	0xbde79b89	-0.11308963
124	0x3e650527	0.22365247
125	0xbd8dbd9a	-0.06920929
126	0xbd8dbffa	-0.06921382
127	0x3e92c0b8	0.28662658
128	0xbe56fc1d	-0.20994611
129	0xbe270227	-0.16309415
130	0x3e288bad	0.16459532
131	0xbe411578	-0.18855846
132	0xbca863b8	-0.020555362
133	0x3da61a9f	0.08110546
134	0xbdd43702	-0.103620544
135	0xbe694f29	-0.22784103
136	0x3e2f8fab	0.17144649
137	0xbc70aecd	-0.014690113
138	0x3e297f4f	0.1655247
139	0x3c688fac	0.01419441
140	0x3e02bbac	0.12766904
141	0xbe91a197	-0.28443596
142	0xbe713b25	-0.23557718
143	0x3d5eb186	0.05436852
144	0xbe2d44b2	-0.16920736
145	0xbe59e3e4	-0.2127834
146	0x3e1034bc	0.14082617
147	0xbcd89125	-0.026436398
148	0x3dee7e6b	0.11645206
149	0xbeaa65cf	-0.332808

linears.3.bias f4 [3]
0	0x3df2eb48	0.118612826
1	0x3cff5303	0.031167513
2	0x3d6bb313	0.057543825

exp_avg f4 [50, 1]
0	0x33c63d7f	9.2312796e-08
1	0xb40c400a	-1.3061813e-07
2	0xb27e3cfe	-1.4798614e-08
3	0xb5a9c30a	-1.2648245e-06
4	0x3488b5d8	2.5464283e-07
5	0xb55aaa3f	-8.145907e-07
6	0x355fa74e	8.3317434e-07
7	0x350406cc	4.918372e-07
8	0x35c4b5f8	1.4656098e-06
9	0xb4ed5805	-4.4208733e-07
10	0x34a9096c	3.1485558e-07
11	0x34de26f9	4.137908e-07
12	0x3532884c	6.6508505e-07
13	0x352eae1a	6.50734e-07
14	0xb4ee4445	-4.4380627e-07
15	0x34075870	1.2605028e-07
16	0xb379ec7e	-5.818992e-08
17	0xb5307e75	-6.574913e-07
18	0x35bffc36	1.4304012e-06
19	0x346a16fe	2.1801313e-07
20	0xb3df6330	-1.0402289e-07
21	0xb47e0f05	-2.3661057e-07
22	0xb2650bae	-1.333221e-08
23	0xb2e22819	-2.6328097e-08
24	0xb4e6aab3	-4.2965038e-07
25	0xb3ec6911	-1.1008718e-07
26	0xb5583a63	-8.0551234e-07
27	0xb33ca4ec	-4.3922157e-08
28	0x3486f549	2.5137913e-07
29	0xb5641a5f	-8.4974994e-07
30	0xb4b50f1f	-3.372488e-07
31	0xb537db1e	-6.849167e-07
32	0x35b14712	1.3208212e-06
33	0xb4dbe20c	-4.09564e-07
34	0x33ebfb22	1.0988721e-07
35	0x349a05f0	2.8689055e-07
36	0xb5bc27f8	-1.4018724e-06
37	0xb40ba4e3	-1.3005369e-07
38	0xb31b3cc4	-3.6144016e-08
39	0xb463c9c5	-2.1214426e-07
40	0xb50fcf4e	-5.357332e-07
41	0xb4d76675	-4.0121418e-07
42	0xb3c49d10	-9.155531e-08
43	0x36156993	2.2264182e-06
44	0x35c93481	1.4990948e-06
45	0x3275af18	1.4300689e-08
46	0xb450d43d	-1.9448721e-07
47	0x343a3e02	1.7345158e-07
48	0xb547eb76	-7.447592e-07
49	0xb5622121	-8.423977e-07

exp_avg_sq f4 [50, 1]
0	0x31636039	3.3087544e-09
1	0x2f39100f	1.6831357e-10
2	0x32644a29	1.3288209e-08
3	0x34553ba8	1.9858874e-07
4	0x31eaca64	6.8333055e-09
5	0x3391fa35	6.797601e-08
6	0x348e6d9a	2.6529307e-07
7	0x315c4892	3.2055465e-09
8	0x32d46d09	2.4729632e-08
9	0x32aef8af	2.0369354e-08
10	0x32097a00	8.002189e-09
11	0x3141c292	2.8195797e-09
12	0x342b6ede	1.5965949e-07
13	0x31a29f70	4.7329465e-09
14	0x332cc909	4.022971e-08
15	0x2f55f634	1.9459706e-10
16	0x329d6f84	1.8327917e-08
17	0x32d7d567	2.5126338e-08
18	0x357742d0	9.2111895e-07
19	0x31677c52	3.3685592e-09
20	0x31555665	3.104469e-09
21	0x3039a5f4	6.753844e-10
22	0x2fa552bf	3.007212e-10
23	0x335ec0bc	5.1863694e-08
24	0x32487bef	1.1669711e-08
25	0x327d2a93	1.47362185e-08
26	0x32827b2d	1.5190006e-08
27	0x3071b5a7	8.793343e-10
28	0x32839e80	1.5322485e-08
29	0x347f75df	2.3791607e-07
30	0x30f4be88	1.7807489e-09
31	0x34e5696f	4.2731287e-07
32	0x34d61b71	3.9880572e-07
33	0x3173513b	3.5407328e-09
34	0x32e215d2	2.6319785e-08
35	0x3494e7c3	2.7735777e-07
36	0x35088386	5.085534e-07
37	0x311a24d9	2.2430895e-09
38	0x300a4f5d	5.031689e-10
39	0x308c0f63	1.0190714e-09
40	0x32a8dbc9	1.965772e-08
41	0x320fb7bc	8.365472e-09
42	0x34d4458d	3.9538682e-07
43	0x34af4aff	3.2650857e-07
44	0x341ae7fc	1.4426763e-07
45	0x2eb4e932	8.226876e-11
46	0x32ca0110	2.3516378e-08
47	0x2f94c572	2.7061337e-10
48	0x320a0d28	8.035649e-09
49	0x34dffcc2	4.1720892e-07

exp_avg f4 [50]
0	0x34e296e5	4.220557e-07
1	0x34921a54	2.7213775e-07
2	0x346711df	2.1520053e-07
3	0x318a5a2d	4.0265804e-09
4	0x36151ea7	2.2220572e-06
5	0xb5ac5150	-1.2838664e-06
6	0xb490b885	-2.6956346e-07
7	0x34d65e32	3.9929142e-07
8	0x34dda848	4.1286899e-07
9	0x35793beb	9.284692e-07
10	0x35ef7af1	1.7842668e-06
11	0xb38c8c58	-6.5447864e-08
12	0x34d6a97d	3.9983925e-07
13	0x35a410c0	1.2223827e-06
14	0xb5f15330	-1.798011e-06
15	0x34e7f746	4.3207018e-07
16	0xb3ad2fd2	-8.064639e-08
17	0x331f79b3	3.7130757e-08
18	0xb5392f97	-6.8987123e-07
19	0x36096697	2.0474306e-06
20	0x356e28b8	8.872116e-07
21	0xb24c7a4f	-1.1902173e-08
22	0xb4d74fc2	-4.0104902e-07
23	0xb49eff18	-2.9615398e-07
24	0x3398dc27	7.118097e-08
25	0x345a7ffa	2.034939e-07
26	0x344dc144	1.9162422e-07
27	0x35e76695	1.7240696e-06
28	0xb5e74059	-1.7229569e-06
29	0x3410fd16	1.3503117e-07
30	0x344b33f8	1.8924754e-07
31	0x34eb49be	4.3825816e-07
32	0x3640224c	2.8630193e-06
33	0x35550bde	7.936595e-07
34	0xb56e617d	-8.8803773e-07
35	0x34ec77b2	4.4045515e-07
36	0xb5b11b1a	-1.3195415e-06
37	0xb6220efc	-2.4148603e-06
38	0x36112502	2.1628225e-06
39	0xb5379f97	-6.8405046e-07
40	0xb50427f4	-4.923197e-07
41	0x3515c804	5.5797886e-07
42	0xb4b5dc79	-3.3874292e-07
43	0x354c140b	7.602509e-07
44	0xb4fdb2c5	-4.7254994e-07
45	0x34b92ac0	3.449004e-07
46	0xb2e08169	-2.6135881e-08
47	0xb56c90c5	-8.812752e-07
48	0xb603a0b5	-1.9614065e-06
49	0xb59ed43d	-1.1833687e-06

exp_avg_sq f4 [50]
0	0x32152217	8.680693e-09
1	0x309a1629	1.1211273e-09
2	0x33603e2d	5.2210613e-08
3	0x3080481c	9.33372e-10
4	0x3407e2bd	1.2655342e-07
5	0x32f53775	2.8546973e-08
6	0x3375ca92	5.7227744e-08
7	0x32cdd5d2	2.3962375e-08
8	0x3151dbc8	3.0538434e-09
9	0x3460d74f	2.0939954e-07
10	0x33d2226e	9.78515e-08
11	0x33fbf425	1.1732508e-07
12	0x320fe186	8.374974e-09
13	0x340fe7e5	1.3402276e-07
14	0x33616083	5.247467e-08
15	0x33928c4b	6.824174e-08
16	0x32db217b	2.551018e-08
17	0x33a2939d	7.5705636e-08
18	0x32093fb8	7.9889375e-09
19	0x3339b3d9	4.323724e-08
20	0x333d6605	4.4097778e-08
21	0x306cdee6	8.617306e-10
22	0x31b3d7cb	5.2341185e-09
23	0x31105df4	2.1008164e-09
24	0x34335d0d	1.6704526e-07
25	0x313f320f	2.7822613e-09
26	0x3279436c	1.45090375e-08
27	0x34029e4d	1.2164783e-07
28	0x32e6e93e	2.688159e-08
29	0x30df45de	1.6245243e-09
30	0x328ad289	1.6161055e-08
31	0x31b21b42	5.1835807e-09
32	0x339d13ae	7.314462e-08
33	0x3263c0f1	1.3257009e-08
34	0x322917af	9.84248e-09
35	0x31b20a4b	5.181652e-09
36	0x334a87e3	4.715538e-08
37	0x33906373	6.723612e-08
38	0x3382943d	6.080561e-08
39	0x32a253ac	1.8897332e-08
40	0x33c29fe6	9.062914e-08
41	0x3325f4a9	3.8639573e-08
42	0x318d66eb	4.1153405e-09
43	0x31e5ca79	6.6877957e-09
44	0x31b17c4a	5.165508e-09
45	0x32246580	9.569135e-09
46	0x31209cd3	2.3372209e-09
47	0x338080ab	5.983869e-08
48	0x33e2acdd	1.0555389e-07
49	0x33d837bd	1.00684225e-07

exp_avg f4 [50, 50]
0	0xb4413955	-1.7995383e-07
1	0x34436234	1.8196516e-07
2	0xb33d4bc1	-4.407389e-08
3	0xb34aadb2	-4.7189765e-08
4	0xb4070a09	-1.2576506e-07
5	0xb38180b3	-6.030441e-08
6	0x32419ce5	1.1269752e-08
7	0x33fe9ea9	1.1856657e-07
8	0x33d9dafd	1.0144684e-07
9	0xb3730ce6	-5.6589577e-08
10	0xb408e99a	-1.2750971e-07
11	0xb43abc57	-1.7391118e-07
12	0x33062441	3.123228e-08
13	0xb452cf16	-1.9633111e-07
14	0xb3e89a31	-1.0831389e-07
15	0xb415e5a0	-1.3960243e-07
16	0xb3ca3279	-9.415539e-08
17	0xb3f08eec	-1.1201868e-07
18	0x32721c83	1.4092737e-08
19	0xb3cd3a61	-9.5566755e-08
20	0xb412bfb5	-1.3667052e-07
21	0x343ef2dc	1.778348e-07
22	0x34143c14	1.380543e-07
23	0xb33ae5e2	-4.3515577e-08
24	0x340f2eff	1.333501e-07
25	0x33dfd2da	1.04226004e-07
26	0xb3bebf55	-8.8823676e-08
27	0x340ec960	1.329804e-07
28	0x33963197	6.99394e-08
29	0x33095569	3.197548e-08
30	0x3437be9e	1.7112549e-07
31	0x30339eb3	6.5345346e-10
32	0xb3661f32	-5.357942e-08
33	0xb3f4d552	-1.1400938e-07
34	0x33983a4a	7.088654e-08
35	0xb141223c	-2.8104656e-09
36	0xb2bc7748	-2.1940323e-08
37	0x33d279d1	9.801045e-08
38	0x34329bac	1.6634175e-07
39	0x340bf346	1.3033886e-07
40	0xb345415b	-4.5927077e-08
41	0xb3fda1aa	-1.1810637e-07
42	0xb3b83195	-8.5771866e-08
43	0xb28d40ed	-1.6444085e-08
44	0x33840a15	6.148563e-08
45	0x340aaee6	1.2915879e-07
46	0xb4023b49	-1.2128761e-07
47	0xb418c0a7	-1.422619e-07
48	0xb4010c7c	-1.2018603e-07
49	0xb385f35e	-6.237563e-08
50	0xb329283f	-3.9384982e-08
51	0x3360c5c1	5.233392e-08
52	0xb396fdf9	-7.031117e-08
53	0xb31236c2	-3.4043076e-08
54	0xb33eb695	-4.440388e-08
55	0xb2eedff4	-2.7808689e-08
56	0x337e0b86	5.9149464e-08
57	0x33279e28	3.902656e-08
58	0x33081b67	3.168989e-08
59	0xb3aa4495	-7.928717e-08
60	0xb19fe7c8	-4.6538595e-09
61	0xb2900a67	-1.6768537e-08
62	0x328a4599	1.6096964e-08
63	0x31078836	1.9722513e-09
64	0xb035d4fc	-6.6150085e-10
65	0xb3bf7fd7	-8.9173845e-08
66	0xb3a6e39d	-7.77138e-08
67	0xb3107bc6	-3.3640184e-08
68	0x3248ece1	1.1695392e-08
69	0xb39ee410	-7.398933e-08
70	0xb262bac4	-1.3197397e-08
71	0x3380ab26	5.991596e-08
72	0x33b2548f	8.304152e-08
73	0xb31427d8	-3.4495173e-08
74	0x31959fa8	4.3546216e-09
75	0x32e10880	2.6197313e-08
76	0xb354da42	-4.95586e-08
77	0x33e3e519	1.0612184e-07
78	0x3371913a	5.6244268e-08
79	0x31fe4fb1	7.401433e-09
80	0x338ed160	6.6504754e-08
81	0xb2b70f34	-2.1310917e-08
82	0xb27b4117	-1.4624923e-08
83	0xb2d10ac3	-2.4335696e-08
84	0x33313cab	4.12662e-08
85	0xb19faee9	-4.647394e-09
86	0x32c0e52b	2.2455955e-08
87	0x33ad6cc6	8.075726e-08
88	0x33945ca7	6.9086404e-08
89	0x336a9ccf	5.4624987e-08
90	0xb38fb175	-6.691236e-08
91	0xb3abd6d3	-8.001884e-08
92	0x31e41da6	6.639044e-09
93	0xb1c414ca	-5.706714e-09
94	0x31631abd	3.3048047e-09
95	0x33c5e7d5	9.2156974e-08
96	0x31a0f71e	4.684707e-09
97	0xb3cf914f	-9.66562e-08
98	0xb31fc2bd	-3.7197186e-08
99	0x334bd048	4.745405e-08
100	0x32d7a970	2.5106345e-08
101	0xb2475e4d	-1.1604766e-08
102	0x33b11209	8.2454854e-08
103	0x3399edd2	7.167877e-08
104	0x337e4bc5	5.9207895e-08
105	0x339f2e80	7.412473e-08
106	0xb38bbf5d	-6.507501e-08
107	0xb3898e3d	-6.4054326e-08
108	0xb39d1a35	-7.315649e-08
109	0x33b22a22	8.296435e-08
110	0x339070f5	6.726069e-08
111	0x3326d3aa	3.8842394e-08
112	0xb368ee16	-5.4233247e-08
113	0x33037f2d	3.061648e-08
114	0x339fbd74	7.438476e-08
115	0x32e3c80b	2.6517247e-08
116	0x339221bb	6.80479e-08
117	0x3392b446	6.831446e-08
118	0xb32170b2	-3.758823e-08
119	0x33917f4c	6.775244e-08
120	0x3383bb0a	6.134185e-08
121	0xb267334d	-1.3457634e-08
122	0xb32514c8	-3.8435957e-08
123	0x3396ea5a	7.0275476e-08
124	0xb38afc65	-6.472036e-08
125	0xb39cafa5	-7.2962656e-08
126	0x33a17fac	7.52037e-08
127	0xb2e60f9a	-2.6782619e-08
128	0xb3ad5dbe	-8.072992e-08
129	0xb358b61e	-5.0457054e-08
130	0xb295fe98	-1.7461659e-08
131	0x32edad14	2.7669138e-08
132	0x338e346d	6.6219265e-08
133	0x3395744f	6.9595096e-08
134	0xb3abfc1d	-8.008667e-08
135	0x325423ff	1.2348209e-08
136	0x328ed715	1.6628784e-08
137	0xb38abe1f	-6.4607086e-08
138	0xb286e1cd	-1.5702335e-08
139	0xb366a856	-5.370415e-08
140	0x33b07147	8.216244e-08
141	0x3368f8b2	5.4242896e-08
142	0x3398c4d4	7.1138544e-08
143	0x3317beb7	3.533088e-08
144	0xb38be23f	-6.513846e-08
145	0xb30d3436	-3.2876606e-08
146	0x3399407b	7.1363466e-08
147	0x32cb1148	2.3640169e-08
148	0x3388eacc	6.375703e-08
149	0x332b5c51	3.9898e-08
150	0x33dc8b36	1.02698706e-07
151	0xb4070750	-1.2575515e-07
152	0x33205682	3.733158e-08
153	0x331617e7	3.4946336e-08
154	0x339eca3c	7.3942346e-08
155	0x33258269	3.8535664e-08
156	0xb2de443f	-2.5875236e-08
157	0xb399b986	-7.158364e-08
158	0xb38b241f	-6.479262e-08
159	0x334caf59	4.765693e-08
160	0x339ba275	7.247301e-08
161	0x33c40199	9.127252e-08
162	0xb3035571	-3.0578523e-08
163	0x33d587a8	9.943261e-08
164	0x33873147	6.295391e-08
165	0x33deb823	1.0371175e-07
166	0x33882735	6.340125e-08
167	0x33945573	6.90733e-08
168	0xb2cbce16	-2.3726027e-08
169	0x338aad35	6.457632e-08
170	0x33a32f6d	7.598906e-08
171	0xb40215ef	-1.2115173e-07
172	0xb3ba5574	-8.676844e-08
173	0x3311f292	3.398106e-08
174	0xb3a05fcf	-7.468008e-08
175	0xb38c3edd	-6.530693e-08
176	0x3383e488	6.1417325e-08
177	0xb3df568e	-1.0399991e-07
178	0xb35c7ad3	-5.133445e-08
179	0xb3071af5	-3.1456654e-08
180	0xb3f440f0	-1.13739475e-07
181	0x327f645c	1.4865773e-08
182	0x331d84f8	3.6675345e-08
183	0x3392ac8f	6.830043e-08
184	0xb348d21f	-4.6757233e-08
185	0x320b22e3	8.098797e-09
186	0x32a9aadc	1.9751887e-08
187	0xb38e3b30	-6.6231564e-08
188	0xb401c5c8	-1.2086014e-07
189	0xb3a47e79	-7.65985e-08
190	0x33212e08	3.75276e-08
191	0x339bc8cb	7.254274e-08
192	0x3343e2b8	4.5608175e-08
193	0x32ce296d	2.4000395e-08
194	0xb3259452	-3.8551953e-08
195	0xb3bfbaf5	-8.928138e-08
196	0x339263b2	6.816789e-08
197	0x33e970c1	1.0870418e-07
198	0x339a6b82	7.1907394e-08
199	0x3328ed0b	3.9331137e-08
200	0xb393bda3	-6.8797156e-08
201	0x333a51e9	4.3380997e-08
202	0xb2e801d3	-2.7009184e-08
203	0xb2ee4959	-2.7740201e-08
204	0xb39d7ed7	-7.333954e-08
205	0xb32d2ede	-4.0322327e-08
206	0xb17561c6	-3.570777e-09
207	0x33a3620a	7.608112e-08
208	0x33a42cbe	7.644984e-08
209	0xb326b066	-3.881032e-08
210	0xb3d0acb9	-9.717173e-08
211	0xb3c0e097	-8.9815494e-08
212	0x3286e15a	1.5702131e-08
213	0xb3d9840a	-1.0128868e-07
214	0xb3bfd328	-8.93254e-08
215	0xb23305b2	-1.0420466e-08
216	0xb35e2f68	-5.173152e-08
217	0xb3a84306	-7.835301e-08
218	0x319c86ab	4.5555075e-09
219	0xb3650da4	-5.3330623e-08
220	0xb3c9c914	-9.396368e-08
221	0x333650fc	4.2448832e-08
222	0x3333e345	4.1883386e-08
223	0xb2d22696	-2.4464764e-08
224	0x33d37b83	9.84792e-08
225	0x33ab5108	7.9775475e-08
226	0xb38a0b43	-6.428174e-08
227	0x31b44e3a	5.247583e-09
228	0x335fd2c2	5.2112917e-08
229	0x3293ee89	1.7221526e-08
230	0x333542c9	4.2203087e-08
231	0x31cc77fc	5.950822e-09
232	0xb310ead4	-3.3741188e-08
233	0xb3b4c4bc	-8.417689e-08
234	0x3363973f	5.2990114e-08
235	0xae90c629	-6.583562e-11
236	0xb2896363	-1.5994095e-08
237	0x33517f3f	4.8777334e-08
238	0x33071a66	3.1456146e-08
239	0x338d922d	6.5924134e-08
240	0xb2f4dfb3	-2.8507065e-08
241	0xb356688b	-4.992084e-08
242	0xb389b251	-6.411995e-08
243	0xb1f38bbd	-7.088117e-09
244	0x332f5b15	4.08282e-08
245	0x310fb8e2	2.0914332e-09
246	0xb3d46431	-9.890244e-08
247	0xb255aeab	-1.2437947e-08
248	0xb3a669fe	-7.749257e-08
249	0xb3439cd9	-4.5544628e-08
250	0x3408d992	1.2745139e-07
251	0xb3d692ab	-9.99183e-08
252	0xb33f74e6	-4.457697e-08
253	0xb2bed68e	-2.221648e-08
254	0x33a1d212	7.535358e-08
255	0xb17f2dec	-3.7133487e-09

exp_avg_sq f4 [50, 50]
0	0x30a29dd6	1.1831911e-09
1	0x30a8272e	1.2234744e-09
2	0x30748aa4	8.8963703e-10
3	0x2fed5002	4.3166898e-10
4	0x30824105	9.477225e-10
5	0x301919ee	5.5697924e-10
6	0x300f342b	5.209723e-10
7	0x307dcb45	9.2329727e-10
8	0x30596b1f	7.909637e-10
9	0x30840783	9.606399e-10
10	0x3078af57	9.047105e-10
11	0x30979c00	1.1031034e-09
12	0x2fa1409f	2.9331645e-10
13	0x30be8233	1.3861324e-09
14	0x305a78b5	7.9479473e-10
15	0x30bac85f	1.359023e-09
16	0x30885f1c	9.922334e-10
17	0x307074f7	8.747771e-10
18	0x2ef914d0	1.1326906e-10
19	0x308e57ce	1.0356815e-09
20	0x308641bb	9.768465e-10
21	0x30a9655d	1.2325178e-09
22	0x309045e3	1.0497242e-09
23	0x2ffc9ab5	4.594846e-10
24	0x3081b7d8	9.438237e-10
25	0x305993ed	7.9154355e-10
26	0x306b4366	8.558828e-10
27	0x30c4cdd3	1.4319376e-09
28	0x3062694a	8.2367946e-10
29	0x2f94460e	2.697082e-10
30	0x30a1b6de	1.1766266e-09
31	0x2ee06838	1.02048536e-10
32	0x2fa7cdeb	3.0523437e-10
33	0x306af2e5	8.547388e-10
34	0x302b4ccc	6.231857e-10
35	0x2ce3fc55	6.4797425e-12
36	0x2ef94204	1.1334936e-10
37	0x30919a4c	1.0593992e-09
38	0x30abc872	1.2498858e-09
39	0x30801140	9.318128e-10
40	0x306735d5	8.411381e-10
41	0x30935a09	1.0721247e-09
42	0x2fe86bb7	4.227709e-10
43	0x2f059f73	1.2152927e-10
44	0x2fe53478	4.169214e-10
45	0x30c704a3	1.4480473e-09
46	0x306570ad	8.3469837e-10
47	0x30ba6193	1.3561013e-09
48	0x307ba87f	9.1552715e-10
49	0x2fbd5ee3	3.444632e-10
50	0x302ccdf5	6.286592e-10
51	0x30305d6b	6.416118e-10
52	0x2ffae674	4.5638482e-10
53	0x2f80eb87	2.3450417e-10
54	0x3017da73	5.5243915e-10
55	0x2fb2b8c0	3.2509284e-10
56	0x2f7285af	2.2057266e-10
57	0x3017644c	5.507601e-10
58	0x300426a9	4.807626e-10
59	0x3008a7f9	4.9715215e-10
60	0x300cae94	5.1179794e-10
61	0x3021790e	5.874349e-10
62	0x2f484f98	1.8218171e-10
63	0x3034f3a3	6.5829847e-10
64	0x3000c912	4.6851867e-10
65	0x303da507	6.899232e-10
66	0x3018473f	5.5398525e-10
67	0x300f59a1	5.215047e-10
68	0x2e85c20d	6.08261e-11
69	0x301d4264	5.7210614e-10
70	0x3019cb73	5.5950194e-10
71	0x30303a61	6.411139e-10
72	0x301d7f65	5.7297306e-10
73	0x2f90421b	2.6240418e-10
74	0x30114f99	5.286381e-10
75	0x3003137b	4.7685206e-10
76	0x3009d450	5.0142024e-10
77	0x3041b99e	7.047677e-10
78	0x2ffb992b	4.5765466e-10
79	0x2f344479	1.6395231e-10
80	0x302e9559	6.3513067e-10
81	0x2e6569c6	5.2162517e-11
82	0x2f5cf6de	2.0096588e-10
83	0x300e4079	5.175092e-10
84	0x2fca254d	3.677009e-10
85	0x2bebb321	1.6747473e-12
86	0x2e5b2685	4.9829047e-11
87	0x30202645	5.8262045e-10
88	0x3034f496	6.5831196e-10
89	0x30160fee	5.459232e-10
90	0x2febdd0f	4.2903323e-10
91	0x30239c14	5.9520855e-10
92	0x2f88e83f	2.4903277e-10
93	0x2eb5aa43	8.2611716e-11
94	0x2f93a6f4	2.6857772e-10
95	0x304451d7	7.1420686e-10
96	0x3002ad4f	4.754001e-10
97	0x303cc3ad	6.8672074e-10
98	0x30147c70	5.401892e-10
99	0x2f229a3f	1.4788613e-10
100	0x30d6e2fa	1.563506e-09
101	0x30dde746	1.6145598e-09
102	0x30994944	1.1153038e-09
103	0x30415bd6	7.03435e-10
104	0x30c693ab	1.4448366e-09
105	0x30792414	9.063694e-10
106	0x300f9f7f	5.2249755e-10
107	0x30c2f0f3	1.418384e-09
108	0x30aebdaa	1.2714072e-09
109	0x30a8c56c	1.227972e-09
110	0x30b46118	1.3124319e-09
111	0x30c56850	1.4363284e-09
112	0x30032937	4.771609e-10
113	0x30cf7ec7	1.5097265e-09
114	0x30a4642b	1.196104e-09
115	0x30e723e5	1.6817664e-09
116	0x30c0ec2a	1.403696e-09
117	0x30bbc06a	1.3660728e-09
118	0x2f590383	1.9737283e-10
119	0x30c7b95d	1.4531839e-09
120	0x30c06806	1.3999404e-09
121	0x30df8b59	1.626499e-09
122	0x30cf6869	1.5090907e-09
123	0x304c49a2	7.4319406e-10
124	0x30b860f9	1.3415323e-09
125	0x30ae0d92	1.2664023e-09
126	0x30b6054b	1.3243747e-09
127	0x30e73178	1.6821522e-09
128	0x30a86b8c	1.2254175e-09
129	0x300014bf	4.659561e-10
130	0x30dcb1e8	1.6057671e-09
131	0x2f0644cb	1.2211669e-10
132	0x300b18cf	5.060316e-10
133	0x30b75e93	1.3341882e-09
134	0x308a2498	1.0051222e-09
135	0x2c8dd7ed	4.0314336e-12
136	0x2f20a787	1.4611433e-10
137	0x30c93f97	1.4642748e-09
138	0x30e23bf7	1.6460707e-09
139	0x30c4fda9	1.4332971e-09
140	0x3095d430	1.0901484e-09
141	0x30cf4d5a	1.5083217e-09
142	0x3033c283	6.539624e-10
143	0x2f5c02b9	2.0009851e-10
144	0x3045a2de	7.189963e-10
145	0x30ebd05c	1.715772e-09
146	0x30a6fec6	1.2150501e-09
147	0x30e57f81	1.6698182e-09
148	0x30c180a0	1.4079156e-09
149	0x2f89ff2d	2.5101468e-10
150	0x304a4a2f	7.3592593e-10
151	0x30450f59	7.1689993e-10
152	0x301c5220	5.6869176e-10
153	0x2fa28648	2.956304e-10
154	0x302e459e	6.3399763e-10
155	0x2fe40b35	4.1480921e-10
156	0x2fa72b44	3.0407865e-10
157	0x302cf04a	6.2914707e-10
158	0x301ec3c9	5.775829e-10
159	0x3020d718	5.851333e-10
160	0x3035cf7d	6.6142275e-10
161	0x304e8c89	7.5142076e-10
162	0x2f8ced11	2.5634297e-10
163	0x3073edfa	8.874107e-10
164	0x30274496	6.085171e-10
165	0x30429b6b	7.079765e-10
166	0x3028bf0a	6.1389527e-10
167	0x302886d6	6.130966e-10
168	0x2eb90e28	8.4153406e-11
169	0x302cf460	6.2920513e-10
170	0x303c000d	6.8394074e-10
171	0x30435188	7.105645e-10
172	0x302efa17	6.365623e-10
173	0x2fc3053b	3.547401e-10
174	0x303a4938	6.7770456e-10
175	0x301f5429	5.796346e-10
176	0x301ed6c8	5.778529e-10
177	0x304784fa	7.258475e-10
178	0x30181c21	5.533725e-10
179	0x2f81e387	2.362663e-10
180	0x303ed4ad	6.942383e-10
181	0x2e7ffdc8	5.820569e-11
182	0x2f8f6d49	2.60892e-10
183	0x302869ec	6.126857e-10
184	0x2ff8ef8e	4.528115e-10
185	0x2d632208	1.29110125e-11
186	0x2e986dcd	6.931664e-11
187	0x302f3325	6.373731e-10
188	0x304187f9	7.040622e-10
189	0x302b5459	6.2329303e-10
190	0x300fba89	5.228818e-10
191	0x30310806	6.4403627e-10
192	0x2fcee2d3	3.763235e-10
193	0x2f0a874b	1.2599093e-10
194	0x2fc7e0ab	3.6357525e-10
195	0x30467129	7.219279e-10
196	0x302d76e3	6.310598e-10
197	0x30428b54	7.0774786e-10
198	0x302d7084	6.309693e-10
199	0x2fa775de	3.0460873e-10
200	0x3110c708	2.1067894e-09
201	0x31161ae6	2.1843163e-09
202	0x30cd81b3	1.4952576e-09
203	0x3062afa9	8.246795e-10
204	0x30fbeabb	1.8329368e-09
205	0x30986260	1.1087415e-09
206	0x304cc58b	7.4495493e-10
207	0x30f68b41	1.7938434e-09
208	0x30d788a0	1.568214e-09
209	0x30df033a	1.6226303e-09
210	0x30e72546	1.6818056e-09
211	0x3105094c	1.9359332e-09
212	0x3027de90	6.1070526e-10
213	0x3116ee05	2.1963171e-09
214	0x30cf3ade	1.5077963e-09
215	0x311e7f58	2.3064413e-09
216	0x30f7a10a	1.8017385e-09
217	0x30eb3af9	1.7115261e-09
218	0x2f73e19b	2.2180872e-10
219	0x310100f4	1.8772512e-09
220	0x30f9296d	1.8128908e-09
221	0x311710a6	2.1982856e-09
222	0x31053c63	1.9388373e-09
223	0x307cac78	9.192216e-10
224	0x30ef25ba	1.7400261e-09
225	0x30d743aa	1.566254e-09
226	0x30e328ae	1.6527986e-09
227	0x312092f1	2.336659e-09
228	0x30d3ba0d	1.5405149e-09
229	0x3020f3b2	5.8553973e-10
230	0x31133d80	2.1426274e-09
231	0x2f2e6a69	1.5863012e-10
232	0x30272d8f	6.081899e-10
233	0x30e5c2a1	1.671726e-09
234	0x30a830bd	1.2237461e-09
235	0x2ccb6399	5.7806646e-12
236	0x2f57835e	1.9600807e-10
237	0x3102a39d	1.9010493e-09
238	0x31193618	2.229518e-09
239	0x30f8b243	1.809504e-09
240	0x30c5c3d5	1.4389295e-09
241	0x3106640c	1.9556436e-09
242	0x305ceb0c	8.0369555e-10
243	0x2f84730e	2.4092411e-10
244	0x306fe9e6	8.7280083e-10
245	0x31243609	2.3895856e-09
246	0x30d5222a	1.55075e-09
247	0x311d354e	2.2876807e-09
248	0x30f44419	1.7772691e-09
249	0x2fe933a0	4.2419135e-10
250	0x30a1cd20	1.1772592e-09
251	0x308df55b	1.0328834e-09
252	0x3086da74	9.811871e-10
253	0x2fceb99a	3.760306e-10
254	0x3055156a	7.751938e-10
255	0x2ff5e18e	4.4725507e-10

exp_avg f4 [50]
0	0xb50f9e54	-5.350205e-07
1	0x356e27cd	8.8719827e-07
2	0xb44b2908	-1.8920775e-07
3	0x33daa060	1.0180588e-07
4	0xb506253f	-4.997309e-07
5	0x359d25e8	1.1708444e-06
6	0xb5c74e5d	-1.4849462e-06
7	0x34db766d	4.0878095e-07
8	0xb4cb94a5	-3.791985e-07
9	0x34fb6f3a	4.683332e-07
10	0xb5fda47b	-1.8897839e-06
11	0xb50d90e1	-5.273742e-07
12	0x33c4ed3f	9.170116e-08
13	0x35efc10c	1.7863072e-06
14	0xb58f6843	-1.0684674e-06
15	0x34826531	2.4288013e-07
16	0xb54f38ef	-7.719636e-07
17	0xb5831abb	-9.76804e-07
18	0x34dd8f0c	4.1268538e-07
19	0xb605fbee	-1.9965187e-06
20	0x350f948a	5.3487804e-07
21	0x349efcf6	2.9613847e-07
22	0xb4b1375d	-3.30091e-07
23	0x353367ae	6.683357e-07
24	0xb40172be	-1.2055804e-07
25	0xb5e7f564	-1.7282259e-06
26	0xb5c5f93c	-1.475018e-06
27	0x35150d07	5.552578e-07
28	0xb4930fde	-2.739243e-07
29	0x3513f1e2	5.5113753e-07
30	0xb5bdaa8f	-1.4131236e-06
31	0xb56186ea	-8.401536e-07
32	0xb4e2c99f	-4.224248e-07
33	0x35d719de	1.6026277e-06
34	0xb54dcbdb	-7.66651e-07
35	0xb5daf795	-1.6314322e-06
36	0x35195eab	5.71347e-07
37	0xb585c73e	-9.967259e-07
38	0xb5a917e2	-1.2598432e-06
39	0x360dd614	2.1135247e-06
40	0xb523415e	-6.0817354e-07
41	0xb48f07f8	-2.6641624e-07
42	0x3539ac31	6.916844e-07
43	0xb50e0663	-5.2908416e-07
44	0xb42071d2	-1.4942569e-07
45	0xb5b9bd58	-1.383868e-06
46	0x3327a051	3.9028524e-08
47	0xb437d576	-1.712086e-07
48	0xb52b54d6	-6.3825917e-07
49	0xb5969c59	-1.1221374e-06

exp_avg_sq f4 [50]
0	0x3375f65a	5.7267563e-08
1	0x324e476f	1.200702e-08
2	0x3120a924	2.337921e-09
3	0x32d6f0ec	2.5022437e-08
4	0x3319d697	3.5818257e-08
5	0x3428f7ec	1.5736413e-07
6	0x32dd851c	2.5788317e-08
7	0x3432d75f	1.6655893e-07
8	0x3154b8c5	3.095509e-09
9	0x3301c151	3.0210973e-08
10	0x33c198fb	9.01509e-08
11	0x31f58614	7.1456814e-09
12	0x338183bb	6.030992e-08
13	0x331f7b99	3.7132484e-08
14	0x325d0d73	1.2866951e-08
15	0x326fc0af	1.3955442e-08
16	0x31fd958e	7.3802715e-09
17	0x32242c90	9.556189e-09
18	0x3149a173	2.9341123e-09
19	0x33f239a3	1.1279487e-07
20	0x316c2384	3.4362708e-09
21	0x3192dc67	4.274216e-09
22	0x33b1fca8	8.288163e-08
23	0x3329fcd1	3.9578314e-08
24	0x3247bbfa	1.1626065e-08
25	0x340331f1	1.2218494e-07
26	0x344f9589	1.9332778e-07
27	0x32c2c4bf	2.2674042e-08
28	0x338278dc	6.075581e-08
29	0x33e2f409	1.0568335e-07
30	0x32b3e361	2.0941743e-08
31	0x33a36dab	7.6102275e-08
32	0x331c3f0d	3.6378925e-08
33	0x331ea237	3.6934775e-08
34	0x33538cd5	4.9255352e-08
35	0x342c71f7	1.6060208e-07
36	0x334b33c8	4.7311715e-08
37	0x33984850	7.091205e-08
38	0x3494dac1	2.7726313e-07
39	0x33736e52	5.6678182e-08
40	0x3260b710	1.308014e-08
41	0x313e7330	2.7714115e-09
42	0x32172a0f	8.79892e-09
43	0x32d1ce73	2.4424684e-08
44	0x33223f27	3.7776e-08
45	0x3299fdd3	1.792697e-08
46	0x30c2bb5e	1.4168611e-09
47	0x3344163d	4.565503e-08
48	0x327efd53	1.4842345e-08
49	0x32ae1322	2.0264967e-08
