modelos/sir-20000.pt (torch, 73854 bytes, 24 tensors)

linears.0.weight f4 [50, 1]
0	0xbdb2843a	-0.087166265
1	0x3e97264b	0.29521403
2	0xbdf79527	-0.120889954
3	0x3ed1a94a	0.4094947
4	0x3e18678d	0.14883251
5	0xbe4545dc	-0.1926493
6	0x3dc63fbc	0.09680125
7	0xbda15626	-0.0787776
8	0xbe5f1f84	-0.21789366
9	0xbe8683ee	-0.2627253
10	0x3e15fe9e	0.1464791
11	0x3e0864eb	0.13319747
12	0x3e9e4168	0.30909276
13	0x3e45be24	0.19310814
14	0xbe0a5c54	-0.13511783
15	0x3e9dd63d	0.30827513
16	0x3e3c1308	0.18366635
17	0x3dd47fe9	0.103759594
18	0xbea29dbb	-0.31760964
19	0xbe2a0e0a	-0.16606918
20	0xbda63ecc	-0.08117446
21	0x3d10d836	0.035362445
22	0xbe20bfec	-0.15698212
23	0xbd83efd6	-0.064422294
24	0x3e9fbbce	0.3119797
25	0x3d8cb3c9	0.06870229
26	0x3d910411	0.07080854
27	0xbdce885c	-0.10084602
28	0x3de50c0a	0.11183937
29	0xbe1d1f86	-0.15344056
30	0x3e13a2b4	0.14417535
31	0xbd9a1776	-0.07524006
32	0x3e99e0a7	0.3005421
33	0xbdb685ad	-0.089122154
34	0xbdf49af1	-0.11943615
35	0xbe1d3950	-0.15353894
36	0xbddede1d	-0.108822085
37	0xbe054742	-0.13015464
38	0x3da94f26	0.082670495
39	0x3df76054	0.1207892
40	0x3e76947f	0.24080084
41	0x3e9bc69c	0.30424964
42	0x3db8b480	0.09018803
43	0x3e21c0cd	0.15796204
44	0x3d00cbb4	0.031444266
45	0x3e07ceb0	0.13262439
46	0x3e8d8b80	0.27645493
47	0x3e41c347	0.18922149
48	0x3e89924d	0.2686943
49	0xbdf1c728	-0.11805564

linears.0.bias f4 [50]
0	0x3d810e04	0.063015014
1	0xbd02b5eb	-0.03191177
2	0x3d579e20	0.052641034
3	0x3d9df81d	0.077133395
4	0xbd0ec4a4	-0.0348555
5	0x3c89afb7	0.01680742
6	0xbd2e4b63	-0.042552363
7	0xbcdd0c02	-0.026983265
8	0x3c140a2f	0.009035631
9	0xbd25ccd5	-0.040478546
10	0x3d0d9536	0.034566127
11	0xbd3ccf5b	-0.046096187
12	0x3be164de	0.0068784794
13	0x3cfda1f6	0.030961018
14	0x3d350098	0.04419002
15	0x3d8d1cb4	0.0689024
16	0x3d2c81bb	0.042115908
17	0xbbb87818	-0.0056295507
18	0x3ca1d1e9	0.019753413
19	0xbd38e61b	-0.04514132
20	0xbd0ea253	-0.034822773
21	0xbce6bafc	-0.028165333
22	0xbd12a1a8	-0.0357987
23	0x3d44172b	0.047873657
24	0xbc5e7d2a	-0.013579646
25	0x3c6bc067	0.014389134
26	0x3cf40a24	0.029789992
27	0x3d4682f3	0.048464727
28	0xbbdece25	-0.0067994767
29	0x3ca16554	0.019701637
30	0xbcf6befc	-0.030120365
31	0x3d2a1703	0.041525852
32	0x3c7ff94f	0.015623405
33	0xbc23f2df	-0.010006635
34	0xbd1c3527	-0.038136628
35	0x3cb3081c	0.021854453
36	0xbc96c26e	-0.018403258
37	0xbd790d0d	-0.06080346
38	0x3c075df2	0.008262144
39	0x3bd8a9ef	0.0066120545
40	0x3af80e7c	0.0018925215
41	0x3c8c4384	0.017122038
42	0xbd7df55c	-0.06200157
43	0x3c255c9e	0.010092882
44	0xbd360626	-0.044439457
45	0xbc81a44c	-0.015825413
46	0x3cd6eda2	0.026236359
47	0xbcecf4ea	-0.028925378
48	0x3d0d9654	0.034567192
49	0xbd0dd9b2	-0.03463144

linears.1.weight f4 [50, 50]
0	0x3da6f0ae	0.08151375
1	0xbc1a40ad	-0.009414834
2	0x3d9bc239	0.076054044
3	0x3e79339e	0.24336097
4	0xbe55eede	-0.20891902
5	0xbd9a2fb8	-0.07528633
6	0xbcd27b72	-0.025693629
7	0x3e320726	0.1738554
8	0x3d24200f	0.040069636
9	0xbbee3571	-0.0072695543
10	0x3e7da5ed	0.24770327
11	0x3ddd6edd	0.10812161
12	0x3e6fadbd	0.2340612
13	0xbe3c57f0	-0.1839292
14	0xbc9d5563	-0.019205755
15	0x3e6e0da4	0.23247391
16	0x3e72bce9	0.23704876
17	0x3e26aba0	0.16276407
18	0x3e382652	0.17983368
19	0xbcc1d4c6	-0.023661029
20	0x3e53cbc6	0.20683202
21	0x3e796bd7	0.24357544
22	0xbd5da9c2	-0.05411697
23	0xbcb20981	-0.021733047
24	0xbde0cfa0	-0.10977101
25	0x3e26143d	0.16218658
26	0x3e2c444c	0.16822928
27	0xbd9a2491	-0.07526506
28	0xbdd3be9c	-0.1033909
29	0xbdb42753	-0.08796563
30	0x3d470ccb	0.048596185
31	0x3d88f84a	0.066879824
32	0xbe3594df	-0.17732571
33	0x3e17ff35	0.14843448
34	0x3cc83aad	0.024442041
35	0xbc0d0549	-0.008607217
36	0xbe582fb9	-0.21111955
37	0xbc85582d	-0.016277397
38	0x3d1c6ea0	0.038191438
39	0x3e40a220	0.18811846
40	0xbd43d9b8	-0.047815055
41	0x3e0b8578	0.13625133
42	0x3d6733b1	0.05644578
43	0x3e17ccc2	0.14824203
44	0xbe446c65	-0.19181974
45	0x3d09bff2	0.03363032
46	0x3e14ed36	0.14543614
47	0x3d84c0f4	0.064821154
48	0x3bba1ac7	0.0056794616
49	0xbe30153a	-0.17195597
50	0xbe483de3	-0.19554858
51	0x3e074f20	0.13213778
52	0x3e250655	0.16115697
53	0x3e64837a	0.2231578
54	0xbdfa1a7b	-0.12212082
55	0xbe494d1e	-0.19658324
56	0x3d14c734	0.036322787
57	0xbdf4695b	-0.119341575
58	0xbdfb859f	-0.122813456
59	0x3d166c32	0.036724277
60	0x3e4dc8c1	0.20096113
61	0xbd4e3ac0	-0.050348997
62	0x3e6694d2	0.22517708
63	0xbe68eab2	-0.22745779
64	0xbdc55c99	-0.09636802
65	0x3e1f18e0	0.15536833
66	0x3c6057cd	0.013692808
67	0x3d40ab94	0.04703863
68	0x3e68b744	0.2272616
69	0xbe14ee7a	-0.14544097
70	0x3d6f3b87	0.05840638
71	0x3c43bf97	0.011947534
72	0xbd8c7da3	-0.06859901
73	0x3d48e2fc	0.049044594
74	0xbe4d7ea2	-0.20067838
75	0xb9c2daa5	-0.00037165466
76	0x3c8f8987	0.017521633
77	0xbe46eec8	-0.19427025
78	0x3d9654db	0.07340404
79	0x3e1bce6d	0.15215464
80	0x3e357174	0.1771906
81	0xbe5f2303	-0.217907
82	0xbd66ed6b	-0.056378763
83	0xbe6b11fc	-0.22956079
84	0x3d1c9dd3	0.03823645
85	0x3d973128	0.07382423
86	0x3d40e4b6	0.047093116
87	0x3dd3ced3	0.10342183
88	0x3e6adc31	0.22935559
89	0xbe31f731	-0.17379452
90	0xbbeabcfd	-0.0071636424
91	0x3da179c4	0.07884553
92	0x3e3da063	0.18518214
93	0xbdc6e619	-0.097118564
94	0x38f3a146	0.000116171825
95	0xbe2ede54	-0.17076999
96	0x3e4c8e00	0.19976044
97	0xbe18a101	-0.14905168
98	0xbe36eb5e	-0.17863223
99	0x3e25989a	0.16171494
100	0x3de1aae7	0.11018925
101	0xbd56b6e8	-0.052420527
102	0x3d00255d	0.031285632
103	0x3e5184b8	0.20460784
104	0xbdd1868c	-0.10230741
105	0x3e57a96d	0.21060725
106	0x3da43d31	0.08019484
107	0x3d28deab	0.041227978
108	0xbe24d796	-0.16097865
109	0xbc04238e	-0.0080651175
110	0xbe1cc74a	-0.15310398
111	0xbde2ef4b	-0.11080798
112	0x3c264883	0.010149124
113	0x3d86477d	0.06556604
114	0x3e69b7a1	0.22823955
115	0x3e57e225	0.21082361
116	0xbe192742	-0.14956382
117	0x3e1fe701	0.15615465
118	0x3d858b4c	0.065207094
119	0x3e72bc4c	0.23704642
120	0x3d78dfc6	0.060760282
121	0xbe5de611	-0.21669795
122	0x3b08e609	0.0020889065
123	0x3e5788d4	0.2104829
124	0xbbb2cc89	-0.0054565114
125	0x3e0d7e70	0.13817763
126	0xbdd1865b	-0.102307044
127	0xbd0b6bc6	-0.034038328
128	0x3e677c8f	0.22606109
129	0xbe3d53f5	-0.18489058
130	0xbe37188c	-0.17880458
131	0xbe1e04d7	-0.15431534
132	0x3d2d0da6	0.042249344
133	0x3cab19e8	0.020886377
134	0x3c416032	0.01180272
135	0x3dc26e98	0.0949375
136	0xbd5da70f	-0.054114398
137	0x3e015393	0.12629537
138	0x3e7d8309	0.24757017
139	0x3e517d2f	0.2045791
140	0xbe2219a4	-0.15830094
141	0xbd2616ec	-0.040549204
142	0x3dfef1af	0.12448441
143	0x3e67186d	0.22567911
144	0xbdf498cb	-0.119432054
145	0xbdc9e436	-0.09857981
146	0xbd6e4a3e	-0.05817627
147	0xbd881d26	-0.066461846
148	0x3e6d8acc	0.23197478
149	0xbe22af0e	-0.1588709
150	0xbe63acd1	-0.22233893
151	0xbc09e165	-0.008415555
152	0xbde61951	-0.112352975
153	0x3dc101b1	0.09424151
154	0xbe05d2c8	-0.13068688
155	0xbe28995b	-0.1646475
156	0x3dbeffa4	0.09326103
157	0x3d9a5d17	0.07537287
158	0x3e1227cc	0.14272994
159	0x3e6af7e1	0.22946121
160	0xbe1afede	-0.15136287
161	0x3e6ef1fb	0.23334496
162	0xbdcc6793	-0.09980693
163	0x3d8150ab	0.06314214
164	0xbd731292	-0.059343882
165	0x3e3fac84	0.18718153
166	0xbe0b1c9a	-0.1358513
167	0x3e5e9a64	0.21738583
168	0xbd861191	-0.06546319
169	0x3dccfdad	0.10009322
170	0x3c88a776	0.016681414
171	0x3de7cfca	0.113189295
172	0xbe69c891	-0.22830416
173	0x3c85c53f	0.016329406
174	0x3c014d2c	0.007891934
175	0xbe1530d4	-0.14569408
176	0xbdc1d3e2	-0.094642416
177	0xba1d6c77	-0.0006005237
178	0xbe592ddb	-0.21208899
179	0xbe3ed60b	-0.18636338
180	0xbd898955	-0.06715647
181	0x3d832344	0.06403211
182	0x3bd03df2	0.0063550407
183	0xbe68c3b7	-0.2273091
184	0x3e3f02a3	0.1865335
185	0x3c3800d8	0.01123067
186	0xbd77149b	-0.060322385
187	0x3e59ce80	0.2127018
188	0x3e12160a	0.1426622
189	0x3e63911e	0.22223327
190	0x3e01ef57	0.12688957
191	0xbcbb4781	-0.022861244
192	0xbdf535a5	-0.119731225
193	0xbe572052	-0.21008423
194	0xbdce6406	-0.10077672
195	0x3bdf708a	0.0068188356
196	0xbdba32a9	-0.09091694
197	0x3c0c1489	0.008549818
198	0xbe753ee4	-0.23949772
199	0xbe5cbbf9	-0.21556081
200	0x3d7ffaae	0.062494926
201	0xbd3ca536	-0.046055995
202	0x3da11630	0.0786556
203	0x3dc96736	0.09834139
204	0xbd9dfae1	-0.07713867
205	0x3da000d9	0.07812662
206	0xbd01c832	-0.03168506
207	0xbbe61859	-0.0070219454
208	0x3e236475	0.1595629
209	0xbdd39391	-0.103308804
210	0x3dfca438	0.1233601
211	0xbe241543	-0.16023736
212	0x3ddbcf86	0.10732941
213	0x3d012791	0.031531874
214	0x3e04b1a6	0.12958393
215	0x3d063248	0.032762796
216	0xbd8d571e	-0.06901382
217	0x3e44c8ac	0.19217175
218	0x3e646a23	0.22306113
219	0xbdcedd26	-0.101007745
220	0xbe4513ac	-0.19245785
221	0x3da17dc3	0.07885315
222	0xbe560a94	-0.20902473
223	0x3dcd42b3	0.100224875
224	0xbe344294	-0.17603523
225	0x3e0a4052	0.13501099
226	0x3dfb0b33	0.122579955
227	0xbd89581c	-0.06706259
228	0x3e23469e	0.15944907
229	0x3ddb0143	0.106936
230	0x3c37cb97	0.011217973
231	0x3e2908d8	0.1650728
232	0xbe6fa93b	-0.234044
233	0x3e1c51d0	0.15265584
234	0x3df89ada	0.121389106
235	0xbe13a071	-0.14416672
236	0xbe1452bd	-0.14484687
237	0xbd8c22c1	-0.06842566
238	0xbe34f0cd	-0.17669983
239	0xbe598d28	-0.21245253
240	0x3d14bb86	0.03631165
241	0x3d36a4eb	0.04459087
242	0x3de87e1f	0.11352181
243	0x3df9a4b6	0.12189619
244	0x3e690eec	0.22759598
245	0xbd07a9e5	-0.03312101
246	0x3cc2d6e2	0.023784105
247	0x3e3f246c	0.18666238
248	0xbe6aa70d	-0.22915287
249	0xbd4d8bdc	-0.05018221
250	0x3d46e437	0.048557486
251	0x3e5a8bc3	0.21342377
252	0x3c39cb1e	0.011339931
253	0xbdc748bf	-0.09730672
254	0x3cad0516	0.02112059
255	0x3e328cfe	0.17436597

linears.1.bias f4 [50]
0	0x3cdbb5c9	0.02682008
1	0xbcdfc75f	-0.027316747
2	0x3cd54552	0.026034031
3	0xbd1d7c03	-0.038448345
4	0x3cf256de	0.029582437
5	0xbc6d2cef	-0.014476045
6	0xbd010795	-0.03150137
7	0xbd17c287	-0.03705075
8	0x3cab8f7f	0.020942448
9	0x3d272fbf	0.04081702
10	0xbcf6174b	-0.030040404
11	0xbca2d1c9	-0.019875424
12	0x3c5e8d11	0.013583438
13	0xbc5fa436	-0.013649991
14	0xbd243283	-0.040087234
15	0xbcfa186e	-0.030529227
16	0xbcf755fa	-0.030192364
17	0x3d100dd7	0.03516945
18	0x3d0d05a8	0.034429222
19	0x3cab8b2f	0.020940391
20	0x3d3789c0	0.044809103
21	0x3d1bce08	0.038038284
22	0xbc42ace9	-0.011882045
23	0x3d4f778b	0.050651114
24	0xbd92e23f	-0.07172059
25	0xbd1b126a	-0.037859358
26	0x3ba11317	0.0049156058
27	0xbc204abf	-0.009783446
28	0xbd34995b	-0.044091564
29	0x3d2c66b1	0.04209012
30	0xbd573f6b	-0.052550714
31	0xbd28f4be	-0.04124903
32	0x3d38e2a8	0.04513803
33	0x3ce7defc	0.02830457
34	0xbd1281cd	-0.03576832
35	0xbb2c16d0	-0.0026258714
36	0xbcb24ca1	-0.021765055
37	0x3c24ad73	0.010051119
38	0x3c35e2b6	0.011101415
39	0x3c724f3a	0.014789397
40	0x3d387fa3	0.0450436
41	0xbd37493b	-0.044747572
42	0x3c969411	0.01838115
43	0xbcc26e1c	-0.023734145
44	0xbd394288	-0.045229465
45	0xbd4032aa	-0.046923317
46	0xbce2c18b	-0.02768018
47	0xbd02cc28	-0.03193298
48	0xbd04d9d3	-0.032434296
49	0x3d089309	0.03334335

linears.2.weight f4 [50, 50]
0	0xbe35c219	-0.17749824
1	0x3e093049	0.13397326
2	0xbe219468	-0.15779269
3	0xbe0800a2	-0.13281491
4	0xbdb8f561	-0.09031177
5	0x3e2f35a6	0.17110309
6	0xbdd52ecc	-0.104093164
7	0x3dcc3c20	0.099724054
8	0xbe2f8455	-0.17140324
9	0x3d79a10f	0.060944613
10	0xbe095dab	-0.13414638
11	0xbd71888d	-0.058968116
12	0xbd98dec2	-0.07464363
13	0x3d8f675d	0.07002137
14	0x3e067c9a	0.13133469
15	0xbd080a82	-0.033213146
16	0x3e4d53ea	0.20051542
17	0x3e07ebf6	0.13273606
18	0x3e4c47e6	0.19949302
19	0xbcf11639	-0.029429542
20	0x3c43cd7a	0.011950845
21	0xbc476ef2	-0.0121724475
22	0xbd3e7f71	-0.046508256
23	0x3d9a1cb9	0.0752501
24	0xbe24b7c6	-0.16085729
25	0x3d959ed0	0.07305682
26	0x3e1946e2	0.14968446
27	0x3da6b250	0.08139479
28	0x3d73002c	0.059326336
29	0x3e6842b2	0.22681692
30	0xbced72f4	-0.028985478
31	0x3dfbab5a	0.12288542
32	0x3d5acda8	0.053418785
33	0xbe2ea38c	-0.17054576
34	0x3e16d89d	0.14731069
35	0x3debaa34	0.11507073
36	0xbdc1e6bd	-0.09467838
37	0xbe0e3dfa	-0.1389083
38	0x3e4271b1	0.18988682
39	0x3e439f8a	0.19103828
40	0xbe19d535	-0.15022738
41	0xbd207654	-0.039175346
42	0xbc9d33db	-0.019189766
43	0x3ceca0d5	0.028885284
44	0x3e2d6a3f	0.16935061
45	0x3e36ccab	0.17851512
46	0xbe2b673b	-0.16738598
47	0xbe609beb	-0.21934478
48	0xbe18ff85	-0.14941223
49	0xbe6372d8	-0.22211778
50	0x3df7de88	0.12102991
51	0x3e7dc9fb	0.2478408
52	0xbd444549	-0.047917638
53	0x3e46674f	0.19375347
54	0xbd8789e7	-0.066181
55	0x3e2066a2	0.15664151
56	0x3e4a4843	0.19754128
57	0x3d5d842e	0.054081134
58	0x3e7a57cd	0.24447556
59	0x3e30e3a0	0.17274332
60	0x3c39f1da	0.011349166
61	0x3da2dd19	0.07952327
62	0x3dc67ef8	0.09692186
63	0xbde278fd	-0.11058233
64	0xbe4adc6f	-0.19810651
65	0xbddac9cd	-0.10683022
66	0x3e589f70	0.2115457
67	0x3e063e29	0.1310965
68	0x3e22a498	0.158831
69	0x3d416e72	0.04722447
70	0x3c0ec1a6	0.008713162
71	0xbe19c31d	-0.15015836
72	0xbdc8bc21	-0.09801508
73	0xbdf13250	-0.117771745
74	0x3d87f8f9	0.06639285
75	0x3e062eff	0.13103865
76	0x3e4869be	0.19571587
77	0x3e55e664	0.20888668
78	0xbe6d00f2	-0.23144892
79	0xbe7569e4	-0.23966175
80	0xbe1d2694	-0.15346748
81	0xbc44414b	-0.011978458
82	0x3e06c56b	0.13161246
83	0xbb5e5091	-0.0033922533
84	0xbe40af9f	-0.18816994
85	0x3d5e3d0f	0.05425745
86	0x3d162a30	0.036661327
87	0x3d83418c	0.064089864
88	0x3e16fbc2	0.14744475
89	0x3e1e550d	0.15462132
90	0x3d132c3a	0.03593085
91	0xbe35ab4e	-0.17741129
92	0x3e83a436	0.2571122
93	0xbe10a5a5	-0.14125688
94	0xbe320351	-0.17384078
95	0x3e06549e	0.13118216
96	0xbe4f8b83	-0.20268063
97	0xbdf31e40	-0.11871004
98	0xbe4e033c	-0.20118421
99	0x3e1bddf1	0.15221383
100	0xbe230edf	-0.15923642
101	0xbcd64e73	-0.026160454
102	0x3e4d39f9	0.20041646
103	0x3da20070	0.0791024
104	0xbdbdff0e	-0.092771634
105	0xbc868a08	-0.01642324
106	0xbe67eed5	-0.22649701
107	0x3e654385	0.22389038
108	0x3db04f99	0.08608932
109	0x3dfd3221	0.12363077
110	0x3e600cff	0.21879958
111	0xbe123c8c	-0.1428091
112	0x3d2fa2f7	0.042880025
113	0x3c2be562	0.010491701
114	0x3e1ad1b5	0.1511906
115	0xbcaa416a	-0.020783145
116	0x3d740092	0.059570856
117	0xbe2bf669	-0.16793217
118	0xbdb4d172	-0.08829011
119	0x3dc70adf	0.0971887
120	0xbe1f5f4f	-0.15563701
121	0x3e3cce28	0.18438017
122	0xbd3e7ede	-0.04650771
123	0xba54e1b3	-0.000812079
124	0x3e17e4a6	0.14833316
125	0x3e6ad1c0	0.22931576
126	0xbd7476b1	-0.059683505
127	0x3e7159dc	0.23569435
128	0xbe4ccf2c	-0.20000905
129	0x3d77bb38	0.06048128
130	0xbe064bd3	-0.13114862
131	0x3e6e9226	0.23297939
132	0xbe5ace3f	-0.21367739
133	0x3c973ec6	0.01846255
134	0x3de9b6a3	0.11411788
135	0xbe046aab	-0.12931316
136	0xbe139ddf	-0.14415692
137	0x3de8d084	0.11367896
138	0x3db9e2e6	0.090764806
139	0xbe0de340	-0.1385622
140	0xbc307490	-0.010769978
141	0x3e10e347	0.141492
142	0x3cccb930	0.024990648
143	0xbd3a2899	-0.045448873
144	0xbe75dc3c	-0.24009794
145	0x3d09b8b5	0.033623416
146	0xbc38211a	-0.011238361
147	0xbd58b71c	-0.052909
148	0xbe281ee0	-0.16418028
149	0x3d80eae3	0.06294801
150	0x3db13b82	0.08653928
151	0xbe1e6471	-0.15468003
152	0xbe4bbd34	-0.19896394
153	0x3d938426	0.0720294
154	0x3e3ea7ca	0.18618694
155	0x3ccdc7df	0.02511972
156	0x3e153adb	0.14573233
157	0x3d21c44d	0.039493848
158	0xbdbaccb4	-0.09121075
159	0xbe19c75b	-0.15017454
160	0xbe5b6842	-0.2142649
161	0xbe5e2346	-0.21693143
162	0x3bdf118d	0.006807512
163	0xbe3b2abd	-0.18278022
164	0xbd03c0c4	-0.032166258
165	0xbd945ef4	-0.07244673
166	0xbe01d3b6	-0.12678418
167	0x3d0ebc74	0.03484769
168	0x3e50dccb	0.20396726
169	0xbb67d309	-0.003537359
170	0x3e234cf4	0.15947324
171	0x3e5a34c4	0.21309191
172	0x3e1e793a	0.15475932
173	0xbe505e8c	-0.20348567
174	0xbe2f62bf	-0.17127512
175	0xbb9c63b5	-0.004772628
176	0x3d7d7fef	0.061889585
177	0xbdb4e8cc	-0.08833465
178	0xbe31a537	-0.1734818
179	0x3e520278	0.20508754
180	0x3c8ff195	0.01757125
181	0xbdf1a906	-0.11799817
182	0xbdc65ebb	-0.09686037
183	0x3e2ab34c	0.16669959
184	0x3dd737c6	0.10508685
185	0xbe63d550	-0.22249341
186	0x3e24ac4b	0.1608135
187	0x3e5a9ae5	0.2134815
188	0xbe6871d7	-0.22699676
189	0x3e664f34	0.22491151
190	0x3db5539c	0.08853838
191	0x3d598732	0.053107448
192	0xbd68e227	-0.0568563
193	0x3e39d931	0.18149258
194	0x3e124745	0.14285
195	0xbe83d7c2	-0.25750548
196	0xbe1d3111	-0.15350749
197	0x3d0f9ad6	0.035059772
198	0x3d42a310	0.04751879
199	0x3e812561	0.2522383
200	0xbd30545b	-0.043049198
201	0x3e618309	0.22022642
202	0xbcb54def	-0.022131888
203	0xbdcfd2d4	-0.10147634
204	0x3da48dfe	0.08034895
205	0x3d06329b	0.032763105
206	0xbd870747	-0.06593185
207	0xbd58d39f	-0.052936193
208	0xbd8783dc	-0.06616947
209	0xbe614ac3	-0.22001176
210	0xbd974280	-0.07385731
211	0xbcfc374d	-0.030788088
212	0xbd7984e7	-0.06091776
213	0xbe879835	-0.26483312
214	0x3def00c3	0.11670067
215	0x3d25cdbf	0.040479418
216	0xbe3cc679	-0.18435086
217	0xbc9306a9	-0.017947512
218	0xbdad0763	-0.084486745
219	0xbd987356	-0.074438736
220	0xbd8fdd49	-0.07024629
221	0xbd99de8a	-0.07513149
222	0xbe04e6fc	-0.12978739
223	0xbd8143f0	-0.06311786
224	0x3c305d36	0.010764411
225	0x3e20d8f7	0.15707766
226	0x3e08af14	0.13348037
227	0x3e21659c	0.15761417
228	0xbdf3847e	-0.11890505
229	0xbe7447c5	-0.23855503
230	0xbd38a71c	-0.045081243
231	0xbdde5b51	-0.10857261
232	0xbe8257ee	-0.2545771
233	0xbdab0602	-0.08350755
234	0xbe8030a3	-0.25037107
235	0x3dcbacd0	0.09945071
236	0x3d9d5a90	0.07683289
237	0xbe43ec29	-0.19133057
238	0xbe7d61c0	-0.2474432
239	0xbd65a4ae	-0.056065254
240	0xbdaa1b75	-0.08306018
241	0xbcab1765	-0.020885179
242	0xbe51e7dd	-0.20498605
243	0xbd2def89	-0.042464767
244	0xbcc6388a	-0.024196882
245	0x3e2883e5	0.16456564
246	0xbe4cc1aa	-0.19995752
247	0xbe0dfd75	-0.13866217
248	0x3e606b56	0.21915945
249	0x3e0755c9	0.13216318
250	0x3e0b318d	0.13593121
251	0xbe32fcb8	-0.17479217
252	0x3c0cc039	0.008590751
253	0xbe3b6f65	-0.18304212
254	0x3e803b14	0.25045073
255	0xbc936b6f	-0.017995564

linears.2.bias f4 [50]
0	0xbcf59e8a	-0.029982824
1	0x3d0cf61a	0.03441439
2	0xbd1c9d0d	-0.038235713
3	0x3d239375	0.039935548
4	0xbd2ea68d	-0.042639304
5	0x3ca159ab	0.019696077
6	0xbd14024c	-0.036135003
7	0xbce3694d	-0.027760172
8	0x3c36477f	0.011125444
9	0xbcf238b6	-0.029568058
10	0xbccd0608	-0.02502729
11	0x3ca42a97	0.02003984
12	0x3d3ea517	0.04654416
13	0x3d1260d4	0.035736874
14	0xbc8e6f03	-0.017386919
15	0x3d093254	0.033495262
16	0x3d2c92f2	0.042132325
17	0xbcac084f	-0.021000056
18	0xbc9ba78b	-0.01900079
19	0xbd331a77	-0.04372641
20	0x3d389371	0.045062486
21	0xbd2cbe86	-0.042173885
22	0xbd386568	-0.045018584
23	0x3d091e2e	0.033476047
24	0xbd46ae4a	-0.04850606
25	0xbcd41dd1	-0.025893124
26	0xbd025119	-0.031815622
27	0x3cd470a4	0.025932617
28	0xbd118b10	-0.03553301
29	0xbd597126	-0.053086422
30	0xbd13d059	-0.036087368
31	0xbcb40740	-0.021976113
32	0xbd4f2c92	-0.050579615
33	0xbd15fb68	-0.036616713
34	0x3c33425f	0.010941117
35	0x3d1557ac	0.036460564
36	0x3d2101a7	0.039308216
37	0xbce1c194	-0.027558126
38	0x3d27b917	0.040948
39	0x3bd562bd	0.0065120147
40	0x3d297a07	0.04137614
41	0x3d13dfab	0.03610198
42	0x3c578089	0.013153204
43	0xbc90ece0	-0.017691076
44	0xbd49ccdf	-0.049267646
45	0x3cd8c4f4	0.026461102
46	0x3d08df34	0.033415988
47	0xbd19afa2	-0.037521012
48	0xbd043ff4	-0.032287553
49	0xbba873eb	-0.0051407716

linears.3.weight f4 [3, 50]
0	0xbe96d76c	-0.2946123
1	0x3e30ff82	0.17284968
2	0xbe85435b	-0.2602795
3	0x3dcd0353	0.100104
4	0xbeac54ae	-0.33658355
5	0x3e8bea2e	0.27327102
6	0xbe7c51fd	-0.24640651
7	0xbda8340f	-0.082130544
8	0x3dd5c639	0.104381986
9	0xbdf6175e	-0.12016176
10	0xbd83db5a	-0.06438322
11	0x3e2f2439	0.17103662
12	0x3e6a2277	0.2286471
13	0x3e479b66	0.19492874
14	0x3d450c8c	0.04810767
15	0x3e3ce8fa	0.18448249
16	0x3e863db7	0.2621896
17	0xbe58e6d5	-0.21181805
18	0xbdb31322	-0.08743884
19	0xbdc8ba61	-0.09801174
20	0x3eaa13ad	0.33218136
21	0xbe85b442	-0.26114088
22	0xbe800eaf	-0.25011203
23	0x3e48187b	0.19540589
24	0xbe63f5e4	-0.22261769
25	0xbc413535	-0.011792471
26	0xbe0d79e9	-0.13816036
27	0x3e101dd9	0.14073886
28	0xbdc077ac	-0.093978256
29	0xbeaad455	-0.3336512
30	0xbe9e5c8a	-0.30929977
31	0xbd79cd3f	-0.060986754
32	0xbe771f44	-0.2413302
33	0xbe1ca7d6	-0.152984
34	0x3d701333	0.05861206
35	0x3e647803	0.22311406
36	0x3e8c5582	0.27408987
37	0xbe2553ac	-0.161452
38	0x3ea2703c	0.31726253
39	0xbc2abcbd	-0.010420975
40	0x3dd91f9a	0.10601731
41	0x3ea3ec90	0.3201642
42	0xbd86f953	-0.065905236
43	0xbd98beb9	-0.074582525
44	0xbe73d8de	-0.23813197
45	0x3e7ce767	0.24697648
46	0x3dec62fb	0.115423165
47	0xbe73de8d	-0.23815365
48	0xbd0e7923	-0.034783494
49	0xbe62d79d	-0.22152562
50	0x3e9523df	0.2912893
51	0x3c18bff4	0.009323109
52	0x3dfa1906	0.12211804
53	0x3e2c23d4	0.16810542
54	0x3dad9f4d	0.0847765
55	0xbe4f53ed	-0.20246859
56	0xbe13ee61	-0.14446403
57	0xb960efdc	-0.00021451659
58	0xbe0ce8f6	-0.13760743
59	0xbdd85f41	-0.10565043
60	0xbda24978	-0.07924169
61	0x3e357586	0.17720613
62	0xbd3db9f0	-0.046319902
63	0xbb70614f	-0.0036679094
64	0xbe5b09bb	-0.2139043
65	0xbdfb69dc	-0.122760504
66	0x3e3f15a3	0.18660598
67	0x3e9ab838	0.30218673
68	0xbe08e823	-0.13369803
69	0xbd7adfa6	-0.061248444
70	0xbd2b91a8	-0.041886955
71	0x3e09e716	0.13467059
72	0xbdaf9f3b	-0.08575293
73	0x3e7ab2c7	0.2448226
74	0xbe419f9b	-0.18908541
75	0xbd8557c5	-0.06510881
76	0x3dc70507	0.09717756
77	0xbcc3c23d	-0.023896331
78	0xbcc082a6	-0.023499798
79	0xbcc2b0fd	-0.023766035
80	0xbe55ba70	-0.20871902
81	0xbe5243ec	-0.20533723
82	0x3bed0d96	0.0072342856
83	0xbdeb6640	-0.11494112
84	0x3e1b0df8	0.15142047
85	0xbdf1b85c	-0.11802742
86	0x3d678376	0.056521855
87	0x3ddd396d	0.10801969
88	0xbe020350	-0.12696576
89	0x3e1b6b66	0.15177688
90	0x3c3892f8	0.011265509
91	0xbe135ddf	-0.14391278
92	0x3e6dfb66	0.23240432
93	0xbe7884cb	-0.24269406
94	0xbd33c05b	-0.043884616
95	0xbe81388a	-0.25238448
96	0xbd581345	-0.05275275
97	0xbe020948	-0.12698853
98	0xbe9f9a7d	-0.31172553
99	0x3e800645	0.25004783
100	0xbe5b6ef0	-0.21429038
101	0xbe98ccda	-0.2984379
102	0xbda4b44f	-0.08042204
103	0xbe5c2700	-0.21499252
104	0xbe04d162	-0.12970498
105	0x3def760d	0.11692438
106	0x3d2cf931	0.042229835
107	0x3e3f33b0	0.18672061
108	0x3e0c6cd4	0.1371339
109	0x3e4a6620	0.1976552
110	0x3da22649	0.079174586
111	0xbe90e997	-0.28303215
112	0x3e967a7a	0.29390317
113	0xbe90fa03	-0.28315744
114	0x3de2c674	0.11073008
115	0xbe9a17c6	-0.30096263
116	0xbdb6604e	-0.089050874
117	0x3d15335c	0.036425933
118	0x3e889928	0.2667935
119	0x3d3dc329	0.046328697
120	0x3e171be6	0.14756736
121	0xbea65589	-0.32487133
122	0xbe589e95	-0.21154244
123	0x3d5fbabb	0.05462144
124	0xbea013da	-0.31265146
125	0x3d56e357	0.052462902
126	0x3e813287	0.25233862
127	0x3d924d39	0.07143635
128	0x3e6a7185	0.22894867
129	0xbddbff0f	-0.10742008
130	0x3cc323c4	0.023820765
131	0x3d655fe6	0.05599966
132	0xbd46c538	-0.048527926
133	0x3dd4b1a6	0.10385446
134	0xbc62969a	-0.0138298515
135	0x3dc4625d	0.09589074
136	0xbe3b31f7	-0.18280779
137	0xbec3c244	-0.3823415
138	0xbd93067e	-0.07178973
139	0xbdec03af	-0.1152414
140	0x3d3541d2	0.044252224
141	0xbe1ae1a1	-0.15125133
142	0x3d838777	0.06422322
143	0x3e3f8c94	0.1870597
144	0xbe5fb316	-0.2184566
145	0x3d9e05a3	0.07715919
146	0x3de09344	0.10965589
147	0xbd85d06f	-0.06533896
148	0x3e148391	0.14503314
149	0x3e33b62e	0.17549965

linears.3.bias f4 [3]
0	0x3d4a344a	0.049366273
1	0x3c82a5a4	0.015948124
2	0xbbcc6ff9	-0.006238934

exp_avg f4 [50, 1]
0	0x38860525	6.390576e-05
1	0xb7a34997	-1.9465382e-05
2	0xb8386070	-4.3958833e-05
3	0xb76b436b	-1.40227885e-05
4	0x38057b62	3.182458e-05
5	0x377b9793	1.4996057e-05
6	0xb80de858	-3.3833407e-05
7	0x37e271ff	2.6994383e-05
8	0x378f2d7c	1.7068109e-05
9	0xb62f639a	-2.6135008e-06
10	0x3676655f	3.6715862e-06
11	0x37cf0a80	2.4681212e-05
12	0x3619a665	2.289563e-06
13	0x381cf07e	3.7417274e-05
14	0xb6fe0fa5	-7.571611e-06
15	0xb78963fa	-1.6378228e-05
16	0x3717a7b7	9.0393505e-06
17	0xb7cb9ca5	-2.4272429e-05
18	0x369766d2	4.5121205e-06
19	0xb805871c	-3.18355e-05
20	0xb7200b2e	-9.539346e-06
21	0xb889f22d	-6.577778e-05
22	0x378827e6	1.6231043e-05
23	0x383f9007	4.5672085e-05
24	0x372c254a	1.0260681e-05
25	0xb7653af0	-1.3663186e-05
26	0xb85c8378	-5.2574527e-05
27	0x37cbdcf5	2.4302377e-05
28	0x36cd244e	6.1137025e-06
29	0xb618b0d0	-2.2752683e-06
30	0x3809fc50	3.289833e-05
31	0x38d36a15	0.00010081023
32	0x36f205f4	7.212855e-06
33	0x38a0b133	7.6624005e-05
34	0xb6a0faee	-4.7975836e-06
35	0x37f5833f	2.9267392e-05
36	0x36ea3426	6.9798143e-06
37	0xb8143e7f	-3.5344154e-05
38	0xb860b861	-5.3577478e-05
39	0x3767bd2a	1.3812716e-05
40	0x37314c41	1.0567776e-05
41	0xb63432d2	-2.6851671e-06
42	0xb8d9ed63	-0.00010391583
43	0x38119aad	3.4714747e-05
44	0x37a112db	1.9201476e-05
45	0x37f57379	2.9260047e-05
46	0xb6aa44e3	-5.0744143e-06
47	0x37788047	1.4811819e-05
48	0x378dfecc	1.6927159e-05
49	0xb80dc525	-3.3800625e-05

exp_avg_sq f4 [50, 1]
0	0x34cd24e0	3.8211056e-07
1	0x3315cb0e	3.4876443e-08
2	0x341ee157	1.4796875e-07
3	0x32be9409	2.218623e-08
4	0x33ccffe7	9.5460386e-08
5	0x33032516	3.0534544e-08
6	0x34212466	1.5007535e-07
7	0x33b4f939	8.4272365e-08
8	0x32dd6c6b	2.5777089e-08
9	0x3208bbdb	7.958955e-09
10	0x3270d403	1.40180445e-08
11	0x338f35a7	6.668716e-08
12	0x2ff871f6	4.519191e-10
13	0x341a833f	1.4390115e-07
14	0x3319a2fa	3.5771315e-08
15	0x32dc032f	2.5612819e-08
16	0x31c63671	5.7687477e-09
17	0x332e3679	4.0562075e-08
18	0x2f824c7f	2.3701216e-10
19	0x33a40a37	7.638703e-08
20	0x33114e66	3.3831746e-08
21	0x35e73629	1.7226604e-06
22	0x3248f3ec	1.1696994e-08
23	0x338e55aa	6.6279725e-08
24	0x32e46025	2.6586415e-08
25	0x31f3d856	7.0968253e-09
26	0x340f76f9	1.3361195e-07
27	0x32b3811c	2.0897055e-08
28	0x30922e2f	1.0636024e-09
29	0x316627b0	3.3491965e-09
30	0x33a5750e	7.7047034e-08
31	0x352a50e6	6.344766e-07
32	0x305249c9	7.650241e-10
33	0x351807a8	5.6635554e-07
34	0x3283d5da	1.5347656e-08
35	0x338c7402	6.54036e-08
36	0x32a06c9b	1.867584e-08
37	0x345342f7	1.9675268e-07
38	0x347dbc9b	2.3631075e-07
39	0x3234d1e2	1.0525101e-08
40	0x32211657	9.376513e-09
41	0x31ea6864	6.822164e-09
42	0x35040230	4.9177015e-07
43	0x340b2c4c	1.2961499e-07
44	0x355cf93a	8.231906e-07
45	0x33bdbc27	8.835223e-08
46	0x32b8ff2a	2.1536454e-08
47	0x3265a895	1.33678855e-08
48	0x326c4a25	1.37538665e-08
49	0x3398c0c9	7.113119e-08

exp_avg f4 [50]
0	0x38880a92	6.486954e-05
1	0xb72cf7da	-1.0309706e-05
2	0xb76b2514	-1.4015724e-05
3	0xb7cb89cd	-2.4263654e-05
4	0x38dffd22	0.00010680618
5	0x3803d433	3.143046e-05
6	0x385a6280	5.2066986e-05
7	0x37e20942	2.694561e-05
8	0xb70ce88d	-8.398795e-06
9	0x38b8ece3	8.817927e-05
10	0xb820372f	-3.8198366e-05
11	0x391151c8	0.00013858743
12	0xb7b3ea94	-2.1447697e-05
13	0x38097770	3.277458e-05
14	0xb9065acb	-0.00012813059
15	0xb7c6f33d	-2.3716706e-05
16	0xb726625c	-9.917272e-06
17	0x38800f63	6.1063816e-05
18	0x38cadb53	9.672963e-05
19	0xb778fae0	-1.4840363e-05
20	0x37c1e25a	2.3112796e-05
21	0x3670adf8	3.586405e-06
22	0x388ca7d1	6.7069785e-05
23	0xb8a16c48	-7.697247e-05
24	0x38725ece	5.778559e-05
25	0x3836a939	4.3549782e-05
26	0xb79bd3d2	-1.8576076e-05
27	0xb858c84a	-5.1684947e-05
28	0x387d5325	6.0397335e-05
29	0x377cd6bc	1.5070367e-05
30	0x3914b18f	0.00014180526
31	0xb8490846	-4.792984e-05
32	0xb6406e6f	-2.867451e-06
33	0x37acedde	2.0614763e-05
34	0xb8af2efe	-8.353403e-05
35	0x380a2737	3.2938286e-05
36	0x37563238	1.2767086e-05
37	0xb8b96202	-8.839743e-05
38	0xb845f90e	-4.720041e-05
39	0xb85ddef0	-5.2898133e-05
40	0x36f76340	7.372728e-06
41	0xb78c5e7b	-1.6733296e-05
42	0x38deb8b7	0.00010620191
43	0x3741f0e8	1.1559787e-05
44	0x37d6b6e3	2.5595951e-05
45	0x380f9048	3.422823e-05
46	0x36ae4763	5.1939146e-06
47	0xb74265f3	-1.1587038e-05
48	0xb8982f51	-7.256738e-05
49	0x38426e76	4.635608e-05

exp_avg_sq f4 [50]
0	0x33fd33be	1.17906424e-07
1	0x339fae2c	7.435696e-08
2	0x34e72574	4.3054354e-07
3	0x33d02573	9.692567e-08
4	0x3596f460	1.1246993e-06
5	0x342cf2b5	1.6107045e-07
6	0x35845958	9.860769e-07
7	0x35b8d597	1.3771231e-06
8	0x3401b98e	1.2081566e-07
9	0x35a5deb7	1.2358277e-06
10	0x364953a2	3.0000015e-06
11	0x35903281	1.0743535e-06
12	0x33e08f8e	1.0456925e-07
13	0x34840bf6	2.459562e-07
14	0x35eaec69	1.7503163e-06
15	0x333ef9e7	4.4465107e-08
16	0x3269f4ef	1.36180764e-08
17	0x33fdcfdd	1.1819041e-07
18	0x354daf5e	7.6623644e-07
19	0x35501dc1	7.7529336e-07
20	0x35d61adc	1.595206e-06
21	0x32d90b15	2.5267164e-08
22	0x33f55155	1.1423496e-07
23	0x346d8c22	2.2123325e-07
24	0x3563294d	8.462419e-07
25	0x3414cd86	1.3858343e-07
26	0x3499b221	2.8628077e-07
27	0x3499ceee	2.8649032e-07
28	0x3467db49	2.1593327e-07
29	0x34afe535	3.276306e-07
30	0x35cd2e5a	1.528718e-06
31	0x3480eaa1	2.4012573e-07
32	0x35427421	7.243962e-07
33	0x3498c293	2.8453778e-07
34	0x34822e90	2.4248266e-07
35	0x3436a67e	1.701064e-07
36	0x33c86ac5	9.332647e-08
37	0x34c2ea1b	3.630565e-07
38	0x341bc2d3	1.4506377e-07
39	0x34b01fdf	3.2805744e-07
40	0x32cc2a4f	2.3767965e-08
41	0x3504fb91	4.953991e-07
42	0x35209c73	5.983231e-07
43	0x33907303	6.726443e-08
44	0x34211293	1.5001051e-07
45	0x3485760c	2.485907e-07
46	0x3531ad2d	6.618964e-07
47	0x344faec4	1.9341957e-07
48	0x34f6a7c1	4.5943128e-07
49	0x35143bef	5.522151e-07

exp_avg f4 [50, 50]
0	0x36cf56e0	6.1791943e-06
1	0xb73d7747	-1.1293049e-05
2	0x36ff0b10	7.60088e-06
3	0xb75ce6a6	-1.3166724e-05
4	0xb710a7bd	-8.6221235e-06
5	0x372491f2	9.809142e-06
6	0xb6e3ad8a	-6.78533e-06
7	0x36eafa76	7.002901e-06
8	0x372d8d0d	1.03444445e-05
9	0x37408532	1.1475104e-05
10	0xb71c2852	-9.307712e-06
11	0xb706841e	-8.017783e-06
12	0xb745aa0e	-1.1781709e-05
13	0xb72d9549	-1.0346362e-05
14	0x37078dcd	8.079643e-06
15	0xb74d3a61	-1.2232545e-05
16	0xb72ccd71	-1.0299832e-05
17	0xb6fa2430	-7.4547934e-06
18	0x3744bc84	1.1726403e-05
19	0x3725f2c9	9.891294e-06
20	0x36f248e3	7.220647e-06
21	0xb68c62b8	-4.1838175e-06
22	0x3720c2fc	9.5821415e-06
23	0x36b578bc	5.4082757e-06
24	0xb744378a	-1.1695442e-05
25	0xb6d7e9d8	-6.4347223e-06
26	0xb6e10fb3	-6.70735e-06
27	0x36e5b9cb	6.846361e-06
28	0xb702edc9	-7.8039675e-06
29	0x3715688b	8.905433e-06
30	0xb70f22bd	-8.531552e-06
31	0x36c6f546	5.9294134e-06
32	0xb7450fc5	-1.1745787e-05
33	0x36efbb02	7.1445256e-06
34	0x370fc152	8.568475e-06
35	0x3714324c	8.833198e-06
36	0x3705def6	7.97933e-06
37	0x37191387	9.124057e-06
38	0xb6e80ea6	-6.915844e-06
39	0xb70b604c	-8.3074665e-06
40	0xb737138d	-1.0912202e-05
41	0xb7457e2b	-1.1771491e-05
42	0xb6d1abe4	-6.248696e-06
43	0xb71d7cf2	-9.38702e-06
44	0xb6824765	-3.8826133e-06
45	0xb70cc146	-8.38965e-06
46	0xb74111fb	-1.1507883e-05
47	0xb72260f7	-9.678529e-06
48	0xb7422b30	-1.15733565e-05
49	0x370f1eff	8.530681e-06
50	0x37d04ce7	2.4831343e-05
51	0xb8241f4d	-3.9129798e-05
52	0x37f2b0e4	2.893102e-05
53	0xb8072e59	-3.2229673e-05
54	0xb7ffa138	-3.0473442e-05
55	0x38087d4f	3.254163e-05
56	0xb7ce4558	-2.4589404e-05
57	0x378d6a86	1.6858114e-05
58	0x380bf4b9	3.33681e-05
59	0x380337ce	3.1284806e-05
60	0xb7ceb668	-2.4642053e-05
61	0xb7f8ba23	-2.965058e-05
62	0xb817aaec	-3.616039e-05
63	0xb7ef9729	-2.856141e-05
64	0x37f8cf60	2.966047e-05
65	0xb7feac62	-3.0359432e-05
66	0xb7e3cfac	-2.7157213e-05
67	0xb7bd8cc4	-2.2596105e-05
68	0x3823b4b5	3.9030525e-05
69	0x37d4f633	2.5387015e-05
70	0x378ca97f	1.6768228e-05
71	0xb754e128	-1.2688608e-05
72	0x37d5fef7	2.5510306e-05
73	0x37a402b2	1.9551579e-05
74	0xb81ff3b5	-3.8135524e-05
75	0xb786cb12	-1.6068607e-05
76	0xb7805694	-1.5299105e-05
77	0x37d60eef	2.5517742e-05
78	0xb7c9f93f	-2.4077131e-05
79	0x37f93a48	2.9710252e-05
80	0xb7f81eea	-2.95783e-05
81	0x37b06ce8	2.1031548e-05
82	0xb812d4ca	-3.5007288e-05
83	0x37a41aa3	1.9562727e-05
84	0x37b3aebb	2.1419828e-05
85	0x37f9b8a8	2.97691e-05
86	0x37b62190	2.171172e-05
87	0x37ade14d	2.0728121e-05
88	0xb79e43b1	-1.8866589e-05
89	0xb7cc6fcf	-2.437076e-05
90	0xb80e10f5	-3.387123e-05
91	0xb8127a5c	-3.492307e-05
92	0xb7d0b3cd	-2.4879258e-05
93	0xb7e8e79b	-2.7764405e-05
94	0xb75faed2	-1.3332539e-05
95	0xb7e54909	-2.7332937e-05
96	0xb80a7a53	-3.3015687e-05
97	0xb80c73ea	-3.3486554e-05
98	0xb8074ade	-3.2256234e-05
99	0x37b6fa76	2.181272e-05
100	0xb7091da5	-8.1727385e-06
101	0xb4a7f124	-3.1281627e-07
102	0xb6c16a02	-5.764189e-06
103	0xb75a4d7f	-1.3011856e-05
104	0x363a6152	2.7772808e-06
105	0x347f3c98	2.377077e-07
106	0x36b1203b	5.278763e-06
107	0x361bbfd2	2.3208454e-06
108	0x35ec89ed	1.7623512e-06
109	0x3705a9a5	7.966916e-06
110	0xb6a9b8ac	-5.058091e-06
111	0x3696d38f	4.494977e-06
112	0xb69f4b53	-4.747338e-06
113	0xb6c44590	-5.8493533e-06
114	0xb68f1947	-4.2646748e-06
115	0xb7410871	-1.1505662e-05
116	0xb6e19897	-6.7232863e-06
117	0x3527b5e6	6.2477045e-07
118	0x35f10cac	1.7959587e-06
119	0x36e586c9	6.840423e-06
120	0x365cbe47	3.289331e-06
121	0x369bb9f3	4.6410073e-06
122	0x36af2660	5.219874e-06
123	0xb6d79544	-6.424876e-06
124	0xb63103e0	-2.637731e-06
125	0xb557d5f1	-8.0405067e-07
126	0xb6270a10	-2.4890796e-06
127	0xb6c26c8b	-5.7942866e-06
128	0x351985ba	5.719154e-07
129	0xb58a3ead	-1.0300042e-06
130	0x361d7596	2.3463267e-06
131	0xb6bc3c88	-5.6098834e-06
132	0xb6bfdf9f	-5.7182765e-06
133	0x3520a999	5.985144e-07
134	0x36a5dbc2	4.9429664e-06
135	0xb5b7c684	-1.3692338e-06
136	0x36083e77	2.0301939e-06
137	0x3703720a	7.83476e-06
138	0xb40cb886	-1.3105645e-07
139	0xb584f35a	-9.905591e-07
140	0xb6671940	-3.443638e-06
141	0xb6c575f0	-5.8847872e-06
142	0x36ff9b65	7.6176825e-06
143	0xb62dd35e	-2.590204e-06
144	0x36db48d0	6.535185e-06
145	0x35918bc4	1.0844019e-06
146	0xb6dee3b9	-6.642626e-06
147	0x35996cdf	1.1431074e-06
148	0xb6f76d4b	-7.373897e-06
149	0x368e3825	4.238466e-06
150	0xb6a1f71a	-4.8269403e-06
151	0x35ca8896	1.5089925e-06
152	0xb689c621	-4.1059834e-06
153	0xb6acd721	-5.1510438e-06
154	0x36496062	3.0007436e-06
155	0xb5fd2194	-1.8859741e-06
156	0x366fd403	3.5737182e-06
157	0x3442bc46	1.8136151e-07
158	0xb5951882	-1.1108498e-06
159	0x36057058	1.9883937e-06
160	0xb538b8b2	-6.881411e-07
161	0x367395d0	3.6297024e-06
162	0xb53f3e1e	-7.1243437e-07
163	0xb557ea1f	-8.043443e-07
164	0xb670cdab	-3.5882501e-06
165	0xb680b18b	-3.835366e-06
166	0xb599de18	-1.1464026e-06
167	0x35c53662	1.4693471e-06
168	0xb54b1e0e	-7.566713e-07
169	0x35ba86ee	1.389735e-06
170	0x3522f72a	6.0709374e-07
171	0x36394a1e	2.761029e-06
172	0x350be5a9	5.2115735e-07
173	0xb675e423	-3.6640638e-06
174	0x34a23ec5	3.0220522e-07
175	0x34aafab5	3.184738e-07
176	0xb4a0fa90	-2.998463e-07
177	0xb68171cb	-3.857747e-06
178	0x35d2fee0	1.5720398e-06
179	0xb61add65	-2.3076657e-06
180	0x36399f8e	2.7660021e-06
181	0xb6627878	-3.3746746e-06
182	0xb59cdd61	-1.1687335e-06
183	0xb54df67d	-7.672714e-07
184	0x358233cb	9.700829e-07
185	0xb626675c	-2.479609e-06
186	0xb4fb5d61	-4.6820335e-07
187	0x360fa02c	2.1401893e-06
188	0x357daaa9	9.449819e-07
189	0x35913ce0	1.0821059e-06
190	0x3491c124	2.7148883e-07
191	0xb5a784a0	-1.2481069e-06
192	0x369591d2	4.4575218e-06
193	0x35218cb7	6.018194e-07
194	0x36766835	3.6717513e-06
195	0x360b96e4	2.0800444e-06
196	0xb5c51d76	-1.4686218e-06
197	0x3628c6fd	2.5149777e-06
198	0xb5e3f82b	-1.6985044e-06
199	0x350fc9ec	5.3565486e-07
200	0xb687a888	-4.042933e-06
201	0x368ad05c	4.1369767e-06
202	0xb6843937	-3.9405672e-06
203	0x34064a94	1.2506854e-07
204	0x365dd686	3.3056435e-06
205	0xb6388082	-2.7492938e-06
206	0x36584805	3.222843e-06
207	0x326e4ba7	1.3870625e-08
208	0xb62bdd9e	-2.5609984e-06
209	0xb5438929	-7.2842755e-07
210	0x3489107d	2.5530235e-07
211	0x36785d01	3.7009015e-06
212	0x362c40b7	2.5667666e-06
213	0x352b31eb	6.3775104e-07
214	0xb672214d	-3.6080194e-06
215	0xb4799de4	-2.3247372e-07
216	0x33d7b466	1.0044532e-07
217	0x35dcc466	1.6448437e-06
218	0xb67c0b17	-3.7557381e-06
219	0x3404f05f	1.2380904e-07
220	0x34a08995	2.9902426e-07
221	0x35b601c7	1.3560574e-06
222	0xb46d71b8	-2.2113716e-07
223	0xb6420f08	-2.8917002e-06
224	0x36669fb2	3.4365626e-06
225	0x34c54b88	3.6749066e-07
226	0xb4a2eede	-3.034865e-07
227	0xb66b4333	-3.5056844e-06
228	0x35f2c2df	1.808712e-06
229	0xb631aef3	-2.647689e-06
230	0x364d1f47	3.0565586e-06
231	0xb64130f8	-2.8787745e-06
232	0x360e4aac	2.1203114e-06
233	0xb5624ab9	-8.4300297e-07
234	0x33d3e76d	9.867549e-08
235	0xb6379830	-2.735771e-06
236	0xb52bae08	-6.3955713e-07
237	0x358de322	1.0571423e-06
238	0x356406da	8.494659e-07
239	0x35ae8153	1.3001649e-06
240	0x36171180	2.251094e-06
241	0x360a773f	2.0633013e-06
242	0x3686608c	4.0047507e-06
243	0x35b8f230	1.3779554e-06
244	0x36008cb3	1.9155384e-06
245	0x361f00cd	2.3693312e-06
246	0x35c2395d	1.4470821e-06
247	0x365c0a21	3.278845e-06
248	0x358b2b7b	1.0368962e-06
249	0xb39e23c4	-7.363954e-08
250	0x35b18d48	1.3228646e-06
251	0xb6836d23	-3.9168094e-06
252	0x360c57dd	2.0912769e-06
253	0xb5ff9d9e	-1.9044853e-06
254	0xb61b0e27	-2.3105038e-06
255	0x36306bc1	2.6288765e-06

exp_avg_sq f4 [50, 50]
0	0x32698ba4	1.3594136e-08
1	0x32f21a71	2.8184532e-08
2	0x3292e682	1.710146e-08
3	0x3341d387	4.5128697e-08
4	0x32a9cc27	1.9767027e-08
5	0x32cc0427	2.3750614e-08
6	0x3283bb25	1.533551e-08
7	0x32986a26	1.77434e-08
8	0x32de4f63	2.5880302e-08
9	0x330f9af8	3.3435725e-08
10	0x32de841b	2.5904276e-08
11	0x329b6b46	1.8093157e-08
12	0x330a162d	3.2150798e-08
13	0x32f3ef86	2.8397846e-08
14	0x329e6c34	1.8442826e-08
15	0x332b6dee	3.991402e-08
16	0x330164ff	3.012701e-08
17	0x3299b71a	1.789481e-08
18	0x330263c1	3.035871e-08
19	0x32f195e1	2.812425e-08
20	0x32a7faa1	1.9555332e-08
21	0x31cfb113	6.044624e-09
22	0x32e7f19c	2.700181e-08
23	0x323b3f68	1.08992495e-08
24	0x330287db	3.0391544e-08
25	0x326dc8db	1.3840885e-08
26	0x3292f29b	1.7106961e-08
27	0x3287fda9	1.583142e-08
28	0x32a57127	1.9259984e-08
29	0x32b49365	2.1021785e-08
30	0x32abb496	1.9989141e-08
31	0x3260d7a8	1.3087551e-08
32	0x330c4b9d	3.266506e-08
33	0x3296a235	1.7536061e-08
34	0x32ca90c8	2.3581734e-08
35	0x32b3cffc	2.0932923e-08
36	0x32b1df71	2.0707121e-08
37	0x32e8e8ef	2.711428e-08
38	0x328e6052	1.6574777e-08
39	0x32b360fc	2.0882446e-08
40	0x32f3666e	2.8335503e-08
41	0x330ecb65	3.3246938e-08
42	0x3271449e	1.4043648e-08
43	0x32cf772a	2.4152161e-08
44	0x31c396ba	5.6923826e-09
45	0x32a79a90	1.9511646e-08
46	0x330c830e	3.2715484e-08
47	0x32c2e9cf	2.2690896e-08
48	0x330e5350	3.3137724e-08
49	0x32c53abd	2.296053e-08
50	0x3392973c	6.826164e-08
51	0x343187a1	1.6533751e-07
52	0x33c74565	9.2792824e-08
53	0x34550880	1.9840263e-07
54	0x33e9a77c	1.0880373e-07
55	0x340d61d6	1.3167241e-07
56	0x33a76bd2	7.796156e-08
57	0x339afa38	7.216698e-08
58	0x3418fa52	1.4247169e-07
59	0x342d9462	1.6165862e-07
60	0x3400439a	1.1945522e-07
61	0x33d523e2	9.9251125e-08
62	0x3437b613	1.7109441e-07
63	0x34132349	1.3703279e-07
64	0x33d967e5	1.0123748e-07
65	0x343f1555	1.7796022e-07
66	0x34147be3	1.3828644e-07
67	0x33b7f681	8.5664404e-08
68	0x3439f9d2	1.7320352e-07
69	0x3408fc26	1.2757718e-07
70	0x33a9f424	7.914085e-08
71	0x32d1fd11	2.4445884e-08
72	0x3405ee89	1.2473369e-07
73	0x3357013d	5.0059715e-08
74	0x3437d262	1.711974e-07
75	0x336f016c	5.5647817e-08
76	0x338fa040	6.688106e-08
77	0x33b06370	8.213726e-08
78	0x33cc62e3	9.517478e-08
79	0x33f2ccf3	1.1306283e-07
80	0x33e92291	1.08561956e-07
81	0x3385f80f	6.238417e-08
82	0x3436ab5b	1.701241e-07
83	0x33a62ce1	7.738141e-08
84	0x33dc550d	1.0260019e-07
85	0x33f31832	1.13199704e-07
86	0x33c773e7	9.287742e-08
87	0x33ef38fb	1.11396695e-07
88	0x339a5be6	7.1879e-08
89	0x33d7913c	1.0038136e-07
90	0x342320d9	1.5192508e-07
91	0x3438f2e8	1.7224704e-07
92	0x3398adb0	7.109645e-08
93	0x34003946	1.1941765e-07
94	0x32c32c87	2.2721236e-08
95	0x33d9a237	1.01343566e-07
96	0x343132ea	1.6502932e-07
97	0x340a0abb	1.2856155e-07
98	0x342efa59	1.6296089e-07
99	0x33d7e655	1.0053615e-07
100	0x318d1268	4.1057326e-09
101	0x30260c2b	6.040774e-10
102	0x3113f356	2.1529636e-09
103	0x31f4123c	7.1034076e-09
104	0x3055aded	7.773611e-10
105	0x2f407907	1.7505296e-10
106	0x3110abe2	2.1052462e-09
107	0x306d0fd4	8.624259e-10
108	0x2f40c393	1.753178e-10
109	0x3118a646	2.2213427e-09
110	0x307caf97	9.1926594e-10
111	0x30d37930	1.5386714e-09
112	0x308b2615	1.0124405e-09
113	0x3092afdc	1.067288e-09
114	0x30bb8831	1.3644749e-09
115	0x31b614ca	5.2992606e-09
116	0x310310b3	1.9072501e-09
117	0x2ffaf174	4.5646298e-10
118	0x302c4b74	6.268046e-10
119	0x30d88c89	1.5756011e-09
120	0x308445ca	9.624099e-10
121	0x316f5c23	3.483145e-09
122	0x3098e87d	1.1125533e-09
123	0x318715bf	3.9314894e-09
124	0x3024775a	5.983246e-10
125	0x309a14af	1.1210853e-09
126	0x3091c7b8	1.0606902e-09
127	0x311cad33	2.279944e-09
128	0x2fa19ca3	2.9397026e-10
129	0x2f99ed4e	2.7999153e-10
130	0x3024a289	5.989383e-10
131	0x31406ef6	2.8002751e-09
132	0x30acefca	1.2582799e-09
133	0x3019e3ea	5.598496e-10
134	0x30847641	9.637874e-10
135	0x2fb47267	3.2823097e-10
136	0x2feffd3b	4.3653778e-10
137	0x3120b814	2.33877e-09
138	0x303badda	6.827726e-10
139	0x2f50a434	1.8975826e-10
140	0x2fde5d5b	4.0447898e-10
141	0x30c08359	1.400717e-09
142	0x31838669	3.8278825e-09
143	0x2f860345	2.437678e-10
144	0x319a66a1	4.4936574e-09
145	0x2fc6cd5c	3.6161907e-10
146	0x30d5ef7d	1.5565856e-09
147	0x2fdfa78b	4.068251e-10
148	0x31055ae0	1.9405704e-09
149	0x306029c2	8.1550067e-10
150	0x3190e32f	4.2167794e-09
151	0x311cbe2a	2.2809084e-09
152	0x3168782c	3.3828753e-09
153	0x31ca258a	5.8832414e-09
154	0x310db414	2.0620563e-09
155	0x30bb4d48	1.3628005e-09
156	0x311e9dcf	2.308173e-09
157	0x308dd95c	1.0320877e-09
158	0x309e5f70	1.1523138e-09
159	0x3117c791	2.2086832e-09
160	0x30dc7286	1.6039656e-09
161	0x31440a92	2.8527762e-09
162	0x3097719f	1.1018989e-09
163	0x30d7a999	1.5691511e-09
164	0x313813d2	2.678679e-09
165	0x31abac91	4.9963735e-09
166	0x312cb483	2.5131903e-09
167	0x3020b071	5.84584e-10
168	0x30dcd108	1.6066517e-09
169	0x31201a83	2.3298135e-09
170	0x30c81b85	1.4559737e-09
171	0x30967b08	1.0948904e-09
172	0x30f65087	1.7921743e-09
173	0x312dfd96	2.531896e-09
174	0x30be127e	1.3829575e-09
175	0x30231834	5.933345e-10
176	0x30a7e867	1.2216902e-09
177	0x3140d2b9	2.805946e-09
178	0x3037f310	6.6920425e-10
179	0x30aeb8d6	1.27127e-09
180	0x30ec29ec	1.7183175e-09
181	0x310e69ef	2.0723936e-09
182	0x30a59f8c	1.2050676e-09
183	0x30132b5a	5.3539895e-10
184	0x30f11dd3	1.7543534e-09
185	0x30bc8b67	1.3718421e-09
186	0x306f9b17	8.716809e-10
187	0x317d744e	3.6882457e-09
188	0x300accab	5.049496e-10
189	0x302d614d	6.3075306e-10
190	0x3089b695	1.0019955e-09
191	0x30ac7dda	1.2550416e-09
192	0x318bb83d	4.066378e-09
193	0x306d5d89	8.635302e-10
194	0x310619ed	1.9514304e-09
195	0x308d771d	1.0292954e-09
196	0x30cedfae	1.5052046e-09
197	0x310553ed	1.9401754e-09
198	0x31021df6	1.893452e-09
199	0x30d3278c	1.536351e-09
200	0x31c08fcd	5.6042837e-09
201	0x3141f09f	2.8221974e-09
202	0x319927a2	4.457392e-09
203	0x32130049	8.556591e-09
204	0x313554c3	2.6387148e-09
205	0x30e755c4	1.6831838e-09
206	0x315048a9	3.0309286e-09
207	0x30b6d676	1.3303196e-09
208	0x30c1d518	1.4103163e-09
209	0x3156d214	3.1260514e-09
210	0x31183122	2.214684e-09
211	0x317fc1c8	3.7217536e-09
212	0x30c96da2	1.4655834e-09
213	0x31153346	2.17115e-09
214	0x316f7540	3.4845726e-09
215	0x31f6c869	7.1823263e-09
216	0x31748047	3.557959e-09
217	0x30447279	7.146706e-10
218	0x31084307	1.9828705e-09
219	0x315f2a90	3.2474965e-09
220	0x3105387d	1.9386157e-09
221	0x30ad7084	1.2619386e-09
222	0x312b87ec	2.4961038e-09
223	0x316202ef	3.2888996e-09
224	0x30eafb22	1.7097117e-09
225	0x30310dc4	6.4411787e-10
226	0x30d8152a	1.5722084e-09
227	0x317e227e	3.6981471e-09
228	0x3063aa45	8.2824086e-10
229	0x30db0687	1.5936202e-09
230	0x311662f0	2.1884112e-09
231	0x3139a0d8	2.7012472e-09
232	0x30e2a54c	1.6490644e-09
233	0x303441a4	6.55769e-10
234	0x312598b8	2.409747e-09
235	0x30ecff81	1.7243879e-09
236	0x309fbbf3	1.1622191e-09
237	0x31aff531	5.1210454e-09
238	0x301fb703	5.810394e-10
239	0x305e1e51	8.080621e-10
240	0x30add50c	1.2647958e-09
241	0x30ee9acc	1.7360775e-09
242	0x31b98b3c	5.4000378e-09
243	0x309cbfc2	1.1404995e-09
244	0x3127b645	2.4405307e-09
245	0x30b1424d	1.2897289e-09
246	0x3110ba7f	2.1060769e-09
247	0x3127185e	2.431555e-09
248	0x3137bd8f	2.6737756e-09
249	0x3110568a	2.100395e-09
250	0x30005718	4.6689896e-10
251	0x30b00a70	1.2808652e-09
252	0x30101153	5.2411514e-10
253	0x30e503b4	1.6662995e-09
254	0x30298765	6.167425e-10
255	0x3062718a	8.237967e-10

exp_avg f4 [50]
0	0xb7922bbf	-1.7424927e-05
1	0x3883a7a1	6.27779e-05
2	0xb8efbe97	-0.00011431908
3	0xb85576a8	-5.0893665e-05
4	0xb838bee6	-4.4046807e-05
5	0x37ae152c	2.0752275e-05
6	0xb8120ecc	-3.4822893e-05
7	0x378f139d	1.7056062e-05
8	0xb7a951d1	-2.0184469e-05
9	0xb5b1fc70	-1.3260997e-06
10	0xb8540ee3	-5.0558603e-05
11	0x38d4032a	0.00010109537
12	0x36f48540	7.287279e-06
13	0xb4ff643e	-4.7570387e-07
14	0x38a96d6e	8.078931e-05
15	0x38be3a6b	9.070787e-05
16	0x37bcd40e	2.2510092e-05
17	0xb90f7709	-0.00013681887
18	0x37f08ccf	2.8675799e-05
19	0x387f9e6e	6.0944287e-05
20	0xb8bc7220	-8.985796e-05
21	0x388d5eb9	6.7410474e-05
22	0xb5da8fce	-1.6284118e-06
23	0x37ad3ee4	2.0652493e-05
24	0xb7249b63	-9.8113405e-06
25	0x3885e578	6.384676e-05
26	0xb6be5001	-5.671755e-06
27	0x37140e5a	8.824829e-06
28	0x38115307	3.464802e-05
29	0x3916457f	0.00014331004
30	0xb567bcd4	-8.6328987e-07
31	0x3861732e	5.375145e-05
32	0xb6e3372c	-6.77155e-06
33	0xb893b73b	-7.0436356e-05
34	0xb6e5513b	-6.8341883e-06
35	0xb86a7df4	-5.590725e-05
36	0x386bf36b	5.6255067e-05
37	0xb7c9dbe8	-2.4063469e-05
38	0x36233738	2.4321034e-06
39	0x3594d102	1.1087689e-06
40	0xb90145ea	-0.00012328444
41	0xb6851c00	-3.9669685e-06
42	0xb85561f6	-5.087439e-05
43	0x381414dc	3.5305377e-05
44	0x37c17b45	2.3064795e-05
45	0x370a4c9c	8.243278e-06
46	0x358fb0fc	1.070584e-06
47	0x3866e97d	5.5053726e-05
48	0xb87b3652	-5.9893653e-05
49	0x3884e340	6.336579e-05

exp_avg_sq f4 [50]
0	0x3505d353	4.985388e-07
1	0x352013a0	5.9633203e-07
2	0x35218a56	6.017848e-07
3	0x35716e95	8.9940414e-07
4	0x35a57ff1	1.2330694e-06
5	0x32cbbe97	2.371898e-08
6	0x349c8712	2.915554e-07
7	0x33da232f	1.0157816e-07
8	0x34e5bbcb	4.279121e-07
9	0x32bd7fe8	2.206066e-08
10	0x338e3929	6.622788e-08
11	0x34e3844b	4.23783e-07
12	0x33a47169	7.657474e-08
13	0x3301fdd6	3.0266015e-08
14	0x362526a4	2.4609408e-06
15	0x348df0e9	2.6438582e-07
16	0x35099f4b	5.126828e-07
17	0x3595aa9a	1.1151017e-06
18	0x3578445c	9.2486675e-07
19	0x350fd7a7	5.3585467e-07
20	0x361fb1ee	2.3796415e-06
21	0x34647590	2.1276924e-07
22	0x339af5cb	7.215893e-08
23	0x3411f35e	1.3592714e-07
24	0x31b7b11b	5.3461355e-09
25	0x363345f0	2.6713788e-06
26	0x31b14f83	5.1604174e-09
27	0x34819426	2.4135915e-07
28	0x34b04a0a	3.2836425e-07
29	0x34c7b60c	3.7199095e-07
30	0x349af4ad	2.886276e-07
31	0x355f0286	8.3077646e-07
32	0x352b0391	6.3707654e-07
33	0x356af9da	8.7535375e-07
34	0x34ba24fe	3.4672115e-07
35	0x342fdd73	1.6378708e-07
36	0x33a153db	7.5124e-08
37	0x32b7101e	2.1311333e-08
38	0x3327ed99	3.909881e-08
39	0x3334c2ce	4.208669e-08
40	0x35a34f98	1.2167611e-06
41	0x33a2b28c	7.57619e-08
42	0x34661855	2.1429271e-07
43	0x34dc318c	4.1014243e-07
44	0x363a5bcb	2.776959e-06
45	0x35876b83	1.0089574e-06
46	0x340b439a	1.2969977e-07
47	0x33744bac	5.68795e-08
48	0x35549988	7.919957e-07
49	0x3524df1e	6.141944e-07
